<?xml version="1.0"?>
<net name="torch_jit" version="11">
	<layers>
		<layer id="0" name="image" type="Parameter" version="opset1">
			<data shape="?,3,640,640" element_type="f32" />
			<rt_info>
				<attribute name="old_api_map_element_type" version="0" value="f16" />
			</rt_info>
			<output>
				<port id="0" precision="FP32" names="image">
					<dim>-1</dim>
					<dim>3</dim>
					<dim>640</dim>
					<dim>640</dim>
				</port>
			</output>
		</layer>
		<layer id="1" name="Constant_80462" type="Const" version="opset1">
			<data element_type="f32" shape="" offset="0" size="4" />
			<output>
				<port id="0" precision="FP32" />
			</output>
		</layer>
		<layer id="2" name="Constant_80463" type="Const" version="opset1">
			<data element_type="f32" shape="" offset="4" size="4" />
			<output>
				<port id="0" precision="FP32" />
			</output>
		</layer>
		<layer id="3" name="Constant_80464" type="Const" version="opset1">
			<data element_type="f32" shape="" offset="0" size="4" />
			<output>
				<port id="0" precision="FP32" />
			</output>
		</layer>
		<layer id="4" name="Constant_80465" type="Const" version="opset1">
			<data element_type="f32" shape="" offset="4" size="4" />
			<output>
				<port id="0" precision="FP32" />
			</output>
		</layer>
		<layer id="5" name="image/fq_output_0" type="FakeQuantize" version="opset1">
			<data levels="256" auto_broadcast="numpy" />
			<input>
				<port id="0" precision="FP32">
					<dim>-1</dim>
					<dim>3</dim>
					<dim>640</dim>
					<dim>640</dim>
				</port>
				<port id="1" precision="FP32" />
				<port id="2" precision="FP32" />
				<port id="3" precision="FP32" />
				<port id="4" precision="FP32" />
			</input>
			<output>
				<port id="5" precision="FP32">
					<dim>-1</dim>
					<dim>3</dim>
					<dim>640</dim>
					<dim>640</dim>
				</port>
			</output>
		</layer>
		<layer id="6" name="Range_10359" type="Const" version="opset1">
			<data element_type="i32" shape="3" offset="8" size="12" />
			<output>
				<port id="0" precision="I32">
					<dim>3</dim>
				</port>
			</output>
		</layer>
		<layer id="7" name="Constant_10360" type="Const" version="opset1">
			<data element_type="i32" shape="1" offset="20" size="4" />
			<output>
				<port id="0" precision="I32">
					<dim>1</dim>
				</port>
			</output>
		</layer>
		<layer id="8" name="Gather_10361" type="Gather" version="opset8">
			<data batch_dims="0" />
			<rt_info>
				<attribute name="preprocessing" version="0" />
			</rt_info>
			<input>
				<port id="0" precision="FP32">
					<dim>-1</dim>
					<dim>3</dim>
					<dim>640</dim>
					<dim>640</dim>
				</port>
				<port id="1" precision="I32">
					<dim>3</dim>
				</port>
				<port id="2" precision="I32">
					<dim>1</dim>
				</port>
			</input>
			<output>
				<port id="3" precision="FP32">
					<dim>-1</dim>
					<dim>3</dim>
					<dim>640</dim>
					<dim>640</dim>
				</port>
			</output>
		</layer>
		<layer id="9" name="Constant_20010" type="Const" version="opset1">
			<data element_type="i64" shape="2" offset="24" size="16" />
			<output>
				<port id="0" precision="I64">
					<dim>2</dim>
				</port>
			</output>
		</layer>
		<layer id="10" name="/backbone/stem/Constant_7" type="Const" version="opset1">
			<data element_type="i64" shape="1" offset="40" size="8" />
			<output>
				<port id="0" precision="I64" names="/backbone/stem/Constant_7_output_0">
					<dim>1</dim>
				</port>
			</output>
		</layer>
		<layer id="11" name="/backbone/stem/Constant_8" type="Const" version="opset1">
			<data element_type="i64" shape="1" offset="48" size="8" />
			<output>
				<port id="0" precision="I64" names="/backbone/stem/Constant_8_output_0">
					<dim>1</dim>
				</port>
			</output>
		</layer>
		<layer id="12" name="/backbone/stem/Shape" type="ShapeOf" version="opset3">
			<data output_type="i64" />
			<input>
				<port id="0" precision="FP32">
					<dim>-1</dim>
					<dim>3</dim>
					<dim>640</dim>
					<dim>640</dim>
				</port>
			</input>
			<output>
				<port id="1" precision="I64" names="/backbone/stem/Shape_1_output_0,/backbone/stem/Shape_2_output_0,/backbone/stem/Shape_output_0">
					<dim>4</dim>
				</port>
			</output>
		</layer>
		<layer id="13" name="Constant_19085" type="Const" version="opset1">
			<data element_type="i64" shape="1" offset="56" size="8" />
			<output>
				<port id="0" precision="I64">
					<dim>1</dim>
				</port>
			</output>
		</layer>
		<layer id="14" name="Constant_324" type="Const" version="opset1">
			<data element_type="i64" shape="" offset="64" size="8" />
			<output>
				<port id="0" precision="I64" />
			</output>
		</layer>
		<layer id="15" name="/backbone/stem/Gather_2" type="Gather" version="opset8">
			<data batch_dims="0" />
			<input>
				<port id="0" precision="I64">
					<dim>4</dim>
				</port>
				<port id="1" precision="I64">
					<dim>1</dim>
				</port>
				<port id="2" precision="I64" />
			</input>
			<output>
				<port id="3" precision="I64" names="/backbone/stem/Unsqueeze_2_output_0">
					<dim>1</dim>
				</port>
			</output>
		</layer>
		<layer id="16" name="/backbone/stem/Concat" type="Concat" version="opset1">
			<data axis="0" />
			<input>
				<port id="0" precision="I64">
					<dim>2</dim>
				</port>
				<port id="1" precision="I64">
					<dim>1</dim>
				</port>
				<port id="2" precision="I64">
					<dim>1</dim>
				</port>
				<port id="3" precision="I64">
					<dim>1</dim>
				</port>
			</input>
			<output>
				<port id="4" precision="I64">
					<dim>5</dim>
				</port>
			</output>
		</layer>
		<layer id="17" name="/backbone/stem/Reshape" type="Reshape" version="opset1">
			<data special_zero="true" />
			<input>
				<port id="0" precision="FP32">
					<dim>-1</dim>
					<dim>3</dim>
					<dim>640</dim>
					<dim>640</dim>
				</port>
				<port id="1" precision="I64">
					<dim>5</dim>
				</port>
			</input>
			<output>
				<port id="2" precision="FP32" names="/backbone/stem/Reshape_output_0">
					<dim>-1</dim>
					<dim>3</dim>
					<dim>320</dim>
					<dim>2</dim>
					<dim>640</dim>
				</port>
			</output>
		</layer>
		<layer id="18" name="Constant_19243" type="Const" version="opset1">
			<data element_type="i64" shape="2" offset="72" size="16" />
			<output>
				<port id="0" precision="I64">
					<dim>2</dim>
				</port>
			</output>
		</layer>
		<layer id="19" name="Constant_19244" type="Const" version="opset1">
			<data element_type="i64" shape="" offset="64" size="8" />
			<output>
				<port id="0" precision="I64" />
			</output>
		</layer>
		<layer id="20" name="Gather_19245" type="Gather" version="opset8">
			<data batch_dims="0" />
			<input>
				<port id="0" precision="I64">
					<dim>4</dim>
				</port>
				<port id="1" precision="I64">
					<dim>2</dim>
				</port>
				<port id="2" precision="I64" />
			</input>
			<output>
				<port id="3" precision="I64">
					<dim>2</dim>
				</port>
			</output>
		</layer>
		<layer id="21" name="Constant_20019" type="Const" version="opset1">
			<data element_type="i64" shape="1" offset="64" size="8" />
			<output>
				<port id="0" precision="I64">
					<dim>1</dim>
				</port>
			</output>
		</layer>
		<layer id="22" name="/backbone/stem/Constant_10" type="Const" version="opset1">
			<data element_type="i64" shape="1" offset="48" size="8" />
			<output>
				<port id="0" precision="I64" names="/backbone/stem/Constant_10_output_0">
					<dim>1</dim>
				</port>
			</output>
		</layer>
		<layer id="23" name="/backbone/stem/Constant_11" type="Const" version="opset1">
			<data element_type="i64" shape="1" offset="40" size="8" />
			<output>
				<port id="0" precision="I64" names="/backbone/stem/Constant_11_output_0">
					<dim>1</dim>
				</port>
			</output>
		</layer>
		<layer id="24" name="/backbone/stem/Constant_12" type="Const" version="opset1">
			<data element_type="i64" shape="1" offset="48" size="8" />
			<output>
				<port id="0" precision="I64" names="/backbone/stem/Constant_12_output_0">
					<dim>1</dim>
				</port>
			</output>
		</layer>
		<layer id="25" name="/backbone/stem/Concat_1" type="Concat" version="opset1">
			<data axis="0" />
			<input>
				<port id="0" precision="I64">
					<dim>2</dim>
				</port>
				<port id="1" precision="I64">
					<dim>1</dim>
				</port>
				<port id="2" precision="I64">
					<dim>1</dim>
				</port>
				<port id="3" precision="I64">
					<dim>1</dim>
				</port>
				<port id="4" precision="I64">
					<dim>1</dim>
				</port>
			</input>
			<output>
				<port id="5" precision="I64">
					<dim>6</dim>
				</port>
			</output>
		</layer>
		<layer id="26" name="/backbone/stem/Reshape_1" type="Reshape" version="opset1">
			<data special_zero="true" />
			<input>
				<port id="0" precision="FP32">
					<dim>-1</dim>
					<dim>3</dim>
					<dim>320</dim>
					<dim>2</dim>
					<dim>640</dim>
				</port>
				<port id="1" precision="I64">
					<dim>6</dim>
				</port>
			</input>
			<output>
				<port id="2" precision="FP32" names="/backbone/stem/Reshape_1_output_0">
					<dim>-1</dim>
					<dim>3</dim>
					<dim>320</dim>
					<dim>2</dim>
					<dim>-1</dim>
					<dim>2</dim>
				</port>
			</output>
		</layer>
		<layer id="27" name="Constant_389" type="Const" version="opset1">
			<data element_type="i64" shape="6" offset="88" size="48" />
			<output>
				<port id="0" precision="I64">
					<dim>6</dim>
				</port>
			</output>
		</layer>
		<layer id="28" name="/backbone/stem/Transpose" type="Transpose" version="opset1">
			<input>
				<port id="0" precision="FP32">
					<dim>-1</dim>
					<dim>3</dim>
					<dim>320</dim>
					<dim>2</dim>
					<dim>-1</dim>
					<dim>2</dim>
				</port>
				<port id="1" precision="I64">
					<dim>6</dim>
				</port>
			</input>
			<output>
				<port id="2" precision="FP32" names="/backbone/stem/Transpose_output_0">
					<dim>-1</dim>
					<dim>2</dim>
					<dim>2</dim>
					<dim>3</dim>
					<dim>320</dim>
					<dim>-1</dim>
				</port>
			</output>
		</layer>
		<layer id="29" name="Constant_19109" type="Const" version="opset1">
			<data element_type="i64" shape="1" offset="64" size="8" />
			<output>
				<port id="0" precision="I64">
					<dim>1</dim>
				</port>
			</output>
		</layer>
		<layer id="30" name="Constant_315" type="Const" version="opset1">
			<data element_type="i64" shape="" offset="64" size="8" />
			<output>
				<port id="0" precision="I64" />
			</output>
		</layer>
		<layer id="31" name="/backbone/stem/Gather" type="Gather" version="opset8">
			<data batch_dims="0" />
			<input>
				<port id="0" precision="I64">
					<dim>4</dim>
				</port>
				<port id="1" precision="I64">
					<dim>1</dim>
				</port>
				<port id="2" precision="I64" />
			</input>
			<output>
				<port id="3" precision="I64" names="/backbone/stem/Unsqueeze_6_output_0">
					<dim>1</dim>
				</port>
			</output>
		</layer>
		<layer id="32" name="/backbone/stem/Constant_3" type="Const" version="opset1">
			<data element_type="i64" shape="" offset="136" size="8" />
			<output>
				<port id="0" precision="I64" names="/backbone/stem/Constant_3_output_0" />
			</output>
		</layer>
		<layer id="33" name="Constant_320" type="Const" version="opset1">
			<data element_type="i64" shape="" offset="64" size="8" />
			<output>
				<port id="0" precision="I64" />
			</output>
		</layer>
		<layer id="34" name="/backbone/stem/Gather_1" type="Gather" version="opset8">
			<data batch_dims="0" />
			<input>
				<port id="0" precision="I64">
					<dim>4</dim>
				</port>
				<port id="1" precision="I64" />
				<port id="2" precision="I64" />
			</input>
			<output>
				<port id="3" precision="I64" names="/backbone/stem/Gather_1_output_0" />
			</output>
		</layer>
		<layer id="35" name="/backbone/stem/Constant_15" type="Const" version="opset1">
			<data element_type="i64" shape="" offset="144" size="8" />
			<output>
				<port id="0" precision="I64" names="/backbone/stem/Constant_15_output_0" />
			</output>
		</layer>
		<layer id="36" name="/backbone/stem/Mul" type="Multiply" version="opset1">
			<data auto_broadcast="numpy" />
			<input>
				<port id="0" precision="I64" />
				<port id="1" precision="I64" />
			</input>
			<output>
				<port id="2" precision="I64" names="/backbone/stem/Mul_output_0" />
			</output>
		</layer>
		<layer id="37" name="Constant_395" type="Const" version="opset1">
			<data element_type="i64" shape="1" offset="64" size="8" />
			<output>
				<port id="0" precision="I64">
					<dim>1</dim>
				</port>
			</output>
		</layer>
		<layer id="38" name="/backbone/stem/Unsqueeze_7" type="Unsqueeze" version="opset1">
			<input>
				<port id="0" precision="I64" />
				<port id="1" precision="I64">
					<dim>1</dim>
				</port>
			</input>
			<output>
				<port id="2" precision="I64" names="/backbone/stem/Unsqueeze_7_output_0">
					<dim>1</dim>
				</port>
			</output>
		</layer>
		<layer id="39" name="/backbone/stem/Shape_4" type="ShapeOf" version="opset3">
			<data output_type="i64" />
			<input>
				<port id="0" precision="FP32">
					<dim>-1</dim>
					<dim>3</dim>
					<dim>320</dim>
					<dim>2</dim>
					<dim>-1</dim>
					<dim>2</dim>
				</port>
			</input>
			<output>
				<port id="1" precision="I64" names="/backbone/stem/Shape_4_output_0,/backbone/stem/Shape_5_output_0">
					<dim>6</dim>
				</port>
			</output>
		</layer>
		<layer id="40" name="Constant_19248" type="Const" version="opset1">
			<data element_type="i64" shape="2" offset="152" size="16" />
			<output>
				<port id="0" precision="I64">
					<dim>2</dim>
				</port>
			</output>
		</layer>
		<layer id="41" name="Constant_19249" type="Const" version="opset1">
			<data element_type="i64" shape="" offset="64" size="8" />
			<output>
				<port id="0" precision="I64" />
			</output>
		</layer>
		<layer id="42" name="Gather_19250" type="Gather" version="opset8">
			<data batch_dims="0" />
			<input>
				<port id="0" precision="I64">
					<dim>6</dim>
				</port>
				<port id="1" precision="I64">
					<dim>2</dim>
				</port>
				<port id="2" precision="I64" />
			</input>
			<output>
				<port id="3" precision="I64">
					<dim>2</dim>
				</port>
			</output>
		</layer>
		<layer id="43" name="/backbone/stem/Concat_2" type="Concat" version="opset1">
			<data axis="0" />
			<input>
				<port id="0" precision="I64">
					<dim>1</dim>
				</port>
				<port id="1" precision="I64">
					<dim>1</dim>
				</port>
				<port id="2" precision="I64">
					<dim>2</dim>
				</port>
			</input>
			<output>
				<port id="3" precision="I64" names="/backbone/stem/Concat_2_output_0">
					<dim>4</dim>
				</port>
			</output>
		</layer>
		<layer id="44" name="/backbone/stem/Reshape_2" type="Reshape" version="opset1">
			<data special_zero="true" />
			<input>
				<port id="0" precision="FP32">
					<dim>-1</dim>
					<dim>2</dim>
					<dim>2</dim>
					<dim>3</dim>
					<dim>320</dim>
					<dim>-1</dim>
				</port>
				<port id="1" precision="I64">
					<dim>4</dim>
				</port>
			</input>
			<output>
				<port id="2" precision="FP32" names="/backbone/stem/Reshape_2_output_0">
					<dim>-1</dim>
					<dim>12</dim>
					<dim>320</dim>
					<dim>-1</dim>
				</port>
			</output>
		</layer>
		<layer id="45" name="onnx::Conv_2066_compressed" type="Const" version="opset1">
			<data element_type="i8" shape="80, 12, 3, 3" offset="168" size="8640" />
			<output>
				<port id="0" precision="I8">
					<dim>80</dim>
					<dim>12</dim>
					<dim>3</dim>
					<dim>3</dim>
				</port>
			</output>
		</layer>
		<layer id="46" name="Convert_1022987" type="Convert" version="opset1">
			<data destination_type="f32" />
			<input>
				<port id="0" precision="I8">
					<dim>80</dim>
					<dim>12</dim>
					<dim>3</dim>
					<dim>3</dim>
				</port>
			</input>
			<output>
				<port id="1" precision="FP32">
					<dim>80</dim>
					<dim>12</dim>
					<dim>3</dim>
					<dim>3</dim>
				</port>
			</output>
		</layer>
		<layer id="47" name="Constant_1022885" type="Const" version="opset1">
			<data element_type="f32" shape="80, 1, 1, 1" offset="8808" size="320" />
			<output>
				<port id="0" precision="FP32">
					<dim>80</dim>
					<dim>1</dim>
					<dim>1</dim>
					<dim>1</dim>
				</port>
			</output>
		</layer>
		<layer id="48" name="/backbone/stem/conv/conv/Conv/WithoutBiases/fq_weights_1" type="Multiply" version="opset1">
			<data auto_broadcast="numpy" />
			<input>
				<port id="0" precision="FP32">
					<dim>80</dim>
					<dim>12</dim>
					<dim>3</dim>
					<dim>3</dim>
				</port>
				<port id="1" precision="FP32">
					<dim>80</dim>
					<dim>1</dim>
					<dim>1</dim>
					<dim>1</dim>
				</port>
			</input>
			<output>
				<port id="2" precision="FP32">
					<dim>80</dim>
					<dim>12</dim>
					<dim>3</dim>
					<dim>3</dim>
				</port>
			</output>
		</layer>
		<layer id="49" name="/backbone/stem/conv/conv/Conv/WithoutBiases" type="Convolution" version="opset1">
			<data strides="1, 1" dilations="1, 1" pads_begin="1, 1" pads_end="1, 1" auto_pad="explicit" />
			<input>
				<port id="0" precision="FP32">
					<dim>-1</dim>
					<dim>12</dim>
					<dim>320</dim>
					<dim>-1</dim>
				</port>
				<port id="1" precision="FP32">
					<dim>80</dim>
					<dim>12</dim>
					<dim>3</dim>
					<dim>3</dim>
				</port>
			</input>
			<output>
				<port id="2" precision="FP32">
					<dim>-1</dim>
					<dim>80</dim>
					<dim>320</dim>
					<dim>-1</dim>
				</port>
			</output>
		</layer>
		<layer id="50" name="Reshape_432_compressed" type="Const" version="opset1">
			<data element_type="f16" shape="1, 80, 1, 1" offset="9128" size="160" />
			<output>
				<port id="0" precision="FP16">
					<dim>1</dim>
					<dim>80</dim>
					<dim>1</dim>
					<dim>1</dim>
				</port>
			</output>
		</layer>
		<layer id="51" name="Reshape_432" type="Convert" version="opset1">
			<data destination_type="f32" />
			<rt_info>
				<attribute name="decompression" version="0" />
			</rt_info>
			<input>
				<port id="0" precision="FP16">
					<dim>1</dim>
					<dim>80</dim>
					<dim>1</dim>
					<dim>1</dim>
				</port>
			</input>
			<output>
				<port id="1" precision="FP32">
					<dim>1</dim>
					<dim>80</dim>
					<dim>1</dim>
					<dim>1</dim>
				</port>
			</output>
		</layer>
		<layer id="52" name="/backbone/stem/conv/conv/Conv" type="Add" version="opset1">
			<data auto_broadcast="numpy" />
			<input>
				<port id="0" precision="FP32">
					<dim>-1</dim>
					<dim>80</dim>
					<dim>320</dim>
					<dim>-1</dim>
				</port>
				<port id="1" precision="FP32">
					<dim>1</dim>
					<dim>80</dim>
					<dim>1</dim>
					<dim>1</dim>
				</port>
			</input>
			<output>
				<port id="2" precision="FP32" names="/backbone/stem/conv/conv/Conv_output_0">
					<dim>-1</dim>
					<dim>80</dim>
					<dim>320</dim>
					<dim>-1</dim>
				</port>
			</output>
		</layer>
		<layer id="53" name="/backbone/stem/conv/activate/Mul" type="Swish" version="opset4">
			<input>
				<port id="0" precision="FP32">
					<dim>-1</dim>
					<dim>80</dim>
					<dim>320</dim>
					<dim>-1</dim>
				</port>
			</input>
			<output>
				<port id="1" precision="FP32" names="/backbone/stem/conv/activate/Mul_output_0">
					<dim>-1</dim>
					<dim>80</dim>
					<dim>320</dim>
					<dim>-1</dim>
				</port>
			</output>
		</layer>
		<layer id="54" name="Constant_80472" type="Const" version="opset1">
			<data element_type="f32" shape="" offset="9288" size="4" />
			<output>
				<port id="0" precision="FP32" />
			</output>
		</layer>
		<layer id="55" name="Constant_80473" type="Const" version="opset1">
			<data element_type="f32" shape="" offset="9292" size="4" />
			<output>
				<port id="0" precision="FP32" />
			</output>
		</layer>
		<layer id="56" name="Constant_80474" type="Const" version="opset1">
			<data element_type="f32" shape="" offset="9288" size="4" />
			<output>
				<port id="0" precision="FP32" />
			</output>
		</layer>
		<layer id="57" name="Constant_80475" type="Const" version="opset1">
			<data element_type="f32" shape="" offset="9292" size="4" />
			<output>
				<port id="0" precision="FP32" />
			</output>
		</layer>
		<layer id="58" name="/backbone/stem/conv/activate/Mul/fq_output_0" type="FakeQuantize" version="opset1">
			<data levels="256" auto_broadcast="numpy" />
			<input>
				<port id="0" precision="FP32">
					<dim>-1</dim>
					<dim>80</dim>
					<dim>320</dim>
					<dim>-1</dim>
				</port>
				<port id="1" precision="FP32" />
				<port id="2" precision="FP32" />
				<port id="3" precision="FP32" />
				<port id="4" precision="FP32" />
			</input>
			<output>
				<port id="5" precision="FP32">
					<dim>-1</dim>
					<dim>80</dim>
					<dim>320</dim>
					<dim>-1</dim>
				</port>
			</output>
		</layer>
		<layer id="59" name="onnx::Conv_2069_compressed" type="Const" version="opset1">
			<data element_type="i8" shape="160, 80, 3, 3" offset="9296" size="115200" />
			<output>
				<port id="0" precision="I8">
					<dim>160</dim>
					<dim>80</dim>
					<dim>3</dim>
					<dim>3</dim>
				</port>
			</output>
		</layer>
		<layer id="60" name="Convert_1023149" type="Convert" version="opset1">
			<data destination_type="f32" />
			<input>
				<port id="0" precision="I8">
					<dim>160</dim>
					<dim>80</dim>
					<dim>3</dim>
					<dim>3</dim>
				</port>
			</input>
			<output>
				<port id="1" precision="FP32">
					<dim>160</dim>
					<dim>80</dim>
					<dim>3</dim>
					<dim>3</dim>
				</port>
			</output>
		</layer>
		<layer id="61" name="Constant_1023047" type="Const" version="opset1">
			<data element_type="f32" shape="160, 1, 1, 1" offset="124496" size="640" />
			<output>
				<port id="0" precision="FP32">
					<dim>160</dim>
					<dim>1</dim>
					<dim>1</dim>
					<dim>1</dim>
				</port>
			</output>
		</layer>
		<layer id="62" name="/backbone/stage1/stage1.0/conv/Conv/WithoutBiases/fq_weights_1" type="Multiply" version="opset1">
			<data auto_broadcast="numpy" />
			<input>
				<port id="0" precision="FP32">
					<dim>160</dim>
					<dim>80</dim>
					<dim>3</dim>
					<dim>3</dim>
				</port>
				<port id="1" precision="FP32">
					<dim>160</dim>
					<dim>1</dim>
					<dim>1</dim>
					<dim>1</dim>
				</port>
			</input>
			<output>
				<port id="2" precision="FP32">
					<dim>160</dim>
					<dim>80</dim>
					<dim>3</dim>
					<dim>3</dim>
				</port>
			</output>
		</layer>
		<layer id="63" name="/backbone/stage1/stage1.0/conv/Conv/WithoutBiases" type="Convolution" version="opset1">
			<data strides="2, 2" dilations="1, 1" pads_begin="1, 1" pads_end="1, 1" auto_pad="explicit" />
			<input>
				<port id="0" precision="FP32">
					<dim>-1</dim>
					<dim>80</dim>
					<dim>320</dim>
					<dim>-1</dim>
				</port>
				<port id="1" precision="FP32">
					<dim>160</dim>
					<dim>80</dim>
					<dim>3</dim>
					<dim>3</dim>
				</port>
			</input>
			<output>
				<port id="2" precision="FP32">
					<dim>-1</dim>
					<dim>160</dim>
					<dim>160</dim>
					<dim>-1</dim>
				</port>
			</output>
		</layer>
		<layer id="64" name="Reshape_449_compressed" type="Const" version="opset1">
			<data element_type="f16" shape="1, 160, 1, 1" offset="125136" size="320" />
			<output>
				<port id="0" precision="FP16">
					<dim>1</dim>
					<dim>160</dim>
					<dim>1</dim>
					<dim>1</dim>
				</port>
			</output>
		</layer>
		<layer id="65" name="Reshape_449" type="Convert" version="opset1">
			<data destination_type="f32" />
			<rt_info>
				<attribute name="decompression" version="0" />
			</rt_info>
			<input>
				<port id="0" precision="FP16">
					<dim>1</dim>
					<dim>160</dim>
					<dim>1</dim>
					<dim>1</dim>
				</port>
			</input>
			<output>
				<port id="1" precision="FP32">
					<dim>1</dim>
					<dim>160</dim>
					<dim>1</dim>
					<dim>1</dim>
				</port>
			</output>
		</layer>
		<layer id="66" name="/backbone/stage1/stage1.0/conv/Conv" type="Add" version="opset1">
			<data auto_broadcast="numpy" />
			<input>
				<port id="0" precision="FP32">
					<dim>-1</dim>
					<dim>160</dim>
					<dim>160</dim>
					<dim>-1</dim>
				</port>
				<port id="1" precision="FP32">
					<dim>1</dim>
					<dim>160</dim>
					<dim>1</dim>
					<dim>1</dim>
				</port>
			</input>
			<output>
				<port id="2" precision="FP32" names="/backbone/stage1/stage1.0/conv/Conv_output_0">
					<dim>-1</dim>
					<dim>160</dim>
					<dim>160</dim>
					<dim>-1</dim>
				</port>
			</output>
		</layer>
		<layer id="67" name="/backbone/stage1/stage1.0/activate/Mul" type="Swish" version="opset4">
			<input>
				<port id="0" precision="FP32">
					<dim>-1</dim>
					<dim>160</dim>
					<dim>160</dim>
					<dim>-1</dim>
				</port>
			</input>
			<output>
				<port id="1" precision="FP32" names="/backbone/stage1/stage1.0/activate/Mul_output_0">
					<dim>-1</dim>
					<dim>160</dim>
					<dim>160</dim>
					<dim>-1</dim>
				</port>
			</output>
		</layer>
		<layer id="68" name="Constant_80482" type="Const" version="opset1">
			<data element_type="f32" shape="" offset="125456" size="4" />
			<output>
				<port id="0" precision="FP32" />
			</output>
		</layer>
		<layer id="69" name="Constant_80483" type="Const" version="opset1">
			<data element_type="f32" shape="" offset="125460" size="4" />
			<output>
				<port id="0" precision="FP32" />
			</output>
		</layer>
		<layer id="70" name="Constant_80484" type="Const" version="opset1">
			<data element_type="f32" shape="" offset="125456" size="4" />
			<output>
				<port id="0" precision="FP32" />
			</output>
		</layer>
		<layer id="71" name="Constant_80485" type="Const" version="opset1">
			<data element_type="f32" shape="" offset="125460" size="4" />
			<output>
				<port id="0" precision="FP32" />
			</output>
		</layer>
		<layer id="72" name="/backbone/stage1/stage1.0/activate/Mul/fq_output_0" type="FakeQuantize" version="opset1">
			<data levels="256" auto_broadcast="numpy" />
			<input>
				<port id="0" precision="FP32">
					<dim>-1</dim>
					<dim>160</dim>
					<dim>160</dim>
					<dim>-1</dim>
				</port>
				<port id="1" precision="FP32" />
				<port id="2" precision="FP32" />
				<port id="3" precision="FP32" />
				<port id="4" precision="FP32" />
			</input>
			<output>
				<port id="5" precision="FP32">
					<dim>-1</dim>
					<dim>160</dim>
					<dim>160</dim>
					<dim>-1</dim>
				</port>
			</output>
		</layer>
		<layer id="73" name="onnx::Conv_2075_compressed" type="Const" version="opset1">
			<data element_type="i8" shape="80, 160, 1, 1" offset="125464" size="12800" />
			<output>
				<port id="0" precision="I8">
					<dim>80</dim>
					<dim>160</dim>
					<dim>1</dim>
					<dim>1</dim>
				</port>
			</output>
		</layer>
		<layer id="74" name="Convert_1023311" type="Convert" version="opset1">
			<data destination_type="f32" />
			<input>
				<port id="0" precision="I8">
					<dim>80</dim>
					<dim>160</dim>
					<dim>1</dim>
					<dim>1</dim>
				</port>
			</input>
			<output>
				<port id="1" precision="FP32">
					<dim>80</dim>
					<dim>160</dim>
					<dim>1</dim>
					<dim>1</dim>
				</port>
			</output>
		</layer>
		<layer id="75" name="Constant_1023209" type="Const" version="opset1">
			<data element_type="f32" shape="80, 1, 1, 1" offset="138264" size="320" />
			<output>
				<port id="0" precision="FP32">
					<dim>80</dim>
					<dim>1</dim>
					<dim>1</dim>
					<dim>1</dim>
				</port>
			</output>
		</layer>
		<layer id="76" name="/backbone/stage1/stage1.1/main_conv/conv/Conv/WithoutBiases/fq_weights_1" type="Multiply" version="opset1">
			<data auto_broadcast="numpy" />
			<input>
				<port id="0" precision="FP32">
					<dim>80</dim>
					<dim>160</dim>
					<dim>1</dim>
					<dim>1</dim>
				</port>
				<port id="1" precision="FP32">
					<dim>80</dim>
					<dim>1</dim>
					<dim>1</dim>
					<dim>1</dim>
				</port>
			</input>
			<output>
				<port id="2" precision="FP32">
					<dim>80</dim>
					<dim>160</dim>
					<dim>1</dim>
					<dim>1</dim>
				</port>
			</output>
		</layer>
		<layer id="77" name="/backbone/stage1/stage1.1/main_conv/conv/Conv/WithoutBiases" type="Convolution" version="opset1">
			<data strides="1, 1" dilations="1, 1" pads_begin="0, 0" pads_end="0, 0" auto_pad="explicit" />
			<input>
				<port id="0" precision="FP32">
					<dim>-1</dim>
					<dim>160</dim>
					<dim>160</dim>
					<dim>-1</dim>
				</port>
				<port id="1" precision="FP32">
					<dim>80</dim>
					<dim>160</dim>
					<dim>1</dim>
					<dim>1</dim>
				</port>
			</input>
			<output>
				<port id="2" precision="FP32">
					<dim>-1</dim>
					<dim>80</dim>
					<dim>160</dim>
					<dim>-1</dim>
				</port>
			</output>
		</layer>
		<layer id="78" name="Reshape_483_compressed" type="Const" version="opset1">
			<data element_type="f16" shape="1, 80, 1, 1" offset="138584" size="160" />
			<output>
				<port id="0" precision="FP16">
					<dim>1</dim>
					<dim>80</dim>
					<dim>1</dim>
					<dim>1</dim>
				</port>
			</output>
		</layer>
		<layer id="79" name="Reshape_483" type="Convert" version="opset1">
			<data destination_type="f32" />
			<rt_info>
				<attribute name="decompression" version="0" />
			</rt_info>
			<input>
				<port id="0" precision="FP16">
					<dim>1</dim>
					<dim>80</dim>
					<dim>1</dim>
					<dim>1</dim>
				</port>
			</input>
			<output>
				<port id="1" precision="FP32">
					<dim>1</dim>
					<dim>80</dim>
					<dim>1</dim>
					<dim>1</dim>
				</port>
			</output>
		</layer>
		<layer id="80" name="/backbone/stage1/stage1.1/main_conv/conv/Conv" type="Add" version="opset1">
			<data auto_broadcast="numpy" />
			<input>
				<port id="0" precision="FP32">
					<dim>-1</dim>
					<dim>80</dim>
					<dim>160</dim>
					<dim>-1</dim>
				</port>
				<port id="1" precision="FP32">
					<dim>1</dim>
					<dim>80</dim>
					<dim>1</dim>
					<dim>1</dim>
				</port>
			</input>
			<output>
				<port id="2" precision="FP32" names="/backbone/stage1/stage1.1/main_conv/conv/Conv_output_0">
					<dim>-1</dim>
					<dim>80</dim>
					<dim>160</dim>
					<dim>-1</dim>
				</port>
			</output>
		</layer>
		<layer id="81" name="/backbone/stage1/stage1.1/main_conv/activate/Mul" type="Swish" version="opset4">
			<input>
				<port id="0" precision="FP32">
					<dim>-1</dim>
					<dim>80</dim>
					<dim>160</dim>
					<dim>-1</dim>
				</port>
			</input>
			<output>
				<port id="1" precision="FP32" names="/backbone/stage1/stage1.1/main_conv/activate/Mul_output_0">
					<dim>-1</dim>
					<dim>80</dim>
					<dim>160</dim>
					<dim>-1</dim>
				</port>
			</output>
		</layer>
		<layer id="82" name="Constant_80497" type="Const" version="opset1">
			<data element_type="f32" shape="" offset="138744" size="4" />
			<output>
				<port id="0" precision="FP32" />
			</output>
		</layer>
		<layer id="83" name="Constant_80498" type="Const" version="opset1">
			<data element_type="f32" shape="" offset="138748" size="4" />
			<output>
				<port id="0" precision="FP32" />
			</output>
		</layer>
		<layer id="84" name="Constant_80499" type="Const" version="opset1">
			<data element_type="f32" shape="" offset="138744" size="4" />
			<output>
				<port id="0" precision="FP32" />
			</output>
		</layer>
		<layer id="85" name="Constant_80500" type="Const" version="opset1">
			<data element_type="f32" shape="" offset="138748" size="4" />
			<output>
				<port id="0" precision="FP32" />
			</output>
		</layer>
		<layer id="86" name="/backbone/stage1/stage1.1/main_conv/activate/Mul/fq_output_0" type="FakeQuantize" version="opset1">
			<data levels="256" auto_broadcast="numpy" />
			<input>
				<port id="0" precision="FP32">
					<dim>-1</dim>
					<dim>80</dim>
					<dim>160</dim>
					<dim>-1</dim>
				</port>
				<port id="1" precision="FP32" />
				<port id="2" precision="FP32" />
				<port id="3" precision="FP32" />
				<port id="4" precision="FP32" />
			</input>
			<output>
				<port id="5" precision="FP32">
					<dim>-1</dim>
					<dim>80</dim>
					<dim>160</dim>
					<dim>-1</dim>
				</port>
			</output>
		</layer>
		<layer id="87" name="onnx::Conv_2078_compressed" type="Const" version="opset1">
			<data element_type="i8" shape="80, 80, 1, 1" offset="138752" size="6400" />
			<output>
				<port id="0" precision="I8">
					<dim>80</dim>
					<dim>80</dim>
					<dim>1</dim>
					<dim>1</dim>
				</port>
			</output>
		</layer>
		<layer id="88" name="Convert_1023473" type="Convert" version="opset1">
			<data destination_type="f32" />
			<input>
				<port id="0" precision="I8">
					<dim>80</dim>
					<dim>80</dim>
					<dim>1</dim>
					<dim>1</dim>
				</port>
			</input>
			<output>
				<port id="1" precision="FP32">
					<dim>80</dim>
					<dim>80</dim>
					<dim>1</dim>
					<dim>1</dim>
				</port>
			</output>
		</layer>
		<layer id="89" name="Constant_1023371" type="Const" version="opset1">
			<data element_type="f32" shape="80, 1, 1, 1" offset="145152" size="320" />
			<output>
				<port id="0" precision="FP32">
					<dim>80</dim>
					<dim>1</dim>
					<dim>1</dim>
					<dim>1</dim>
				</port>
			</output>
		</layer>
		<layer id="90" name="/backbone/stage1/stage1.1/blocks/blocks.0/conv1/conv/Conv/WithoutBiases/fq_weights_1" type="Multiply" version="opset1">
			<data auto_broadcast="numpy" />
			<input>
				<port id="0" precision="FP32">
					<dim>80</dim>
					<dim>80</dim>
					<dim>1</dim>
					<dim>1</dim>
				</port>
				<port id="1" precision="FP32">
					<dim>80</dim>
					<dim>1</dim>
					<dim>1</dim>
					<dim>1</dim>
				</port>
			</input>
			<output>
				<port id="2" precision="FP32">
					<dim>80</dim>
					<dim>80</dim>
					<dim>1</dim>
					<dim>1</dim>
				</port>
			</output>
		</layer>
		<layer id="91" name="/backbone/stage1/stage1.1/blocks/blocks.0/conv1/conv/Conv/WithoutBiases" type="Convolution" version="opset1">
			<data strides="1, 1" dilations="1, 1" pads_begin="0, 0" pads_end="0, 0" auto_pad="explicit" />
			<input>
				<port id="0" precision="FP32">
					<dim>-1</dim>
					<dim>80</dim>
					<dim>160</dim>
					<dim>-1</dim>
				</port>
				<port id="1" precision="FP32">
					<dim>80</dim>
					<dim>80</dim>
					<dim>1</dim>
					<dim>1</dim>
				</port>
			</input>
			<output>
				<port id="2" precision="FP32">
					<dim>-1</dim>
					<dim>80</dim>
					<dim>160</dim>
					<dim>-1</dim>
				</port>
			</output>
		</layer>
		<layer id="92" name="Reshape_500_compressed" type="Const" version="opset1">
			<data element_type="f16" shape="1, 80, 1, 1" offset="145472" size="160" />
			<output>
				<port id="0" precision="FP16">
					<dim>1</dim>
					<dim>80</dim>
					<dim>1</dim>
					<dim>1</dim>
				</port>
			</output>
		</layer>
		<layer id="93" name="Reshape_500" type="Convert" version="opset1">
			<data destination_type="f32" />
			<rt_info>
				<attribute name="decompression" version="0" />
			</rt_info>
			<input>
				<port id="0" precision="FP16">
					<dim>1</dim>
					<dim>80</dim>
					<dim>1</dim>
					<dim>1</dim>
				</port>
			</input>
			<output>
				<port id="1" precision="FP32">
					<dim>1</dim>
					<dim>80</dim>
					<dim>1</dim>
					<dim>1</dim>
				</port>
			</output>
		</layer>
		<layer id="94" name="/backbone/stage1/stage1.1/blocks/blocks.0/conv1/conv/Conv" type="Add" version="opset1">
			<data auto_broadcast="numpy" />
			<input>
				<port id="0" precision="FP32">
					<dim>-1</dim>
					<dim>80</dim>
					<dim>160</dim>
					<dim>-1</dim>
				</port>
				<port id="1" precision="FP32">
					<dim>1</dim>
					<dim>80</dim>
					<dim>1</dim>
					<dim>1</dim>
				</port>
			</input>
			<output>
				<port id="2" precision="FP32" names="/backbone/stage1/stage1.1/blocks/blocks.0/conv1/conv/Conv_output_0">
					<dim>-1</dim>
					<dim>80</dim>
					<dim>160</dim>
					<dim>-1</dim>
				</port>
			</output>
		</layer>
		<layer id="95" name="/backbone/stage1/stage1.1/blocks/blocks.0/conv1/activate/Mul" type="Swish" version="opset4">
			<input>
				<port id="0" precision="FP32">
					<dim>-1</dim>
					<dim>80</dim>
					<dim>160</dim>
					<dim>-1</dim>
				</port>
			</input>
			<output>
				<port id="1" precision="FP32" names="/backbone/stage1/stage1.1/blocks/blocks.0/conv1/activate/Mul_output_0">
					<dim>-1</dim>
					<dim>80</dim>
					<dim>160</dim>
					<dim>-1</dim>
				</port>
			</output>
		</layer>
		<layer id="96" name="Constant_80507" type="Const" version="opset1">
			<data element_type="f32" shape="" offset="145632" size="4" />
			<output>
				<port id="0" precision="FP32" />
			</output>
		</layer>
		<layer id="97" name="Constant_80508" type="Const" version="opset1">
			<data element_type="f32" shape="" offset="145636" size="4" />
			<output>
				<port id="0" precision="FP32" />
			</output>
		</layer>
		<layer id="98" name="Constant_80509" type="Const" version="opset1">
			<data element_type="f32" shape="" offset="145632" size="4" />
			<output>
				<port id="0" precision="FP32" />
			</output>
		</layer>
		<layer id="99" name="Constant_80510" type="Const" version="opset1">
			<data element_type="f32" shape="" offset="145636" size="4" />
			<output>
				<port id="0" precision="FP32" />
			</output>
		</layer>
		<layer id="100" name="/backbone/stage1/stage1.1/blocks/blocks.0/conv1/activate/Mul/fq_output_0" type="FakeQuantize" version="opset1">
			<data levels="256" auto_broadcast="numpy" />
			<input>
				<port id="0" precision="FP32">
					<dim>-1</dim>
					<dim>80</dim>
					<dim>160</dim>
					<dim>-1</dim>
				</port>
				<port id="1" precision="FP32" />
				<port id="2" precision="FP32" />
				<port id="3" precision="FP32" />
				<port id="4" precision="FP32" />
			</input>
			<output>
				<port id="5" precision="FP32">
					<dim>-1</dim>
					<dim>80</dim>
					<dim>160</dim>
					<dim>-1</dim>
				</port>
			</output>
		</layer>
		<layer id="101" name="onnx::Conv_2081_compressed" type="Const" version="opset1">
			<data element_type="i8" shape="80, 80, 3, 3" offset="145640" size="57600" />
			<output>
				<port id="0" precision="I8">
					<dim>80</dim>
					<dim>80</dim>
					<dim>3</dim>
					<dim>3</dim>
				</port>
			</output>
		</layer>
		<layer id="102" name="Convert_1023635" type="Convert" version="opset1">
			<data destination_type="f32" />
			<input>
				<port id="0" precision="I8">
					<dim>80</dim>
					<dim>80</dim>
					<dim>3</dim>
					<dim>3</dim>
				</port>
			</input>
			<output>
				<port id="1" precision="FP32">
					<dim>80</dim>
					<dim>80</dim>
					<dim>3</dim>
					<dim>3</dim>
				</port>
			</output>
		</layer>
		<layer id="103" name="Constant_1023533" type="Const" version="opset1">
			<data element_type="f32" shape="80, 1, 1, 1" offset="203240" size="320" />
			<output>
				<port id="0" precision="FP32">
					<dim>80</dim>
					<dim>1</dim>
					<dim>1</dim>
					<dim>1</dim>
				</port>
			</output>
		</layer>
		<layer id="104" name="/backbone/stage1/stage1.1/blocks/blocks.0/conv2/conv/Conv/WithoutBiases/fq_weights_1" type="Multiply" version="opset1">
			<data auto_broadcast="numpy" />
			<input>
				<port id="0" precision="FP32">
					<dim>80</dim>
					<dim>80</dim>
					<dim>3</dim>
					<dim>3</dim>
				</port>
				<port id="1" precision="FP32">
					<dim>80</dim>
					<dim>1</dim>
					<dim>1</dim>
					<dim>1</dim>
				</port>
			</input>
			<output>
				<port id="2" precision="FP32">
					<dim>80</dim>
					<dim>80</dim>
					<dim>3</dim>
					<dim>3</dim>
				</port>
			</output>
		</layer>
		<layer id="105" name="/backbone/stage1/stage1.1/blocks/blocks.0/conv2/conv/Conv/WithoutBiases" type="Convolution" version="opset1">
			<data strides="1, 1" dilations="1, 1" pads_begin="1, 1" pads_end="1, 1" auto_pad="explicit" />
			<input>
				<port id="0" precision="FP32">
					<dim>-1</dim>
					<dim>80</dim>
					<dim>160</dim>
					<dim>-1</dim>
				</port>
				<port id="1" precision="FP32">
					<dim>80</dim>
					<dim>80</dim>
					<dim>3</dim>
					<dim>3</dim>
				</port>
			</input>
			<output>
				<port id="2" precision="FP32">
					<dim>-1</dim>
					<dim>80</dim>
					<dim>160</dim>
					<dim>-1</dim>
				</port>
			</output>
		</layer>
		<layer id="106" name="Reshape_517_compressed" type="Const" version="opset1">
			<data element_type="f16" shape="1, 80, 1, 1" offset="203560" size="160" />
			<output>
				<port id="0" precision="FP16">
					<dim>1</dim>
					<dim>80</dim>
					<dim>1</dim>
					<dim>1</dim>
				</port>
			</output>
		</layer>
		<layer id="107" name="Reshape_517" type="Convert" version="opset1">
			<data destination_type="f32" />
			<rt_info>
				<attribute name="decompression" version="0" />
			</rt_info>
			<input>
				<port id="0" precision="FP16">
					<dim>1</dim>
					<dim>80</dim>
					<dim>1</dim>
					<dim>1</dim>
				</port>
			</input>
			<output>
				<port id="1" precision="FP32">
					<dim>1</dim>
					<dim>80</dim>
					<dim>1</dim>
					<dim>1</dim>
				</port>
			</output>
		</layer>
		<layer id="108" name="/backbone/stage1/stage1.1/blocks/blocks.0/conv2/conv/Conv" type="Add" version="opset1">
			<data auto_broadcast="numpy" />
			<input>
				<port id="0" precision="FP32">
					<dim>-1</dim>
					<dim>80</dim>
					<dim>160</dim>
					<dim>-1</dim>
				</port>
				<port id="1" precision="FP32">
					<dim>1</dim>
					<dim>80</dim>
					<dim>1</dim>
					<dim>1</dim>
				</port>
			</input>
			<output>
				<port id="2" precision="FP32" names="/backbone/stage1/stage1.1/blocks/blocks.0/conv2/conv/Conv_output_0">
					<dim>-1</dim>
					<dim>80</dim>
					<dim>160</dim>
					<dim>-1</dim>
				</port>
			</output>
		</layer>
		<layer id="109" name="/backbone/stage1/stage1.1/blocks/blocks.0/conv2/activate/Mul" type="Swish" version="opset4">
			<input>
				<port id="0" precision="FP32">
					<dim>-1</dim>
					<dim>80</dim>
					<dim>160</dim>
					<dim>-1</dim>
				</port>
			</input>
			<output>
				<port id="1" precision="FP32" names="/backbone/stage1/stage1.1/blocks/blocks.0/conv2/activate/Mul_output_0">
					<dim>-1</dim>
					<dim>80</dim>
					<dim>160</dim>
					<dim>-1</dim>
				</port>
			</output>
		</layer>
		<layer id="110" name="Constant_80517" type="Const" version="opset1">
			<data element_type="f32" shape="" offset="203720" size="4" />
			<output>
				<port id="0" precision="FP32" />
			</output>
		</layer>
		<layer id="111" name="Constant_80518" type="Const" version="opset1">
			<data element_type="f32" shape="" offset="203724" size="4" />
			<output>
				<port id="0" precision="FP32" />
			</output>
		</layer>
		<layer id="112" name="Constant_80519" type="Const" version="opset1">
			<data element_type="f32" shape="" offset="203720" size="4" />
			<output>
				<port id="0" precision="FP32" />
			</output>
		</layer>
		<layer id="113" name="Constant_80520" type="Const" version="opset1">
			<data element_type="f32" shape="" offset="203724" size="4" />
			<output>
				<port id="0" precision="FP32" />
			</output>
		</layer>
		<layer id="114" name="/backbone/stage1/stage1.1/blocks/blocks.0/conv2/activate/Mul/fq_output_0" type="FakeQuantize" version="opset1">
			<data levels="256" auto_broadcast="numpy" />
			<input>
				<port id="0" precision="FP32">
					<dim>-1</dim>
					<dim>80</dim>
					<dim>160</dim>
					<dim>-1</dim>
				</port>
				<port id="1" precision="FP32" />
				<port id="2" precision="FP32" />
				<port id="3" precision="FP32" />
				<port id="4" precision="FP32" />
			</input>
			<output>
				<port id="5" precision="FP32">
					<dim>-1</dim>
					<dim>80</dim>
					<dim>160</dim>
					<dim>-1</dim>
				</port>
			</output>
		</layer>
		<layer id="115" name="/backbone/stage1/stage1.1/blocks/blocks.0/Add" type="Add" version="opset1">
			<data auto_broadcast="numpy" />
			<input>
				<port id="0" precision="FP32">
					<dim>-1</dim>
					<dim>80</dim>
					<dim>160</dim>
					<dim>-1</dim>
				</port>
				<port id="1" precision="FP32">
					<dim>-1</dim>
					<dim>80</dim>
					<dim>160</dim>
					<dim>-1</dim>
				</port>
			</input>
			<output>
				<port id="2" precision="FP32" names="/backbone/stage1/stage1.1/blocks/blocks.0/Add_output_0">
					<dim>-1</dim>
					<dim>80</dim>
					<dim>160</dim>
					<dim>-1</dim>
				</port>
			</output>
		</layer>
		<layer id="116" name="Constant_80522" type="Const" version="opset1">
			<data element_type="f32" shape="" offset="203728" size="4" />
			<output>
				<port id="0" precision="FP32" />
			</output>
		</layer>
		<layer id="117" name="Constant_80523" type="Const" version="opset1">
			<data element_type="f32" shape="" offset="203732" size="4" />
			<output>
				<port id="0" precision="FP32" />
			</output>
		</layer>
		<layer id="118" name="Constant_80524" type="Const" version="opset1">
			<data element_type="f32" shape="" offset="203728" size="4" />
			<output>
				<port id="0" precision="FP32" />
			</output>
		</layer>
		<layer id="119" name="Constant_80525" type="Const" version="opset1">
			<data element_type="f32" shape="" offset="203732" size="4" />
			<output>
				<port id="0" precision="FP32" />
			</output>
		</layer>
		<layer id="120" name="/backbone/stage1/stage1.1/blocks/blocks.0/Add/fq_output_0" type="FakeQuantize" version="opset1">
			<data levels="256" auto_broadcast="numpy" />
			<input>
				<port id="0" precision="FP32">
					<dim>-1</dim>
					<dim>80</dim>
					<dim>160</dim>
					<dim>-1</dim>
				</port>
				<port id="1" precision="FP32" />
				<port id="2" precision="FP32" />
				<port id="3" precision="FP32" />
				<port id="4" precision="FP32" />
			</input>
			<output>
				<port id="5" precision="FP32">
					<dim>-1</dim>
					<dim>80</dim>
					<dim>160</dim>
					<dim>-1</dim>
				</port>
			</output>
		</layer>
		<layer id="121" name="onnx::Conv_2084_compressed" type="Const" version="opset1">
			<data element_type="i8" shape="80, 80, 1, 1" offset="203736" size="6400" />
			<output>
				<port id="0" precision="I8">
					<dim>80</dim>
					<dim>80</dim>
					<dim>1</dim>
					<dim>1</dim>
				</port>
			</output>
		</layer>
		<layer id="122" name="Convert_1023797" type="Convert" version="opset1">
			<data destination_type="f32" />
			<input>
				<port id="0" precision="I8">
					<dim>80</dim>
					<dim>80</dim>
					<dim>1</dim>
					<dim>1</dim>
				</port>
			</input>
			<output>
				<port id="1" precision="FP32">
					<dim>80</dim>
					<dim>80</dim>
					<dim>1</dim>
					<dim>1</dim>
				</port>
			</output>
		</layer>
		<layer id="123" name="Constant_1023695" type="Const" version="opset1">
			<data element_type="f32" shape="80, 1, 1, 1" offset="210136" size="320" />
			<output>
				<port id="0" precision="FP32">
					<dim>80</dim>
					<dim>1</dim>
					<dim>1</dim>
					<dim>1</dim>
				</port>
			</output>
		</layer>
		<layer id="124" name="/backbone/stage1/stage1.1/blocks/blocks.1/conv1/conv/Conv/WithoutBiases/fq_weights_1" type="Multiply" version="opset1">
			<data auto_broadcast="numpy" />
			<input>
				<port id="0" precision="FP32">
					<dim>80</dim>
					<dim>80</dim>
					<dim>1</dim>
					<dim>1</dim>
				</port>
				<port id="1" precision="FP32">
					<dim>80</dim>
					<dim>1</dim>
					<dim>1</dim>
					<dim>1</dim>
				</port>
			</input>
			<output>
				<port id="2" precision="FP32">
					<dim>80</dim>
					<dim>80</dim>
					<dim>1</dim>
					<dim>1</dim>
				</port>
			</output>
		</layer>
		<layer id="125" name="/backbone/stage1/stage1.1/blocks/blocks.1/conv1/conv/Conv/WithoutBiases" type="Convolution" version="opset1">
			<data strides="1, 1" dilations="1, 1" pads_begin="0, 0" pads_end="0, 0" auto_pad="explicit" />
			<input>
				<port id="0" precision="FP32">
					<dim>-1</dim>
					<dim>80</dim>
					<dim>160</dim>
					<dim>-1</dim>
				</port>
				<port id="1" precision="FP32">
					<dim>80</dim>
					<dim>80</dim>
					<dim>1</dim>
					<dim>1</dim>
				</port>
			</input>
			<output>
				<port id="2" precision="FP32">
					<dim>-1</dim>
					<dim>80</dim>
					<dim>160</dim>
					<dim>-1</dim>
				</port>
			</output>
		</layer>
		<layer id="126" name="Reshape_535_compressed" type="Const" version="opset1">
			<data element_type="f16" shape="1, 80, 1, 1" offset="210456" size="160" />
			<output>
				<port id="0" precision="FP16">
					<dim>1</dim>
					<dim>80</dim>
					<dim>1</dim>
					<dim>1</dim>
				</port>
			</output>
		</layer>
		<layer id="127" name="Reshape_535" type="Convert" version="opset1">
			<data destination_type="f32" />
			<rt_info>
				<attribute name="decompression" version="0" />
			</rt_info>
			<input>
				<port id="0" precision="FP16">
					<dim>1</dim>
					<dim>80</dim>
					<dim>1</dim>
					<dim>1</dim>
				</port>
			</input>
			<output>
				<port id="1" precision="FP32">
					<dim>1</dim>
					<dim>80</dim>
					<dim>1</dim>
					<dim>1</dim>
				</port>
			</output>
		</layer>
		<layer id="128" name="/backbone/stage1/stage1.1/blocks/blocks.1/conv1/conv/Conv" type="Add" version="opset1">
			<data auto_broadcast="numpy" />
			<input>
				<port id="0" precision="FP32">
					<dim>-1</dim>
					<dim>80</dim>
					<dim>160</dim>
					<dim>-1</dim>
				</port>
				<port id="1" precision="FP32">
					<dim>1</dim>
					<dim>80</dim>
					<dim>1</dim>
					<dim>1</dim>
				</port>
			</input>
			<output>
				<port id="2" precision="FP32" names="/backbone/stage1/stage1.1/blocks/blocks.1/conv1/conv/Conv_output_0">
					<dim>-1</dim>
					<dim>80</dim>
					<dim>160</dim>
					<dim>-1</dim>
				</port>
			</output>
		</layer>
		<layer id="129" name="/backbone/stage1/stage1.1/blocks/blocks.1/conv1/activate/Mul" type="Swish" version="opset4">
			<input>
				<port id="0" precision="FP32">
					<dim>-1</dim>
					<dim>80</dim>
					<dim>160</dim>
					<dim>-1</dim>
				</port>
			</input>
			<output>
				<port id="1" precision="FP32" names="/backbone/stage1/stage1.1/blocks/blocks.1/conv1/activate/Mul_output_0">
					<dim>-1</dim>
					<dim>80</dim>
					<dim>160</dim>
					<dim>-1</dim>
				</port>
			</output>
		</layer>
		<layer id="130" name="Constant_80532" type="Const" version="opset1">
			<data element_type="f32" shape="" offset="210616" size="4" />
			<output>
				<port id="0" precision="FP32" />
			</output>
		</layer>
		<layer id="131" name="Constant_80533" type="Const" version="opset1">
			<data element_type="f32" shape="" offset="210620" size="4" />
			<output>
				<port id="0" precision="FP32" />
			</output>
		</layer>
		<layer id="132" name="Constant_80534" type="Const" version="opset1">
			<data element_type="f32" shape="" offset="210616" size="4" />
			<output>
				<port id="0" precision="FP32" />
			</output>
		</layer>
		<layer id="133" name="Constant_80535" type="Const" version="opset1">
			<data element_type="f32" shape="" offset="210620" size="4" />
			<output>
				<port id="0" precision="FP32" />
			</output>
		</layer>
		<layer id="134" name="/backbone/stage1/stage1.1/blocks/blocks.1/conv1/activate/Mul/fq_output_0" type="FakeQuantize" version="opset1">
			<data levels="256" auto_broadcast="numpy" />
			<input>
				<port id="0" precision="FP32">
					<dim>-1</dim>
					<dim>80</dim>
					<dim>160</dim>
					<dim>-1</dim>
				</port>
				<port id="1" precision="FP32" />
				<port id="2" precision="FP32" />
				<port id="3" precision="FP32" />
				<port id="4" precision="FP32" />
			</input>
			<output>
				<port id="5" precision="FP32">
					<dim>-1</dim>
					<dim>80</dim>
					<dim>160</dim>
					<dim>-1</dim>
				</port>
			</output>
		</layer>
		<layer id="135" name="onnx::Conv_2087_compressed" type="Const" version="opset1">
			<data element_type="i8" shape="80, 80, 3, 3" offset="210624" size="57600" />
			<output>
				<port id="0" precision="I8">
					<dim>80</dim>
					<dim>80</dim>
					<dim>3</dim>
					<dim>3</dim>
				</port>
			</output>
		</layer>
		<layer id="136" name="Convert_1023959" type="Convert" version="opset1">
			<data destination_type="f32" />
			<input>
				<port id="0" precision="I8">
					<dim>80</dim>
					<dim>80</dim>
					<dim>3</dim>
					<dim>3</dim>
				</port>
			</input>
			<output>
				<port id="1" precision="FP32">
					<dim>80</dim>
					<dim>80</dim>
					<dim>3</dim>
					<dim>3</dim>
				</port>
			</output>
		</layer>
		<layer id="137" name="Constant_1023857" type="Const" version="opset1">
			<data element_type="f32" shape="80, 1, 1, 1" offset="268224" size="320" />
			<output>
				<port id="0" precision="FP32">
					<dim>80</dim>
					<dim>1</dim>
					<dim>1</dim>
					<dim>1</dim>
				</port>
			</output>
		</layer>
		<layer id="138" name="/backbone/stage1/stage1.1/blocks/blocks.1/conv2/conv/Conv/WithoutBiases/fq_weights_1" type="Multiply" version="opset1">
			<data auto_broadcast="numpy" />
			<input>
				<port id="0" precision="FP32">
					<dim>80</dim>
					<dim>80</dim>
					<dim>3</dim>
					<dim>3</dim>
				</port>
				<port id="1" precision="FP32">
					<dim>80</dim>
					<dim>1</dim>
					<dim>1</dim>
					<dim>1</dim>
				</port>
			</input>
			<output>
				<port id="2" precision="FP32">
					<dim>80</dim>
					<dim>80</dim>
					<dim>3</dim>
					<dim>3</dim>
				</port>
			</output>
		</layer>
		<layer id="139" name="/backbone/stage1/stage1.1/blocks/blocks.1/conv2/conv/Conv/WithoutBiases" type="Convolution" version="opset1">
			<data strides="1, 1" dilations="1, 1" pads_begin="1, 1" pads_end="1, 1" auto_pad="explicit" />
			<input>
				<port id="0" precision="FP32">
					<dim>-1</dim>
					<dim>80</dim>
					<dim>160</dim>
					<dim>-1</dim>
				</port>
				<port id="1" precision="FP32">
					<dim>80</dim>
					<dim>80</dim>
					<dim>3</dim>
					<dim>3</dim>
				</port>
			</input>
			<output>
				<port id="2" precision="FP32">
					<dim>-1</dim>
					<dim>80</dim>
					<dim>160</dim>
					<dim>-1</dim>
				</port>
			</output>
		</layer>
		<layer id="140" name="Reshape_552_compressed" type="Const" version="opset1">
			<data element_type="f16" shape="1, 80, 1, 1" offset="268544" size="160" />
			<output>
				<port id="0" precision="FP16">
					<dim>1</dim>
					<dim>80</dim>
					<dim>1</dim>
					<dim>1</dim>
				</port>
			</output>
		</layer>
		<layer id="141" name="Reshape_552" type="Convert" version="opset1">
			<data destination_type="f32" />
			<rt_info>
				<attribute name="decompression" version="0" />
			</rt_info>
			<input>
				<port id="0" precision="FP16">
					<dim>1</dim>
					<dim>80</dim>
					<dim>1</dim>
					<dim>1</dim>
				</port>
			</input>
			<output>
				<port id="1" precision="FP32">
					<dim>1</dim>
					<dim>80</dim>
					<dim>1</dim>
					<dim>1</dim>
				</port>
			</output>
		</layer>
		<layer id="142" name="/backbone/stage1/stage1.1/blocks/blocks.1/conv2/conv/Conv" type="Add" version="opset1">
			<data auto_broadcast="numpy" />
			<input>
				<port id="0" precision="FP32">
					<dim>-1</dim>
					<dim>80</dim>
					<dim>160</dim>
					<dim>-1</dim>
				</port>
				<port id="1" precision="FP32">
					<dim>1</dim>
					<dim>80</dim>
					<dim>1</dim>
					<dim>1</dim>
				</port>
			</input>
			<output>
				<port id="2" precision="FP32" names="/backbone/stage1/stage1.1/blocks/blocks.1/conv2/conv/Conv_output_0">
					<dim>-1</dim>
					<dim>80</dim>
					<dim>160</dim>
					<dim>-1</dim>
				</port>
			</output>
		</layer>
		<layer id="143" name="/backbone/stage1/stage1.1/blocks/blocks.1/conv2/activate/Mul" type="Swish" version="opset4">
			<input>
				<port id="0" precision="FP32">
					<dim>-1</dim>
					<dim>80</dim>
					<dim>160</dim>
					<dim>-1</dim>
				</port>
			</input>
			<output>
				<port id="1" precision="FP32" names="/backbone/stage1/stage1.1/blocks/blocks.1/conv2/activate/Mul_output_0">
					<dim>-1</dim>
					<dim>80</dim>
					<dim>160</dim>
					<dim>-1</dim>
				</port>
			</output>
		</layer>
		<layer id="144" name="Constant_80542" type="Const" version="opset1">
			<data element_type="f32" shape="" offset="268704" size="4" />
			<output>
				<port id="0" precision="FP32" />
			</output>
		</layer>
		<layer id="145" name="Constant_80543" type="Const" version="opset1">
			<data element_type="f32" shape="" offset="268708" size="4" />
			<output>
				<port id="0" precision="FP32" />
			</output>
		</layer>
		<layer id="146" name="Constant_80544" type="Const" version="opset1">
			<data element_type="f32" shape="" offset="268704" size="4" />
			<output>
				<port id="0" precision="FP32" />
			</output>
		</layer>
		<layer id="147" name="Constant_80545" type="Const" version="opset1">
			<data element_type="f32" shape="" offset="268708" size="4" />
			<output>
				<port id="0" precision="FP32" />
			</output>
		</layer>
		<layer id="148" name="/backbone/stage1/stage1.1/blocks/blocks.1/conv2/activate/Mul/fq_output_0" type="FakeQuantize" version="opset1">
			<data levels="256" auto_broadcast="numpy" />
			<input>
				<port id="0" precision="FP32">
					<dim>-1</dim>
					<dim>80</dim>
					<dim>160</dim>
					<dim>-1</dim>
				</port>
				<port id="1" precision="FP32" />
				<port id="2" precision="FP32" />
				<port id="3" precision="FP32" />
				<port id="4" precision="FP32" />
			</input>
			<output>
				<port id="5" precision="FP32">
					<dim>-1</dim>
					<dim>80</dim>
					<dim>160</dim>
					<dim>-1</dim>
				</port>
			</output>
		</layer>
		<layer id="149" name="/backbone/stage1/stage1.1/blocks/blocks.1/Add" type="Add" version="opset1">
			<data auto_broadcast="numpy" />
			<input>
				<port id="0" precision="FP32">
					<dim>-1</dim>
					<dim>80</dim>
					<dim>160</dim>
					<dim>-1</dim>
				</port>
				<port id="1" precision="FP32">
					<dim>-1</dim>
					<dim>80</dim>
					<dim>160</dim>
					<dim>-1</dim>
				</port>
			</input>
			<output>
				<port id="2" precision="FP32" names="/backbone/stage1/stage1.1/blocks/blocks.1/Add_output_0">
					<dim>-1</dim>
					<dim>80</dim>
					<dim>160</dim>
					<dim>-1</dim>
				</port>
			</output>
		</layer>
		<layer id="150" name="Constant_80547" type="Const" version="opset1">
			<data element_type="f32" shape="" offset="268712" size="4" />
			<output>
				<port id="0" precision="FP32" />
			</output>
		</layer>
		<layer id="151" name="Constant_80548" type="Const" version="opset1">
			<data element_type="f32" shape="" offset="268716" size="4" />
			<output>
				<port id="0" precision="FP32" />
			</output>
		</layer>
		<layer id="152" name="Constant_80549" type="Const" version="opset1">
			<data element_type="f32" shape="" offset="268712" size="4" />
			<output>
				<port id="0" precision="FP32" />
			</output>
		</layer>
		<layer id="153" name="Constant_80550" type="Const" version="opset1">
			<data element_type="f32" shape="" offset="268716" size="4" />
			<output>
				<port id="0" precision="FP32" />
			</output>
		</layer>
		<layer id="154" name="/backbone/stage1/stage1.1/blocks/blocks.1/Add/fq_output_0" type="FakeQuantize" version="opset1">
			<data levels="256" auto_broadcast="numpy" />
			<input>
				<port id="0" precision="FP32">
					<dim>-1</dim>
					<dim>80</dim>
					<dim>160</dim>
					<dim>-1</dim>
				</port>
				<port id="1" precision="FP32" />
				<port id="2" precision="FP32" />
				<port id="3" precision="FP32" />
				<port id="4" precision="FP32" />
			</input>
			<output>
				<port id="5" precision="FP32">
					<dim>-1</dim>
					<dim>80</dim>
					<dim>160</dim>
					<dim>-1</dim>
				</port>
			</output>
		</layer>
		<layer id="155" name="onnx::Conv_2090_compressed" type="Const" version="opset1">
			<data element_type="i8" shape="80, 80, 1, 1" offset="268720" size="6400" />
			<output>
				<port id="0" precision="I8">
					<dim>80</dim>
					<dim>80</dim>
					<dim>1</dim>
					<dim>1</dim>
				</port>
			</output>
		</layer>
		<layer id="156" name="Convert_1024121" type="Convert" version="opset1">
			<data destination_type="f32" />
			<input>
				<port id="0" precision="I8">
					<dim>80</dim>
					<dim>80</dim>
					<dim>1</dim>
					<dim>1</dim>
				</port>
			</input>
			<output>
				<port id="1" precision="FP32">
					<dim>80</dim>
					<dim>80</dim>
					<dim>1</dim>
					<dim>1</dim>
				</port>
			</output>
		</layer>
		<layer id="157" name="Constant_1024019" type="Const" version="opset1">
			<data element_type="f32" shape="80, 1, 1, 1" offset="275120" size="320" />
			<output>
				<port id="0" precision="FP32">
					<dim>80</dim>
					<dim>1</dim>
					<dim>1</dim>
					<dim>1</dim>
				</port>
			</output>
		</layer>
		<layer id="158" name="/backbone/stage1/stage1.1/blocks/blocks.2/conv1/conv/Conv/WithoutBiases/fq_weights_1" type="Multiply" version="opset1">
			<data auto_broadcast="numpy" />
			<input>
				<port id="0" precision="FP32">
					<dim>80</dim>
					<dim>80</dim>
					<dim>1</dim>
					<dim>1</dim>
				</port>
				<port id="1" precision="FP32">
					<dim>80</dim>
					<dim>1</dim>
					<dim>1</dim>
					<dim>1</dim>
				</port>
			</input>
			<output>
				<port id="2" precision="FP32">
					<dim>80</dim>
					<dim>80</dim>
					<dim>1</dim>
					<dim>1</dim>
				</port>
			</output>
		</layer>
		<layer id="159" name="/backbone/stage1/stage1.1/blocks/blocks.2/conv1/conv/Conv/WithoutBiases" type="Convolution" version="opset1">
			<data strides="1, 1" dilations="1, 1" pads_begin="0, 0" pads_end="0, 0" auto_pad="explicit" />
			<input>
				<port id="0" precision="FP32">
					<dim>-1</dim>
					<dim>80</dim>
					<dim>160</dim>
					<dim>-1</dim>
				</port>
				<port id="1" precision="FP32">
					<dim>80</dim>
					<dim>80</dim>
					<dim>1</dim>
					<dim>1</dim>
				</port>
			</input>
			<output>
				<port id="2" precision="FP32">
					<dim>-1</dim>
					<dim>80</dim>
					<dim>160</dim>
					<dim>-1</dim>
				</port>
			</output>
		</layer>
		<layer id="160" name="Reshape_570_compressed" type="Const" version="opset1">
			<data element_type="f16" shape="1, 80, 1, 1" offset="275440" size="160" />
			<output>
				<port id="0" precision="FP16">
					<dim>1</dim>
					<dim>80</dim>
					<dim>1</dim>
					<dim>1</dim>
				</port>
			</output>
		</layer>
		<layer id="161" name="Reshape_570" type="Convert" version="opset1">
			<data destination_type="f32" />
			<rt_info>
				<attribute name="decompression" version="0" />
			</rt_info>
			<input>
				<port id="0" precision="FP16">
					<dim>1</dim>
					<dim>80</dim>
					<dim>1</dim>
					<dim>1</dim>
				</port>
			</input>
			<output>
				<port id="1" precision="FP32">
					<dim>1</dim>
					<dim>80</dim>
					<dim>1</dim>
					<dim>1</dim>
				</port>
			</output>
		</layer>
		<layer id="162" name="/backbone/stage1/stage1.1/blocks/blocks.2/conv1/conv/Conv" type="Add" version="opset1">
			<data auto_broadcast="numpy" />
			<input>
				<port id="0" precision="FP32">
					<dim>-1</dim>
					<dim>80</dim>
					<dim>160</dim>
					<dim>-1</dim>
				</port>
				<port id="1" precision="FP32">
					<dim>1</dim>
					<dim>80</dim>
					<dim>1</dim>
					<dim>1</dim>
				</port>
			</input>
			<output>
				<port id="2" precision="FP32" names="/backbone/stage1/stage1.1/blocks/blocks.2/conv1/conv/Conv_output_0">
					<dim>-1</dim>
					<dim>80</dim>
					<dim>160</dim>
					<dim>-1</dim>
				</port>
			</output>
		</layer>
		<layer id="163" name="/backbone/stage1/stage1.1/blocks/blocks.2/conv1/activate/Mul" type="Swish" version="opset4">
			<input>
				<port id="0" precision="FP32">
					<dim>-1</dim>
					<dim>80</dim>
					<dim>160</dim>
					<dim>-1</dim>
				</port>
			</input>
			<output>
				<port id="1" precision="FP32" names="/backbone/stage1/stage1.1/blocks/blocks.2/conv1/activate/Mul_output_0">
					<dim>-1</dim>
					<dim>80</dim>
					<dim>160</dim>
					<dim>-1</dim>
				</port>
			</output>
		</layer>
		<layer id="164" name="Constant_80557" type="Const" version="opset1">
			<data element_type="f32" shape="" offset="275600" size="4" />
			<output>
				<port id="0" precision="FP32" />
			</output>
		</layer>
		<layer id="165" name="Constant_80558" type="Const" version="opset1">
			<data element_type="f32" shape="" offset="275604" size="4" />
			<output>
				<port id="0" precision="FP32" />
			</output>
		</layer>
		<layer id="166" name="Constant_80559" type="Const" version="opset1">
			<data element_type="f32" shape="" offset="275600" size="4" />
			<output>
				<port id="0" precision="FP32" />
			</output>
		</layer>
		<layer id="167" name="Constant_80560" type="Const" version="opset1">
			<data element_type="f32" shape="" offset="275604" size="4" />
			<output>
				<port id="0" precision="FP32" />
			</output>
		</layer>
		<layer id="168" name="/backbone/stage1/stage1.1/blocks/blocks.2/conv1/activate/Mul/fq_output_0" type="FakeQuantize" version="opset1">
			<data levels="256" auto_broadcast="numpy" />
			<input>
				<port id="0" precision="FP32">
					<dim>-1</dim>
					<dim>80</dim>
					<dim>160</dim>
					<dim>-1</dim>
				</port>
				<port id="1" precision="FP32" />
				<port id="2" precision="FP32" />
				<port id="3" precision="FP32" />
				<port id="4" precision="FP32" />
			</input>
			<output>
				<port id="5" precision="FP32">
					<dim>-1</dim>
					<dim>80</dim>
					<dim>160</dim>
					<dim>-1</dim>
				</port>
			</output>
		</layer>
		<layer id="169" name="onnx::Conv_2093_compressed" type="Const" version="opset1">
			<data element_type="i8" shape="80, 80, 3, 3" offset="275608" size="57600" />
			<output>
				<port id="0" precision="I8">
					<dim>80</dim>
					<dim>80</dim>
					<dim>3</dim>
					<dim>3</dim>
				</port>
			</output>
		</layer>
		<layer id="170" name="Convert_1024283" type="Convert" version="opset1">
			<data destination_type="f32" />
			<input>
				<port id="0" precision="I8">
					<dim>80</dim>
					<dim>80</dim>
					<dim>3</dim>
					<dim>3</dim>
				</port>
			</input>
			<output>
				<port id="1" precision="FP32">
					<dim>80</dim>
					<dim>80</dim>
					<dim>3</dim>
					<dim>3</dim>
				</port>
			</output>
		</layer>
		<layer id="171" name="Constant_1024181" type="Const" version="opset1">
			<data element_type="f32" shape="80, 1, 1, 1" offset="333208" size="320" />
			<output>
				<port id="0" precision="FP32">
					<dim>80</dim>
					<dim>1</dim>
					<dim>1</dim>
					<dim>1</dim>
				</port>
			</output>
		</layer>
		<layer id="172" name="/backbone/stage1/stage1.1/blocks/blocks.2/conv2/conv/Conv/WithoutBiases/fq_weights_1" type="Multiply" version="opset1">
			<data auto_broadcast="numpy" />
			<input>
				<port id="0" precision="FP32">
					<dim>80</dim>
					<dim>80</dim>
					<dim>3</dim>
					<dim>3</dim>
				</port>
				<port id="1" precision="FP32">
					<dim>80</dim>
					<dim>1</dim>
					<dim>1</dim>
					<dim>1</dim>
				</port>
			</input>
			<output>
				<port id="2" precision="FP32">
					<dim>80</dim>
					<dim>80</dim>
					<dim>3</dim>
					<dim>3</dim>
				</port>
			</output>
		</layer>
		<layer id="173" name="/backbone/stage1/stage1.1/blocks/blocks.2/conv2/conv/Conv/WithoutBiases" type="Convolution" version="opset1">
			<data strides="1, 1" dilations="1, 1" pads_begin="1, 1" pads_end="1, 1" auto_pad="explicit" />
			<input>
				<port id="0" precision="FP32">
					<dim>-1</dim>
					<dim>80</dim>
					<dim>160</dim>
					<dim>-1</dim>
				</port>
				<port id="1" precision="FP32">
					<dim>80</dim>
					<dim>80</dim>
					<dim>3</dim>
					<dim>3</dim>
				</port>
			</input>
			<output>
				<port id="2" precision="FP32">
					<dim>-1</dim>
					<dim>80</dim>
					<dim>160</dim>
					<dim>-1</dim>
				</port>
			</output>
		</layer>
		<layer id="174" name="Reshape_587_compressed" type="Const" version="opset1">
			<data element_type="f16" shape="1, 80, 1, 1" offset="333528" size="160" />
			<output>
				<port id="0" precision="FP16">
					<dim>1</dim>
					<dim>80</dim>
					<dim>1</dim>
					<dim>1</dim>
				</port>
			</output>
		</layer>
		<layer id="175" name="Reshape_587" type="Convert" version="opset1">
			<data destination_type="f32" />
			<rt_info>
				<attribute name="decompression" version="0" />
			</rt_info>
			<input>
				<port id="0" precision="FP16">
					<dim>1</dim>
					<dim>80</dim>
					<dim>1</dim>
					<dim>1</dim>
				</port>
			</input>
			<output>
				<port id="1" precision="FP32">
					<dim>1</dim>
					<dim>80</dim>
					<dim>1</dim>
					<dim>1</dim>
				</port>
			</output>
		</layer>
		<layer id="176" name="/backbone/stage1/stage1.1/blocks/blocks.2/conv2/conv/Conv" type="Add" version="opset1">
			<data auto_broadcast="numpy" />
			<input>
				<port id="0" precision="FP32">
					<dim>-1</dim>
					<dim>80</dim>
					<dim>160</dim>
					<dim>-1</dim>
				</port>
				<port id="1" precision="FP32">
					<dim>1</dim>
					<dim>80</dim>
					<dim>1</dim>
					<dim>1</dim>
				</port>
			</input>
			<output>
				<port id="2" precision="FP32" names="/backbone/stage1/stage1.1/blocks/blocks.2/conv2/conv/Conv_output_0">
					<dim>-1</dim>
					<dim>80</dim>
					<dim>160</dim>
					<dim>-1</dim>
				</port>
			</output>
		</layer>
		<layer id="177" name="/backbone/stage1/stage1.1/blocks/blocks.2/conv2/activate/Mul" type="Swish" version="opset4">
			<input>
				<port id="0" precision="FP32">
					<dim>-1</dim>
					<dim>80</dim>
					<dim>160</dim>
					<dim>-1</dim>
				</port>
			</input>
			<output>
				<port id="1" precision="FP32" names="/backbone/stage1/stage1.1/blocks/blocks.2/conv2/activate/Mul_output_0">
					<dim>-1</dim>
					<dim>80</dim>
					<dim>160</dim>
					<dim>-1</dim>
				</port>
			</output>
		</layer>
		<layer id="178" name="Constant_80567" type="Const" version="opset1">
			<data element_type="f32" shape="" offset="333688" size="4" />
			<output>
				<port id="0" precision="FP32" />
			</output>
		</layer>
		<layer id="179" name="Constant_80568" type="Const" version="opset1">
			<data element_type="f32" shape="" offset="333692" size="4" />
			<output>
				<port id="0" precision="FP32" />
			</output>
		</layer>
		<layer id="180" name="Constant_80569" type="Const" version="opset1">
			<data element_type="f32" shape="" offset="333688" size="4" />
			<output>
				<port id="0" precision="FP32" />
			</output>
		</layer>
		<layer id="181" name="Constant_80570" type="Const" version="opset1">
			<data element_type="f32" shape="" offset="333692" size="4" />
			<output>
				<port id="0" precision="FP32" />
			</output>
		</layer>
		<layer id="182" name="/backbone/stage1/stage1.1/blocks/blocks.2/conv2/activate/Mul/fq_output_0" type="FakeQuantize" version="opset1">
			<data levels="256" auto_broadcast="numpy" />
			<input>
				<port id="0" precision="FP32">
					<dim>-1</dim>
					<dim>80</dim>
					<dim>160</dim>
					<dim>-1</dim>
				</port>
				<port id="1" precision="FP32" />
				<port id="2" precision="FP32" />
				<port id="3" precision="FP32" />
				<port id="4" precision="FP32" />
			</input>
			<output>
				<port id="5" precision="FP32">
					<dim>-1</dim>
					<dim>80</dim>
					<dim>160</dim>
					<dim>-1</dim>
				</port>
			</output>
		</layer>
		<layer id="183" name="/backbone/stage1/stage1.1/blocks/blocks.2/Add" type="Add" version="opset1">
			<data auto_broadcast="numpy" />
			<input>
				<port id="0" precision="FP32">
					<dim>-1</dim>
					<dim>80</dim>
					<dim>160</dim>
					<dim>-1</dim>
				</port>
				<port id="1" precision="FP32">
					<dim>-1</dim>
					<dim>80</dim>
					<dim>160</dim>
					<dim>-1</dim>
				</port>
			</input>
			<output>
				<port id="2" precision="FP32" names="/backbone/stage1/stage1.1/blocks/blocks.2/Add_output_0">
					<dim>-1</dim>
					<dim>80</dim>
					<dim>160</dim>
					<dim>-1</dim>
				</port>
			</output>
		</layer>
		<layer id="184" name="Constant_80572" type="Const" version="opset1">
			<data element_type="f32" shape="" offset="333696" size="4" />
			<output>
				<port id="0" precision="FP32" />
			</output>
		</layer>
		<layer id="185" name="Constant_80573" type="Const" version="opset1">
			<data element_type="f32" shape="" offset="333700" size="4" />
			<output>
				<port id="0" precision="FP32" />
			</output>
		</layer>
		<layer id="186" name="Constant_80574" type="Const" version="opset1">
			<data element_type="f32" shape="" offset="333696" size="4" />
			<output>
				<port id="0" precision="FP32" />
			</output>
		</layer>
		<layer id="187" name="Constant_80575" type="Const" version="opset1">
			<data element_type="f32" shape="" offset="333700" size="4" />
			<output>
				<port id="0" precision="FP32" />
			</output>
		</layer>
		<layer id="188" name="/backbone/stage1/stage1.1/blocks/blocks.2/Add/fq_output_0" type="FakeQuantize" version="opset1">
			<data levels="256" auto_broadcast="numpy" />
			<input>
				<port id="0" precision="FP32">
					<dim>-1</dim>
					<dim>80</dim>
					<dim>160</dim>
					<dim>-1</dim>
				</port>
				<port id="1" precision="FP32" />
				<port id="2" precision="FP32" />
				<port id="3" precision="FP32" />
				<port id="4" precision="FP32" />
			</input>
			<output>
				<port id="5" precision="FP32">
					<dim>-1</dim>
					<dim>80</dim>
					<dim>160</dim>
					<dim>-1</dim>
				</port>
			</output>
		</layer>
		<layer id="189" name="onnx::Conv_2096_compressed" type="Const" version="opset1">
			<data element_type="i8" shape="80, 80, 1, 1" offset="333704" size="6400" />
			<output>
				<port id="0" precision="I8">
					<dim>80</dim>
					<dim>80</dim>
					<dim>1</dim>
					<dim>1</dim>
				</port>
			</output>
		</layer>
		<layer id="190" name="Convert_1024445" type="Convert" version="opset1">
			<data destination_type="f32" />
			<input>
				<port id="0" precision="I8">
					<dim>80</dim>
					<dim>80</dim>
					<dim>1</dim>
					<dim>1</dim>
				</port>
			</input>
			<output>
				<port id="1" precision="FP32">
					<dim>80</dim>
					<dim>80</dim>
					<dim>1</dim>
					<dim>1</dim>
				</port>
			</output>
		</layer>
		<layer id="191" name="Constant_1024343" type="Const" version="opset1">
			<data element_type="f32" shape="80, 1, 1, 1" offset="340104" size="320" />
			<output>
				<port id="0" precision="FP32">
					<dim>80</dim>
					<dim>1</dim>
					<dim>1</dim>
					<dim>1</dim>
				</port>
			</output>
		</layer>
		<layer id="192" name="/backbone/stage1/stage1.1/blocks/blocks.3/conv1/conv/Conv/WithoutBiases/fq_weights_1" type="Multiply" version="opset1">
			<data auto_broadcast="numpy" />
			<input>
				<port id="0" precision="FP32">
					<dim>80</dim>
					<dim>80</dim>
					<dim>1</dim>
					<dim>1</dim>
				</port>
				<port id="1" precision="FP32">
					<dim>80</dim>
					<dim>1</dim>
					<dim>1</dim>
					<dim>1</dim>
				</port>
			</input>
			<output>
				<port id="2" precision="FP32">
					<dim>80</dim>
					<dim>80</dim>
					<dim>1</dim>
					<dim>1</dim>
				</port>
			</output>
		</layer>
		<layer id="193" name="/backbone/stage1/stage1.1/blocks/blocks.3/conv1/conv/Conv/WithoutBiases" type="Convolution" version="opset1">
			<data strides="1, 1" dilations="1, 1" pads_begin="0, 0" pads_end="0, 0" auto_pad="explicit" />
			<input>
				<port id="0" precision="FP32">
					<dim>-1</dim>
					<dim>80</dim>
					<dim>160</dim>
					<dim>-1</dim>
				</port>
				<port id="1" precision="FP32">
					<dim>80</dim>
					<dim>80</dim>
					<dim>1</dim>
					<dim>1</dim>
				</port>
			</input>
			<output>
				<port id="2" precision="FP32">
					<dim>-1</dim>
					<dim>80</dim>
					<dim>160</dim>
					<dim>-1</dim>
				</port>
			</output>
		</layer>
		<layer id="194" name="Reshape_605_compressed" type="Const" version="opset1">
			<data element_type="f16" shape="1, 80, 1, 1" offset="340424" size="160" />
			<output>
				<port id="0" precision="FP16">
					<dim>1</dim>
					<dim>80</dim>
					<dim>1</dim>
					<dim>1</dim>
				</port>
			</output>
		</layer>
		<layer id="195" name="Reshape_605" type="Convert" version="opset1">
			<data destination_type="f32" />
			<rt_info>
				<attribute name="decompression" version="0" />
			</rt_info>
			<input>
				<port id="0" precision="FP16">
					<dim>1</dim>
					<dim>80</dim>
					<dim>1</dim>
					<dim>1</dim>
				</port>
			</input>
			<output>
				<port id="1" precision="FP32">
					<dim>1</dim>
					<dim>80</dim>
					<dim>1</dim>
					<dim>1</dim>
				</port>
			</output>
		</layer>
		<layer id="196" name="/backbone/stage1/stage1.1/blocks/blocks.3/conv1/conv/Conv" type="Add" version="opset1">
			<data auto_broadcast="numpy" />
			<input>
				<port id="0" precision="FP32">
					<dim>-1</dim>
					<dim>80</dim>
					<dim>160</dim>
					<dim>-1</dim>
				</port>
				<port id="1" precision="FP32">
					<dim>1</dim>
					<dim>80</dim>
					<dim>1</dim>
					<dim>1</dim>
				</port>
			</input>
			<output>
				<port id="2" precision="FP32" names="/backbone/stage1/stage1.1/blocks/blocks.3/conv1/conv/Conv_output_0">
					<dim>-1</dim>
					<dim>80</dim>
					<dim>160</dim>
					<dim>-1</dim>
				</port>
			</output>
		</layer>
		<layer id="197" name="/backbone/stage1/stage1.1/blocks/blocks.3/conv1/activate/Mul" type="Swish" version="opset4">
			<input>
				<port id="0" precision="FP32">
					<dim>-1</dim>
					<dim>80</dim>
					<dim>160</dim>
					<dim>-1</dim>
				</port>
			</input>
			<output>
				<port id="1" precision="FP32" names="/backbone/stage1/stage1.1/blocks/blocks.3/conv1/activate/Mul_output_0">
					<dim>-1</dim>
					<dim>80</dim>
					<dim>160</dim>
					<dim>-1</dim>
				</port>
			</output>
		</layer>
		<layer id="198" name="Constant_80582" type="Const" version="opset1">
			<data element_type="f32" shape="" offset="340584" size="4" />
			<output>
				<port id="0" precision="FP32" />
			</output>
		</layer>
		<layer id="199" name="Constant_80583" type="Const" version="opset1">
			<data element_type="f32" shape="" offset="340588" size="4" />
			<output>
				<port id="0" precision="FP32" />
			</output>
		</layer>
		<layer id="200" name="Constant_80584" type="Const" version="opset1">
			<data element_type="f32" shape="" offset="340584" size="4" />
			<output>
				<port id="0" precision="FP32" />
			</output>
		</layer>
		<layer id="201" name="Constant_80585" type="Const" version="opset1">
			<data element_type="f32" shape="" offset="340588" size="4" />
			<output>
				<port id="0" precision="FP32" />
			</output>
		</layer>
		<layer id="202" name="/backbone/stage1/stage1.1/blocks/blocks.3/conv1/activate/Mul/fq_output_0" type="FakeQuantize" version="opset1">
			<data levels="256" auto_broadcast="numpy" />
			<input>
				<port id="0" precision="FP32">
					<dim>-1</dim>
					<dim>80</dim>
					<dim>160</dim>
					<dim>-1</dim>
				</port>
				<port id="1" precision="FP32" />
				<port id="2" precision="FP32" />
				<port id="3" precision="FP32" />
				<port id="4" precision="FP32" />
			</input>
			<output>
				<port id="5" precision="FP32">
					<dim>-1</dim>
					<dim>80</dim>
					<dim>160</dim>
					<dim>-1</dim>
				</port>
			</output>
		</layer>
		<layer id="203" name="onnx::Conv_2099_compressed" type="Const" version="opset1">
			<data element_type="i8" shape="80, 80, 3, 3" offset="340592" size="57600" />
			<output>
				<port id="0" precision="I8">
					<dim>80</dim>
					<dim>80</dim>
					<dim>3</dim>
					<dim>3</dim>
				</port>
			</output>
		</layer>
		<layer id="204" name="Convert_1024607" type="Convert" version="opset1">
			<data destination_type="f32" />
			<input>
				<port id="0" precision="I8">
					<dim>80</dim>
					<dim>80</dim>
					<dim>3</dim>
					<dim>3</dim>
				</port>
			</input>
			<output>
				<port id="1" precision="FP32">
					<dim>80</dim>
					<dim>80</dim>
					<dim>3</dim>
					<dim>3</dim>
				</port>
			</output>
		</layer>
		<layer id="205" name="Constant_1024505" type="Const" version="opset1">
			<data element_type="f32" shape="80, 1, 1, 1" offset="398192" size="320" />
			<output>
				<port id="0" precision="FP32">
					<dim>80</dim>
					<dim>1</dim>
					<dim>1</dim>
					<dim>1</dim>
				</port>
			</output>
		</layer>
		<layer id="206" name="/backbone/stage1/stage1.1/blocks/blocks.3/conv2/conv/Conv/WithoutBiases/fq_weights_1" type="Multiply" version="opset1">
			<data auto_broadcast="numpy" />
			<input>
				<port id="0" precision="FP32">
					<dim>80</dim>
					<dim>80</dim>
					<dim>3</dim>
					<dim>3</dim>
				</port>
				<port id="1" precision="FP32">
					<dim>80</dim>
					<dim>1</dim>
					<dim>1</dim>
					<dim>1</dim>
				</port>
			</input>
			<output>
				<port id="2" precision="FP32">
					<dim>80</dim>
					<dim>80</dim>
					<dim>3</dim>
					<dim>3</dim>
				</port>
			</output>
		</layer>
		<layer id="207" name="/backbone/stage1/stage1.1/blocks/blocks.3/conv2/conv/Conv/WithoutBiases" type="Convolution" version="opset1">
			<data strides="1, 1" dilations="1, 1" pads_begin="1, 1" pads_end="1, 1" auto_pad="explicit" />
			<input>
				<port id="0" precision="FP32">
					<dim>-1</dim>
					<dim>80</dim>
					<dim>160</dim>
					<dim>-1</dim>
				</port>
				<port id="1" precision="FP32">
					<dim>80</dim>
					<dim>80</dim>
					<dim>3</dim>
					<dim>3</dim>
				</port>
			</input>
			<output>
				<port id="2" precision="FP32">
					<dim>-1</dim>
					<dim>80</dim>
					<dim>160</dim>
					<dim>-1</dim>
				</port>
			</output>
		</layer>
		<layer id="208" name="Reshape_622_compressed" type="Const" version="opset1">
			<data element_type="f16" shape="1, 80, 1, 1" offset="398512" size="160" />
			<output>
				<port id="0" precision="FP16">
					<dim>1</dim>
					<dim>80</dim>
					<dim>1</dim>
					<dim>1</dim>
				</port>
			</output>
		</layer>
		<layer id="209" name="Reshape_622" type="Convert" version="opset1">
			<data destination_type="f32" />
			<rt_info>
				<attribute name="decompression" version="0" />
			</rt_info>
			<input>
				<port id="0" precision="FP16">
					<dim>1</dim>
					<dim>80</dim>
					<dim>1</dim>
					<dim>1</dim>
				</port>
			</input>
			<output>
				<port id="1" precision="FP32">
					<dim>1</dim>
					<dim>80</dim>
					<dim>1</dim>
					<dim>1</dim>
				</port>
			</output>
		</layer>
		<layer id="210" name="/backbone/stage1/stage1.1/blocks/blocks.3/conv2/conv/Conv" type="Add" version="opset1">
			<data auto_broadcast="numpy" />
			<input>
				<port id="0" precision="FP32">
					<dim>-1</dim>
					<dim>80</dim>
					<dim>160</dim>
					<dim>-1</dim>
				</port>
				<port id="1" precision="FP32">
					<dim>1</dim>
					<dim>80</dim>
					<dim>1</dim>
					<dim>1</dim>
				</port>
			</input>
			<output>
				<port id="2" precision="FP32" names="/backbone/stage1/stage1.1/blocks/blocks.3/conv2/conv/Conv_output_0">
					<dim>-1</dim>
					<dim>80</dim>
					<dim>160</dim>
					<dim>-1</dim>
				</port>
			</output>
		</layer>
		<layer id="211" name="/backbone/stage1/stage1.1/blocks/blocks.3/conv2/activate/Mul" type="Swish" version="opset4">
			<input>
				<port id="0" precision="FP32">
					<dim>-1</dim>
					<dim>80</dim>
					<dim>160</dim>
					<dim>-1</dim>
				</port>
			</input>
			<output>
				<port id="1" precision="FP32" names="/backbone/stage1/stage1.1/blocks/blocks.3/conv2/activate/Mul_output_0">
					<dim>-1</dim>
					<dim>80</dim>
					<dim>160</dim>
					<dim>-1</dim>
				</port>
			</output>
		</layer>
		<layer id="212" name="Constant_80592" type="Const" version="opset1">
			<data element_type="f32" shape="" offset="398672" size="4" />
			<output>
				<port id="0" precision="FP32" />
			</output>
		</layer>
		<layer id="213" name="Constant_80593" type="Const" version="opset1">
			<data element_type="f32" shape="" offset="398676" size="4" />
			<output>
				<port id="0" precision="FP32" />
			</output>
		</layer>
		<layer id="214" name="Constant_80594" type="Const" version="opset1">
			<data element_type="f32" shape="" offset="398672" size="4" />
			<output>
				<port id="0" precision="FP32" />
			</output>
		</layer>
		<layer id="215" name="Constant_80595" type="Const" version="opset1">
			<data element_type="f32" shape="" offset="398676" size="4" />
			<output>
				<port id="0" precision="FP32" />
			</output>
		</layer>
		<layer id="216" name="/backbone/stage1/stage1.1/blocks/blocks.3/conv2/activate/Mul/fq_output_0" type="FakeQuantize" version="opset1">
			<data levels="256" auto_broadcast="numpy" />
			<input>
				<port id="0" precision="FP32">
					<dim>-1</dim>
					<dim>80</dim>
					<dim>160</dim>
					<dim>-1</dim>
				</port>
				<port id="1" precision="FP32" />
				<port id="2" precision="FP32" />
				<port id="3" precision="FP32" />
				<port id="4" precision="FP32" />
			</input>
			<output>
				<port id="5" precision="FP32">
					<dim>-1</dim>
					<dim>80</dim>
					<dim>160</dim>
					<dim>-1</dim>
				</port>
			</output>
		</layer>
		<layer id="217" name="/backbone/stage1/stage1.1/blocks/blocks.3/Add" type="Add" version="opset1">
			<data auto_broadcast="numpy" />
			<input>
				<port id="0" precision="FP32">
					<dim>-1</dim>
					<dim>80</dim>
					<dim>160</dim>
					<dim>-1</dim>
				</port>
				<port id="1" precision="FP32">
					<dim>-1</dim>
					<dim>80</dim>
					<dim>160</dim>
					<dim>-1</dim>
				</port>
			</input>
			<output>
				<port id="2" precision="FP32" names="/backbone/stage1/stage1.1/blocks/blocks.3/Add_output_0">
					<dim>-1</dim>
					<dim>80</dim>
					<dim>160</dim>
					<dim>-1</dim>
				</port>
			</output>
		</layer>
		<layer id="218" name="Constant_80342" type="Const" version="opset1">
			<data element_type="f32" shape="" offset="398680" size="4" />
			<output>
				<port id="0" precision="FP32" />
			</output>
		</layer>
		<layer id="219" name="Constant_80343" type="Const" version="opset1">
			<data element_type="f32" shape="" offset="398684" size="4" />
			<output>
				<port id="0" precision="FP32" />
			</output>
		</layer>
		<layer id="220" name="Constant_80344" type="Const" version="opset1">
			<data element_type="f32" shape="" offset="398680" size="4" />
			<output>
				<port id="0" precision="FP32" />
			</output>
		</layer>
		<layer id="221" name="Constant_80345" type="Const" version="opset1">
			<data element_type="f32" shape="" offset="398684" size="4" />
			<output>
				<port id="0" precision="FP32" />
			</output>
		</layer>
		<layer id="222" name="/backbone/stage1/stage1.1/blocks/blocks.3/Add/fq_output_0" type="FakeQuantize" version="opset1">
			<data levels="256" auto_broadcast="numpy" />
			<input>
				<port id="0" precision="FP32">
					<dim>-1</dim>
					<dim>80</dim>
					<dim>160</dim>
					<dim>-1</dim>
				</port>
				<port id="1" precision="FP32" />
				<port id="2" precision="FP32" />
				<port id="3" precision="FP32" />
				<port id="4" precision="FP32" />
			</input>
			<output>
				<port id="5" precision="FP32">
					<dim>-1</dim>
					<dim>80</dim>
					<dim>160</dim>
					<dim>-1</dim>
				</port>
			</output>
		</layer>
		<layer id="223" name="onnx::Conv_2072_compressed" type="Const" version="opset1">
			<data element_type="i8" shape="80, 160, 1, 1" offset="398688" size="12800" />
			<output>
				<port id="0" precision="I8">
					<dim>80</dim>
					<dim>160</dim>
					<dim>1</dim>
					<dim>1</dim>
				</port>
			</output>
		</layer>
		<layer id="224" name="Convert_1024769" type="Convert" version="opset1">
			<data destination_type="f32" />
			<input>
				<port id="0" precision="I8">
					<dim>80</dim>
					<dim>160</dim>
					<dim>1</dim>
					<dim>1</dim>
				</port>
			</input>
			<output>
				<port id="1" precision="FP32">
					<dim>80</dim>
					<dim>160</dim>
					<dim>1</dim>
					<dim>1</dim>
				</port>
			</output>
		</layer>
		<layer id="225" name="Constant_1024667" type="Const" version="opset1">
			<data element_type="f32" shape="80, 1, 1, 1" offset="411488" size="320" />
			<output>
				<port id="0" precision="FP32">
					<dim>80</dim>
					<dim>1</dim>
					<dim>1</dim>
					<dim>1</dim>
				</port>
			</output>
		</layer>
		<layer id="226" name="/backbone/stage1/stage1.1/short_conv/conv/Conv/WithoutBiases/fq_weights_1" type="Multiply" version="opset1">
			<data auto_broadcast="numpy" />
			<input>
				<port id="0" precision="FP32">
					<dim>80</dim>
					<dim>160</dim>
					<dim>1</dim>
					<dim>1</dim>
				</port>
				<port id="1" precision="FP32">
					<dim>80</dim>
					<dim>1</dim>
					<dim>1</dim>
					<dim>1</dim>
				</port>
			</input>
			<output>
				<port id="2" precision="FP32">
					<dim>80</dim>
					<dim>160</dim>
					<dim>1</dim>
					<dim>1</dim>
				</port>
			</output>
		</layer>
		<layer id="227" name="/backbone/stage1/stage1.1/short_conv/conv/Conv/WithoutBiases" type="Convolution" version="opset1">
			<data strides="1, 1" dilations="1, 1" pads_begin="0, 0" pads_end="0, 0" auto_pad="explicit" />
			<input>
				<port id="0" precision="FP32">
					<dim>-1</dim>
					<dim>160</dim>
					<dim>160</dim>
					<dim>-1</dim>
				</port>
				<port id="1" precision="FP32">
					<dim>80</dim>
					<dim>160</dim>
					<dim>1</dim>
					<dim>1</dim>
				</port>
			</input>
			<output>
				<port id="2" precision="FP32">
					<dim>-1</dim>
					<dim>80</dim>
					<dim>160</dim>
					<dim>-1</dim>
				</port>
			</output>
		</layer>
		<layer id="228" name="Reshape_466_compressed" type="Const" version="opset1">
			<data element_type="f16" shape="1, 80, 1, 1" offset="411808" size="160" />
			<output>
				<port id="0" precision="FP16">
					<dim>1</dim>
					<dim>80</dim>
					<dim>1</dim>
					<dim>1</dim>
				</port>
			</output>
		</layer>
		<layer id="229" name="Reshape_466" type="Convert" version="opset1">
			<data destination_type="f32" />
			<rt_info>
				<attribute name="decompression" version="0" />
			</rt_info>
			<input>
				<port id="0" precision="FP16">
					<dim>1</dim>
					<dim>80</dim>
					<dim>1</dim>
					<dim>1</dim>
				</port>
			</input>
			<output>
				<port id="1" precision="FP32">
					<dim>1</dim>
					<dim>80</dim>
					<dim>1</dim>
					<dim>1</dim>
				</port>
			</output>
		</layer>
		<layer id="230" name="/backbone/stage1/stage1.1/short_conv/conv/Conv" type="Add" version="opset1">
			<data auto_broadcast="numpy" />
			<input>
				<port id="0" precision="FP32">
					<dim>-1</dim>
					<dim>80</dim>
					<dim>160</dim>
					<dim>-1</dim>
				</port>
				<port id="1" precision="FP32">
					<dim>1</dim>
					<dim>80</dim>
					<dim>1</dim>
					<dim>1</dim>
				</port>
			</input>
			<output>
				<port id="2" precision="FP32" names="/backbone/stage1/stage1.1/short_conv/conv/Conv_output_0">
					<dim>-1</dim>
					<dim>80</dim>
					<dim>160</dim>
					<dim>-1</dim>
				</port>
			</output>
		</layer>
		<layer id="231" name="/backbone/stage1/stage1.1/short_conv/activate/Mul" type="Swish" version="opset4">
			<input>
				<port id="0" precision="FP32">
					<dim>-1</dim>
					<dim>80</dim>
					<dim>160</dim>
					<dim>-1</dim>
				</port>
			</input>
			<output>
				<port id="1" precision="FP32" names="/backbone/stage1/stage1.1/short_conv/activate/Mul_output_0">
					<dim>-1</dim>
					<dim>80</dim>
					<dim>160</dim>
					<dim>-1</dim>
				</port>
			</output>
		</layer>
		<layer id="232" name="Constant_80337" type="Const" version="opset1">
			<data element_type="f32" shape="" offset="398680" size="4" />
			<output>
				<port id="0" precision="FP32" />
			</output>
		</layer>
		<layer id="233" name="Constant_80338" type="Const" version="opset1">
			<data element_type="f32" shape="" offset="398684" size="4" />
			<output>
				<port id="0" precision="FP32" />
			</output>
		</layer>
		<layer id="234" name="Constant_80339" type="Const" version="opset1">
			<data element_type="f32" shape="" offset="398680" size="4" />
			<output>
				<port id="0" precision="FP32" />
			</output>
		</layer>
		<layer id="235" name="Constant_80340" type="Const" version="opset1">
			<data element_type="f32" shape="" offset="398684" size="4" />
			<output>
				<port id="0" precision="FP32" />
			</output>
		</layer>
		<layer id="236" name="/backbone/stage1/stage1.1/short_conv/activate/Mul/fq_output_0" type="FakeQuantize" version="opset1">
			<data levels="256" auto_broadcast="numpy" />
			<input>
				<port id="0" precision="FP32">
					<dim>-1</dim>
					<dim>80</dim>
					<dim>160</dim>
					<dim>-1</dim>
				</port>
				<port id="1" precision="FP32" />
				<port id="2" precision="FP32" />
				<port id="3" precision="FP32" />
				<port id="4" precision="FP32" />
			</input>
			<output>
				<port id="5" precision="FP32">
					<dim>-1</dim>
					<dim>80</dim>
					<dim>160</dim>
					<dim>-1</dim>
				</port>
			</output>
		</layer>
		<layer id="237" name="/backbone/stage1/stage1.1/Concat" type="Concat" version="opset1">
			<data axis="1" />
			<input>
				<port id="0" precision="FP32">
					<dim>-1</dim>
					<dim>80</dim>
					<dim>160</dim>
					<dim>-1</dim>
				</port>
				<port id="1" precision="FP32">
					<dim>-1</dim>
					<dim>80</dim>
					<dim>160</dim>
					<dim>-1</dim>
				</port>
			</input>
			<output>
				<port id="2" precision="FP32" names="/backbone/stage1/stage1.1/Concat_output_0">
					<dim>-1</dim>
					<dim>160</dim>
					<dim>160</dim>
					<dim>-1</dim>
				</port>
			</output>
		</layer>
		<layer id="238" name="onnx::Conv_2102_compressed" type="Const" version="opset1">
			<data element_type="i8" shape="160, 160, 1, 1" offset="411968" size="25600" />
			<output>
				<port id="0" precision="I8">
					<dim>160</dim>
					<dim>160</dim>
					<dim>1</dim>
					<dim>1</dim>
				</port>
			</output>
		</layer>
		<layer id="239" name="Convert_1024931" type="Convert" version="opset1">
			<data destination_type="f32" />
			<input>
				<port id="0" precision="I8">
					<dim>160</dim>
					<dim>160</dim>
					<dim>1</dim>
					<dim>1</dim>
				</port>
			</input>
			<output>
				<port id="1" precision="FP32">
					<dim>160</dim>
					<dim>160</dim>
					<dim>1</dim>
					<dim>1</dim>
				</port>
			</output>
		</layer>
		<layer id="240" name="Constant_1024829" type="Const" version="opset1">
			<data element_type="f32" shape="160, 1, 1, 1" offset="437568" size="640" />
			<output>
				<port id="0" precision="FP32">
					<dim>160</dim>
					<dim>1</dim>
					<dim>1</dim>
					<dim>1</dim>
				</port>
			</output>
		</layer>
		<layer id="241" name="/backbone/stage1/stage1.1/final_conv/conv/Conv/WithoutBiases/fq_weights_1" type="Multiply" version="opset1">
			<data auto_broadcast="numpy" />
			<input>
				<port id="0" precision="FP32">
					<dim>160</dim>
					<dim>160</dim>
					<dim>1</dim>
					<dim>1</dim>
				</port>
				<port id="1" precision="FP32">
					<dim>160</dim>
					<dim>1</dim>
					<dim>1</dim>
					<dim>1</dim>
				</port>
			</input>
			<output>
				<port id="2" precision="FP32">
					<dim>160</dim>
					<dim>160</dim>
					<dim>1</dim>
					<dim>1</dim>
				</port>
			</output>
		</layer>
		<layer id="242" name="/backbone/stage1/stage1.1/final_conv/conv/Conv/WithoutBiases" type="Convolution" version="opset1">
			<data strides="1, 1" dilations="1, 1" pads_begin="0, 0" pads_end="0, 0" auto_pad="explicit" />
			<input>
				<port id="0" precision="FP32">
					<dim>-1</dim>
					<dim>160</dim>
					<dim>160</dim>
					<dim>-1</dim>
				</port>
				<port id="1" precision="FP32">
					<dim>160</dim>
					<dim>160</dim>
					<dim>1</dim>
					<dim>1</dim>
				</port>
			</input>
			<output>
				<port id="2" precision="FP32">
					<dim>-1</dim>
					<dim>160</dim>
					<dim>160</dim>
					<dim>-1</dim>
				</port>
			</output>
		</layer>
		<layer id="243" name="Reshape_641_compressed" type="Const" version="opset1">
			<data element_type="f16" shape="1, 160, 1, 1" offset="438208" size="320" />
			<output>
				<port id="0" precision="FP16">
					<dim>1</dim>
					<dim>160</dim>
					<dim>1</dim>
					<dim>1</dim>
				</port>
			</output>
		</layer>
		<layer id="244" name="Reshape_641" type="Convert" version="opset1">
			<data destination_type="f32" />
			<rt_info>
				<attribute name="decompression" version="0" />
			</rt_info>
			<input>
				<port id="0" precision="FP16">
					<dim>1</dim>
					<dim>160</dim>
					<dim>1</dim>
					<dim>1</dim>
				</port>
			</input>
			<output>
				<port id="1" precision="FP32">
					<dim>1</dim>
					<dim>160</dim>
					<dim>1</dim>
					<dim>1</dim>
				</port>
			</output>
		</layer>
		<layer id="245" name="/backbone/stage1/stage1.1/final_conv/conv/Conv" type="Add" version="opset1">
			<data auto_broadcast="numpy" />
			<input>
				<port id="0" precision="FP32">
					<dim>-1</dim>
					<dim>160</dim>
					<dim>160</dim>
					<dim>-1</dim>
				</port>
				<port id="1" precision="FP32">
					<dim>1</dim>
					<dim>160</dim>
					<dim>1</dim>
					<dim>1</dim>
				</port>
			</input>
			<output>
				<port id="2" precision="FP32" names="/backbone/stage1/stage1.1/final_conv/conv/Conv_output_0">
					<dim>-1</dim>
					<dim>160</dim>
					<dim>160</dim>
					<dim>-1</dim>
				</port>
			</output>
		</layer>
		<layer id="246" name="/backbone/stage1/stage1.1/final_conv/activate/Mul" type="Swish" version="opset4">
			<input>
				<port id="0" precision="FP32">
					<dim>-1</dim>
					<dim>160</dim>
					<dim>160</dim>
					<dim>-1</dim>
				</port>
			</input>
			<output>
				<port id="1" precision="FP32" names="/backbone/stage1/stage1.1/final_conv/activate/Mul_output_0">
					<dim>-1</dim>
					<dim>160</dim>
					<dim>160</dim>
					<dim>-1</dim>
				</port>
			</output>
		</layer>
		<layer id="247" name="Constant_80602" type="Const" version="opset1">
			<data element_type="f32" shape="" offset="438528" size="4" />
			<output>
				<port id="0" precision="FP32" />
			</output>
		</layer>
		<layer id="248" name="Constant_80603" type="Const" version="opset1">
			<data element_type="f32" shape="" offset="438532" size="4" />
			<output>
				<port id="0" precision="FP32" />
			</output>
		</layer>
		<layer id="249" name="Constant_80604" type="Const" version="opset1">
			<data element_type="f32" shape="" offset="438528" size="4" />
			<output>
				<port id="0" precision="FP32" />
			</output>
		</layer>
		<layer id="250" name="Constant_80605" type="Const" version="opset1">
			<data element_type="f32" shape="" offset="438532" size="4" />
			<output>
				<port id="0" precision="FP32" />
			</output>
		</layer>
		<layer id="251" name="/backbone/stage1/stage1.1/final_conv/activate/Mul/fq_output_0" type="FakeQuantize" version="opset1">
			<data levels="256" auto_broadcast="numpy" />
			<input>
				<port id="0" precision="FP32">
					<dim>-1</dim>
					<dim>160</dim>
					<dim>160</dim>
					<dim>-1</dim>
				</port>
				<port id="1" precision="FP32" />
				<port id="2" precision="FP32" />
				<port id="3" precision="FP32" />
				<port id="4" precision="FP32" />
			</input>
			<output>
				<port id="5" precision="FP32">
					<dim>-1</dim>
					<dim>160</dim>
					<dim>160</dim>
					<dim>-1</dim>
				</port>
			</output>
		</layer>
		<layer id="252" name="onnx::Conv_2105_compressed" type="Const" version="opset1">
			<data element_type="i8" shape="320, 160, 3, 3" offset="438536" size="460800" />
			<output>
				<port id="0" precision="I8">
					<dim>320</dim>
					<dim>160</dim>
					<dim>3</dim>
					<dim>3</dim>
				</port>
			</output>
		</layer>
		<layer id="253" name="Convert_1025093" type="Convert" version="opset1">
			<data destination_type="f32" />
			<input>
				<port id="0" precision="I8">
					<dim>320</dim>
					<dim>160</dim>
					<dim>3</dim>
					<dim>3</dim>
				</port>
			</input>
			<output>
				<port id="1" precision="FP32">
					<dim>320</dim>
					<dim>160</dim>
					<dim>3</dim>
					<dim>3</dim>
				</port>
			</output>
		</layer>
		<layer id="254" name="Constant_1024991" type="Const" version="opset1">
			<data element_type="f32" shape="320, 1, 1, 1" offset="899336" size="1280" />
			<output>
				<port id="0" precision="FP32">
					<dim>320</dim>
					<dim>1</dim>
					<dim>1</dim>
					<dim>1</dim>
				</port>
			</output>
		</layer>
		<layer id="255" name="/backbone/stage2/stage2.0/conv/Conv/WithoutBiases/fq_weights_1" type="Multiply" version="opset1">
			<data auto_broadcast="numpy" />
			<input>
				<port id="0" precision="FP32">
					<dim>320</dim>
					<dim>160</dim>
					<dim>3</dim>
					<dim>3</dim>
				</port>
				<port id="1" precision="FP32">
					<dim>320</dim>
					<dim>1</dim>
					<dim>1</dim>
					<dim>1</dim>
				</port>
			</input>
			<output>
				<port id="2" precision="FP32">
					<dim>320</dim>
					<dim>160</dim>
					<dim>3</dim>
					<dim>3</dim>
				</port>
			</output>
		</layer>
		<layer id="256" name="/backbone/stage2/stage2.0/conv/Conv/WithoutBiases" type="Convolution" version="opset1">
			<data strides="2, 2" dilations="1, 1" pads_begin="1, 1" pads_end="1, 1" auto_pad="explicit" />
			<input>
				<port id="0" precision="FP32">
					<dim>-1</dim>
					<dim>160</dim>
					<dim>160</dim>
					<dim>-1</dim>
				</port>
				<port id="1" precision="FP32">
					<dim>320</dim>
					<dim>160</dim>
					<dim>3</dim>
					<dim>3</dim>
				</port>
			</input>
			<output>
				<port id="2" precision="FP32">
					<dim>-1</dim>
					<dim>320</dim>
					<dim>80</dim>
					<dim>-1</dim>
				</port>
			</output>
		</layer>
		<layer id="257" name="Reshape_658_compressed" type="Const" version="opset1">
			<data element_type="f16" shape="1, 320, 1, 1" offset="900616" size="640" />
			<output>
				<port id="0" precision="FP16">
					<dim>1</dim>
					<dim>320</dim>
					<dim>1</dim>
					<dim>1</dim>
				</port>
			</output>
		</layer>
		<layer id="258" name="Reshape_658" type="Convert" version="opset1">
			<data destination_type="f32" />
			<rt_info>
				<attribute name="decompression" version="0" />
			</rt_info>
			<input>
				<port id="0" precision="FP16">
					<dim>1</dim>
					<dim>320</dim>
					<dim>1</dim>
					<dim>1</dim>
				</port>
			</input>
			<output>
				<port id="1" precision="FP32">
					<dim>1</dim>
					<dim>320</dim>
					<dim>1</dim>
					<dim>1</dim>
				</port>
			</output>
		</layer>
		<layer id="259" name="/backbone/stage2/stage2.0/conv/Conv" type="Add" version="opset1">
			<data auto_broadcast="numpy" />
			<input>
				<port id="0" precision="FP32">
					<dim>-1</dim>
					<dim>320</dim>
					<dim>80</dim>
					<dim>-1</dim>
				</port>
				<port id="1" precision="FP32">
					<dim>1</dim>
					<dim>320</dim>
					<dim>1</dim>
					<dim>1</dim>
				</port>
			</input>
			<output>
				<port id="2" precision="FP32" names="/backbone/stage2/stage2.0/conv/Conv_output_0">
					<dim>-1</dim>
					<dim>320</dim>
					<dim>80</dim>
					<dim>-1</dim>
				</port>
			</output>
		</layer>
		<layer id="260" name="/backbone/stage2/stage2.0/activate/Mul" type="Swish" version="opset4">
			<input>
				<port id="0" precision="FP32">
					<dim>-1</dim>
					<dim>320</dim>
					<dim>80</dim>
					<dim>-1</dim>
				</port>
			</input>
			<output>
				<port id="1" precision="FP32" names="/backbone/stage2/stage2.0/activate/Mul_output_0">
					<dim>-1</dim>
					<dim>320</dim>
					<dim>80</dim>
					<dim>-1</dim>
				</port>
			</output>
		</layer>
		<layer id="261" name="Constant_80612" type="Const" version="opset1">
			<data element_type="f32" shape="" offset="901256" size="4" />
			<output>
				<port id="0" precision="FP32" />
			</output>
		</layer>
		<layer id="262" name="Constant_80613" type="Const" version="opset1">
			<data element_type="f32" shape="" offset="901260" size="4" />
			<output>
				<port id="0" precision="FP32" />
			</output>
		</layer>
		<layer id="263" name="Constant_80614" type="Const" version="opset1">
			<data element_type="f32" shape="" offset="901256" size="4" />
			<output>
				<port id="0" precision="FP32" />
			</output>
		</layer>
		<layer id="264" name="Constant_80615" type="Const" version="opset1">
			<data element_type="f32" shape="" offset="901260" size="4" />
			<output>
				<port id="0" precision="FP32" />
			</output>
		</layer>
		<layer id="265" name="/backbone/stage2/stage2.0/activate/Mul/fq_output_0" type="FakeQuantize" version="opset1">
			<data levels="256" auto_broadcast="numpy" />
			<input>
				<port id="0" precision="FP32">
					<dim>-1</dim>
					<dim>320</dim>
					<dim>80</dim>
					<dim>-1</dim>
				</port>
				<port id="1" precision="FP32" />
				<port id="2" precision="FP32" />
				<port id="3" precision="FP32" />
				<port id="4" precision="FP32" />
			</input>
			<output>
				<port id="5" precision="FP32">
					<dim>-1</dim>
					<dim>320</dim>
					<dim>80</dim>
					<dim>-1</dim>
				</port>
			</output>
		</layer>
		<layer id="266" name="onnx::Conv_2111_compressed" type="Const" version="opset1">
			<data element_type="i8" shape="160, 320, 1, 1" offset="901264" size="51200" />
			<output>
				<port id="0" precision="I8">
					<dim>160</dim>
					<dim>320</dim>
					<dim>1</dim>
					<dim>1</dim>
				</port>
			</output>
		</layer>
		<layer id="267" name="Convert_1025255" type="Convert" version="opset1">
			<data destination_type="f32" />
			<input>
				<port id="0" precision="I8">
					<dim>160</dim>
					<dim>320</dim>
					<dim>1</dim>
					<dim>1</dim>
				</port>
			</input>
			<output>
				<port id="1" precision="FP32">
					<dim>160</dim>
					<dim>320</dim>
					<dim>1</dim>
					<dim>1</dim>
				</port>
			</output>
		</layer>
		<layer id="268" name="Constant_1025153" type="Const" version="opset1">
			<data element_type="f32" shape="160, 1, 1, 1" offset="952464" size="640" />
			<output>
				<port id="0" precision="FP32">
					<dim>160</dim>
					<dim>1</dim>
					<dim>1</dim>
					<dim>1</dim>
				</port>
			</output>
		</layer>
		<layer id="269" name="/backbone/stage2/stage2.1/main_conv/conv/Conv/WithoutBiases/fq_weights_1" type="Multiply" version="opset1">
			<data auto_broadcast="numpy" />
			<input>
				<port id="0" precision="FP32">
					<dim>160</dim>
					<dim>320</dim>
					<dim>1</dim>
					<dim>1</dim>
				</port>
				<port id="1" precision="FP32">
					<dim>160</dim>
					<dim>1</dim>
					<dim>1</dim>
					<dim>1</dim>
				</port>
			</input>
			<output>
				<port id="2" precision="FP32">
					<dim>160</dim>
					<dim>320</dim>
					<dim>1</dim>
					<dim>1</dim>
				</port>
			</output>
		</layer>
		<layer id="270" name="/backbone/stage2/stage2.1/main_conv/conv/Conv/WithoutBiases" type="Convolution" version="opset1">
			<data strides="1, 1" dilations="1, 1" pads_begin="0, 0" pads_end="0, 0" auto_pad="explicit" />
			<input>
				<port id="0" precision="FP32">
					<dim>-1</dim>
					<dim>320</dim>
					<dim>80</dim>
					<dim>-1</dim>
				</port>
				<port id="1" precision="FP32">
					<dim>160</dim>
					<dim>320</dim>
					<dim>1</dim>
					<dim>1</dim>
				</port>
			</input>
			<output>
				<port id="2" precision="FP32">
					<dim>-1</dim>
					<dim>160</dim>
					<dim>80</dim>
					<dim>-1</dim>
				</port>
			</output>
		</layer>
		<layer id="271" name="Reshape_692_compressed" type="Const" version="opset1">
			<data element_type="f16" shape="1, 160, 1, 1" offset="953104" size="320" />
			<output>
				<port id="0" precision="FP16">
					<dim>1</dim>
					<dim>160</dim>
					<dim>1</dim>
					<dim>1</dim>
				</port>
			</output>
		</layer>
		<layer id="272" name="Reshape_692" type="Convert" version="opset1">
			<data destination_type="f32" />
			<rt_info>
				<attribute name="decompression" version="0" />
			</rt_info>
			<input>
				<port id="0" precision="FP16">
					<dim>1</dim>
					<dim>160</dim>
					<dim>1</dim>
					<dim>1</dim>
				</port>
			</input>
			<output>
				<port id="1" precision="FP32">
					<dim>1</dim>
					<dim>160</dim>
					<dim>1</dim>
					<dim>1</dim>
				</port>
			</output>
		</layer>
		<layer id="273" name="/backbone/stage2/stage2.1/main_conv/conv/Conv" type="Add" version="opset1">
			<data auto_broadcast="numpy" />
			<input>
				<port id="0" precision="FP32">
					<dim>-1</dim>
					<dim>160</dim>
					<dim>80</dim>
					<dim>-1</dim>
				</port>
				<port id="1" precision="FP32">
					<dim>1</dim>
					<dim>160</dim>
					<dim>1</dim>
					<dim>1</dim>
				</port>
			</input>
			<output>
				<port id="2" precision="FP32" names="/backbone/stage2/stage2.1/main_conv/conv/Conv_output_0">
					<dim>-1</dim>
					<dim>160</dim>
					<dim>80</dim>
					<dim>-1</dim>
				</port>
			</output>
		</layer>
		<layer id="274" name="/backbone/stage2/stage2.1/main_conv/activate/Mul" type="Swish" version="opset4">
			<input>
				<port id="0" precision="FP32">
					<dim>-1</dim>
					<dim>160</dim>
					<dim>80</dim>
					<dim>-1</dim>
				</port>
			</input>
			<output>
				<port id="1" precision="FP32" names="/backbone/stage2/stage2.1/main_conv/activate/Mul_output_0">
					<dim>-1</dim>
					<dim>160</dim>
					<dim>80</dim>
					<dim>-1</dim>
				</port>
			</output>
		</layer>
		<layer id="275" name="Constant_80627" type="Const" version="opset1">
			<data element_type="f32" shape="" offset="953424" size="4" />
			<output>
				<port id="0" precision="FP32" />
			</output>
		</layer>
		<layer id="276" name="Constant_80628" type="Const" version="opset1">
			<data element_type="f32" shape="" offset="953428" size="4" />
			<output>
				<port id="0" precision="FP32" />
			</output>
		</layer>
		<layer id="277" name="Constant_80629" type="Const" version="opset1">
			<data element_type="f32" shape="" offset="953424" size="4" />
			<output>
				<port id="0" precision="FP32" />
			</output>
		</layer>
		<layer id="278" name="Constant_80630" type="Const" version="opset1">
			<data element_type="f32" shape="" offset="953428" size="4" />
			<output>
				<port id="0" precision="FP32" />
			</output>
		</layer>
		<layer id="279" name="/backbone/stage2/stage2.1/main_conv/activate/Mul/fq_output_0" type="FakeQuantize" version="opset1">
			<data levels="256" auto_broadcast="numpy" />
			<input>
				<port id="0" precision="FP32">
					<dim>-1</dim>
					<dim>160</dim>
					<dim>80</dim>
					<dim>-1</dim>
				</port>
				<port id="1" precision="FP32" />
				<port id="2" precision="FP32" />
				<port id="3" precision="FP32" />
				<port id="4" precision="FP32" />
			</input>
			<output>
				<port id="5" precision="FP32">
					<dim>-1</dim>
					<dim>160</dim>
					<dim>80</dim>
					<dim>-1</dim>
				</port>
			</output>
		</layer>
		<layer id="280" name="onnx::Conv_2114_compressed" type="Const" version="opset1">
			<data element_type="i8" shape="160, 160, 1, 1" offset="953432" size="25600" />
			<output>
				<port id="0" precision="I8">
					<dim>160</dim>
					<dim>160</dim>
					<dim>1</dim>
					<dim>1</dim>
				</port>
			</output>
		</layer>
		<layer id="281" name="Convert_1025417" type="Convert" version="opset1">
			<data destination_type="f32" />
			<input>
				<port id="0" precision="I8">
					<dim>160</dim>
					<dim>160</dim>
					<dim>1</dim>
					<dim>1</dim>
				</port>
			</input>
			<output>
				<port id="1" precision="FP32">
					<dim>160</dim>
					<dim>160</dim>
					<dim>1</dim>
					<dim>1</dim>
				</port>
			</output>
		</layer>
		<layer id="282" name="Constant_1025315" type="Const" version="opset1">
			<data element_type="f32" shape="160, 1, 1, 1" offset="979032" size="640" />
			<output>
				<port id="0" precision="FP32">
					<dim>160</dim>
					<dim>1</dim>
					<dim>1</dim>
					<dim>1</dim>
				</port>
			</output>
		</layer>
		<layer id="283" name="/backbone/stage2/stage2.1/blocks/blocks.0/conv1/conv/Conv/WithoutBiases/fq_weights_1" type="Multiply" version="opset1">
			<data auto_broadcast="numpy" />
			<input>
				<port id="0" precision="FP32">
					<dim>160</dim>
					<dim>160</dim>
					<dim>1</dim>
					<dim>1</dim>
				</port>
				<port id="1" precision="FP32">
					<dim>160</dim>
					<dim>1</dim>
					<dim>1</dim>
					<dim>1</dim>
				</port>
			</input>
			<output>
				<port id="2" precision="FP32">
					<dim>160</dim>
					<dim>160</dim>
					<dim>1</dim>
					<dim>1</dim>
				</port>
			</output>
		</layer>
		<layer id="284" name="/backbone/stage2/stage2.1/blocks/blocks.0/conv1/conv/Conv/WithoutBiases" type="Convolution" version="opset1">
			<data strides="1, 1" dilations="1, 1" pads_begin="0, 0" pads_end="0, 0" auto_pad="explicit" />
			<input>
				<port id="0" precision="FP32">
					<dim>-1</dim>
					<dim>160</dim>
					<dim>80</dim>
					<dim>-1</dim>
				</port>
				<port id="1" precision="FP32">
					<dim>160</dim>
					<dim>160</dim>
					<dim>1</dim>
					<dim>1</dim>
				</port>
			</input>
			<output>
				<port id="2" precision="FP32">
					<dim>-1</dim>
					<dim>160</dim>
					<dim>80</dim>
					<dim>-1</dim>
				</port>
			</output>
		</layer>
		<layer id="285" name="Reshape_709_compressed" type="Const" version="opset1">
			<data element_type="f16" shape="1, 160, 1, 1" offset="979672" size="320" />
			<output>
				<port id="0" precision="FP16">
					<dim>1</dim>
					<dim>160</dim>
					<dim>1</dim>
					<dim>1</dim>
				</port>
			</output>
		</layer>
		<layer id="286" name="Reshape_709" type="Convert" version="opset1">
			<data destination_type="f32" />
			<rt_info>
				<attribute name="decompression" version="0" />
			</rt_info>
			<input>
				<port id="0" precision="FP16">
					<dim>1</dim>
					<dim>160</dim>
					<dim>1</dim>
					<dim>1</dim>
				</port>
			</input>
			<output>
				<port id="1" precision="FP32">
					<dim>1</dim>
					<dim>160</dim>
					<dim>1</dim>
					<dim>1</dim>
				</port>
			</output>
		</layer>
		<layer id="287" name="/backbone/stage2/stage2.1/blocks/blocks.0/conv1/conv/Conv" type="Add" version="opset1">
			<data auto_broadcast="numpy" />
			<input>
				<port id="0" precision="FP32">
					<dim>-1</dim>
					<dim>160</dim>
					<dim>80</dim>
					<dim>-1</dim>
				</port>
				<port id="1" precision="FP32">
					<dim>1</dim>
					<dim>160</dim>
					<dim>1</dim>
					<dim>1</dim>
				</port>
			</input>
			<output>
				<port id="2" precision="FP32" names="/backbone/stage2/stage2.1/blocks/blocks.0/conv1/conv/Conv_output_0">
					<dim>-1</dim>
					<dim>160</dim>
					<dim>80</dim>
					<dim>-1</dim>
				</port>
			</output>
		</layer>
		<layer id="288" name="/backbone/stage2/stage2.1/blocks/blocks.0/conv1/activate/Mul" type="Swish" version="opset4">
			<input>
				<port id="0" precision="FP32">
					<dim>-1</dim>
					<dim>160</dim>
					<dim>80</dim>
					<dim>-1</dim>
				</port>
			</input>
			<output>
				<port id="1" precision="FP32" names="/backbone/stage2/stage2.1/blocks/blocks.0/conv1/activate/Mul_output_0">
					<dim>-1</dim>
					<dim>160</dim>
					<dim>80</dim>
					<dim>-1</dim>
				</port>
			</output>
		</layer>
		<layer id="289" name="Constant_80637" type="Const" version="opset1">
			<data element_type="f32" shape="" offset="979992" size="4" />
			<output>
				<port id="0" precision="FP32" />
			</output>
		</layer>
		<layer id="290" name="Constant_80638" type="Const" version="opset1">
			<data element_type="f32" shape="" offset="979996" size="4" />
			<output>
				<port id="0" precision="FP32" />
			</output>
		</layer>
		<layer id="291" name="Constant_80639" type="Const" version="opset1">
			<data element_type="f32" shape="" offset="979992" size="4" />
			<output>
				<port id="0" precision="FP32" />
			</output>
		</layer>
		<layer id="292" name="Constant_80640" type="Const" version="opset1">
			<data element_type="f32" shape="" offset="979996" size="4" />
			<output>
				<port id="0" precision="FP32" />
			</output>
		</layer>
		<layer id="293" name="/backbone/stage2/stage2.1/blocks/blocks.0/conv1/activate/Mul/fq_output_0" type="FakeQuantize" version="opset1">
			<data levels="256" auto_broadcast="numpy" />
			<input>
				<port id="0" precision="FP32">
					<dim>-1</dim>
					<dim>160</dim>
					<dim>80</dim>
					<dim>-1</dim>
				</port>
				<port id="1" precision="FP32" />
				<port id="2" precision="FP32" />
				<port id="3" precision="FP32" />
				<port id="4" precision="FP32" />
			</input>
			<output>
				<port id="5" precision="FP32">
					<dim>-1</dim>
					<dim>160</dim>
					<dim>80</dim>
					<dim>-1</dim>
				</port>
			</output>
		</layer>
		<layer id="294" name="onnx::Conv_2117_compressed" type="Const" version="opset1">
			<data element_type="i8" shape="160, 160, 3, 3" offset="980000" size="230400" />
			<output>
				<port id="0" precision="I8">
					<dim>160</dim>
					<dim>160</dim>
					<dim>3</dim>
					<dim>3</dim>
				</port>
			</output>
		</layer>
		<layer id="295" name="Convert_1025579" type="Convert" version="opset1">
			<data destination_type="f32" />
			<input>
				<port id="0" precision="I8">
					<dim>160</dim>
					<dim>160</dim>
					<dim>3</dim>
					<dim>3</dim>
				</port>
			</input>
			<output>
				<port id="1" precision="FP32">
					<dim>160</dim>
					<dim>160</dim>
					<dim>3</dim>
					<dim>3</dim>
				</port>
			</output>
		</layer>
		<layer id="296" name="Constant_1025477" type="Const" version="opset1">
			<data element_type="f32" shape="160, 1, 1, 1" offset="1210400" size="640" />
			<output>
				<port id="0" precision="FP32">
					<dim>160</dim>
					<dim>1</dim>
					<dim>1</dim>
					<dim>1</dim>
				</port>
			</output>
		</layer>
		<layer id="297" name="/backbone/stage2/stage2.1/blocks/blocks.0/conv2/conv/Conv/WithoutBiases/fq_weights_1" type="Multiply" version="opset1">
			<data auto_broadcast="numpy" />
			<input>
				<port id="0" precision="FP32">
					<dim>160</dim>
					<dim>160</dim>
					<dim>3</dim>
					<dim>3</dim>
				</port>
				<port id="1" precision="FP32">
					<dim>160</dim>
					<dim>1</dim>
					<dim>1</dim>
					<dim>1</dim>
				</port>
			</input>
			<output>
				<port id="2" precision="FP32">
					<dim>160</dim>
					<dim>160</dim>
					<dim>3</dim>
					<dim>3</dim>
				</port>
			</output>
		</layer>
		<layer id="298" name="/backbone/stage2/stage2.1/blocks/blocks.0/conv2/conv/Conv/WithoutBiases" type="Convolution" version="opset1">
			<data strides="1, 1" dilations="1, 1" pads_begin="1, 1" pads_end="1, 1" auto_pad="explicit" />
			<input>
				<port id="0" precision="FP32">
					<dim>-1</dim>
					<dim>160</dim>
					<dim>80</dim>
					<dim>-1</dim>
				</port>
				<port id="1" precision="FP32">
					<dim>160</dim>
					<dim>160</dim>
					<dim>3</dim>
					<dim>3</dim>
				</port>
			</input>
			<output>
				<port id="2" precision="FP32">
					<dim>-1</dim>
					<dim>160</dim>
					<dim>80</dim>
					<dim>-1</dim>
				</port>
			</output>
		</layer>
		<layer id="299" name="Reshape_726_compressed" type="Const" version="opset1">
			<data element_type="f16" shape="1, 160, 1, 1" offset="1211040" size="320" />
			<output>
				<port id="0" precision="FP16">
					<dim>1</dim>
					<dim>160</dim>
					<dim>1</dim>
					<dim>1</dim>
				</port>
			</output>
		</layer>
		<layer id="300" name="Reshape_726" type="Convert" version="opset1">
			<data destination_type="f32" />
			<rt_info>
				<attribute name="decompression" version="0" />
			</rt_info>
			<input>
				<port id="0" precision="FP16">
					<dim>1</dim>
					<dim>160</dim>
					<dim>1</dim>
					<dim>1</dim>
				</port>
			</input>
			<output>
				<port id="1" precision="FP32">
					<dim>1</dim>
					<dim>160</dim>
					<dim>1</dim>
					<dim>1</dim>
				</port>
			</output>
		</layer>
		<layer id="301" name="/backbone/stage2/stage2.1/blocks/blocks.0/conv2/conv/Conv" type="Add" version="opset1">
			<data auto_broadcast="numpy" />
			<input>
				<port id="0" precision="FP32">
					<dim>-1</dim>
					<dim>160</dim>
					<dim>80</dim>
					<dim>-1</dim>
				</port>
				<port id="1" precision="FP32">
					<dim>1</dim>
					<dim>160</dim>
					<dim>1</dim>
					<dim>1</dim>
				</port>
			</input>
			<output>
				<port id="2" precision="FP32" names="/backbone/stage2/stage2.1/blocks/blocks.0/conv2/conv/Conv_output_0">
					<dim>-1</dim>
					<dim>160</dim>
					<dim>80</dim>
					<dim>-1</dim>
				</port>
			</output>
		</layer>
		<layer id="302" name="/backbone/stage2/stage2.1/blocks/blocks.0/conv2/activate/Mul" type="Swish" version="opset4">
			<input>
				<port id="0" precision="FP32">
					<dim>-1</dim>
					<dim>160</dim>
					<dim>80</dim>
					<dim>-1</dim>
				</port>
			</input>
			<output>
				<port id="1" precision="FP32" names="/backbone/stage2/stage2.1/blocks/blocks.0/conv2/activate/Mul_output_0">
					<dim>-1</dim>
					<dim>160</dim>
					<dim>80</dim>
					<dim>-1</dim>
				</port>
			</output>
		</layer>
		<layer id="303" name="Constant_80647" type="Const" version="opset1">
			<data element_type="f32" shape="" offset="1211360" size="4" />
			<output>
				<port id="0" precision="FP32" />
			</output>
		</layer>
		<layer id="304" name="Constant_80648" type="Const" version="opset1">
			<data element_type="f32" shape="" offset="1211364" size="4" />
			<output>
				<port id="0" precision="FP32" />
			</output>
		</layer>
		<layer id="305" name="Constant_80649" type="Const" version="opset1">
			<data element_type="f32" shape="" offset="1211360" size="4" />
			<output>
				<port id="0" precision="FP32" />
			</output>
		</layer>
		<layer id="306" name="Constant_80650" type="Const" version="opset1">
			<data element_type="f32" shape="" offset="1211364" size="4" />
			<output>
				<port id="0" precision="FP32" />
			</output>
		</layer>
		<layer id="307" name="/backbone/stage2/stage2.1/blocks/blocks.0/conv2/activate/Mul/fq_output_0" type="FakeQuantize" version="opset1">
			<data levels="256" auto_broadcast="numpy" />
			<input>
				<port id="0" precision="FP32">
					<dim>-1</dim>
					<dim>160</dim>
					<dim>80</dim>
					<dim>-1</dim>
				</port>
				<port id="1" precision="FP32" />
				<port id="2" precision="FP32" />
				<port id="3" precision="FP32" />
				<port id="4" precision="FP32" />
			</input>
			<output>
				<port id="5" precision="FP32">
					<dim>-1</dim>
					<dim>160</dim>
					<dim>80</dim>
					<dim>-1</dim>
				</port>
			</output>
		</layer>
		<layer id="308" name="/backbone/stage2/stage2.1/blocks/blocks.0/Add" type="Add" version="opset1">
			<data auto_broadcast="numpy" />
			<input>
				<port id="0" precision="FP32">
					<dim>-1</dim>
					<dim>160</dim>
					<dim>80</dim>
					<dim>-1</dim>
				</port>
				<port id="1" precision="FP32">
					<dim>-1</dim>
					<dim>160</dim>
					<dim>80</dim>
					<dim>-1</dim>
				</port>
			</input>
			<output>
				<port id="2" precision="FP32" names="/backbone/stage2/stage2.1/blocks/blocks.0/Add_output_0">
					<dim>-1</dim>
					<dim>160</dim>
					<dim>80</dim>
					<dim>-1</dim>
				</port>
			</output>
		</layer>
		<layer id="309" name="Constant_80652" type="Const" version="opset1">
			<data element_type="f32" shape="" offset="1211368" size="4" />
			<output>
				<port id="0" precision="FP32" />
			</output>
		</layer>
		<layer id="310" name="Constant_80653" type="Const" version="opset1">
			<data element_type="f32" shape="" offset="1211372" size="4" />
			<output>
				<port id="0" precision="FP32" />
			</output>
		</layer>
		<layer id="311" name="Constant_80654" type="Const" version="opset1">
			<data element_type="f32" shape="" offset="1211368" size="4" />
			<output>
				<port id="0" precision="FP32" />
			</output>
		</layer>
		<layer id="312" name="Constant_80655" type="Const" version="opset1">
			<data element_type="f32" shape="" offset="1211372" size="4" />
			<output>
				<port id="0" precision="FP32" />
			</output>
		</layer>
		<layer id="313" name="/backbone/stage2/stage2.1/blocks/blocks.0/Add/fq_output_0" type="FakeQuantize" version="opset1">
			<data levels="256" auto_broadcast="numpy" />
			<input>
				<port id="0" precision="FP32">
					<dim>-1</dim>
					<dim>160</dim>
					<dim>80</dim>
					<dim>-1</dim>
				</port>
				<port id="1" precision="FP32" />
				<port id="2" precision="FP32" />
				<port id="3" precision="FP32" />
				<port id="4" precision="FP32" />
			</input>
			<output>
				<port id="5" precision="FP32">
					<dim>-1</dim>
					<dim>160</dim>
					<dim>80</dim>
					<dim>-1</dim>
				</port>
			</output>
		</layer>
		<layer id="314" name="onnx::Conv_2120_compressed" type="Const" version="opset1">
			<data element_type="i8" shape="160, 160, 1, 1" offset="1211376" size="25600" />
			<output>
				<port id="0" precision="I8">
					<dim>160</dim>
					<dim>160</dim>
					<dim>1</dim>
					<dim>1</dim>
				</port>
			</output>
		</layer>
		<layer id="315" name="Convert_1025741" type="Convert" version="opset1">
			<data destination_type="f32" />
			<input>
				<port id="0" precision="I8">
					<dim>160</dim>
					<dim>160</dim>
					<dim>1</dim>
					<dim>1</dim>
				</port>
			</input>
			<output>
				<port id="1" precision="FP32">
					<dim>160</dim>
					<dim>160</dim>
					<dim>1</dim>
					<dim>1</dim>
				</port>
			</output>
		</layer>
		<layer id="316" name="Constant_1025639" type="Const" version="opset1">
			<data element_type="f32" shape="160, 1, 1, 1" offset="1236976" size="640" />
			<output>
				<port id="0" precision="FP32">
					<dim>160</dim>
					<dim>1</dim>
					<dim>1</dim>
					<dim>1</dim>
				</port>
			</output>
		</layer>
		<layer id="317" name="/backbone/stage2/stage2.1/blocks/blocks.1/conv1/conv/Conv/WithoutBiases/fq_weights_1" type="Multiply" version="opset1">
			<data auto_broadcast="numpy" />
			<input>
				<port id="0" precision="FP32">
					<dim>160</dim>
					<dim>160</dim>
					<dim>1</dim>
					<dim>1</dim>
				</port>
				<port id="1" precision="FP32">
					<dim>160</dim>
					<dim>1</dim>
					<dim>1</dim>
					<dim>1</dim>
				</port>
			</input>
			<output>
				<port id="2" precision="FP32">
					<dim>160</dim>
					<dim>160</dim>
					<dim>1</dim>
					<dim>1</dim>
				</port>
			</output>
		</layer>
		<layer id="318" name="/backbone/stage2/stage2.1/blocks/blocks.1/conv1/conv/Conv/WithoutBiases" type="Convolution" version="opset1">
			<data strides="1, 1" dilations="1, 1" pads_begin="0, 0" pads_end="0, 0" auto_pad="explicit" />
			<input>
				<port id="0" precision="FP32">
					<dim>-1</dim>
					<dim>160</dim>
					<dim>80</dim>
					<dim>-1</dim>
				</port>
				<port id="1" precision="FP32">
					<dim>160</dim>
					<dim>160</dim>
					<dim>1</dim>
					<dim>1</dim>
				</port>
			</input>
			<output>
				<port id="2" precision="FP32">
					<dim>-1</dim>
					<dim>160</dim>
					<dim>80</dim>
					<dim>-1</dim>
				</port>
			</output>
		</layer>
		<layer id="319" name="Reshape_744_compressed" type="Const" version="opset1">
			<data element_type="f16" shape="1, 160, 1, 1" offset="1237616" size="320" />
			<output>
				<port id="0" precision="FP16">
					<dim>1</dim>
					<dim>160</dim>
					<dim>1</dim>
					<dim>1</dim>
				</port>
			</output>
		</layer>
		<layer id="320" name="Reshape_744" type="Convert" version="opset1">
			<data destination_type="f32" />
			<rt_info>
				<attribute name="decompression" version="0" />
			</rt_info>
			<input>
				<port id="0" precision="FP16">
					<dim>1</dim>
					<dim>160</dim>
					<dim>1</dim>
					<dim>1</dim>
				</port>
			</input>
			<output>
				<port id="1" precision="FP32">
					<dim>1</dim>
					<dim>160</dim>
					<dim>1</dim>
					<dim>1</dim>
				</port>
			</output>
		</layer>
		<layer id="321" name="/backbone/stage2/stage2.1/blocks/blocks.1/conv1/conv/Conv" type="Add" version="opset1">
			<data auto_broadcast="numpy" />
			<input>
				<port id="0" precision="FP32">
					<dim>-1</dim>
					<dim>160</dim>
					<dim>80</dim>
					<dim>-1</dim>
				</port>
				<port id="1" precision="FP32">
					<dim>1</dim>
					<dim>160</dim>
					<dim>1</dim>
					<dim>1</dim>
				</port>
			</input>
			<output>
				<port id="2" precision="FP32" names="/backbone/stage2/stage2.1/blocks/blocks.1/conv1/conv/Conv_output_0">
					<dim>-1</dim>
					<dim>160</dim>
					<dim>80</dim>
					<dim>-1</dim>
				</port>
			</output>
		</layer>
		<layer id="322" name="/backbone/stage2/stage2.1/blocks/blocks.1/conv1/activate/Mul" type="Swish" version="opset4">
			<input>
				<port id="0" precision="FP32">
					<dim>-1</dim>
					<dim>160</dim>
					<dim>80</dim>
					<dim>-1</dim>
				</port>
			</input>
			<output>
				<port id="1" precision="FP32" names="/backbone/stage2/stage2.1/blocks/blocks.1/conv1/activate/Mul_output_0">
					<dim>-1</dim>
					<dim>160</dim>
					<dim>80</dim>
					<dim>-1</dim>
				</port>
			</output>
		</layer>
		<layer id="323" name="Constant_80662" type="Const" version="opset1">
			<data element_type="f32" shape="" offset="1237936" size="4" />
			<output>
				<port id="0" precision="FP32" />
			</output>
		</layer>
		<layer id="324" name="Constant_80663" type="Const" version="opset1">
			<data element_type="f32" shape="" offset="1237940" size="4" />
			<output>
				<port id="0" precision="FP32" />
			</output>
		</layer>
		<layer id="325" name="Constant_80664" type="Const" version="opset1">
			<data element_type="f32" shape="" offset="1237936" size="4" />
			<output>
				<port id="0" precision="FP32" />
			</output>
		</layer>
		<layer id="326" name="Constant_80665" type="Const" version="opset1">
			<data element_type="f32" shape="" offset="1237940" size="4" />
			<output>
				<port id="0" precision="FP32" />
			</output>
		</layer>
		<layer id="327" name="/backbone/stage2/stage2.1/blocks/blocks.1/conv1/activate/Mul/fq_output_0" type="FakeQuantize" version="opset1">
			<data levels="256" auto_broadcast="numpy" />
			<input>
				<port id="0" precision="FP32">
					<dim>-1</dim>
					<dim>160</dim>
					<dim>80</dim>
					<dim>-1</dim>
				</port>
				<port id="1" precision="FP32" />
				<port id="2" precision="FP32" />
				<port id="3" precision="FP32" />
				<port id="4" precision="FP32" />
			</input>
			<output>
				<port id="5" precision="FP32">
					<dim>-1</dim>
					<dim>160</dim>
					<dim>80</dim>
					<dim>-1</dim>
				</port>
			</output>
		</layer>
		<layer id="328" name="onnx::Conv_2123_compressed" type="Const" version="opset1">
			<data element_type="i8" shape="160, 160, 3, 3" offset="1237944" size="230400" />
			<output>
				<port id="0" precision="I8">
					<dim>160</dim>
					<dim>160</dim>
					<dim>3</dim>
					<dim>3</dim>
				</port>
			</output>
		</layer>
		<layer id="329" name="Convert_1025903" type="Convert" version="opset1">
			<data destination_type="f32" />
			<input>
				<port id="0" precision="I8">
					<dim>160</dim>
					<dim>160</dim>
					<dim>3</dim>
					<dim>3</dim>
				</port>
			</input>
			<output>
				<port id="1" precision="FP32">
					<dim>160</dim>
					<dim>160</dim>
					<dim>3</dim>
					<dim>3</dim>
				</port>
			</output>
		</layer>
		<layer id="330" name="Constant_1025801" type="Const" version="opset1">
			<data element_type="f32" shape="160, 1, 1, 1" offset="1468344" size="640" />
			<output>
				<port id="0" precision="FP32">
					<dim>160</dim>
					<dim>1</dim>
					<dim>1</dim>
					<dim>1</dim>
				</port>
			</output>
		</layer>
		<layer id="331" name="/backbone/stage2/stage2.1/blocks/blocks.1/conv2/conv/Conv/WithoutBiases/fq_weights_1" type="Multiply" version="opset1">
			<data auto_broadcast="numpy" />
			<input>
				<port id="0" precision="FP32">
					<dim>160</dim>
					<dim>160</dim>
					<dim>3</dim>
					<dim>3</dim>
				</port>
				<port id="1" precision="FP32">
					<dim>160</dim>
					<dim>1</dim>
					<dim>1</dim>
					<dim>1</dim>
				</port>
			</input>
			<output>
				<port id="2" precision="FP32">
					<dim>160</dim>
					<dim>160</dim>
					<dim>3</dim>
					<dim>3</dim>
				</port>
			</output>
		</layer>
		<layer id="332" name="/backbone/stage2/stage2.1/blocks/blocks.1/conv2/conv/Conv/WithoutBiases" type="Convolution" version="opset1">
			<data strides="1, 1" dilations="1, 1" pads_begin="1, 1" pads_end="1, 1" auto_pad="explicit" />
			<input>
				<port id="0" precision="FP32">
					<dim>-1</dim>
					<dim>160</dim>
					<dim>80</dim>
					<dim>-1</dim>
				</port>
				<port id="1" precision="FP32">
					<dim>160</dim>
					<dim>160</dim>
					<dim>3</dim>
					<dim>3</dim>
				</port>
			</input>
			<output>
				<port id="2" precision="FP32">
					<dim>-1</dim>
					<dim>160</dim>
					<dim>80</dim>
					<dim>-1</dim>
				</port>
			</output>
		</layer>
		<layer id="333" name="Reshape_761_compressed" type="Const" version="opset1">
			<data element_type="f16" shape="1, 160, 1, 1" offset="1468984" size="320" />
			<output>
				<port id="0" precision="FP16">
					<dim>1</dim>
					<dim>160</dim>
					<dim>1</dim>
					<dim>1</dim>
				</port>
			</output>
		</layer>
		<layer id="334" name="Reshape_761" type="Convert" version="opset1">
			<data destination_type="f32" />
			<rt_info>
				<attribute name="decompression" version="0" />
			</rt_info>
			<input>
				<port id="0" precision="FP16">
					<dim>1</dim>
					<dim>160</dim>
					<dim>1</dim>
					<dim>1</dim>
				</port>
			</input>
			<output>
				<port id="1" precision="FP32">
					<dim>1</dim>
					<dim>160</dim>
					<dim>1</dim>
					<dim>1</dim>
				</port>
			</output>
		</layer>
		<layer id="335" name="/backbone/stage2/stage2.1/blocks/blocks.1/conv2/conv/Conv" type="Add" version="opset1">
			<data auto_broadcast="numpy" />
			<input>
				<port id="0" precision="FP32">
					<dim>-1</dim>
					<dim>160</dim>
					<dim>80</dim>
					<dim>-1</dim>
				</port>
				<port id="1" precision="FP32">
					<dim>1</dim>
					<dim>160</dim>
					<dim>1</dim>
					<dim>1</dim>
				</port>
			</input>
			<output>
				<port id="2" precision="FP32" names="/backbone/stage2/stage2.1/blocks/blocks.1/conv2/conv/Conv_output_0">
					<dim>-1</dim>
					<dim>160</dim>
					<dim>80</dim>
					<dim>-1</dim>
				</port>
			</output>
		</layer>
		<layer id="336" name="/backbone/stage2/stage2.1/blocks/blocks.1/conv2/activate/Mul" type="Swish" version="opset4">
			<input>
				<port id="0" precision="FP32">
					<dim>-1</dim>
					<dim>160</dim>
					<dim>80</dim>
					<dim>-1</dim>
				</port>
			</input>
			<output>
				<port id="1" precision="FP32" names="/backbone/stage2/stage2.1/blocks/blocks.1/conv2/activate/Mul_output_0">
					<dim>-1</dim>
					<dim>160</dim>
					<dim>80</dim>
					<dim>-1</dim>
				</port>
			</output>
		</layer>
		<layer id="337" name="Constant_80672" type="Const" version="opset1">
			<data element_type="f32" shape="" offset="1469304" size="4" />
			<output>
				<port id="0" precision="FP32" />
			</output>
		</layer>
		<layer id="338" name="Constant_80673" type="Const" version="opset1">
			<data element_type="f32" shape="" offset="1469308" size="4" />
			<output>
				<port id="0" precision="FP32" />
			</output>
		</layer>
		<layer id="339" name="Constant_80674" type="Const" version="opset1">
			<data element_type="f32" shape="" offset="1469304" size="4" />
			<output>
				<port id="0" precision="FP32" />
			</output>
		</layer>
		<layer id="340" name="Constant_80675" type="Const" version="opset1">
			<data element_type="f32" shape="" offset="1469308" size="4" />
			<output>
				<port id="0" precision="FP32" />
			</output>
		</layer>
		<layer id="341" name="/backbone/stage2/stage2.1/blocks/blocks.1/conv2/activate/Mul/fq_output_0" type="FakeQuantize" version="opset1">
			<data levels="256" auto_broadcast="numpy" />
			<input>
				<port id="0" precision="FP32">
					<dim>-1</dim>
					<dim>160</dim>
					<dim>80</dim>
					<dim>-1</dim>
				</port>
				<port id="1" precision="FP32" />
				<port id="2" precision="FP32" />
				<port id="3" precision="FP32" />
				<port id="4" precision="FP32" />
			</input>
			<output>
				<port id="5" precision="FP32">
					<dim>-1</dim>
					<dim>160</dim>
					<dim>80</dim>
					<dim>-1</dim>
				</port>
			</output>
		</layer>
		<layer id="342" name="/backbone/stage2/stage2.1/blocks/blocks.1/Add" type="Add" version="opset1">
			<data auto_broadcast="numpy" />
			<input>
				<port id="0" precision="FP32">
					<dim>-1</dim>
					<dim>160</dim>
					<dim>80</dim>
					<dim>-1</dim>
				</port>
				<port id="1" precision="FP32">
					<dim>-1</dim>
					<dim>160</dim>
					<dim>80</dim>
					<dim>-1</dim>
				</port>
			</input>
			<output>
				<port id="2" precision="FP32" names="/backbone/stage2/stage2.1/blocks/blocks.1/Add_output_0">
					<dim>-1</dim>
					<dim>160</dim>
					<dim>80</dim>
					<dim>-1</dim>
				</port>
			</output>
		</layer>
		<layer id="343" name="Constant_80677" type="Const" version="opset1">
			<data element_type="f32" shape="" offset="1469312" size="4" />
			<output>
				<port id="0" precision="FP32" />
			</output>
		</layer>
		<layer id="344" name="Constant_80678" type="Const" version="opset1">
			<data element_type="f32" shape="" offset="1469316" size="4" />
			<output>
				<port id="0" precision="FP32" />
			</output>
		</layer>
		<layer id="345" name="Constant_80679" type="Const" version="opset1">
			<data element_type="f32" shape="" offset="1469312" size="4" />
			<output>
				<port id="0" precision="FP32" />
			</output>
		</layer>
		<layer id="346" name="Constant_80680" type="Const" version="opset1">
			<data element_type="f32" shape="" offset="1469316" size="4" />
			<output>
				<port id="0" precision="FP32" />
			</output>
		</layer>
		<layer id="347" name="/backbone/stage2/stage2.1/blocks/blocks.1/Add/fq_output_0" type="FakeQuantize" version="opset1">
			<data levels="256" auto_broadcast="numpy" />
			<input>
				<port id="0" precision="FP32">
					<dim>-1</dim>
					<dim>160</dim>
					<dim>80</dim>
					<dim>-1</dim>
				</port>
				<port id="1" precision="FP32" />
				<port id="2" precision="FP32" />
				<port id="3" precision="FP32" />
				<port id="4" precision="FP32" />
			</input>
			<output>
				<port id="5" precision="FP32">
					<dim>-1</dim>
					<dim>160</dim>
					<dim>80</dim>
					<dim>-1</dim>
				</port>
			</output>
		</layer>
		<layer id="348" name="onnx::Conv_2126_compressed" type="Const" version="opset1">
			<data element_type="i8" shape="160, 160, 1, 1" offset="1469320" size="25600" />
			<output>
				<port id="0" precision="I8">
					<dim>160</dim>
					<dim>160</dim>
					<dim>1</dim>
					<dim>1</dim>
				</port>
			</output>
		</layer>
		<layer id="349" name="Convert_1026065" type="Convert" version="opset1">
			<data destination_type="f32" />
			<input>
				<port id="0" precision="I8">
					<dim>160</dim>
					<dim>160</dim>
					<dim>1</dim>
					<dim>1</dim>
				</port>
			</input>
			<output>
				<port id="1" precision="FP32">
					<dim>160</dim>
					<dim>160</dim>
					<dim>1</dim>
					<dim>1</dim>
				</port>
			</output>
		</layer>
		<layer id="350" name="Constant_1025963" type="Const" version="opset1">
			<data element_type="f32" shape="160, 1, 1, 1" offset="1494920" size="640" />
			<output>
				<port id="0" precision="FP32">
					<dim>160</dim>
					<dim>1</dim>
					<dim>1</dim>
					<dim>1</dim>
				</port>
			</output>
		</layer>
		<layer id="351" name="/backbone/stage2/stage2.1/blocks/blocks.2/conv1/conv/Conv/WithoutBiases/fq_weights_1" type="Multiply" version="opset1">
			<data auto_broadcast="numpy" />
			<input>
				<port id="0" precision="FP32">
					<dim>160</dim>
					<dim>160</dim>
					<dim>1</dim>
					<dim>1</dim>
				</port>
				<port id="1" precision="FP32">
					<dim>160</dim>
					<dim>1</dim>
					<dim>1</dim>
					<dim>1</dim>
				</port>
			</input>
			<output>
				<port id="2" precision="FP32">
					<dim>160</dim>
					<dim>160</dim>
					<dim>1</dim>
					<dim>1</dim>
				</port>
			</output>
		</layer>
		<layer id="352" name="/backbone/stage2/stage2.1/blocks/blocks.2/conv1/conv/Conv/WithoutBiases" type="Convolution" version="opset1">
			<data strides="1, 1" dilations="1, 1" pads_begin="0, 0" pads_end="0, 0" auto_pad="explicit" />
			<input>
				<port id="0" precision="FP32">
					<dim>-1</dim>
					<dim>160</dim>
					<dim>80</dim>
					<dim>-1</dim>
				</port>
				<port id="1" precision="FP32">
					<dim>160</dim>
					<dim>160</dim>
					<dim>1</dim>
					<dim>1</dim>
				</port>
			</input>
			<output>
				<port id="2" precision="FP32">
					<dim>-1</dim>
					<dim>160</dim>
					<dim>80</dim>
					<dim>-1</dim>
				</port>
			</output>
		</layer>
		<layer id="353" name="Reshape_779_compressed" type="Const" version="opset1">
			<data element_type="f16" shape="1, 160, 1, 1" offset="1495560" size="320" />
			<output>
				<port id="0" precision="FP16">
					<dim>1</dim>
					<dim>160</dim>
					<dim>1</dim>
					<dim>1</dim>
				</port>
			</output>
		</layer>
		<layer id="354" name="Reshape_779" type="Convert" version="opset1">
			<data destination_type="f32" />
			<rt_info>
				<attribute name="decompression" version="0" />
			</rt_info>
			<input>
				<port id="0" precision="FP16">
					<dim>1</dim>
					<dim>160</dim>
					<dim>1</dim>
					<dim>1</dim>
				</port>
			</input>
			<output>
				<port id="1" precision="FP32">
					<dim>1</dim>
					<dim>160</dim>
					<dim>1</dim>
					<dim>1</dim>
				</port>
			</output>
		</layer>
		<layer id="355" name="/backbone/stage2/stage2.1/blocks/blocks.2/conv1/conv/Conv" type="Add" version="opset1">
			<data auto_broadcast="numpy" />
			<input>
				<port id="0" precision="FP32">
					<dim>-1</dim>
					<dim>160</dim>
					<dim>80</dim>
					<dim>-1</dim>
				</port>
				<port id="1" precision="FP32">
					<dim>1</dim>
					<dim>160</dim>
					<dim>1</dim>
					<dim>1</dim>
				</port>
			</input>
			<output>
				<port id="2" precision="FP32" names="/backbone/stage2/stage2.1/blocks/blocks.2/conv1/conv/Conv_output_0">
					<dim>-1</dim>
					<dim>160</dim>
					<dim>80</dim>
					<dim>-1</dim>
				</port>
			</output>
		</layer>
		<layer id="356" name="/backbone/stage2/stage2.1/blocks/blocks.2/conv1/activate/Mul" type="Swish" version="opset4">
			<input>
				<port id="0" precision="FP32">
					<dim>-1</dim>
					<dim>160</dim>
					<dim>80</dim>
					<dim>-1</dim>
				</port>
			</input>
			<output>
				<port id="1" precision="FP32" names="/backbone/stage2/stage2.1/blocks/blocks.2/conv1/activate/Mul_output_0">
					<dim>-1</dim>
					<dim>160</dim>
					<dim>80</dim>
					<dim>-1</dim>
				</port>
			</output>
		</layer>
		<layer id="357" name="Constant_80687" type="Const" version="opset1">
			<data element_type="f32" shape="" offset="1495880" size="4" />
			<output>
				<port id="0" precision="FP32" />
			</output>
		</layer>
		<layer id="358" name="Constant_80688" type="Const" version="opset1">
			<data element_type="f32" shape="" offset="1495884" size="4" />
			<output>
				<port id="0" precision="FP32" />
			</output>
		</layer>
		<layer id="359" name="Constant_80689" type="Const" version="opset1">
			<data element_type="f32" shape="" offset="1495880" size="4" />
			<output>
				<port id="0" precision="FP32" />
			</output>
		</layer>
		<layer id="360" name="Constant_80690" type="Const" version="opset1">
			<data element_type="f32" shape="" offset="1495884" size="4" />
			<output>
				<port id="0" precision="FP32" />
			</output>
		</layer>
		<layer id="361" name="/backbone/stage2/stage2.1/blocks/blocks.2/conv1/activate/Mul/fq_output_0" type="FakeQuantize" version="opset1">
			<data levels="256" auto_broadcast="numpy" />
			<input>
				<port id="0" precision="FP32">
					<dim>-1</dim>
					<dim>160</dim>
					<dim>80</dim>
					<dim>-1</dim>
				</port>
				<port id="1" precision="FP32" />
				<port id="2" precision="FP32" />
				<port id="3" precision="FP32" />
				<port id="4" precision="FP32" />
			</input>
			<output>
				<port id="5" precision="FP32">
					<dim>-1</dim>
					<dim>160</dim>
					<dim>80</dim>
					<dim>-1</dim>
				</port>
			</output>
		</layer>
		<layer id="362" name="onnx::Conv_2129_compressed" type="Const" version="opset1">
			<data element_type="i8" shape="160, 160, 3, 3" offset="1495888" size="230400" />
			<output>
				<port id="0" precision="I8">
					<dim>160</dim>
					<dim>160</dim>
					<dim>3</dim>
					<dim>3</dim>
				</port>
			</output>
		</layer>
		<layer id="363" name="Convert_1026227" type="Convert" version="opset1">
			<data destination_type="f32" />
			<input>
				<port id="0" precision="I8">
					<dim>160</dim>
					<dim>160</dim>
					<dim>3</dim>
					<dim>3</dim>
				</port>
			</input>
			<output>
				<port id="1" precision="FP32">
					<dim>160</dim>
					<dim>160</dim>
					<dim>3</dim>
					<dim>3</dim>
				</port>
			</output>
		</layer>
		<layer id="364" name="Constant_1026125" type="Const" version="opset1">
			<data element_type="f32" shape="160, 1, 1, 1" offset="1726288" size="640" />
			<output>
				<port id="0" precision="FP32">
					<dim>160</dim>
					<dim>1</dim>
					<dim>1</dim>
					<dim>1</dim>
				</port>
			</output>
		</layer>
		<layer id="365" name="/backbone/stage2/stage2.1/blocks/blocks.2/conv2/conv/Conv/WithoutBiases/fq_weights_1" type="Multiply" version="opset1">
			<data auto_broadcast="numpy" />
			<input>
				<port id="0" precision="FP32">
					<dim>160</dim>
					<dim>160</dim>
					<dim>3</dim>
					<dim>3</dim>
				</port>
				<port id="1" precision="FP32">
					<dim>160</dim>
					<dim>1</dim>
					<dim>1</dim>
					<dim>1</dim>
				</port>
			</input>
			<output>
				<port id="2" precision="FP32">
					<dim>160</dim>
					<dim>160</dim>
					<dim>3</dim>
					<dim>3</dim>
				</port>
			</output>
		</layer>
		<layer id="366" name="/backbone/stage2/stage2.1/blocks/blocks.2/conv2/conv/Conv/WithoutBiases" type="Convolution" version="opset1">
			<data strides="1, 1" dilations="1, 1" pads_begin="1, 1" pads_end="1, 1" auto_pad="explicit" />
			<input>
				<port id="0" precision="FP32">
					<dim>-1</dim>
					<dim>160</dim>
					<dim>80</dim>
					<dim>-1</dim>
				</port>
				<port id="1" precision="FP32">
					<dim>160</dim>
					<dim>160</dim>
					<dim>3</dim>
					<dim>3</dim>
				</port>
			</input>
			<output>
				<port id="2" precision="FP32">
					<dim>-1</dim>
					<dim>160</dim>
					<dim>80</dim>
					<dim>-1</dim>
				</port>
			</output>
		</layer>
		<layer id="367" name="Reshape_796_compressed" type="Const" version="opset1">
			<data element_type="f16" shape="1, 160, 1, 1" offset="1726928" size="320" />
			<output>
				<port id="0" precision="FP16">
					<dim>1</dim>
					<dim>160</dim>
					<dim>1</dim>
					<dim>1</dim>
				</port>
			</output>
		</layer>
		<layer id="368" name="Reshape_796" type="Convert" version="opset1">
			<data destination_type="f32" />
			<rt_info>
				<attribute name="decompression" version="0" />
			</rt_info>
			<input>
				<port id="0" precision="FP16">
					<dim>1</dim>
					<dim>160</dim>
					<dim>1</dim>
					<dim>1</dim>
				</port>
			</input>
			<output>
				<port id="1" precision="FP32">
					<dim>1</dim>
					<dim>160</dim>
					<dim>1</dim>
					<dim>1</dim>
				</port>
			</output>
		</layer>
		<layer id="369" name="/backbone/stage2/stage2.1/blocks/blocks.2/conv2/conv/Conv" type="Add" version="opset1">
			<data auto_broadcast="numpy" />
			<input>
				<port id="0" precision="FP32">
					<dim>-1</dim>
					<dim>160</dim>
					<dim>80</dim>
					<dim>-1</dim>
				</port>
				<port id="1" precision="FP32">
					<dim>1</dim>
					<dim>160</dim>
					<dim>1</dim>
					<dim>1</dim>
				</port>
			</input>
			<output>
				<port id="2" precision="FP32" names="/backbone/stage2/stage2.1/blocks/blocks.2/conv2/conv/Conv_output_0">
					<dim>-1</dim>
					<dim>160</dim>
					<dim>80</dim>
					<dim>-1</dim>
				</port>
			</output>
		</layer>
		<layer id="370" name="/backbone/stage2/stage2.1/blocks/blocks.2/conv2/activate/Mul" type="Swish" version="opset4">
			<input>
				<port id="0" precision="FP32">
					<dim>-1</dim>
					<dim>160</dim>
					<dim>80</dim>
					<dim>-1</dim>
				</port>
			</input>
			<output>
				<port id="1" precision="FP32" names="/backbone/stage2/stage2.1/blocks/blocks.2/conv2/activate/Mul_output_0">
					<dim>-1</dim>
					<dim>160</dim>
					<dim>80</dim>
					<dim>-1</dim>
				</port>
			</output>
		</layer>
		<layer id="371" name="Constant_80697" type="Const" version="opset1">
			<data element_type="f32" shape="" offset="1727248" size="4" />
			<output>
				<port id="0" precision="FP32" />
			</output>
		</layer>
		<layer id="372" name="Constant_80698" type="Const" version="opset1">
			<data element_type="f32" shape="" offset="1727252" size="4" />
			<output>
				<port id="0" precision="FP32" />
			</output>
		</layer>
		<layer id="373" name="Constant_80699" type="Const" version="opset1">
			<data element_type="f32" shape="" offset="1727248" size="4" />
			<output>
				<port id="0" precision="FP32" />
			</output>
		</layer>
		<layer id="374" name="Constant_80700" type="Const" version="opset1">
			<data element_type="f32" shape="" offset="1727252" size="4" />
			<output>
				<port id="0" precision="FP32" />
			</output>
		</layer>
		<layer id="375" name="/backbone/stage2/stage2.1/blocks/blocks.2/conv2/activate/Mul/fq_output_0" type="FakeQuantize" version="opset1">
			<data levels="256" auto_broadcast="numpy" />
			<input>
				<port id="0" precision="FP32">
					<dim>-1</dim>
					<dim>160</dim>
					<dim>80</dim>
					<dim>-1</dim>
				</port>
				<port id="1" precision="FP32" />
				<port id="2" precision="FP32" />
				<port id="3" precision="FP32" />
				<port id="4" precision="FP32" />
			</input>
			<output>
				<port id="5" precision="FP32">
					<dim>-1</dim>
					<dim>160</dim>
					<dim>80</dim>
					<dim>-1</dim>
				</port>
			</output>
		</layer>
		<layer id="376" name="/backbone/stage2/stage2.1/blocks/blocks.2/Add" type="Add" version="opset1">
			<data auto_broadcast="numpy" />
			<input>
				<port id="0" precision="FP32">
					<dim>-1</dim>
					<dim>160</dim>
					<dim>80</dim>
					<dim>-1</dim>
				</port>
				<port id="1" precision="FP32">
					<dim>-1</dim>
					<dim>160</dim>
					<dim>80</dim>
					<dim>-1</dim>
				</port>
			</input>
			<output>
				<port id="2" precision="FP32" names="/backbone/stage2/stage2.1/blocks/blocks.2/Add_output_0">
					<dim>-1</dim>
					<dim>160</dim>
					<dim>80</dim>
					<dim>-1</dim>
				</port>
			</output>
		</layer>
		<layer id="377" name="Constant_80702" type="Const" version="opset1">
			<data element_type="f32" shape="" offset="1727256" size="4" />
			<output>
				<port id="0" precision="FP32" />
			</output>
		</layer>
		<layer id="378" name="Constant_80703" type="Const" version="opset1">
			<data element_type="f32" shape="" offset="1727260" size="4" />
			<output>
				<port id="0" precision="FP32" />
			</output>
		</layer>
		<layer id="379" name="Constant_80704" type="Const" version="opset1">
			<data element_type="f32" shape="" offset="1727256" size="4" />
			<output>
				<port id="0" precision="FP32" />
			</output>
		</layer>
		<layer id="380" name="Constant_80705" type="Const" version="opset1">
			<data element_type="f32" shape="" offset="1727260" size="4" />
			<output>
				<port id="0" precision="FP32" />
			</output>
		</layer>
		<layer id="381" name="/backbone/stage2/stage2.1/blocks/blocks.2/Add/fq_output_0" type="FakeQuantize" version="opset1">
			<data levels="256" auto_broadcast="numpy" />
			<input>
				<port id="0" precision="FP32">
					<dim>-1</dim>
					<dim>160</dim>
					<dim>80</dim>
					<dim>-1</dim>
				</port>
				<port id="1" precision="FP32" />
				<port id="2" precision="FP32" />
				<port id="3" precision="FP32" />
				<port id="4" precision="FP32" />
			</input>
			<output>
				<port id="5" precision="FP32">
					<dim>-1</dim>
					<dim>160</dim>
					<dim>80</dim>
					<dim>-1</dim>
				</port>
			</output>
		</layer>
		<layer id="382" name="onnx::Conv_2132_compressed" type="Const" version="opset1">
			<data element_type="i8" shape="160, 160, 1, 1" offset="1727264" size="25600" />
			<output>
				<port id="0" precision="I8">
					<dim>160</dim>
					<dim>160</dim>
					<dim>1</dim>
					<dim>1</dim>
				</port>
			</output>
		</layer>
…
		<edge from-layer="2342" from-port="0" to-layer="2343" to-port="0" />
		<edge from-layer="2343" from-port="1" to-layer="2345" to-port="0" />
		<edge from-layer="2344" from-port="1" to-layer="2345" to-port="1" />
		<edge from-layer="2345" from-port="2" to-layer="2347" to-port="0" />
		<edge from-layer="2346" from-port="0" to-layer="2347" to-port="1" />
		<edge from-layer="2347" from-port="2" to-layer="2348" to-port="3" />
		<edge from-layer="2348" from-port="4" to-layer="2531" to-port="0" />
		<edge from-layer="2349" from-port="0" to-layer="2391" to-port="0" />
		<edge from-layer="2350" from-port="0" to-layer="2351" to-port="0" />
		<edge from-layer="2351" from-port="1" to-layer="2353" to-port="0" />
		<edge from-layer="2352" from-port="0" to-layer="2353" to-port="1" />
		<edge from-layer="2353" from-port="2" to-layer="2354" to-port="1" />
		<edge from-layer="2354" from-port="2" to-layer="2357" to-port="0" />
		<edge from-layer="2355" from-port="0" to-layer="2356" to-port="0" />
		<edge from-layer="2356" from-port="1" to-layer="2357" to-port="1" />
		<edge from-layer="2357" from-port="2" to-layer="2358" to-port="0" />
		<edge from-layer="2358" from-port="1" to-layer="2363" to-port="0" />
		<edge from-layer="2359" from-port="0" to-layer="2363" to-port="1" />
		<edge from-layer="2360" from-port="0" to-layer="2363" to-port="2" />
		<edge from-layer="2361" from-port="0" to-layer="2363" to-port="3" />
		<edge from-layer="2362" from-port="0" to-layer="2363" to-port="4" />
		<edge from-layer="2363" from-port="5" to-layer="2368" to-port="0" />
		<edge from-layer="2364" from-port="0" to-layer="2365" to-port="0" />
		<edge from-layer="2365" from-port="1" to-layer="2367" to-port="0" />
		<edge from-layer="2366" from-port="0" to-layer="2367" to-port="1" />
		<edge from-layer="2367" from-port="2" to-layer="2368" to-port="1" />
		<edge from-layer="2368" from-port="2" to-layer="2371" to-port="0" />
		<edge from-layer="2369" from-port="0" to-layer="2370" to-port="0" />
		<edge from-layer="2370" from-port="1" to-layer="2371" to-port="1" />
		<edge from-layer="2371" from-port="2" to-layer="2372" to-port="0" />
		<edge from-layer="2372" from-port="1" to-layer="2377" to-port="0" />
		<edge from-layer="2373" from-port="0" to-layer="2377" to-port="1" />
		<edge from-layer="2374" from-port="0" to-layer="2377" to-port="2" />
		<edge from-layer="2375" from-port="0" to-layer="2377" to-port="3" />
		<edge from-layer="2376" from-port="0" to-layer="2377" to-port="4" />
		<edge from-layer="2377" from-port="5" to-layer="2382" to-port="0" />
		<edge from-layer="2378" from-port="0" to-layer="2379" to-port="0" />
		<edge from-layer="2379" from-port="1" to-layer="2381" to-port="0" />
		<edge from-layer="2380" from-port="0" to-layer="2381" to-port="1" />
		<edge from-layer="2381" from-port="2" to-layer="2382" to-port="1" />
		<edge from-layer="2382" from-port="2" to-layer="2385" to-port="0" />
		<edge from-layer="2383" from-port="0" to-layer="2384" to-port="0" />
		<edge from-layer="2384" from-port="1" to-layer="2385" to-port="1" />
		<edge from-layer="2385" from-port="2" to-layer="2386" to-port="0" />
		<edge from-layer="2385" from-port="2" to-layer="2598" to-port="0" />
		<edge from-layer="2385" from-port="2" to-layer="2602" to-port="0" />
		<edge from-layer="2386" from-port="1" to-layer="2389" to-port="0" />
		<edge from-layer="2386" from-port="1" to-layer="2404" to-port="0" />
		<edge from-layer="2387" from-port="0" to-layer="2389" to-port="1" />
		<edge from-layer="2388" from-port="0" to-layer="2389" to-port="2" />
		<edge from-layer="2389" from-port="3" to-layer="2391" to-port="1" />
		<edge from-layer="2390" from-port="0" to-layer="2391" to-port="2" />
		<edge from-layer="2391" from-port="3" to-layer="2393" to-port="0" />
		<edge from-layer="2392" from-port="0" to-layer="2393" to-port="1" />
		<edge from-layer="2393" from-port="2" to-layer="2394" to-port="0" />
		<edge from-layer="2394" from-port="1" to-layer="2396" to-port="0" />
		<edge from-layer="2395" from-port="0" to-layer="2396" to-port="1" />
		<edge from-layer="2396" from-port="2" to-layer="2398" to-port="0" />
		<edge from-layer="2396" from-port="2" to-layer="2400" to-port="0" />
		<edge from-layer="2397" from-port="0" to-layer="2399" to-port="0" />
		<edge from-layer="2398" from-port="1" to-layer="2413" to-port="1" />
		<edge from-layer="2398" from-port="1" to-layer="2399" to-port="1" />
		<edge from-layer="2399" from-port="2" to-layer="2400" to-port="1" />
		<edge from-layer="2400" from-port="2" to-layer="2414" to-port="0" />
		<edge from-layer="2401" from-port="0" to-layer="2406" to-port="0" />
		<edge from-layer="2402" from-port="0" to-layer="2404" to-port="1" />
		<edge from-layer="2403" from-port="0" to-layer="2404" to-port="2" />
		<edge from-layer="2404" from-port="3" to-layer="2406" to-port="1" />
		<edge from-layer="2405" from-port="0" to-layer="2406" to-port="2" />
		<edge from-layer="2406" from-port="3" to-layer="2408" to-port="0" />
		<edge from-layer="2407" from-port="0" to-layer="2408" to-port="1" />
		<edge from-layer="2408" from-port="2" to-layer="2409" to-port="0" />
		<edge from-layer="2409" from-port="1" to-layer="2411" to-port="0" />
		<edge from-layer="2410" from-port="0" to-layer="2411" to-port="1" />
		<edge from-layer="2411" from-port="2" to-layer="2421" to-port="0" />
		<edge from-layer="2411" from-port="2" to-layer="2412" to-port="0" />
		<edge from-layer="2412" from-port="1" to-layer="2413" to-port="0" />
		<edge from-layer="2412" from-port="1" to-layer="2420" to-port="0" />
		<edge from-layer="2413" from-port="2" to-layer="2422" to-port="1" />
		<edge from-layer="2413" from-port="2" to-layer="2414" to-port="1" />
		<edge from-layer="2414" from-port="2" to-layer="2416" to-port="0" />
		<edge from-layer="2415" from-port="0" to-layer="2416" to-port="1" />
		<edge from-layer="2416" from-port="2" to-layer="2429" to-port="0" />
		<edge from-layer="2416" from-port="2" to-layer="2418" to-port="0" />
		<edge from-layer="2417" from-port="0" to-layer="2418" to-port="1" />
		<edge from-layer="2418" from-port="2" to-layer="2439" to-port="0" />
		<edge from-layer="2419" from-port="0" to-layer="2420" to-port="1" />
		<edge from-layer="2420" from-port="2" to-layer="2421" to-port="1" />
		<edge from-layer="2421" from-port="2" to-layer="2422" to-port="0" />
		<edge from-layer="2422" from-port="2" to-layer="2424" to-port="0" />
		<edge from-layer="2423" from-port="0" to-layer="2424" to-port="1" />
		<edge from-layer="2424" from-port="2" to-layer="2426" to-port="0" />
		<edge from-layer="2424" from-port="2" to-layer="2435" to-port="0" />
		<edge from-layer="2425" from-port="0" to-layer="2426" to-port="1" />
		<edge from-layer="2426" from-port="2" to-layer="2439" to-port="1" />
		<edge from-layer="2427" from-port="0" to-layer="2428" to-port="0" />
		<edge from-layer="2428" from-port="1" to-layer="2430" to-port="0" />
		<edge from-layer="2429" from-port="1" to-layer="2430" to-port="1" />
		<edge from-layer="2430" from-port="2" to-layer="2432" to-port="0" />
		<edge from-layer="2431" from-port="0" to-layer="2432" to-port="1" />
		<edge from-layer="2432" from-port="2" to-layer="2439" to-port="2" />
		<edge from-layer="2433" from-port="0" to-layer="2434" to-port="0" />
		<edge from-layer="2434" from-port="1" to-layer="2436" to-port="0" />
		<edge from-layer="2435" from-port="1" to-layer="2436" to-port="1" />
		<edge from-layer="2436" from-port="2" to-layer="2438" to-port="0" />
		<edge from-layer="2437" from-port="0" to-layer="2438" to-port="1" />
		<edge from-layer="2438" from-port="2" to-layer="2439" to-port="3" />
		<edge from-layer="2439" from-port="4" to-layer="2531" to-port="1" />
		<edge from-layer="2440" from-port="0" to-layer="2482" to-port="0" />
		<edge from-layer="2441" from-port="0" to-layer="2442" to-port="0" />
		<edge from-layer="2442" from-port="1" to-layer="2444" to-port="0" />
		<edge from-layer="2443" from-port="0" to-layer="2444" to-port="1" />
		<edge from-layer="2444" from-port="2" to-layer="2445" to-port="1" />
		<edge from-layer="2445" from-port="2" to-layer="2448" to-port="0" />
		<edge from-layer="2446" from-port="0" to-layer="2447" to-port="0" />
		<edge from-layer="2447" from-port="1" to-layer="2448" to-port="1" />
		<edge from-layer="2448" from-port="2" to-layer="2449" to-port="0" />
		<edge from-layer="2449" from-port="1" to-layer="2454" to-port="0" />
		<edge from-layer="2450" from-port="0" to-layer="2454" to-port="1" />
		<edge from-layer="2451" from-port="0" to-layer="2454" to-port="2" />
		<edge from-layer="2452" from-port="0" to-layer="2454" to-port="3" />
		<edge from-layer="2453" from-port="0" to-layer="2454" to-port="4" />
		<edge from-layer="2454" from-port="5" to-layer="2459" to-port="0" />
		<edge from-layer="2455" from-port="0" to-layer="2456" to-port="0" />
		<edge from-layer="2456" from-port="1" to-layer="2458" to-port="0" />
		<edge from-layer="2457" from-port="0" to-layer="2458" to-port="1" />
		<edge from-layer="2458" from-port="2" to-layer="2459" to-port="1" />
		<edge from-layer="2459" from-port="2" to-layer="2462" to-port="0" />
		<edge from-layer="2460" from-port="0" to-layer="2461" to-port="0" />
		<edge from-layer="2461" from-port="1" to-layer="2462" to-port="1" />
		<edge from-layer="2462" from-port="2" to-layer="2463" to-port="0" />
		<edge from-layer="2463" from-port="1" to-layer="2468" to-port="0" />
		<edge from-layer="2464" from-port="0" to-layer="2468" to-port="1" />
		<edge from-layer="2465" from-port="0" to-layer="2468" to-port="2" />
		<edge from-layer="2466" from-port="0" to-layer="2468" to-port="3" />
		<edge from-layer="2467" from-port="0" to-layer="2468" to-port="4" />
		<edge from-layer="2468" from-port="5" to-layer="2473" to-port="0" />
		<edge from-layer="2469" from-port="0" to-layer="2470" to-port="0" />
		<edge from-layer="2470" from-port="1" to-layer="2472" to-port="0" />
		<edge from-layer="2471" from-port="0" to-layer="2472" to-port="1" />
		<edge from-layer="2472" from-port="2" to-layer="2473" to-port="1" />
		<edge from-layer="2473" from-port="2" to-layer="2476" to-port="0" />
		<edge from-layer="2474" from-port="0" to-layer="2475" to-port="0" />
		<edge from-layer="2475" from-port="1" to-layer="2476" to-port="1" />
		<edge from-layer="2476" from-port="2" to-layer="2477" to-port="0" />
		<edge from-layer="2476" from-port="2" to-layer="2609" to-port="0" />
		<edge from-layer="2476" from-port="2" to-layer="2613" to-port="0" />
		<edge from-layer="2477" from-port="1" to-layer="2495" to-port="0" />
		<edge from-layer="2477" from-port="1" to-layer="2480" to-port="0" />
		<edge from-layer="2478" from-port="0" to-layer="2480" to-port="1" />
		<edge from-layer="2479" from-port="0" to-layer="2480" to-port="2" />
		<edge from-layer="2480" from-port="3" to-layer="2482" to-port="1" />
		<edge from-layer="2481" from-port="0" to-layer="2482" to-port="2" />
		<edge from-layer="2482" from-port="3" to-layer="2484" to-port="0" />
		<edge from-layer="2483" from-port="0" to-layer="2484" to-port="1" />
		<edge from-layer="2484" from-port="2" to-layer="2485" to-port="0" />
		<edge from-layer="2485" from-port="1" to-layer="2487" to-port="0" />
		<edge from-layer="2486" from-port="0" to-layer="2487" to-port="1" />
		<edge from-layer="2487" from-port="2" to-layer="2489" to-port="0" />
		<edge from-layer="2487" from-port="2" to-layer="2491" to-port="0" />
		<edge from-layer="2488" from-port="0" to-layer="2490" to-port="0" />
		<edge from-layer="2489" from-port="1" to-layer="2504" to-port="1" />
		<edge from-layer="2489" from-port="1" to-layer="2490" to-port="1" />
		<edge from-layer="2490" from-port="2" to-layer="2491" to-port="1" />
		<edge from-layer="2491" from-port="2" to-layer="2505" to-port="0" />
		<edge from-layer="2492" from-port="0" to-layer="2497" to-port="0" />
		<edge from-layer="2493" from-port="0" to-layer="2495" to-port="1" />
		<edge from-layer="2494" from-port="0" to-layer="2495" to-port="2" />
		<edge from-layer="2495" from-port="3" to-layer="2497" to-port="1" />
		<edge from-layer="2496" from-port="0" to-layer="2497" to-port="2" />
		<edge from-layer="2497" from-port="3" to-layer="2499" to-port="0" />
		<edge from-layer="2498" from-port="0" to-layer="2499" to-port="1" />
		<edge from-layer="2499" from-port="2" to-layer="2500" to-port="0" />
		<edge from-layer="2500" from-port="1" to-layer="2502" to-port="0" />
		<edge from-layer="2501" from-port="0" to-layer="2502" to-port="1" />
		<edge from-layer="2502" from-port="2" to-layer="2512" to-port="0" />
		<edge from-layer="2502" from-port="2" to-layer="2503" to-port="0" />
		<edge from-layer="2503" from-port="1" to-layer="2511" to-port="0" />
		<edge from-layer="2503" from-port="1" to-layer="2504" to-port="0" />
		<edge from-layer="2504" from-port="2" to-layer="2505" to-port="1" />
		<edge from-layer="2504" from-port="2" to-layer="2513" to-port="1" />
		<edge from-layer="2505" from-port="2" to-layer="2507" to-port="0" />
		<edge from-layer="2506" from-port="0" to-layer="2507" to-port="1" />
		<edge from-layer="2507" from-port="2" to-layer="2520" to-port="0" />
		<edge from-layer="2507" from-port="2" to-layer="2509" to-port="0" />
		<edge from-layer="2508" from-port="0" to-layer="2509" to-port="1" />
		<edge from-layer="2509" from-port="2" to-layer="2530" to-port="0" />
		<edge from-layer="2510" from-port="0" to-layer="2511" to-port="1" />
		<edge from-layer="2511" from-port="2" to-layer="2512" to-port="1" />
		<edge from-layer="2512" from-port="2" to-layer="2513" to-port="0" />
		<edge from-layer="2513" from-port="2" to-layer="2515" to-port="0" />
		<edge from-layer="2514" from-port="0" to-layer="2515" to-port="1" />
		<edge from-layer="2515" from-port="2" to-layer="2517" to-port="0" />
		<edge from-layer="2515" from-port="2" to-layer="2526" to-port="0" />
		<edge from-layer="2516" from-port="0" to-layer="2517" to-port="1" />
		<edge from-layer="2517" from-port="2" to-layer="2530" to-port="1" />
		<edge from-layer="2518" from-port="0" to-layer="2519" to-port="0" />
		<edge from-layer="2519" from-port="1" to-layer="2521" to-port="0" />
		<edge from-layer="2520" from-port="1" to-layer="2521" to-port="1" />
		<edge from-layer="2521" from-port="2" to-layer="2523" to-port="0" />
		<edge from-layer="2522" from-port="0" to-layer="2523" to-port="1" />
		<edge from-layer="2523" from-port="2" to-layer="2530" to-port="2" />
		<edge from-layer="2524" from-port="0" to-layer="2525" to-port="0" />
		<edge from-layer="2525" from-port="1" to-layer="2527" to-port="0" />
		<edge from-layer="2526" from-port="1" to-layer="2527" to-port="1" />
		<edge from-layer="2527" from-port="2" to-layer="2529" to-port="0" />
		<edge from-layer="2528" from-port="0" to-layer="2529" to-port="1" />
		<edge from-layer="2529" from-port="2" to-layer="2530" to-port="3" />
		<edge from-layer="2530" from-port="4" to-layer="2531" to-port="2" />
		<edge from-layer="2531" from-port="3" to-layer="2535" to-port="0" />
		<edge from-layer="2531" from-port="3" to-layer="2540" to-port="0" />
		<edge from-layer="2532" from-port="0" to-layer="2535" to-port="1" />
		<edge from-layer="2533" from-port="0" to-layer="2535" to-port="2" />
		<edge from-layer="2534" from-port="0" to-layer="2535" to-port="3" />
		<edge from-layer="2535" from-port="4" to-layer="2536" to-port="1" />
		<edge from-layer="2535" from-port="4" to-layer="2550" to-port="1" />
		<edge from-layer="2536" from-port="2" to-layer="2541" to-port="0" />
		<edge from-layer="2537" from-port="0" to-layer="2540" to-port="1" />
		<edge from-layer="2538" from-port="0" to-layer="2540" to-port="2" />
		<edge from-layer="2539" from-port="0" to-layer="2540" to-port="3" />
		<edge from-layer="2540" from-port="4" to-layer="2541" to-port="1" />
		<edge from-layer="2541" from-port="2" to-layer="2561" to-port="0" />
		<edge from-layer="2541" from-port="2" to-layer="2544" to-port="0" />
		<edge from-layer="2542" from-port="0" to-layer="2544" to-port="1" />
		<edge from-layer="2542" from-port="0" to-layer="2552" to-port="1" />
		<edge from-layer="2542" from-port="0" to-layer="2755" to-port="1" />
		<edge from-layer="2543" from-port="0" to-layer="2544" to-port="2" />
		<edge from-layer="2544" from-port="3" to-layer="2570" to-port="0" />
		<edge from-layer="2544" from-port="3" to-layer="2556" to-port="0" />
		<edge from-layer="2545" from-port="0" to-layer="2548" to-port="1" />
		<edge from-layer="2546" from-port="0" to-layer="2548" to-port="2" />
		<edge from-layer="2547" from-port="0" to-layer="2548" to-port="3" />
		<edge from-layer="2548" from-port="4" to-layer="2549" to-port="0" />
		<edge from-layer="2549" from-port="1" to-layer="2550" to-port="0" />
		<edge from-layer="2550" from-port="2" to-layer="2552" to-port="0" />
		<edge from-layer="2550" from-port="2" to-layer="2563" to-port="0" />
		<edge from-layer="2551" from-port="0" to-layer="2552" to-port="2" />
		<edge from-layer="2552" from-port="3" to-layer="2555" to-port="0" />
		<edge from-layer="2553" from-port="0" to-layer="2554" to-port="0" />
		<edge from-layer="2554" from-port="1" to-layer="2555" to-port="1" />
		<edge from-layer="2555" from-port="2" to-layer="2570" to-port="1" />
		<edge from-layer="2555" from-port="2" to-layer="2556" to-port="1" />
		<edge from-layer="2556" from-port="2" to-layer="2558" to-port="0" />
		<edge from-layer="2557" from-port="0" to-layer="2558" to-port="1" />
		<edge from-layer="2558" from-port="2" to-layer="2576" to-port="0" />
		<edge from-layer="2559" from-port="0" to-layer="2763" to-port="1" />
		<edge from-layer="2559" from-port="0" to-layer="2561" to-port="1" />
		<edge from-layer="2559" from-port="0" to-layer="2563" to-port="1" />
		<edge from-layer="2560" from-port="0" to-layer="2561" to-port="2" />
		<edge from-layer="2561" from-port="3" to-layer="2573" to-port="0" />
		<edge from-layer="2561" from-port="3" to-layer="2567" to-port="0" />
		<edge from-layer="2562" from-port="0" to-layer="2563" to-port="2" />
		<edge from-layer="2563" from-port="3" to-layer="2566" to-port="0" />
		<edge from-layer="2564" from-port="0" to-layer="2565" to-port="0" />
		<edge from-layer="2565" from-port="1" to-layer="2566" to-port="1" />
		<edge from-layer="2566" from-port="2" to-layer="2573" to-port="1" />
		<edge from-layer="2566" from-port="2" to-layer="2567" to-port="1" />
		<edge from-layer="2567" from-port="2" to-layer="2569" to-port="0" />
		<edge from-layer="2568" from-port="0" to-layer="2569" to-port="1" />
		<edge from-layer="2569" from-port="2" to-layer="2576" to-port="1" />
		<edge from-layer="2570" from-port="2" to-layer="2572" to-port="0" />
		<edge from-layer="2571" from-port="0" to-layer="2572" to-port="1" />
		<edge from-layer="2572" from-port="2" to-layer="2576" to-port="2" />
		<edge from-layer="2573" from-port="2" to-layer="2575" to-port="0" />
		<edge from-layer="2574" from-port="0" to-layer="2575" to-port="1" />
		<edge from-layer="2575" from-port="2" to-layer="2576" to-port="3" />
		<edge from-layer="2576" from-port="4" to-layer="2586" to-port="0" />
		<edge from-layer="2576" from-port="4" to-layer="2577" to-port="0" />
		<edge from-layer="2577" from-port="1" to-layer="2715" to-port="0" />
		<edge from-layer="2577" from-port="1" to-layer="2581" to-port="0" />
		<edge from-layer="2577" from-port="1" to-layer="2707" to-port="0" />
		<edge from-layer="2578" from-port="0" to-layer="2581" to-port="1" />
		<edge from-layer="2579" from-port="0" to-layer="2581" to-port="2" />
		<edge from-layer="2580" from-port="0" to-layer="2581" to-port="3" />
		<edge from-layer="2581" from-port="4" to-layer="2583" to-port="0" />
		<edge from-layer="2582" from-port="0" to-layer="2583" to-port="1" />
		<edge from-layer="2583" from-port="2" to-layer="2585" to-port="0" />
		<edge from-layer="2584" from-port="0" to-layer="2585" to-port="1" />
		<edge from-layer="2585" from-port="2" to-layer="2586" to-port="1" />
		<edge from-layer="2586" from-port="2" to-layer="2711" to-port="0" />
		<edge from-layer="2587" from-port="1" to-layer="2590" to-port="0" />
		<edge from-layer="2588" from-port="0" to-layer="2590" to-port="1" />
		<edge from-layer="2589" from-port="0" to-layer="2590" to-port="2" />
		<edge from-layer="2590" from-port="3" to-layer="2591" to-port="1" />
		<edge from-layer="2591" from-port="2" to-layer="2597" to-port="0" />
		<edge from-layer="2592" from-port="0" to-layer="2593" to-port="1" />
		<edge from-layer="2593" from-port="3" to-layer="2596" to-port="0" />
		<edge from-layer="2594" from-port="0" to-layer="2596" to-port="1" />
		<edge from-layer="2595" from-port="0" to-layer="2596" to-port="2" />
		<edge from-layer="2596" from-port="3" to-layer="2597" to-port="1" />
		<edge from-layer="2597" from-port="2" to-layer="2620" to-port="0" />
		<edge from-layer="2598" from-port="1" to-layer="2601" to-port="0" />
		<edge from-layer="2599" from-port="0" to-layer="2601" to-port="1" />
		<edge from-layer="2600" from-port="0" to-layer="2601" to-port="2" />
		<edge from-layer="2601" from-port="3" to-layer="2602" to-port="1" />
		<edge from-layer="2602" from-port="2" to-layer="2608" to-port="0" />
		<edge from-layer="2603" from-port="0" to-layer="2604" to-port="1" />
		<edge from-layer="2604" from-port="3" to-layer="2607" to-port="0" />
		<edge from-layer="2605" from-port="0" to-layer="2607" to-port="1" />
		<edge from-layer="2606" from-port="0" to-layer="2607" to-port="2" />
		<edge from-layer="2607" from-port="3" to-layer="2608" to-port="1" />
		<edge from-layer="2608" from-port="2" to-layer="2620" to-port="1" />
		<edge from-layer="2609" from-port="1" to-layer="2612" to-port="0" />
		<edge from-layer="2610" from-port="0" to-layer="2612" to-port="1" />
		<edge from-layer="2611" from-port="0" to-layer="2612" to-port="2" />
		<edge from-layer="2612" from-port="3" to-layer="2613" to-port="1" />
		<edge from-layer="2613" from-port="2" to-layer="2619" to-port="0" />
		<edge from-layer="2614" from-port="0" to-layer="2615" to-port="1" />
		<edge from-layer="2615" from-port="3" to-layer="2618" to-port="0" />
		<edge from-layer="2616" from-port="0" to-layer="2618" to-port="1" />
		<edge from-layer="2617" from-port="0" to-layer="2618" to-port="2" />
		<edge from-layer="2618" from-port="3" to-layer="2619" to-port="1" />
		<edge from-layer="2619" from-port="2" to-layer="2620" to-port="2" />
		<edge from-layer="2620" from-port="3" to-layer="2621" to-port="0" />
		<edge from-layer="2621" from-port="1" to-layer="2680" to-port="0" />
		<edge from-layer="2622" from-port="0" to-layer="2623" to-port="0" />
		<edge from-layer="2623" from-port="1" to-layer="2625" to-port="0" />
		<edge from-layer="2624" from-port="0" to-layer="2625" to-port="1" />
		<edge from-layer="2625" from-port="2" to-layer="2626" to-port="1" />
		<edge from-layer="2626" from-port="2" to-layer="2629" to-port="0" />
		<edge from-layer="2627" from-port="0" to-layer="2628" to-port="0" />
		<edge from-layer="2628" from-port="1" to-layer="2629" to-port="1" />
		<edge from-layer="2629" from-port="2" to-layer="2634" to-port="0" />
		<edge from-layer="2629" from-port="2" to-layer="2630" to-port="0" />
		<edge from-layer="2630" from-port="1" to-layer="2633" to-port="0" />
		<edge from-layer="2631" from-port="0" to-layer="2633" to-port="1" />
		<edge from-layer="2632" from-port="0" to-layer="2633" to-port="2" />
		<edge from-layer="2633" from-port="3" to-layer="2634" to-port="1" />
		<edge from-layer="2634" from-port="2" to-layer="2639" to-port="0" />
		<edge from-layer="2635" from-port="0" to-layer="2636" to-port="1" />
		<edge from-layer="2636" from-port="3" to-layer="2638" to-port="0" />
		<edge from-layer="2637" from-port="0" to-layer="2638" to-port="1" />
		<edge from-layer="2638" from-port="2" to-layer="2639" to-port="1" />
		<edge from-layer="2639" from-port="2" to-layer="2676" to-port="0" />
		<edge from-layer="2640" from-port="0" to-layer="2641" to-port="0" />
		<edge from-layer="2641" from-port="1" to-layer="2643" to-port="0" />
		<edge from-layer="2642" from-port="0" to-layer="2643" to-port="1" />
		<edge from-layer="2643" from-port="2" to-layer="2644" to-port="1" />
		<edge from-layer="2644" from-port="2" to-layer="2647" to-port="0" />
		<edge from-layer="2645" from-port="0" to-layer="2646" to-port="0" />
		<edge from-layer="2646" from-port="1" to-layer="2647" to-port="1" />
		<edge from-layer="2647" from-port="2" to-layer="2648" to-port="0" />
		<edge from-layer="2647" from-port="2" to-layer="2652" to-port="0" />
		<edge from-layer="2648" from-port="1" to-layer="2651" to-port="0" />
		<edge from-layer="2649" from-port="0" to-layer="2651" to-port="1" />
		<edge from-layer="2650" from-port="0" to-layer="2651" to-port="2" />
		<edge from-layer="2651" from-port="3" to-layer="2652" to-port="1" />
		<edge from-layer="2652" from-port="2" to-layer="2657" to-port="0" />
		<edge from-layer="2653" from-port="0" to-layer="2654" to-port="1" />
		<edge from-layer="2654" from-port="3" to-layer="2656" to-port="0" />
		<edge from-layer="2655" from-port="0" to-layer="2656" to-port="1" />
		<edge from-layer="2656" from-port="2" to-layer="2657" to-port="1" />
		<edge from-layer="2657" from-port="2" to-layer="2676" to-port="1" />
		<edge from-layer="2658" from-port="0" to-layer="2659" to-port="0" />
		<edge from-layer="2659" from-port="1" to-layer="2661" to-port="0" />
		<edge from-layer="2660" from-port="0" to-layer="2661" to-port="1" />
		<edge from-layer="2661" from-port="2" to-layer="2662" to-port="1" />
		<edge from-layer="2662" from-port="2" to-layer="2665" to-port="0" />
		<edge from-layer="2663" from-port="0" to-layer="2664" to-port="0" />
		<edge from-layer="2664" from-port="1" to-layer="2665" to-port="1" />
		<edge from-layer="2665" from-port="2" to-layer="2670" to-port="0" />
		<edge from-layer="2665" from-port="2" to-layer="2666" to-port="0" />
		<edge from-layer="2666" from-port="1" to-layer="2669" to-port="0" />
		<edge from-layer="2667" from-port="0" to-layer="2669" to-port="1" />
		<edge from-layer="2668" from-port="0" to-layer="2669" to-port="2" />
		<edge from-layer="2669" from-port="3" to-layer="2670" to-port="1" />
		<edge from-layer="2670" from-port="2" to-layer="2675" to-port="0" />
		<edge from-layer="2671" from-port="0" to-layer="2672" to-port="1" />
		<edge from-layer="2672" from-port="3" to-layer="2674" to-port="0" />
		<edge from-layer="2673" from-port="0" to-layer="2674" to-port="1" />
		<edge from-layer="2674" from-port="2" to-layer="2675" to-port="1" />
		<edge from-layer="2675" from-port="2" to-layer="2676" to-port="2" />
		<edge from-layer="2676" from-port="3" to-layer="2677" to-port="0" />
		<edge from-layer="2677" from-port="1" to-layer="2679" to-port="0" />
		<edge from-layer="2678" from-port="0" to-layer="2679" to-port="1" />
		<edge from-layer="2679" from-port="2" to-layer="2680" to-port="1" />
		<edge from-layer="2680" from-port="2" to-layer="2697" to-port="0" />
		<edge from-layer="2680" from-port="2" to-layer="2729" to-port="0" />
		<edge from-layer="2680" from-port="2" to-layer="2682" to-port="0" />
		<edge from-layer="2681" from-port="0" to-layer="2682" to-port="1" />
		<edge from-layer="2682" from-port="2" to-layer="2684" to-port="0" />
		<edge from-layer="2682" from-port="2" to-layer="2695" to-port="0" />
		<edge from-layer="2683" from-port="0" to-layer="2688" to-port="0" />
		<edge from-layer="2684" from-port="1" to-layer="2687" to-port="0" />
		<edge from-layer="2685" from-port="0" to-layer="2687" to-port="1" />
		<edge from-layer="2686" from-port="0" to-layer="2687" to-port="2" />
		<edge from-layer="2687" from-port="3" to-layer="2690" to-port="2" />
		<edge from-layer="2687" from-port="3" to-layer="2688" to-port="1" />
		<edge from-layer="2688" from-port="2" to-layer="2690" to-port="0" />
		<edge from-layer="2689" from-port="0" to-layer="2690" to-port="1" />
		<edge from-layer="2690" from-port="3" to-layer="2692" to-port="0" />
		<edge from-layer="2691" from-port="0" to-layer="2692" to-port="1" />
		<edge from-layer="2692" from-port="2" to-layer="2694" to-port="0" />
		<edge from-layer="2693" from-port="0" to-layer="2694" to-port="1" />
		<edge from-layer="2694" from-port="2" to-layer="2695" to-port="1" />
		<edge from-layer="2695" from-port="3" to-layer="2734" to-port="0" />
		<edge from-layer="2695" from-port="3" to-layer="2709" to-port="0" />
		<edge from-layer="2696" from-port="0" to-layer="2702" to-port="0" />
		<edge from-layer="2697" from-port="1" to-layer="2740" to-port="0" />
		<edge from-layer="2697" from-port="1" to-layer="2700" to-port="0" />
		<edge from-layer="2697" from-port="1" to-layer="2769" to-port="0" />
		<edge from-layer="2697" from-port="1" to-layer="2724" to-port="0" />
		<edge from-layer="2697" from-port="1" to-layer="2732" to-port="0" />
		<edge from-layer="2697" from-port="1" to-layer="2845" to-port="0" />
		<edge from-layer="2698" from-port="0" to-layer="2700" to-port="1" />
		<edge from-layer="2699" from-port="0" to-layer="2769" to-port="2" />
		<edge from-layer="2699" from-port="0" to-layer="2700" to-port="2" />
		<edge from-layer="2699" from-port="0" to-layer="2845" to-port="2" />
		<edge from-layer="2700" from-port="3" to-layer="2898" to-port="1" />
		<edge from-layer="2700" from-port="3" to-layer="2758" to-port="1" />
		<edge from-layer="2700" from-port="3" to-layer="2702" to-port="1" />
		<edge from-layer="2701" from-port="0" to-layer="2702" to-port="2" />
		<edge from-layer="2702" from-port="3" to-layer="2704" to-port="0" />
		<edge from-layer="2703" from-port="0" to-layer="2704" to-port="1" />
		<edge from-layer="2704" from-port="2" to-layer="2708" to-port="0" />
		<edge from-layer="2704" from-port="2" to-layer="2733" to-port="0" />
		<edge from-layer="2705" from-port="0" to-layer="2707" to-port="1" />
		<edge from-layer="2706" from-port="0" to-layer="2707" to-port="2" />
		<edge from-layer="2707" from-port="3" to-layer="2708" to-port="1" />
		<edge from-layer="2708" from-port="2" to-layer="2709" to-port="1" />
		<edge from-layer="2709" from-port="2" to-layer="2718" to-port="0" />
		<edge from-layer="2709" from-port="2" to-layer="2711" to-port="1" />
		<edge from-layer="2710" from-port="0" to-layer="2711" to-port="2" />
		<edge from-layer="2711" from-port="3" to-layer="2717" to-port="0" />
		<edge from-layer="2712" from-port="0" to-layer="2716" to-port="0" />
		<edge from-layer="2713" from-port="0" to-layer="2715" to-port="1" />
		<edge from-layer="2714" from-port="0" to-layer="2715" to-port="2" />
		<edge from-layer="2715" from-port="3" to-layer="2719" to-port="1" />
		<edge from-layer="2715" from-port="3" to-layer="2716" to-port="1" />
		<edge from-layer="2716" from-port="2" to-layer="2717" to-port="1" />
		<edge from-layer="2717" from-port="2" to-layer="2720" to-port="0" />
		<edge from-layer="2718" from-port="1" to-layer="2719" to-port="0" />
		<edge from-layer="2719" from-port="2" to-layer="2720" to-port="1" />
		<edge from-layer="2720" from-port="2" to-layer="2787" to-port="0" />
		<edge from-layer="2720" from-port="2" to-layer="2778" to-port="0" />
		<edge from-layer="2720" from-port="2" to-layer="2753" to-port="0" />
		<edge from-layer="2721" from-port="0" to-layer="2724" to-port="1" />
		<edge from-layer="2722" from-port="0" to-layer="2724" to-port="2" />
		<edge from-layer="2723" from-port="0" to-layer="2724" to-port="3" />
		<edge from-layer="2724" from-port="4" to-layer="2726" to-port="0" />
		<edge from-layer="2725" from-port="0" to-layer="2726" to-port="1" />
		<edge from-layer="2726" from-port="2" to-layer="2728" to-port="0" />
		<edge from-layer="2727" from-port="0" to-layer="2728" to-port="1" />
		<edge from-layer="2728" from-port="2" to-layer="2729" to-port="1" />
		<edge from-layer="2729" from-port="2" to-layer="2736" to-port="0" />
		<edge from-layer="2730" from-port="0" to-layer="2732" to-port="1" />
		<edge from-layer="2731" from-port="0" to-layer="2732" to-port="2" />
		<edge from-layer="2732" from-port="3" to-layer="2733" to-port="1" />
		<edge from-layer="2733" from-port="2" to-layer="2734" to-port="1" />
		<edge from-layer="2734" from-port="2" to-layer="2736" to-port="1" />
		<edge from-layer="2734" from-port="2" to-layer="2743" to-port="0" />
		<edge from-layer="2735" from-port="0" to-layer="2736" to-port="2" />
		<edge from-layer="2736" from-port="3" to-layer="2742" to-port="0" />
		<edge from-layer="2737" from-port="0" to-layer="2741" to-port="0" />
		<edge from-layer="2738" from-port="0" to-layer="2740" to-port="1" />
		<edge from-layer="2739" from-port="0" to-layer="2740" to-port="2" />
		<edge from-layer="2740" from-port="3" to-layer="2744" to-port="1" />
		<edge from-layer="2740" from-port="3" to-layer="2741" to-port="1" />
		<edge from-layer="2741" from-port="2" to-layer="2742" to-port="1" />
		<edge from-layer="2742" from-port="2" to-layer="2745" to-port="0" />
		<edge from-layer="2743" from-port="1" to-layer="2744" to-port="0" />
		<edge from-layer="2744" from-port="2" to-layer="2745" to-port="1" />
		<edge from-layer="2745" from-port="2" to-layer="2808" to-port="0" />
		<edge from-layer="2745" from-port="2" to-layer="2747" to-port="0" />
		<edge from-layer="2746" from-port="0" to-layer="2747" to-port="1" />
		<edge from-layer="2747" from-port="2" to-layer="2819" to-port="0" />
		<edge from-layer="2747" from-port="2" to-layer="2753" to-port="1" />
		<edge from-layer="2748" from-port="0" to-layer="2753" to-port="2" />
		<edge from-layer="2749" from-port="0" to-layer="2750" to-port="0" />
		<edge from-layer="2750" from-port="1" to-layer="2753" to-port="3" />
		<edge from-layer="2751" from-port="0" to-layer="2752" to-port="0" />
		<edge from-layer="2752" from-port="1" to-layer="2753" to-port="4" />
		<edge from-layer="2753" from-port="5" to-layer="2790" to-port="0" />
		<edge from-layer="2753" from-port="5" to-layer="2763" to-port="0" />
		<edge from-layer="2753" from-port="5" to-layer="2755" to-port="0" />
		<edge from-layer="2754" from-port="0" to-layer="2755" to-port="2" />
		<edge from-layer="2755" from-port="3" to-layer="2829" to-port="0" />
		<edge from-layer="2755" from-port="3" to-layer="2761" to-port="0" />
		<edge from-layer="2755" from-port="3" to-layer="2794" to-port="0" />
		<edge from-layer="2756" from-port="0" to-layer="2758" to-port="0" />
		<edge from-layer="2757" from-port="0" to-layer="2758" to-port="2" />
		<edge from-layer="2758" from-port="3" to-layer="2760" to-port="0" />
		<edge from-layer="2759" from-port="0" to-layer="2760" to-port="1" />
		<edge from-layer="2760" from-port="2" to-layer="2761" to-port="1" />
		<edge from-layer="2761" from-port="2" to-layer="2774" to-port="0" />
		<edge from-layer="2761" from-port="2" to-layer="2777" to-port="0" />
		<edge from-layer="2762" from-port="0" to-layer="2763" to-port="2" />
		<edge from-layer="2763" from-port="3" to-layer="2823" to-port="0" />
		<edge from-layer="2763" from-port="3" to-layer="2765" to-port="0" />
		<edge from-layer="2764" from-port="0" to-layer="2765" to-port="1" />
		<edge from-layer="2765" from-port="2" to-layer="2767" to-port="0" />
		<edge from-layer="2766" from-port="0" to-layer="2767" to-port="1" />
		<edge from-layer="2767" from-port="2" to-layer="2772" to-port="0" />
		<edge from-layer="2768" from-port="0" to-layer="2769" to-port="1" />
		<edge from-layer="2769" from-port="3" to-layer="2771" to-port="0" />
		<edge from-layer="2770" from-port="0" to-layer="2771" to-port="1" />
		<edge from-layer="2771" from-port="2" to-layer="2772" to-port="1" />
		<edge from-layer="2772" from-port="2" to-layer="2774" to-port="1" />
		<edge from-layer="2773" from-port="0" to-layer="2774" to-port="2" />
		<edge from-layer="2774" from-port="3" to-layer="2860" to-port="0" />
		<edge from-layer="2775" from-port="0" to-layer="2859" to-port="0" />
		<edge from-layer="2776" from-port="0" to-layer="2777" to-port="1" />
		<edge from-layer="2777" from-port="2" to-layer="2852" to-port="0" />
		<edge from-layer="2778" from-port="1" to-layer="2801" to-port="0" />
		<edge from-layer="2778" from-port="1" to-layer="2793" to-port="0" />
		<edge from-layer="2778" from-port="1" to-layer="2782" to-port="0" />
		<edge from-layer="2779" from-port="0" to-layer="2782" to-port="1" />
		<edge from-layer="2780" from-port="0" to-layer="2782" to-port="2" />
		<edge from-layer="2781" from-port="0" to-layer="2782" to-port="3" />
		<edge from-layer="2782" from-port="4" to-layer="2784" to-port="0" />
		<edge from-layer="2783" from-port="0" to-layer="2784" to-port="1" />
		<edge from-layer="2784" from-port="2" to-layer="2786" to-port="0" />
		<edge from-layer="2785" from-port="0" to-layer="2786" to-port="1" />
		<edge from-layer="2786" from-port="2" to-layer="2787" to-port="1" />
		<edge from-layer="2787" from-port="2" to-layer="2797" to-port="0" />
		<edge from-layer="2788" from-port="0" to-layer="2790" to-port="1" />
		<edge from-layer="2789" from-port="0" to-layer="2790" to-port="2" />
		<edge from-layer="2790" from-port="3" to-layer="2795" to-port="0" />
		<edge from-layer="2790" from-port="3" to-layer="2824" to-port="0" />
		<edge from-layer="2791" from-port="0" to-layer="2793" to-port="1" />
		<edge from-layer="2792" from-port="0" to-layer="2793" to-port="2" />
		<edge from-layer="2793" from-port="3" to-layer="2794" to-port="1" />
		<edge from-layer="2794" from-port="2" to-layer="2795" to-port="1" />
		<edge from-layer="2795" from-port="2" to-layer="2797" to-port="1" />
		<edge from-layer="2795" from-port="2" to-layer="2804" to-port="0" />
		<edge from-layer="2796" from-port="0" to-layer="2797" to-port="2" />
		<edge from-layer="2797" from-port="3" to-layer="2803" to-port="0" />
		<edge from-layer="2798" from-port="0" to-layer="2802" to-port="0" />
		<edge from-layer="2799" from-port="0" to-layer="2801" to-port="1" />
		<edge from-layer="2800" from-port="0" to-layer="2801" to-port="2" />
		<edge from-layer="2801" from-port="3" to-layer="2805" to-port="1" />
		<edge from-layer="2801" from-port="3" to-layer="2802" to-port="1" />
		<edge from-layer="2802" from-port="2" to-layer="2803" to-port="1" />
		<edge from-layer="2803" from-port="2" to-layer="2806" to-port="0" />
		<edge from-layer="2804" from-port="1" to-layer="2805" to-port="0" />
		<edge from-layer="2805" from-port="2" to-layer="2806" to-port="1" />
		<edge from-layer="2806" from-port="2" to-layer="2839" to-port="0" />
		<edge from-layer="2807" from-port="0" to-layer="2808" to-port="1" />
		<edge from-layer="2808" from-port="2" to-layer="2818" to-port="0" />
		<edge from-layer="2808" from-port="2" to-layer="2809" to-port="0" />
		<edge from-layer="2809" from-port="1" to-layer="2813" to-port="0" />
		<edge from-layer="2810" from-port="0" to-layer="2813" to-port="1" />
		<edge from-layer="2811" from-port="0" to-layer="2813" to-port="2" />
		<edge from-layer="2812" from-port="0" to-layer="2813" to-port="3" />
		<edge from-layer="2813" from-port="4" to-layer="2815" to-port="0" />
		<edge from-layer="2814" from-port="0" to-layer="2815" to-port="1" />
		<edge from-layer="2815" from-port="2" to-layer="2817" to-port="0" />
		<edge from-layer="2816" from-port="0" to-layer="2817" to-port="1" />
		<edge from-layer="2817" from-port="2" to-layer="2818" to-port="1" />
		<edge from-layer="2818" from-port="2" to-layer="2832" to-port="0" />
		<edge from-layer="2819" from-port="1" to-layer="2822" to-port="0" />
		<edge from-layer="2819" from-port="1" to-layer="2827" to-port="0" />
		<edge from-layer="2820" from-port="0" to-layer="2822" to-port="1" />
		<edge from-layer="2821" from-port="0" to-layer="2822" to-port="2" />
		<edge from-layer="2822" from-port="3" to-layer="2828" to-port="0" />
		<edge from-layer="2822" from-port="3" to-layer="2823" to-port="1" />
		<edge from-layer="2823" from-port="2" to-layer="2824" to-port="1" />
		<edge from-layer="2824" from-port="2" to-layer="2830" to-port="0" />
		<edge from-layer="2825" from-port="0" to-layer="2827" to-port="1" />
		<edge from-layer="2826" from-port="0" to-layer="2827" to-port="2" />
		<edge from-layer="2827" from-port="3" to-layer="2828" to-port="1" />
		<edge from-layer="2828" from-port="2" to-layer="2829" to-port="1" />
		<edge from-layer="2829" from-port="2" to-layer="2830" to-port="1" />
		<edge from-layer="2830" from-port="2" to-layer="2832" to-port="1" />
		<edge from-layer="2830" from-port="2" to-layer="2835" to-port="0" />
		<edge from-layer="2831" from-port="0" to-layer="2832" to-port="2" />
		<edge from-layer="2832" from-port="3" to-layer="2834" to-port="0" />
		<edge from-layer="2833" from-port="0" to-layer="2834" to-port="1" />
		<edge from-layer="2834" from-port="2" to-layer="2836" to-port="0" />
		<edge from-layer="2835" from-port="1" to-layer="2836" to-port="1" />
		<edge from-layer="2836" from-port="2" to-layer="2838" to-port="0" />
		<edge from-layer="2837" from-port="0" to-layer="2838" to-port="1" />
		<edge from-layer="2838" from-port="2" to-layer="2839" to-port="1" />
		<edge from-layer="2839" from-port="2" to-layer="2841" to-port="0" />
		<edge from-layer="2840" from-port="0" to-layer="2841" to-port="1" />
		<edge from-layer="2841" from-port="2" to-layer="2843" to-port="0" />
		<edge from-layer="2842" from-port="0" to-layer="2843" to-port="1" />
		<edge from-layer="2843" from-port="2" to-layer="2849" to-port="0" />
		<edge from-layer="2844" from-port="0" to-layer="2845" to-port="1" />
		<edge from-layer="2845" from-port="3" to-layer="2848" to-port="0" />
		<edge from-layer="2846" from-port="0" to-layer="2848" to-port="1" />
		<edge from-layer="2847" from-port="0" to-layer="2848" to-port="2" />
		<edge from-layer="2848" from-port="3" to-layer="2849" to-port="1" />
		<edge from-layer="2849" from-port="2" to-layer="2852" to-port="1" />
		<edge from-layer="2850" from-port="0" to-layer="2851" to-port="0" />
		<edge from-layer="2851" from-port="1" to-layer="2852" to-port="2" />
		<edge from-layer="2852" from-port="3" to-layer="2879" to-port="0" />
		<edge from-layer="2852" from-port="3" to-layer="2853" to-port="0" />
		<edge from-layer="2853" from-port="1" to-layer="2874" to-port="0" />
		<edge from-layer="2853" from-port="1" to-layer="2856" to-port="0" />
		<edge from-layer="2854" from-port="0" to-layer="2856" to-port="1" />
		<edge from-layer="2855" from-port="0" to-layer="2874" to-port="2" />
		<edge from-layer="2855" from-port="0" to-layer="2856" to-port="2" />
		<edge from-layer="2856" from-port="3" to-layer="2858" to-port="0" />
		<edge from-layer="2857" from-port="0" to-layer="2858" to-port="1" />
		<edge from-layer="2858" from-port="2" to-layer="2859" to-port="1" />
		<edge from-layer="2859" from-port="2" to-layer="2860" to-port="1" />
		<edge from-layer="2860" from-port="2" to-layer="2861" to-port="0" />
		<edge from-layer="2860" from-port="2" to-layer="2870" to-port="0" />
		<edge from-layer="2861" from-port="1" to-layer="2903" to-port="0" />
		<edge from-layer="2861" from-port="1" to-layer="2865" to-port="0" />
		<edge from-layer="2862" from-port="0" to-layer="2865" to-port="1" />
		<edge from-layer="2863" from-port="0" to-layer="2865" to-port="2" />
		<edge from-layer="2864" from-port="0" to-layer="2865" to-port="3" />
		<edge from-layer="2865" from-port="4" to-layer="2867" to-port="0" />
		<edge from-layer="2866" from-port="0" to-layer="2867" to-port="1" />
		<edge from-layer="2867" from-port="2" to-layer="2869" to-port="0" />
		<edge from-layer="2868" from-port="0" to-layer="2869" to-port="1" />
		<edge from-layer="2869" from-port="2" to-layer="2870" to-port="1" />
		<edge from-layer="2870" from-port="2" to-layer="2907" to-port="0" />
		<edge from-layer="2871" from-port="0" to-layer="2872" to-port="0" />
		<edge from-layer="2872" from-port="1" to-layer="2878" to-port="0" />
		<edge from-layer="2873" from-port="0" to-layer="2874" to-port="1" />
		<edge from-layer="2874" from-port="3" to-layer="2877" to-port="0" />
		<edge from-layer="2875" from-port="0" to-layer="2877" to-port="1" />
		<edge from-layer="2876" from-port="0" to-layer="2877" to-port="2" />
		<edge from-layer="2877" from-port="3" to-layer="2878" to-port="1" />
		<edge from-layer="2878" from-port="2" to-layer="2879" to-port="1" />
		<edge from-layer="2879" from-port="2" to-layer="2922" to-port="0" />
		<edge from-layer="2879" from-port="2" to-layer="2913" to-port="0" />
		<edge from-layer="2879" from-port="2" to-layer="2882" to-port="0" />
		<edge from-layer="2880" from-port="0" to-layer="2882" to-port="1" />
		<edge from-layer="2881" from-port="0" to-layer="2882" to-port="2" />
		<edge from-layer="2882" from-port="3" to-layer="2884" to-port="0" />
		<edge from-layer="2882" from-port="3" to-layer="2895" to-port="0" />
		<edge from-layer="2883" from-port="0" to-layer="2888" to-port="0" />
		<edge from-layer="2884" from-port="1" to-layer="2887" to-port="0" />
		<edge from-layer="2885" from-port="0" to-layer="2887" to-port="1" />
		<edge from-layer="2886" from-port="0" to-layer="2887" to-port="2" />
		<edge from-layer="2887" from-port="3" to-layer="2890" to-port="2" />
		<edge from-layer="2887" from-port="3" to-layer="2888" to-port="1" />
		<edge from-layer="2888" from-port="2" to-layer="2890" to-port="0" />
		<edge from-layer="2889" from-port="0" to-layer="2890" to-port="1" />
		<edge from-layer="2890" from-port="3" to-layer="2892" to-port="0" />
		<edge from-layer="2891" from-port="0" to-layer="2892" to-port="1" />
		<edge from-layer="2892" from-port="2" to-layer="2894" to-port="0" />
		<edge from-layer="2893" from-port="0" to-layer="2894" to-port="1" />
		<edge from-layer="2894" from-port="2" to-layer="2895" to-port="1" />
		<edge from-layer="2895" from-port="3" to-layer="2927" to-port="0" />
		<edge from-layer="2895" from-port="3" to-layer="2905" to-port="0" />
		<edge from-layer="2896" from-port="0" to-layer="2898" to-port="0" />
		<edge from-layer="2897" from-port="0" to-layer="2898" to-port="2" />
		<edge from-layer="2898" from-port="3" to-layer="2900" to-port="0" />
		<edge from-layer="2899" from-port="0" to-layer="2900" to-port="1" />
		<edge from-layer="2900" from-port="2" to-layer="2904" to-port="0" />
		<edge from-layer="2900" from-port="2" to-layer="2926" to-port="0" />
		<edge from-layer="2901" from-port="0" to-layer="2903" to-port="1" />
		<edge from-layer="2902" from-port="0" to-layer="2903" to-port="2" />
		<edge from-layer="2903" from-port="3" to-layer="2904" to-port="1" />
		<edge from-layer="2904" from-port="2" to-layer="2905" to-port="1" />
		<edge from-layer="2905" from-port="2" to-layer="2910" to-port="0" />
		<edge from-layer="2905" from-port="2" to-layer="2907" to-port="1" />
		<edge from-layer="2906" from-port="0" to-layer="2907" to-port="2" />
		<edge from-layer="2907" from-port="3" to-layer="2909" to-port="0" />
		<edge from-layer="2908" from-port="0" to-layer="2909" to-port="1" />
		<edge from-layer="2909" from-port="2" to-layer="2911" to-port="0" />
		<edge from-layer="2910" from-port="1" to-layer="2911" to-port="1" />
		<edge from-layer="2911" from-port="2" to-layer="2912" to-port="0" />
		<edge from-layer="2913" from-port="1" to-layer="2933" to-port="0" />
		<edge from-layer="2913" from-port="1" to-layer="2917" to-port="0" />
		<edge from-layer="2913" from-port="1" to-layer="2925" to-port="0" />
		<edge from-layer="2914" from-port="0" to-layer="2917" to-port="1" />
		<edge from-layer="2915" from-port="0" to-layer="2917" to-port="2" />
		<edge from-layer="2916" from-port="0" to-layer="2917" to-port="3" />
		<edge from-layer="2917" from-port="4" to-layer="2919" to-port="0" />
		<edge from-layer="2918" from-port="0" to-layer="2919" to-port="1" />
		<edge from-layer="2919" from-port="2" to-layer="2921" to-port="0" />
		<edge from-layer="2920" from-port="0" to-layer="2921" to-port="1" />
		<edge from-layer="2921" from-port="2" to-layer="2922" to-port="1" />
		<edge from-layer="2922" from-port="2" to-layer="2929" to-port="0" />
		<edge from-layer="2923" from-port="0" to-layer="2925" to-port="1" />
		<edge from-layer="2924" from-port="0" to-layer="2925" to-port="2" />
		<edge from-layer="2925" from-port="3" to-layer="2926" to-port="1" />
		<edge from-layer="2926" from-port="2" to-layer="2927" to-port="1" />
		<edge from-layer="2927" from-port="2" to-layer="2929" to-port="1" />
		<edge from-layer="2927" from-port="2" to-layer="2936" to-port="0" />
		<edge from-layer="2928" from-port="0" to-layer="2929" to-port="2" />
		<edge from-layer="2929" from-port="3" to-layer="2935" to-port="0" />
		<edge from-layer="2930" from-port="0" to-layer="2934" to-port="0" />
		<edge from-layer="2931" from-port="0" to-layer="2933" to-port="1" />
		<edge from-layer="2932" from-port="0" to-layer="2933" to-port="2" />
		<edge from-layer="2933" from-port="3" to-layer="2934" to-port="1" />
		<edge from-layer="2933" from-port="3" to-layer="2937" to-port="1" />
		<edge from-layer="2934" from-port="2" to-layer="2935" to-port="1" />
		<edge from-layer="2935" from-port="2" to-layer="2938" to-port="0" />
		<edge from-layer="2936" from-port="1" to-layer="2937" to-port="0" />
		<edge from-layer="2937" from-port="2" to-layer="2938" to-port="1" />
		<edge from-layer="2938" from-port="2" to-layer="2939" to-port="0" />
	</edges>
	<rt_info>
		<MO_version value="2023.0.0-10926-b4452d56304-releases/2023/0" />
		<Runtime_version value="2023.0.0-10926-b4452d56304-releases/2023/0" />
		<conversion_parameters>
			<compress_to_fp16 value="True" />
			<input value="image" />
			<input_model value="DIR/model_ready.onnx" />
			<input_shape value="[-1, 3, 640, 640]" />
			<is_python_api_used value="False" />
			<mean_values value="[0.0, 0.0, 0.0]" />
			<model_name value="model" />
			<output value="boxes,labels" />
			<output_dir value="DIR" />
			<reverse_input_channels value="True" />
			<scale_values value="[1.0, 1.0, 1.0]" />
		</conversion_parameters>
		<legacy_frontend value="False" />
		<model_info>
			<confidence_threshold value="0.6000000000000001" />
			<iou_threshold value="0.5" />
			<labels value="drone" />
			<model_type value="ssd" />
		</model_info>
		<nncf>
			<quantization>
				<advanced_parameters value="{}" />
				<fast_bias_correction value="True" />
				<ignored_scope value="None" />
				<model_type value="None" />
				<preset value="performance" />
				<subset_size value="300" />
				<target_device value="ANY" />
			</quantization>
		</nncf>
	</rt_info>
</net>
