<?xml version="1.0"?>
<net name="torch_jit" version="11">
	<layers>
		<layer id="0" name="image" type="Parameter" version="opset1">
			<data shape="?,3,736,992" element_type="f32" />
			<output>
				<port id="0" precision="FP32" names="image">
					<dim>-1</dim>
					<dim>3</dim>
					<dim>736</dim>
					<dim>992</dim>
				</port>
			</output>
		</layer>
		<layer id="1" name="/Constant_30" type="Const" version="opset1">
			<data element_type="f32" shape="1, 1, 4" offset="0" size="16" />
			<output>
				<port id="0" precision="FP32" names="/Constant_30_output_0">
					<dim>1</dim>
					<dim>1</dim>
					<dim>4</dim>
				</port>
			</output>
		</layer>
		<layer id="2" name="/Constant_17" type="Const" version="opset1">
			<data element_type="i64" shape="" offset="16" size="8" />
			<output>
				<port id="0" precision="I64" names="/Constant_17_output_0" />
			</output>
		</layer>
		<layer id="3" name="Constant_62334" type="Const" version="opset1">
			<data element_type="f32" shape="1, 3, 1, 1" offset="24" size="12" />
			<rt_info>
				<attribute name="preprocessing" version="0" />
			</rt_info>
			<output>
				<port id="0" precision="FP32">
					<dim>1</dim>
					<dim>3</dim>
					<dim>1</dim>
					<dim>1</dim>
				</port>
			</output>
		</layer>
		<layer id="4" name="Multiply_62336" type="Multiply" version="opset1">
			<data auto_broadcast="numpy" />
			<input>
				<port id="0" precision="FP32">
					<dim>-1</dim>
					<dim>3</dim>
					<dim>736</dim>
					<dim>992</dim>
				</port>
				<port id="1" precision="FP32">
					<dim>1</dim>
					<dim>3</dim>
					<dim>1</dim>
					<dim>1</dim>
				</port>
			</input>
			<output>
				<port id="2" precision="FP32">
					<dim>-1</dim>
					<dim>3</dim>
					<dim>736</dim>
					<dim>992</dim>
				</port>
			</output>
		</layer>
		<layer id="5" name="Constant_62338" type="Const" version="opset1">
			<data element_type="f32" shape="1, 3, 1, 1" offset="36" size="12" />
			<output>
				<port id="0" precision="FP32">
					<dim>1</dim>
					<dim>3</dim>
					<dim>1</dim>
					<dim>1</dim>
				</port>
			</output>
		</layer>
		<layer id="6" name="Divide_28699" type="Add" version="opset1">
			<data auto_broadcast="numpy" />
			<input>
				<port id="0" precision="FP32">
					<dim>-1</dim>
					<dim>3</dim>
					<dim>736</dim>
					<dim>992</dim>
				</port>
				<port id="1" precision="FP32">
					<dim>1</dim>
					<dim>3</dim>
					<dim>1</dim>
					<dim>1</dim>
				</port>
			</input>
			<output>
				<port id="2" precision="FP32">
					<dim>-1</dim>
					<dim>3</dim>
					<dim>736</dim>
					<dim>992</dim>
				</port>
			</output>
		</layer>
		<layer id="7" name="Constant_153329" type="Const" version="opset1">
			<data element_type="f32" shape="" offset="48" size="4" />
			<output>
				<port id="0" precision="FP32" />
			</output>
		</layer>
		<layer id="8" name="Constant_153330" type="Const" version="opset1">
			<data element_type="f32" shape="" offset="52" size="4" />
			<output>
				<port id="0" precision="FP32" />
			</output>
		</layer>
		<layer id="9" name="Constant_153331" type="Const" version="opset1">
			<data element_type="f32" shape="" offset="48" size="4" />
			<output>
				<port id="0" precision="FP32" />
			</output>
		</layer>
		<layer id="10" name="Constant_153332" type="Const" version="opset1">
			<data element_type="f32" shape="" offset="52" size="4" />
			<output>
				<port id="0" precision="FP32" />
			</output>
		</layer>
		<layer id="11" name="Divide_28699/fq_output_0" type="FakeQuantize" version="opset1">
			<data levels="256" auto_broadcast="numpy" />
			<input>
				<port id="0" precision="FP32">
					<dim>-1</dim>
					<dim>3</dim>
					<dim>736</dim>
					<dim>992</dim>
				</port>
				<port id="1" precision="FP32" />
				<port id="2" precision="FP32" />
				<port id="3" precision="FP32" />
				<port id="4" precision="FP32" />
			</input>
			<output>
				<port id="5" precision="FP32">
					<dim>-1</dim>
					<dim>3</dim>
					<dim>736</dim>
					<dim>992</dim>
				</port>
			</output>
		</layer>
		<layer id="12" name="onnx::Conv_2725" type="Const" version="opset1">
			<data element_type="i8" shape="64, 3, 7, 7" offset="56" size="9408" />
			<output>
				<port id="0" precision="I8">
					<dim>64</dim>
					<dim>3</dim>
					<dim>7</dim>
					<dim>7</dim>
				</port>
			</output>
		</layer>
		<layer id="13" name="Convert_882515" type="Convert" version="opset1">
			<data destination_type="f32" />
			<input>
				<port id="0" precision="I8">
					<dim>64</dim>
					<dim>3</dim>
					<dim>7</dim>
					<dim>7</dim>
				</port>
			</input>
			<output>
				<port id="1" precision="FP32">
					<dim>64</dim>
					<dim>3</dim>
					<dim>7</dim>
					<dim>7</dim>
				</port>
			</output>
		</layer>
		<layer id="14" name="Constant_882413" type="Const" version="opset1">
			<data element_type="f32" shape="64, 1, 1, 1" offset="9464" size="256" />
			<output>
				<port id="0" precision="FP32">
					<dim>64</dim>
					<dim>1</dim>
					<dim>1</dim>
					<dim>1</dim>
				</port>
			</output>
		</layer>
		<layer id="15" name="/backbone/conv1/Conv/WithoutBiases/fq_weights_1" type="Multiply" version="opset1">
			<data auto_broadcast="numpy" />
			<input>
				<port id="0" precision="FP32">
					<dim>64</dim>
					<dim>3</dim>
					<dim>7</dim>
					<dim>7</dim>
				</port>
				<port id="1" precision="FP32">
					<dim>64</dim>
					<dim>1</dim>
					<dim>1</dim>
					<dim>1</dim>
				</port>
			</input>
			<output>
				<port id="2" precision="FP32">
					<dim>64</dim>
					<dim>3</dim>
					<dim>7</dim>
					<dim>7</dim>
				</port>
			</output>
		</layer>
		<layer id="16" name="/backbone/conv1/Conv/WithoutBiases" type="Convolution" version="opset1">
			<data strides="2, 2" dilations="1, 1" pads_begin="3, 3" pads_end="3, 3" auto_pad="explicit" />
			<input>
				<port id="0" precision="FP32">
					<dim>-1</dim>
					<dim>3</dim>
					<dim>736</dim>
					<dim>992</dim>
				</port>
				<port id="1" precision="FP32">
					<dim>64</dim>
					<dim>3</dim>
					<dim>7</dim>
					<dim>7</dim>
				</port>
			</input>
			<output>
				<port id="2" precision="FP32">
					<dim>-1</dim>
					<dim>64</dim>
					<dim>368</dim>
					<dim>496</dim>
				</port>
			</output>
		</layer>
		<layer id="17" name="Reshape_281" type="Const" version="opset1">
			<data element_type="f32" shape="1, 64, 1, 1" offset="9720" size="256" />
			<output>
				<port id="0" precision="FP32">
					<dim>1</dim>
					<dim>64</dim>
					<dim>1</dim>
					<dim>1</dim>
				</port>
			</output>
		</layer>
		<layer id="18" name="/backbone/conv1/Conv" type="Add" version="opset1">
			<data auto_broadcast="numpy" />
			<input>
				<port id="0" precision="FP32">
					<dim>-1</dim>
					<dim>64</dim>
					<dim>368</dim>
					<dim>496</dim>
				</port>
				<port id="1" precision="FP32">
					<dim>1</dim>
					<dim>64</dim>
					<dim>1</dim>
					<dim>1</dim>
				</port>
			</input>
			<output>
				<port id="2" precision="FP32" names="/backbone/conv1/Conv_output_0">
					<dim>-1</dim>
					<dim>64</dim>
					<dim>368</dim>
					<dim>496</dim>
				</port>
			</output>
		</layer>
		<layer id="19" name="/backbone/relu/Relu" type="ReLU" version="opset1">
			<input>
				<port id="0" precision="FP32">
					<dim>-1</dim>
					<dim>64</dim>
					<dim>368</dim>
					<dim>496</dim>
				</port>
			</input>
			<output>
				<port id="1" precision="FP32" names="/backbone/relu/Relu_output_0">
					<dim>-1</dim>
					<dim>64</dim>
					<dim>368</dim>
					<dim>496</dim>
				</port>
			</output>
		</layer>
		<layer id="20" name="Constant_153339" type="Const" version="opset1">
			<data element_type="f32" shape="" offset="48" size="4" />
			<output>
				<port id="0" precision="FP32" />
			</output>
		</layer>
		<layer id="21" name="Constant_153340" type="Const" version="opset1">
			<data element_type="f32" shape="" offset="9976" size="4" />
			<output>
				<port id="0" precision="FP32" />
			</output>
		</layer>
		<layer id="22" name="Constant_153341" type="Const" version="opset1">
			<data element_type="f32" shape="" offset="48" size="4" />
			<output>
				<port id="0" precision="FP32" />
			</output>
		</layer>
		<layer id="23" name="Constant_153342" type="Const" version="opset1">
			<data element_type="f32" shape="" offset="9976" size="4" />
			<output>
				<port id="0" precision="FP32" />
			</output>
		</layer>
		<layer id="24" name="/backbone/relu/Relu/fq_output_0" type="FakeQuantize" version="opset1">
			<data levels="256" auto_broadcast="numpy" />
			<input>
				<port id="0" precision="FP32">
					<dim>-1</dim>
					<dim>64</dim>
					<dim>368</dim>
					<dim>496</dim>
				</port>
				<port id="1" precision="FP32" />
				<port id="2" precision="FP32" />
				<port id="3" precision="FP32" />
				<port id="4" precision="FP32" />
			</input>
			<output>
				<port id="5" precision="FP32">
					<dim>-1</dim>
					<dim>64</dim>
					<dim>368</dim>
					<dim>496</dim>
				</port>
			</output>
		</layer>
		<layer id="25" name="/backbone/maxpool/MaxPool" type="MaxPool" version="opset8">
			<data strides="2, 2" dilations="1, 1" pads_begin="1, 1" pads_end="1, 1" kernel="3, 3" rounding_type="floor" auto_pad="explicit" index_element_type="i64" axis="0" />
			<input>
				<port id="0" precision="FP32">
					<dim>-1</dim>
					<dim>64</dim>
					<dim>368</dim>
					<dim>496</dim>
				</port>
			</input>
			<output>
				<port id="1" precision="FP32" names="/backbone/maxpool/MaxPool_output_0">
					<dim>-1</dim>
					<dim>64</dim>
					<dim>184</dim>
					<dim>248</dim>
				</port>
				<port id="2" precision="I64">
					<dim>-1</dim>
					<dim>64</dim>
					<dim>184</dim>
					<dim>248</dim>
				</port>
			</output>
		</layer>
		<layer id="26" name="onnx::Conv_2728" type="Const" version="opset1">
			<data element_type="i8" shape="256, 64, 1, 1" offset="9980" size="16384" />
			<output>
				<port id="0" precision="I8">
					<dim>256</dim>
					<dim>64</dim>
					<dim>1</dim>
					<dim>1</dim>
				</port>
			</output>
		</layer>
		<layer id="27" name="Convert_882669" type="Convert" version="opset1">
			<data destination_type="f32" />
			<input>
				<port id="0" precision="I8">
					<dim>256</dim>
					<dim>64</dim>
					<dim>1</dim>
					<dim>1</dim>
				</port>
			</input>
			<output>
				<port id="1" precision="FP32">
					<dim>256</dim>
					<dim>64</dim>
					<dim>1</dim>
					<dim>1</dim>
				</port>
			</output>
		</layer>
		<layer id="28" name="Constant_882567" type="Const" version="opset1">
			<data element_type="f32" shape="256, 1, 1, 1" offset="26364" size="1024" />
			<output>
				<port id="0" precision="FP32">
					<dim>256</dim>
					<dim>1</dim>
					<dim>1</dim>
					<dim>1</dim>
				</port>
			</output>
		</layer>
		<layer id="29" name="/backbone/layer1/layer1.0/conv1/Conv/WithoutBiases/fq_weights_1" type="Multiply" version="opset1">
			<data auto_broadcast="numpy" />
			<input>
				<port id="0" precision="FP32">
					<dim>256</dim>
					<dim>64</dim>
					<dim>1</dim>
					<dim>1</dim>
				</port>
				<port id="1" precision="FP32">
					<dim>256</dim>
					<dim>1</dim>
					<dim>1</dim>
					<dim>1</dim>
				</port>
			</input>
			<output>
				<port id="2" precision="FP32">
					<dim>256</dim>
					<dim>64</dim>
					<dim>1</dim>
					<dim>1</dim>
				</port>
			</output>
		</layer>
		<layer id="30" name="/backbone/layer1/layer1.0/conv1/Conv/WithoutBiases" type="Convolution" version="opset1">
			<data strides="1, 1" dilations="1, 1" pads_begin="0, 0" pads_end="0, 0" auto_pad="explicit" />
			<input>
				<port id="0" precision="FP32">
					<dim>-1</dim>
					<dim>64</dim>
					<dim>184</dim>
					<dim>248</dim>
				</port>
				<port id="1" precision="FP32">
					<dim>256</dim>
					<dim>64</dim>
					<dim>1</dim>
					<dim>1</dim>
				</port>
			</input>
			<output>
				<port id="2" precision="FP32">
					<dim>-1</dim>
					<dim>256</dim>
					<dim>184</dim>
					<dim>248</dim>
				</port>
			</output>
		</layer>
		<layer id="31" name="Reshape_298" type="Const" version="opset1">
			<data element_type="f32" shape="1, 256, 1, 1" offset="27388" size="1024" />
			<output>
				<port id="0" precision="FP32">
					<dim>1</dim>
					<dim>256</dim>
					<dim>1</dim>
					<dim>1</dim>
				</port>
			</output>
		</layer>
		<layer id="32" name="/backbone/layer1/layer1.0/conv1/Conv" type="Add" version="opset1">
			<data auto_broadcast="numpy" />
			<input>
				<port id="0" precision="FP32">
					<dim>-1</dim>
					<dim>256</dim>
					<dim>184</dim>
					<dim>248</dim>
				</port>
				<port id="1" precision="FP32">
					<dim>1</dim>
					<dim>256</dim>
					<dim>1</dim>
					<dim>1</dim>
				</port>
			</input>
			<output>
				<port id="2" precision="FP32" names="/backbone/layer1/layer1.0/conv1/Conv_output_0">
					<dim>-1</dim>
					<dim>256</dim>
					<dim>184</dim>
					<dim>248</dim>
				</port>
			</output>
		</layer>
		<layer id="33" name="/backbone/layer1/layer1.0/relu/Relu" type="ReLU" version="opset1">
			<input>
				<port id="0" precision="FP32">
					<dim>-1</dim>
					<dim>256</dim>
					<dim>184</dim>
					<dim>248</dim>
				</port>
			</input>
			<output>
				<port id="1" precision="FP32" names="/backbone/layer1/layer1.0/relu/Relu_output_0">
					<dim>-1</dim>
					<dim>256</dim>
					<dim>184</dim>
					<dim>248</dim>
				</port>
			</output>
		</layer>
		<layer id="34" name="Constant_153359" type="Const" version="opset1">
			<data element_type="f32" shape="" offset="48" size="4" />
			<output>
				<port id="0" precision="FP32" />
			</output>
		</layer>
		<layer id="35" name="Constant_153360" type="Const" version="opset1">
			<data element_type="f32" shape="" offset="28412" size="4" />
			<output>
				<port id="0" precision="FP32" />
			</output>
		</layer>
		<layer id="36" name="Constant_153361" type="Const" version="opset1">
			<data element_type="f32" shape="" offset="48" size="4" />
			<output>
				<port id="0" precision="FP32" />
			</output>
		</layer>
		<layer id="37" name="Constant_153362" type="Const" version="opset1">
			<data element_type="f32" shape="" offset="28412" size="4" />
			<output>
				<port id="0" precision="FP32" />
			</output>
		</layer>
		<layer id="38" name="/backbone/layer1/layer1.0/relu/Relu/fq_output_0" type="FakeQuantize" version="opset1">
			<data levels="256" auto_broadcast="numpy" />
			<input>
				<port id="0" precision="FP32">
					<dim>-1</dim>
					<dim>256</dim>
					<dim>184</dim>
					<dim>248</dim>
				</port>
				<port id="1" precision="FP32" />
				<port id="2" precision="FP32" />
				<port id="3" precision="FP32" />
				<port id="4" precision="FP32" />
			</input>
			<output>
				<port id="5" precision="FP32">
					<dim>-1</dim>
					<dim>256</dim>
					<dim>184</dim>
					<dim>248</dim>
				</port>
			</output>
		</layer>
		<layer id="39" name="Reshape_310" type="Const" version="opset1">
			<data element_type="i8" shape="64, 4, 4, 3, 3" offset="28416" size="9216" />
			<output>
				<port id="0" precision="I8">
					<dim>64</dim>
					<dim>4</dim>
					<dim>4</dim>
					<dim>3</dim>
					<dim>3</dim>
				</port>
			</output>
		</layer>
		<layer id="40" name="Convert_882823" type="Convert" version="opset1">
			<data destination_type="f32" />
			<input>
				<port id="0" precision="I8">
					<dim>64</dim>
					<dim>4</dim>
					<dim>4</dim>
					<dim>3</dim>
					<dim>3</dim>
				</port>
			</input>
			<output>
				<port id="1" precision="FP32">
					<dim>64</dim>
					<dim>4</dim>
					<dim>4</dim>
					<dim>3</dim>
					<dim>3</dim>
				</port>
			</output>
		</layer>
		<layer id="41" name="Constant_882721" type="Const" version="opset1">
			<data element_type="f32" shape="64, 4, 1, 1, 1" offset="37632" size="1024" />
			<output>
				<port id="0" precision="FP32">
					<dim>64</dim>
					<dim>4</dim>
					<dim>1</dim>
					<dim>1</dim>
					<dim>1</dim>
				</port>
			</output>
		</layer>
		<layer id="42" name="/backbone/layer1/layer1.0/conv2/Conv/WithoutBiases/fq_weights_1" type="Multiply" version="opset1">
			<data auto_broadcast="numpy" />
			<input>
				<port id="0" precision="FP32">
					<dim>64</dim>
					<dim>4</dim>
					<dim>4</dim>
					<dim>3</dim>
					<dim>3</dim>
				</port>
				<port id="1" precision="FP32">
					<dim>64</dim>
					<dim>4</dim>
					<dim>1</dim>
					<dim>1</dim>
					<dim>1</dim>
				</port>
			</input>
			<output>
				<port id="2" precision="FP32">
					<dim>64</dim>
					<dim>4</dim>
					<dim>4</dim>
					<dim>3</dim>
					<dim>3</dim>
				</port>
			</output>
		</layer>
		<layer id="43" name="/backbone/layer1/layer1.0/conv2/Conv/WithoutBiases" type="GroupConvolution" version="opset1">
			<data strides="1, 1" pads_begin="1, 1" pads_end="1, 1" dilations="1, 1" auto_pad="explicit" />
			<input>
				<port id="0" precision="FP32">
					<dim>-1</dim>
					<dim>256</dim>
					<dim>184</dim>
					<dim>248</dim>
				</port>
				<port id="1" precision="FP32">
					<dim>64</dim>
					<dim>4</dim>
					<dim>4</dim>
					<dim>3</dim>
					<dim>3</dim>
				</port>
			</input>
			<output>
				<port id="2" precision="FP32">
					<dim>-1</dim>
					<dim>256</dim>
					<dim>184</dim>
					<dim>248</dim>
				</port>
			</output>
		</layer>
		<layer id="44" name="Reshape_362" type="Const" version="opset1">
			<data element_type="f32" shape="1, 256, 1, 1" offset="38656" size="1024" />
			<output>
				<port id="0" precision="FP32">
					<dim>1</dim>
					<dim>256</dim>
					<dim>1</dim>
					<dim>1</dim>
				</port>
			</output>
		</layer>
		<layer id="45" name="/backbone/layer1/layer1.0/conv2/Conv" type="Add" version="opset1">
			<data auto_broadcast="numpy" />
			<input>
				<port id="0" precision="FP32">
					<dim>-1</dim>
					<dim>256</dim>
					<dim>184</dim>
					<dim>248</dim>
				</port>
				<port id="1" precision="FP32">
					<dim>1</dim>
					<dim>256</dim>
					<dim>1</dim>
					<dim>1</dim>
				</port>
			</input>
			<output>
				<port id="2" precision="FP32" names="/backbone/layer1/layer1.0/conv2/Conv_output_0">
					<dim>-1</dim>
					<dim>256</dim>
					<dim>184</dim>
					<dim>248</dim>
				</port>
			</output>
		</layer>
		<layer id="46" name="/backbone/layer1/layer1.0/relu_1/Relu" type="ReLU" version="opset1">
			<input>
				<port id="0" precision="FP32">
					<dim>-1</dim>
					<dim>256</dim>
					<dim>184</dim>
					<dim>248</dim>
				</port>
			</input>
			<output>
				<port id="1" precision="FP32" names="/backbone/layer1/layer1.0/relu_1/Relu_output_0">
					<dim>-1</dim>
					<dim>256</dim>
					<dim>184</dim>
					<dim>248</dim>
				</port>
			</output>
		</layer>
		<layer id="47" name="Constant_153369" type="Const" version="opset1">
			<data element_type="f32" shape="" offset="48" size="4" />
			<output>
				<port id="0" precision="FP32" />
			</output>
		</layer>
		<layer id="48" name="Constant_153370" type="Const" version="opset1">
			<data element_type="f32" shape="" offset="39680" size="4" />
			<output>
				<port id="0" precision="FP32" />
			</output>
		</layer>
		<layer id="49" name="Constant_153371" type="Const" version="opset1">
			<data element_type="f32" shape="" offset="48" size="4" />
			<output>
				<port id="0" precision="FP32" />
			</output>
		</layer>
		<layer id="50" name="Constant_153372" type="Const" version="opset1">
			<data element_type="f32" shape="" offset="39680" size="4" />
			<output>
				<port id="0" precision="FP32" />
			</output>
		</layer>
		<layer id="51" name="/backbone/layer1/layer1.0/relu_1/Relu/fq_output_0" type="FakeQuantize" version="opset1">
			<data levels="256" auto_broadcast="numpy" />
			<input>
				<port id="0" precision="FP32">
					<dim>-1</dim>
					<dim>256</dim>
					<dim>184</dim>
					<dim>248</dim>
				</port>
				<port id="1" precision="FP32" />
				<port id="2" precision="FP32" />
				<port id="3" precision="FP32" />
				<port id="4" precision="FP32" />
			</input>
			<output>
				<port id="5" precision="FP32">
					<dim>-1</dim>
					<dim>256</dim>
					<dim>184</dim>
					<dim>248</dim>
				</port>
			</output>
		</layer>
		<layer id="52" name="onnx::Conv_2734" type="Const" version="opset1">
			<data element_type="i8" shape="256, 256, 1, 1" offset="39684" size="65536" />
			<output>
				<port id="0" precision="I8">
					<dim>256</dim>
					<dim>256</dim>
					<dim>1</dim>
					<dim>1</dim>
				</port>
			</output>
		</layer>
		<layer id="53" name="Convert_882977" type="Convert" version="opset1">
			<data destination_type="f32" />
			<input>
				<port id="0" precision="I8">
					<dim>256</dim>
					<dim>256</dim>
					<dim>1</dim>
					<dim>1</dim>
				</port>
			</input>
			<output>
				<port id="1" precision="FP32">
					<dim>256</dim>
					<dim>256</dim>
					<dim>1</dim>
					<dim>1</dim>
				</port>
			</output>
		</layer>
		<layer id="54" name="Constant_882875" type="Const" version="opset1">
			<data element_type="f32" shape="256, 1, 1, 1" offset="105220" size="1024" />
			<output>
				<port id="0" precision="FP32">
					<dim>256</dim>
					<dim>1</dim>
					<dim>1</dim>
					<dim>1</dim>
				</port>
			</output>
		</layer>
		<layer id="55" name="/backbone/layer1/layer1.0/conv3/Conv/WithoutBiases/fq_weights_1" type="Multiply" version="opset1">
			<data auto_broadcast="numpy" />
			<input>
				<port id="0" precision="FP32">
					<dim>256</dim>
					<dim>256</dim>
					<dim>1</dim>
					<dim>1</dim>
				</port>
				<port id="1" precision="FP32">
					<dim>256</dim>
					<dim>1</dim>
					<dim>1</dim>
					<dim>1</dim>
				</port>
			</input>
			<output>
				<port id="2" precision="FP32">
					<dim>256</dim>
					<dim>256</dim>
					<dim>1</dim>
					<dim>1</dim>
				</port>
			</output>
		</layer>
		<layer id="56" name="/backbone/layer1/layer1.0/conv3/Conv/WithoutBiases" type="Convolution" version="opset1">
			<data strides="1, 1" dilations="1, 1" pads_begin="0, 0" pads_end="0, 0" auto_pad="explicit" />
			<input>
				<port id="0" precision="FP32">
					<dim>-1</dim>
					<dim>256</dim>
					<dim>184</dim>
					<dim>248</dim>
				</port>
				<port id="1" precision="FP32">
					<dim>256</dim>
					<dim>256</dim>
					<dim>1</dim>
					<dim>1</dim>
				</port>
			</input>
			<output>
				<port id="2" precision="FP32">
					<dim>-1</dim>
					<dim>256</dim>
					<dim>184</dim>
					<dim>248</dim>
				</port>
			</output>
		</layer>
		<layer id="57" name="Reshape_378" type="Const" version="opset1">
			<data element_type="f32" shape="1, 256, 1, 1" offset="106244" size="1024" />
			<output>
				<port id="0" precision="FP32">
					<dim>1</dim>
					<dim>256</dim>
					<dim>1</dim>
					<dim>1</dim>
				</port>
			</output>
		</layer>
		<layer id="58" name="/backbone/layer1/layer1.0/conv3/Conv" type="Add" version="opset1">
			<data auto_broadcast="numpy" />
			<input>
				<port id="0" precision="FP32">
					<dim>-1</dim>
					<dim>256</dim>
					<dim>184</dim>
					<dim>248</dim>
				</port>
				<port id="1" precision="FP32">
					<dim>1</dim>
					<dim>256</dim>
					<dim>1</dim>
					<dim>1</dim>
				</port>
			</input>
			<output>
				<port id="2" precision="FP32" names="/backbone/layer1/layer1.0/conv3/Conv_output_0">
					<dim>-1</dim>
					<dim>256</dim>
					<dim>184</dim>
					<dim>248</dim>
				</port>
			</output>
		</layer>
		<layer id="59" name="Constant_153379" type="Const" version="opset1">
			<data element_type="f32" shape="" offset="107268" size="4" />
			<output>
				<port id="0" precision="FP32" />
			</output>
		</layer>
		<layer id="60" name="Constant_153380" type="Const" version="opset1">
			<data element_type="f32" shape="" offset="107272" size="4" />
			<output>
				<port id="0" precision="FP32" />
			</output>
		</layer>
		<layer id="61" name="Constant_153381" type="Const" version="opset1">
			<data element_type="f32" shape="" offset="107268" size="4" />
			<output>
				<port id="0" precision="FP32" />
			</output>
		</layer>
		<layer id="62" name="Constant_153382" type="Const" version="opset1">
			<data element_type="f32" shape="" offset="107272" size="4" />
			<output>
				<port id="0" precision="FP32" />
			</output>
		</layer>
		<layer id="63" name="/backbone/layer1/layer1.0/conv3/Conv/fq_output_0" type="FakeQuantize" version="opset1">
			<data levels="256" auto_broadcast="numpy" />
			<input>
				<port id="0" precision="FP32">
					<dim>-1</dim>
					<dim>256</dim>
					<dim>184</dim>
					<dim>248</dim>
				</port>
				<port id="1" precision="FP32" />
				<port id="2" precision="FP32" />
				<port id="3" precision="FP32" />
				<port id="4" precision="FP32" />
			</input>
			<output>
				<port id="5" precision="FP32">
					<dim>-1</dim>
					<dim>256</dim>
					<dim>184</dim>
					<dim>248</dim>
				</port>
			</output>
		</layer>
		<layer id="64" name="onnx::Conv_2737" type="Const" version="opset1">
			<data element_type="i8" shape="256, 64, 1, 1" offset="107276" size="16384" />
			<output>
				<port id="0" precision="I8">
					<dim>256</dim>
					<dim>64</dim>
					<dim>1</dim>
					<dim>1</dim>
				</port>
			</output>
		</layer>
		<layer id="65" name="Convert_883131" type="Convert" version="opset1">
			<data destination_type="f32" />
			<input>
				<port id="0" precision="I8">
					<dim>256</dim>
					<dim>64</dim>
					<dim>1</dim>
					<dim>1</dim>
				</port>
			</input>
			<output>
				<port id="1" precision="FP32">
					<dim>256</dim>
					<dim>64</dim>
					<dim>1</dim>
					<dim>1</dim>
				</port>
			</output>
		</layer>
		<layer id="66" name="Constant_883029" type="Const" version="opset1">
			<data element_type="f32" shape="256, 1, 1, 1" offset="123660" size="1024" />
			<output>
				<port id="0" precision="FP32">
					<dim>256</dim>
					<dim>1</dim>
					<dim>1</dim>
					<dim>1</dim>
				</port>
			</output>
		</layer>
		<layer id="67" name="/backbone/layer1/layer1.0/downsample/downsample.0/Conv/WithoutBiases/fq_weights_1" type="Multiply" version="opset1">
			<data auto_broadcast="numpy" />
			<input>
				<port id="0" precision="FP32">
					<dim>256</dim>
					<dim>64</dim>
					<dim>1</dim>
					<dim>1</dim>
				</port>
				<port id="1" precision="FP32">
					<dim>256</dim>
					<dim>1</dim>
					<dim>1</dim>
					<dim>1</dim>
				</port>
			</input>
			<output>
				<port id="2" precision="FP32">
					<dim>256</dim>
					<dim>64</dim>
					<dim>1</dim>
					<dim>1</dim>
				</port>
			</output>
		</layer>
		<layer id="68" name="/backbone/layer1/layer1.0/downsample/downsample.0/Conv/WithoutBiases" type="Convolution" version="opset1">
			<data strides="1, 1" dilations="1, 1" pads_begin="0, 0" pads_end="0, 0" auto_pad="explicit" />
			<input>
				<port id="0" precision="FP32">
					<dim>-1</dim>
					<dim>64</dim>
					<dim>184</dim>
					<dim>248</dim>
				</port>
				<port id="1" precision="FP32">
					<dim>256</dim>
					<dim>64</dim>
					<dim>1</dim>
					<dim>1</dim>
				</port>
			</input>
			<output>
				<port id="2" precision="FP32">
					<dim>-1</dim>
					<dim>256</dim>
					<dim>184</dim>
					<dim>248</dim>
				</port>
			</output>
		</layer>
		<layer id="69" name="Reshape_393" type="Const" version="opset1">
			<data element_type="f32" shape="1, 256, 1, 1" offset="124684" size="1024" />
			<output>
				<port id="0" precision="FP32">
					<dim>1</dim>
					<dim>256</dim>
					<dim>1</dim>
					<dim>1</dim>
				</port>
			</output>
		</layer>
		<layer id="70" name="/backbone/layer1/layer1.0/downsample/downsample.0/Conv" type="Add" version="opset1">
			<data auto_broadcast="numpy" />
			<input>
				<port id="0" precision="FP32">
					<dim>-1</dim>
					<dim>256</dim>
					<dim>184</dim>
					<dim>248</dim>
				</port>
				<port id="1" precision="FP32">
					<dim>1</dim>
					<dim>256</dim>
					<dim>1</dim>
					<dim>1</dim>
				</port>
			</input>
			<output>
				<port id="2" precision="FP32" names="/backbone/layer1/layer1.0/downsample/downsample.0/Conv_output_0">
					<dim>-1</dim>
					<dim>256</dim>
					<dim>184</dim>
					<dim>248</dim>
				</port>
			</output>
		</layer>
		<layer id="71" name="Constant_153349" type="Const" version="opset1">
			<data element_type="f32" shape="" offset="125708" size="4" />
			<output>
				<port id="0" precision="FP32" />
			</output>
		</layer>
		<layer id="72" name="Constant_153350" type="Const" version="opset1">
			<data element_type="f32" shape="" offset="125712" size="4" />
			<output>
				<port id="0" precision="FP32" />
			</output>
		</layer>
		<layer id="73" name="Constant_153351" type="Const" version="opset1">
			<data element_type="f32" shape="" offset="125708" size="4" />
			<output>
				<port id="0" precision="FP32" />
			</output>
		</layer>
		<layer id="74" name="Constant_153352" type="Const" version="opset1">
			<data element_type="f32" shape="" offset="125712" size="4" />
			<output>
				<port id="0" precision="FP32" />
			</output>
		</layer>
		<layer id="75" name="/backbone/layer1/layer1.0/downsample/downsample.0/Conv/fq_output_0" type="FakeQuantize" version="opset1">
			<data levels="256" auto_broadcast="numpy" />
			<input>
				<port id="0" precision="FP32">
					<dim>-1</dim>
					<dim>256</dim>
					<dim>184</dim>
					<dim>248</dim>
				</port>
				<port id="1" precision="FP32" />
				<port id="2" precision="FP32" />
				<port id="3" precision="FP32" />
				<port id="4" precision="FP32" />
			</input>
			<output>
				<port id="5" precision="FP32">
					<dim>-1</dim>
					<dim>256</dim>
					<dim>184</dim>
					<dim>248</dim>
				</port>
			</output>
		</layer>
		<layer id="76" name="/backbone/layer1/layer1.0/Add" type="Add" version="opset1">
			<data auto_broadcast="numpy" />
			<input>
				<port id="0" precision="FP32">
					<dim>-1</dim>
					<dim>256</dim>
					<dim>184</dim>
					<dim>248</dim>
				</port>
				<port id="1" precision="FP32">
					<dim>-1</dim>
					<dim>256</dim>
					<dim>184</dim>
					<dim>248</dim>
				</port>
			</input>
			<output>
				<port id="2" precision="FP32" names="/backbone/layer1/layer1.0/Add_output_0">
					<dim>-1</dim>
					<dim>256</dim>
					<dim>184</dim>
					<dim>248</dim>
				</port>
			</output>
		</layer>
		<layer id="77" name="/backbone/layer1/layer1.0/relu_2/Relu" type="ReLU" version="opset1">
			<input>
				<port id="0" precision="FP32">
					<dim>-1</dim>
					<dim>256</dim>
					<dim>184</dim>
					<dim>248</dim>
				</port>
			</input>
			<output>
				<port id="1" precision="FP32" names="/backbone/layer1/layer1.0/relu_2/Relu_output_0">
					<dim>-1</dim>
					<dim>256</dim>
					<dim>184</dim>
					<dim>248</dim>
				</port>
			</output>
		</layer>
		<layer id="78" name="Constant_153384" type="Const" version="opset1">
			<data element_type="f32" shape="" offset="48" size="4" />
			<output>
				<port id="0" precision="FP32" />
			</output>
		</layer>
		<layer id="79" name="Constant_153385" type="Const" version="opset1">
			<data element_type="f32" shape="" offset="125716" size="4" />
			<output>
				<port id="0" precision="FP32" />
			</output>
		</layer>
		<layer id="80" name="Constant_153386" type="Const" version="opset1">
			<data element_type="f32" shape="" offset="48" size="4" />
			<output>
				<port id="0" precision="FP32" />
			</output>
		</layer>
		<layer id="81" name="Constant_153387" type="Const" version="opset1">
			<data element_type="f32" shape="" offset="125716" size="4" />
			<output>
				<port id="0" precision="FP32" />
			</output>
		</layer>
		<layer id="82" name="/backbone/layer1/layer1.0/relu_2/Relu/fq_output_0" type="FakeQuantize" version="opset1">
			<data levels="256" auto_broadcast="numpy" />
			<input>
				<port id="0" precision="FP32">
					<dim>-1</dim>
					<dim>256</dim>
					<dim>184</dim>
					<dim>248</dim>
				</port>
				<port id="1" precision="FP32" />
				<port id="2" precision="FP32" />
				<port id="3" precision="FP32" />
				<port id="4" precision="FP32" />
			</input>
			<output>
				<port id="5" precision="FP32">
					<dim>-1</dim>
					<dim>256</dim>
					<dim>184</dim>
					<dim>248</dim>
				</port>
			</output>
		</layer>
		<layer id="83" name="onnx::Conv_2740" type="Const" version="opset1">
			<data element_type="i8" shape="256, 256, 1, 1" offset="125720" size="65536" />
			<output>
				<port id="0" precision="I8">
					<dim>256</dim>
					<dim>256</dim>
					<dim>1</dim>
					<dim>1</dim>
				</port>
			</output>
		</layer>
		<layer id="84" name="Convert_883285" type="Convert" version="opset1">
			<data destination_type="f32" />
			<input>
				<port id="0" precision="I8">
					<dim>256</dim>
					<dim>256</dim>
					<dim>1</dim>
					<dim>1</dim>
				</port>
			</input>
			<output>
				<port id="1" precision="FP32">
					<dim>256</dim>
					<dim>256</dim>
					<dim>1</dim>
					<dim>1</dim>
				</port>
			</output>
		</layer>
		<layer id="85" name="Constant_883183" type="Const" version="opset1">
			<data element_type="f32" shape="256, 1, 1, 1" offset="191256" size="1024" />
			<output>
				<port id="0" precision="FP32">
					<dim>256</dim>
					<dim>1</dim>
					<dim>1</dim>
					<dim>1</dim>
				</port>
			</output>
		</layer>
		<layer id="86" name="/backbone/layer1/layer1.1/conv1/Conv/WithoutBiases/fq_weights_1" type="Multiply" version="opset1">
			<data auto_broadcast="numpy" />
			<input>
				<port id="0" precision="FP32">
					<dim>256</dim>
					<dim>256</dim>
					<dim>1</dim>
					<dim>1</dim>
				</port>
				<port id="1" precision="FP32">
					<dim>256</dim>
					<dim>1</dim>
					<dim>1</dim>
					<dim>1</dim>
				</port>
			</input>
			<output>
				<port id="2" precision="FP32">
					<dim>256</dim>
					<dim>256</dim>
					<dim>1</dim>
					<dim>1</dim>
				</port>
			</output>
		</layer>
		<layer id="87" name="/backbone/layer1/layer1.1/conv1/Conv/WithoutBiases" type="Convolution" version="opset1">
			<data strides="1, 1" dilations="1, 1" pads_begin="0, 0" pads_end="0, 0" auto_pad="explicit" />
			<input>
				<port id="0" precision="FP32">
					<dim>-1</dim>
					<dim>256</dim>
					<dim>184</dim>
					<dim>248</dim>
				</port>
				<port id="1" precision="FP32">
					<dim>256</dim>
					<dim>256</dim>
					<dim>1</dim>
					<dim>1</dim>
				</port>
			</input>
			<output>
				<port id="2" precision="FP32">
					<dim>-1</dim>
					<dim>256</dim>
					<dim>184</dim>
					<dim>248</dim>
				</port>
			</output>
		</layer>
		<layer id="88" name="Reshape_410" type="Const" version="opset1">
			<data element_type="f32" shape="1, 256, 1, 1" offset="192280" size="1024" />
			<output>
				<port id="0" precision="FP32">
					<dim>1</dim>
					<dim>256</dim>
					<dim>1</dim>
					<dim>1</dim>
				</port>
			</output>
		</layer>
		<layer id="89" name="/backbone/layer1/layer1.1/conv1/Conv" type="Add" version="opset1">
			<data auto_broadcast="numpy" />
			<input>
				<port id="0" precision="FP32">
					<dim>-1</dim>
					<dim>256</dim>
					<dim>184</dim>
					<dim>248</dim>
				</port>
				<port id="1" precision="FP32">
					<dim>1</dim>
					<dim>256</dim>
					<dim>1</dim>
					<dim>1</dim>
				</port>
			</input>
			<output>
				<port id="2" precision="FP32" names="/backbone/layer1/layer1.1/conv1/Conv_output_0">
					<dim>-1</dim>
					<dim>256</dim>
					<dim>184</dim>
					<dim>248</dim>
				</port>
			</output>
		</layer>
		<layer id="90" name="/backbone/layer1/layer1.1/relu/Relu" type="ReLU" version="opset1">
			<input>
				<port id="0" precision="FP32">
					<dim>-1</dim>
					<dim>256</dim>
					<dim>184</dim>
					<dim>248</dim>
				</port>
			</input>
			<output>
				<port id="1" precision="FP32" names="/backbone/layer1/layer1.1/relu/Relu_output_0">
					<dim>-1</dim>
					<dim>256</dim>
					<dim>184</dim>
					<dim>248</dim>
				</port>
			</output>
		</layer>
		<layer id="91" name="Constant_153394" type="Const" version="opset1">
			<data element_type="f32" shape="" offset="48" size="4" />
			<output>
				<port id="0" precision="FP32" />
			</output>
		</layer>
		<layer id="92" name="Constant_153395" type="Const" version="opset1">
			<data element_type="f32" shape="" offset="193304" size="4" />
			<output>
				<port id="0" precision="FP32" />
			</output>
		</layer>
		<layer id="93" name="Constant_153396" type="Const" version="opset1">
			<data element_type="f32" shape="" offset="48" size="4" />
			<output>
				<port id="0" precision="FP32" />
			</output>
		</layer>
		<layer id="94" name="Constant_153397" type="Const" version="opset1">
			<data element_type="f32" shape="" offset="193304" size="4" />
			<output>
				<port id="0" precision="FP32" />
			</output>
		</layer>
		<layer id="95" name="/backbone/layer1/layer1.1/relu/Relu/fq_output_0" type="FakeQuantize" version="opset1">
			<data levels="256" auto_broadcast="numpy" />
			<input>
				<port id="0" precision="FP32">
					<dim>-1</dim>
					<dim>256</dim>
					<dim>184</dim>
					<dim>248</dim>
				</port>
				<port id="1" precision="FP32" />
				<port id="2" precision="FP32" />
				<port id="3" precision="FP32" />
				<port id="4" precision="FP32" />
			</input>
			<output>
				<port id="5" precision="FP32">
					<dim>-1</dim>
					<dim>256</dim>
					<dim>184</dim>
					<dim>248</dim>
				</port>
			</output>
		</layer>
		<layer id="96" name="Reshape_422" type="Const" version="opset1">
			<data element_type="i8" shape="64, 4, 4, 3, 3" offset="193308" size="9216" />
			<output>
				<port id="0" precision="I8">
					<dim>64</dim>
					<dim>4</dim>
					<dim>4</dim>
					<dim>3</dim>
					<dim>3</dim>
				</port>
			</output>
		</layer>
		<layer id="97" name="Convert_883439" type="Convert" version="opset1">
			<data destination_type="f32" />
			<input>
				<port id="0" precision="I8">
					<dim>64</dim>
					<dim>4</dim>
					<dim>4</dim>
					<dim>3</dim>
					<dim>3</dim>
				</port>
			</input>
			<output>
				<port id="1" precision="FP32">
					<dim>64</dim>
					<dim>4</dim>
					<dim>4</dim>
					<dim>3</dim>
					<dim>3</dim>
				</port>
			</output>
		</layer>
		<layer id="98" name="Constant_883337" type="Const" version="opset1">
			<data element_type="f32" shape="64, 4, 1, 1, 1" offset="202524" size="1024" />
			<output>
				<port id="0" precision="FP32">
					<dim>64</dim>
					<dim>4</dim>
					<dim>1</dim>
					<dim>1</dim>
					<dim>1</dim>
				</port>
			</output>
		</layer>
		<layer id="99" name="/backbone/layer1/layer1.1/conv2/Conv/WithoutBiases/fq_weights_1" type="Multiply" version="opset1">
			<data auto_broadcast="numpy" />
			<input>
				<port id="0" precision="FP32">
					<dim>64</dim>
					<dim>4</dim>
					<dim>4</dim>
					<dim>3</dim>
					<dim>3</dim>
				</port>
				<port id="1" precision="FP32">
					<dim>64</dim>
					<dim>4</dim>
					<dim>1</dim>
					<dim>1</dim>
					<dim>1</dim>
				</port>
			</input>
			<output>
				<port id="2" precision="FP32">
					<dim>64</dim>
					<dim>4</dim>
					<dim>4</dim>
					<dim>3</dim>
					<dim>3</dim>
				</port>
			</output>
		</layer>
		<layer id="100" name="/backbone/layer1/layer1.1/conv2/Conv/WithoutBiases" type="GroupConvolution" version="opset1">
			<data strides="1, 1" pads_begin="1, 1" pads_end="1, 1" dilations="1, 1" auto_pad="explicit" />
			<input>
				<port id="0" precision="FP32">
					<dim>-1</dim>
					<dim>256</dim>
					<dim>184</dim>
					<dim>248</dim>
				</port>
				<port id="1" precision="FP32">
					<dim>64</dim>
					<dim>4</dim>
					<dim>4</dim>
					<dim>3</dim>
					<dim>3</dim>
				</port>
			</input>
			<output>
				<port id="2" precision="FP32">
					<dim>-1</dim>
					<dim>256</dim>
					<dim>184</dim>
					<dim>248</dim>
				</port>
			</output>
		</layer>
		<layer id="101" name="Reshape_474" type="Const" version="opset1">
			<data element_type="f32" shape="1, 256, 1, 1" offset="203548" size="1024" />
			<output>
				<port id="0" precision="FP32">
					<dim>1</dim>
					<dim>256</dim>
					<dim>1</dim>
					<dim>1</dim>
				</port>
			</output>
		</layer>
		<layer id="102" name="/backbone/layer1/layer1.1/conv2/Conv" type="Add" version="opset1">
			<data auto_broadcast="numpy" />
			<input>
				<port id="0" precision="FP32">
					<dim>-1</dim>
					<dim>256</dim>
					<dim>184</dim>
					<dim>248</dim>
				</port>
				<port id="1" precision="FP32">
					<dim>1</dim>
					<dim>256</dim>
					<dim>1</dim>
					<dim>1</dim>
				</port>
			</input>
			<output>
				<port id="2" precision="FP32" names="/backbone/layer1/layer1.1/conv2/Conv_output_0">
					<dim>-1</dim>
					<dim>256</dim>
					<dim>184</dim>
					<dim>248</dim>
				</port>
			</output>
		</layer>
		<layer id="103" name="/backbone/layer1/layer1.1/relu_1/Relu" type="ReLU" version="opset1">
			<input>
				<port id="0" precision="FP32">
					<dim>-1</dim>
					<dim>256</dim>
					<dim>184</dim>
					<dim>248</dim>
				</port>
			</input>
			<output>
				<port id="1" precision="FP32" names="/backbone/layer1/layer1.1/relu_1/Relu_output_0">
					<dim>-1</dim>
					<dim>256</dim>
					<dim>184</dim>
					<dim>248</dim>
				</port>
			</output>
		</layer>
		<layer id="104" name="Constant_153404" type="Const" version="opset1">
			<data element_type="f32" shape="" offset="48" size="4" />
			<output>
				<port id="0" precision="FP32" />
			</output>
		</layer>
		<layer id="105" name="Constant_153405" type="Const" version="opset1">
			<data element_type="f32" shape="" offset="204572" size="4" />
			<output>
				<port id="0" precision="FP32" />
			</output>
		</layer>
		<layer id="106" name="Constant_153406" type="Const" version="opset1">
			<data element_type="f32" shape="" offset="48" size="4" />
			<output>
				<port id="0" precision="FP32" />
			</output>
		</layer>
		<layer id="107" name="Constant_153407" type="Const" version="opset1">
			<data element_type="f32" shape="" offset="204572" size="4" />
			<output>
				<port id="0" precision="FP32" />
			</output>
		</layer>
		<layer id="108" name="/backbone/layer1/layer1.1/relu_1/Relu/fq_output_0" type="FakeQuantize" version="opset1">
			<data levels="256" auto_broadcast="numpy" />
			<input>
				<port id="0" precision="FP32">
					<dim>-1</dim>
					<dim>256</dim>
					<dim>184</dim>
					<dim>248</dim>
				</port>
				<port id="1" precision="FP32" />
				<port id="2" precision="FP32" />
				<port id="3" precision="FP32" />
				<port id="4" precision="FP32" />
			</input>
			<output>
				<port id="5" precision="FP32">
					<dim>-1</dim>
					<dim>256</dim>
					<dim>184</dim>
					<dim>248</dim>
				</port>
			</output>
		</layer>
		<layer id="109" name="onnx::Conv_2746" type="Const" version="opset1">
			<data element_type="i8" shape="256, 256, 1, 1" offset="204576" size="65536" />
			<output>
				<port id="0" precision="I8">
					<dim>256</dim>
					<dim>256</dim>
					<dim>1</dim>
					<dim>1</dim>
				</port>
			</output>
		</layer>
		<layer id="110" name="Convert_883593" type="Convert" version="opset1">
			<data destination_type="f32" />
			<input>
				<port id="0" precision="I8">
					<dim>256</dim>
					<dim>256</dim>
					<dim>1</dim>
					<dim>1</dim>
				</port>
			</input>
			<output>
				<port id="1" precision="FP32">
					<dim>256</dim>
					<dim>256</dim>
					<dim>1</dim>
					<dim>1</dim>
				</port>
			</output>
		</layer>
		<layer id="111" name="Constant_883491" type="Const" version="opset1">
			<data element_type="f32" shape="256, 1, 1, 1" offset="270112" size="1024" />
			<output>
				<port id="0" precision="FP32">
					<dim>256</dim>
					<dim>1</dim>
					<dim>1</dim>
					<dim>1</dim>
				</port>
			</output>
		</layer>
		<layer id="112" name="/backbone/layer1/layer1.1/conv3/Conv/WithoutBiases/fq_weights_1" type="Multiply" version="opset1">
			<data auto_broadcast="numpy" />
			<input>
				<port id="0" precision="FP32">
					<dim>256</dim>
					<dim>256</dim>
					<dim>1</dim>
					<dim>1</dim>
				</port>
				<port id="1" precision="FP32">
					<dim>256</dim>
					<dim>1</dim>
					<dim>1</dim>
					<dim>1</dim>
				</port>
			</input>
			<output>
				<port id="2" precision="FP32">
					<dim>256</dim>
					<dim>256</dim>
					<dim>1</dim>
					<dim>1</dim>
				</port>
			</output>
		</layer>
		<layer id="113" name="/backbone/layer1/layer1.1/conv3/Conv/WithoutBiases" type="Convolution" version="opset1">
			<data strides="1, 1" dilations="1, 1" pads_begin="0, 0" pads_end="0, 0" auto_pad="explicit" />
			<input>
				<port id="0" precision="FP32">
					<dim>-1</dim>
					<dim>256</dim>
					<dim>184</dim>
					<dim>248</dim>
				</port>
				<port id="1" precision="FP32">
					<dim>256</dim>
					<dim>256</dim>
					<dim>1</dim>
					<dim>1</dim>
				</port>
			</input>
			<output>
				<port id="2" precision="FP32">
					<dim>-1</dim>
					<dim>256</dim>
					<dim>184</dim>
					<dim>248</dim>
				</port>
			</output>
		</layer>
		<layer id="114" name="Reshape_490" type="Const" version="opset1">
			<data element_type="f32" shape="1, 256, 1, 1" offset="271136" size="1024" />
			<output>
				<port id="0" precision="FP32">
					<dim>1</dim>
					<dim>256</dim>
					<dim>1</dim>
					<dim>1</dim>
				</port>
			</output>
		</layer>
		<layer id="115" name="/backbone/layer1/layer1.1/conv3/Conv" type="Add" version="opset1">
			<data auto_broadcast="numpy" />
			<input>
				<port id="0" precision="FP32">
					<dim>-1</dim>
					<dim>256</dim>
					<dim>184</dim>
					<dim>248</dim>
				</port>
				<port id="1" precision="FP32">
					<dim>1</dim>
					<dim>256</dim>
					<dim>1</dim>
					<dim>1</dim>
				</port>
			</input>
			<output>
				<port id="2" precision="FP32" names="/backbone/layer1/layer1.1/conv3/Conv_output_0">
					<dim>-1</dim>
					<dim>256</dim>
					<dim>184</dim>
					<dim>248</dim>
				</port>
			</output>
		</layer>
		<layer id="116" name="Constant_153414" type="Const" version="opset1">
			<data element_type="f32" shape="" offset="272160" size="4" />
			<output>
				<port id="0" precision="FP32" />
			</output>
		</layer>
		<layer id="117" name="Constant_153415" type="Const" version="opset1">
			<data element_type="f32" shape="" offset="272164" size="4" />
			<output>
				<port id="0" precision="FP32" />
			</output>
		</layer>
		<layer id="118" name="Constant_153416" type="Const" version="opset1">
			<data element_type="f32" shape="" offset="272160" size="4" />
			<output>
				<port id="0" precision="FP32" />
			</output>
		</layer>
		<layer id="119" name="Constant_153417" type="Const" version="opset1">
			<data element_type="f32" shape="" offset="272164" size="4" />
			<output>
				<port id="0" precision="FP32" />
			</output>
		</layer>
		<layer id="120" name="/backbone/layer1/layer1.1/conv3/Conv/fq_output_0" type="FakeQuantize" version="opset1">
			<data levels="256" auto_broadcast="numpy" />
			<input>
				<port id="0" precision="FP32">
					<dim>-1</dim>
					<dim>256</dim>
					<dim>184</dim>
					<dim>248</dim>
				</port>
				<port id="1" precision="FP32" />
				<port id="2" precision="FP32" />
				<port id="3" precision="FP32" />
				<port id="4" precision="FP32" />
			</input>
			<output>
				<port id="5" precision="FP32">
					<dim>-1</dim>
					<dim>256</dim>
					<dim>184</dim>
					<dim>248</dim>
				</port>
			</output>
		</layer>
		<layer id="121" name="/backbone/layer1/layer1.1/Add" type="Add" version="opset1">
			<data auto_broadcast="numpy" />
			<input>
				<port id="0" precision="FP32">
					<dim>-1</dim>
					<dim>256</dim>
					<dim>184</dim>
					<dim>248</dim>
				</port>
				<port id="1" precision="FP32">
					<dim>-1</dim>
					<dim>256</dim>
					<dim>184</dim>
					<dim>248</dim>
				</port>
			</input>
			<output>
				<port id="2" precision="FP32" names="/backbone/layer1/layer1.1/Add_output_0">
					<dim>-1</dim>
					<dim>256</dim>
					<dim>184</dim>
					<dim>248</dim>
				</port>
			</output>
		</layer>
		<layer id="122" name="/backbone/layer1/layer1.1/relu_2/Relu" type="ReLU" version="opset1">
			<input>
				<port id="0" precision="FP32">
					<dim>-1</dim>
					<dim>256</dim>
					<dim>184</dim>
					<dim>248</dim>
				</port>
			</input>
			<output>
				<port id="1" precision="FP32" names="/backbone/layer1/layer1.1/relu_2/Relu_output_0">
					<dim>-1</dim>
					<dim>256</dim>
					<dim>184</dim>
					<dim>248</dim>
				</port>
			</output>
		</layer>
		<layer id="123" name="Constant_153419" type="Const" version="opset1">
			<data element_type="f32" shape="" offset="48" size="4" />
			<output>
				<port id="0" precision="FP32" />
			</output>
		</layer>
		<layer id="124" name="Constant_153420" type="Const" version="opset1">
			<data element_type="f32" shape="" offset="272168" size="4" />
			<output>
				<port id="0" precision="FP32" />
			</output>
		</layer>
		<layer id="125" name="Constant_153421" type="Const" version="opset1">
			<data element_type="f32" shape="" offset="48" size="4" />
			<output>
				<port id="0" precision="FP32" />
			</output>
		</layer>
		<layer id="126" name="Constant_153422" type="Const" version="opset1">
			<data element_type="f32" shape="" offset="272168" size="4" />
			<output>
				<port id="0" precision="FP32" />
			</output>
		</layer>
		<layer id="127" name="/backbone/layer1/layer1.1/relu_2/Relu/fq_output_0" type="FakeQuantize" version="opset1">
			<data levels="256" auto_broadcast="numpy" />
			<input>
				<port id="0" precision="FP32">
					<dim>-1</dim>
					<dim>256</dim>
					<dim>184</dim>
					<dim>248</dim>
				</port>
				<port id="1" precision="FP32" />
				<port id="2" precision="FP32" />
				<port id="3" precision="FP32" />
				<port id="4" precision="FP32" />
			</input>
			<output>
				<port id="5" precision="FP32">
					<dim>-1</dim>
					<dim>256</dim>
					<dim>184</dim>
					<dim>248</dim>
				</port>
			</output>
		</layer>
		<layer id="128" name="onnx::Conv_2749" type="Const" version="opset1">
			<data element_type="i8" shape="256, 256, 1, 1" offset="272172" size="65536" />
			<output>
				<port id="0" precision="I8">
					<dim>256</dim>
					<dim>256</dim>
					<dim>1</dim>
					<dim>1</dim>
				</port>
			</output>
		</layer>
		<layer id="129" name="Convert_883747" type="Convert" version="opset1">
			<data destination_type="f32" />
			<input>
				<port id="0" precision="I8">
					<dim>256</dim>
					<dim>256</dim>
					<dim>1</dim>
					<dim>1</dim>
				</port>
			</input>
			<output>
				<port id="1" precision="FP32">
					<dim>256</dim>
					<dim>256</dim>
					<dim>1</dim>
					<dim>1</dim>
				</port>
			</output>
		</layer>
		<layer id="130" name="Constant_883645" type="Const" version="opset1">
			<data element_type="f32" shape="256, 1, 1, 1" offset="337708" size="1024" />
			<output>
				<port id="0" precision="FP32">
					<dim>256</dim>
					<dim>1</dim>
					<dim>1</dim>
					<dim>1</dim>
				</port>
			</output>
		</layer>
		<layer id="131" name="/backbone/layer1/layer1.2/conv1/Conv/WithoutBiases/fq_weights_1" type="Multiply" version="opset1">
			<data auto_broadcast="numpy" />
			<input>
				<port id="0" precision="FP32">
					<dim>256</dim>
					<dim>256</dim>
					<dim>1</dim>
					<dim>1</dim>
				</port>
				<port id="1" precision="FP32">
					<dim>256</dim>
					<dim>1</dim>
					<dim>1</dim>
					<dim>1</dim>
				</port>
			</input>
			<output>
				<port id="2" precision="FP32">
					<dim>256</dim>
					<dim>256</dim>
					<dim>1</dim>
					<dim>1</dim>
				</port>
			</output>
		</layer>
		<layer id="132" name="/backbone/layer1/layer1.2/conv1/Conv/WithoutBiases" type="Convolution" version="opset1">
			<data strides="1, 1" dilations="1, 1" pads_begin="0, 0" pads_end="0, 0" auto_pad="explicit" />
			<input>
				<port id="0" precision="FP32">
					<dim>-1</dim>
					<dim>256</dim>
					<dim>184</dim>
					<dim>248</dim>
				</port>
				<port id="1" precision="FP32">
					<dim>256</dim>
					<dim>256</dim>
					<dim>1</dim>
					<dim>1</dim>
				</port>
			</input>
			<output>
				<port id="2" precision="FP32">
					<dim>-1</dim>
					<dim>256</dim>
					<dim>184</dim>
					<dim>248</dim>
				</port>
			</output>
		</layer>
		<layer id="133" name="Reshape_507" type="Const" version="opset1">
			<data element_type="f32" shape="1, 256, 1, 1" offset="338732" size="1024" />
			<output>
				<port id="0" precision="FP32">
					<dim>1</dim>
					<dim>256</dim>
					<dim>1</dim>
					<dim>1</dim>
				</port>
			</output>
		</layer>
		<layer id="134" name="/backbone/layer1/layer1.2/conv1/Conv" type="Add" version="opset1">
			<data auto_broadcast="numpy" />
			<input>
				<port id="0" precision="FP32">
					<dim>-1</dim>
					<dim>256</dim>
					<dim>184</dim>
					<dim>248</dim>
				</port>
				<port id="1" precision="FP32">
					<dim>1</dim>
					<dim>256</dim>
					<dim>1</dim>
					<dim>1</dim>
				</port>
			</input>
			<output>
				<port id="2" precision="FP32" names="/backbone/layer1/layer1.2/conv1/Conv_output_0">
					<dim>-1</dim>
					<dim>256</dim>
					<dim>184</dim>
					<dim>248</dim>
				</port>
			</output>
		</layer>
		<layer id="135" name="/backbone/layer1/layer1.2/relu/Relu" type="ReLU" version="opset1">
			<input>
				<port id="0" precision="FP32">
					<dim>-1</dim>
					<dim>256</dim>
					<dim>184</dim>
					<dim>248</dim>
				</port>
			</input>
			<output>
				<port id="1" precision="FP32" names="/backbone/layer1/layer1.2/relu/Relu_output_0">
					<dim>-1</dim>
					<dim>256</dim>
					<dim>184</dim>
					<dim>248</dim>
				</port>
			</output>
		</layer>
		<layer id="136" name="Constant_153429" type="Const" version="opset1">
			<data element_type="f32" shape="" offset="48" size="4" />
			<output>
				<port id="0" precision="FP32" />
			</output>
		</layer>
		<layer id="137" name="Constant_153430" type="Const" version="opset1">
			<data element_type="f32" shape="" offset="339756" size="4" />
			<output>
				<port id="0" precision="FP32" />
			</output>
		</layer>
		<layer id="138" name="Constant_153431" type="Const" version="opset1">
			<data element_type="f32" shape="" offset="48" size="4" />
			<output>
				<port id="0" precision="FP32" />
			</output>
		</layer>
		<layer id="139" name="Constant_153432" type="Const" version="opset1">
			<data element_type="f32" shape="" offset="339756" size="4" />
			<output>
				<port id="0" precision="FP32" />
			</output>
		</layer>
		<layer id="140" name="/backbone/layer1/layer1.2/relu/Relu/fq_output_0" type="FakeQuantize" version="opset1">
			<data levels="256" auto_broadcast="numpy" />
			<input>
				<port id="0" precision="FP32">
					<dim>-1</dim>
					<dim>256</dim>
					<dim>184</dim>
					<dim>248</dim>
				</port>
				<port id="1" precision="FP32" />
				<port id="2" precision="FP32" />
				<port id="3" precision="FP32" />
				<port id="4" precision="FP32" />
			</input>
			<output>
				<port id="5" precision="FP32">
					<dim>-1</dim>
					<dim>256</dim>
					<dim>184</dim>
					<dim>248</dim>
				</port>
			</output>
		</layer>
		<layer id="141" name="Reshape_519" type="Const" version="opset1">
			<data element_type="i8" shape="64, 4, 4, 3, 3" offset="339760" size="9216" />
			<output>
				<port id="0" precision="I8">
					<dim>64</dim>
					<dim>4</dim>
					<dim>4</dim>
					<dim>3</dim>
					<dim>3</dim>
				</port>
			</output>
		</layer>
		<layer id="142" name="Convert_883901" type="Convert" version="opset1">
			<data destination_type="f32" />
			<input>
				<port id="0" precision="I8">
					<dim>64</dim>
					<dim>4</dim>
					<dim>4</dim>
					<dim>3</dim>
					<dim>3</dim>
				</port>
			</input>
			<output>
				<port id="1" precision="FP32">
					<dim>64</dim>
					<dim>4</dim>
					<dim>4</dim>
					<dim>3</dim>
					<dim>3</dim>
				</port>
			</output>
		</layer>
		<layer id="143" name="Constant_883799" type="Const" version="opset1">
			<data element_type="f32" shape="64, 4, 1, 1, 1" offset="348976" size="1024" />
			<output>
				<port id="0" precision="FP32">
					<dim>64</dim>
					<dim>4</dim>
					<dim>1</dim>
					<dim>1</dim>
					<dim>1</dim>
				</port>
			</output>
		</layer>
		<layer id="144" name="/backbone/layer1/layer1.2/conv2/Conv/WithoutBiases/fq_weights_1" type="Multiply" version="opset1">
			<data auto_broadcast="numpy" />
			<input>
				<port id="0" precision="FP32">
					<dim>64</dim>
					<dim>4</dim>
					<dim>4</dim>
					<dim>3</dim>
					<dim>3</dim>
				</port>
				<port id="1" precision="FP32">
					<dim>64</dim>
					<dim>4</dim>
					<dim>1</dim>
					<dim>1</dim>
					<dim>1</dim>
				</port>
			</input>
			<output>
				<port id="2" precision="FP32">
					<dim>64</dim>
					<dim>4</dim>
					<dim>4</dim>
					<dim>3</dim>
					<dim>3</dim>
				</port>
			</output>
		</layer>
		<layer id="145" name="/backbone/layer1/layer1.2/conv2/Conv/WithoutBiases" type="GroupConvolution" version="opset1">
			<data strides="1, 1" pads_begin="1, 1" pads_end="1, 1" dilations="1, 1" auto_pad="explicit" />
			<input>
				<port id="0" precision="FP32">
					<dim>-1</dim>
					<dim>256</dim>
					<dim>184</dim>
					<dim>248</dim>
				</port>
				<port id="1" precision="FP32">
					<dim>64</dim>
					<dim>4</dim>
					<dim>4</dim>
					<dim>3</dim>
					<dim>3</dim>
				</port>
			</input>
			<output>
				<port id="2" precision="FP32">
					<dim>-1</dim>
					<dim>256</dim>
					<dim>184</dim>
					<dim>248</dim>
				</port>
			</output>
		</layer>
		<layer id="146" name="Reshape_571" type="Const" version="opset1">
			<data element_type="f32" shape="1, 256, 1, 1" offset="350000" size="1024" />
			<output>
				<port id="0" precision="FP32">
					<dim>1</dim>
					<dim>256</dim>
					<dim>1</dim>
					<dim>1</dim>
				</port>
			</output>
		</layer>
		<layer id="147" name="/backbone/layer1/layer1.2/conv2/Conv" type="Add" version="opset1">
			<data auto_broadcast="numpy" />
			<input>
				<port id="0" precision="FP32">
					<dim>-1</dim>
					<dim>256</dim>
					<dim>184</dim>
					<dim>248</dim>
				</port>
				<port id="1" precision="FP32">
					<dim>1</dim>
					<dim>256</dim>
					<dim>1</dim>
					<dim>1</dim>
				</port>
			</input>
			<output>
				<port id="2" precision="FP32" names="/backbone/layer1/layer1.2/conv2/Conv_output_0">
					<dim>-1</dim>
					<dim>256</dim>
					<dim>184</dim>
					<dim>248</dim>
				</port>
			</output>
		</layer>
		<layer id="148" name="/backbone/layer1/layer1.2/relu_1/Relu" type="ReLU" version="opset1">
			<input>
				<port id="0" precision="FP32">
					<dim>-1</dim>
					<dim>256</dim>
					<dim>184</dim>
					<dim>248</dim>
				</port>
			</input>
			<output>
				<port id="1" precision="FP32" names="/backbone/layer1/layer1.2/relu_1/Relu_output_0">
					<dim>-1</dim>
					<dim>256</dim>
					<dim>184</dim>
					<dim>248</dim>
				</port>
			</output>
		</layer>
		<layer id="149" name="Constant_153439" type="Const" version="opset1">
			<data element_type="f32" shape="" offset="48" size="4" />
			<output>
				<port id="0" precision="FP32" />
			</output>
		</layer>
		<layer id="150" name="Constant_153440" type="Const" version="opset1">
			<data element_type="f32" shape="" offset="351024" size="4" />
			<output>
				<port id="0" precision="FP32" />
			</output>
		</layer>
		<layer id="151" name="Constant_153441" type="Const" version="opset1">
			<data element_type="f32" shape="" offset="48" size="4" />
			<output>
				<port id="0" precision="FP32" />
			</output>
		</layer>
		<layer id="152" name="Constant_153442" type="Const" version="opset1">
			<data element_type="f32" shape="" offset="351024" size="4" />
			<output>
				<port id="0" precision="FP32" />
			</output>
		</layer>
		<layer id="153" name="/backbone/layer1/layer1.2/relu_1/Relu/fq_output_0" type="FakeQuantize" version="opset1">
			<data levels="256" auto_broadcast="numpy" />
			<input>
				<port id="0" precision="FP32">
					<dim>-1</dim>
					<dim>256</dim>
					<dim>184</dim>
					<dim>248</dim>
				</port>
				<port id="1" precision="FP32" />
				<port id="2" precision="FP32" />
				<port id="3" precision="FP32" />
				<port id="4" precision="FP32" />
			</input>
			<output>
				<port id="5" precision="FP32">
					<dim>-1</dim>
					<dim>256</dim>
					<dim>184</dim>
					<dim>248</dim>
				</port>
			</output>
		</layer>
		<layer id="154" name="onnx::Conv_2755" type="Const" version="opset1">
			<data element_type="i8" shape="256, 256, 1, 1" offset="351028" size="65536" />
			<output>
				<port id="0" precision="I8">
					<dim>256</dim>
					<dim>256</dim>
					<dim>1</dim>
					<dim>1</dim>
				</port>
			</output>
		</layer>
		<layer id="155" name="Convert_884055" type="Convert" version="opset1">
			<data destination_type="f32" />
			<input>
				<port id="0" precision="I8">
					<dim>256</dim>
					<dim>256</dim>
					<dim>1</dim>
					<dim>1</dim>
				</port>
			</input>
			<output>
				<port id="1" precision="FP32">
					<dim>256</dim>
					<dim>256</dim>
					<dim>1</dim>
					<dim>1</dim>
				</port>
			</output>
		</layer>
		<layer id="156" name="Constant_883953" type="Const" version="opset1">
			<data element_type="f32" shape="256, 1, 1, 1" offset="416564" size="1024" />
			<output>
				<port id="0" precision="FP32">
					<dim>256</dim>
					<dim>1</dim>
					<dim>1</dim>
					<dim>1</dim>
				</port>
			</output>
		</layer>
		<layer id="157" name="/backbone/layer1/layer1.2/conv3/Conv/WithoutBiases/fq_weights_1" type="Multiply" version="opset1">
			<data auto_broadcast="numpy" />
			<input>
				<port id="0" precision="FP32">
					<dim>256</dim>
					<dim>256</dim>
					<dim>1</dim>
					<dim>1</dim>
				</port>
				<port id="1" precision="FP32">
					<dim>256</dim>
					<dim>1</dim>
					<dim>1</dim>
					<dim>1</dim>
				</port>
			</input>
			<output>
				<port id="2" precision="FP32">
					<dim>256</dim>
					<dim>256</dim>
					<dim>1</dim>
					<dim>1</dim>
				</port>
			</output>
		</layer>
		<layer id="158" name="/backbone/layer1/layer1.2/conv3/Conv/WithoutBiases" type="Convolution" version="opset1">
			<data strides="1, 1" dilations="1, 1" pads_begin="0, 0" pads_end="0, 0" auto_pad="explicit" />
			<input>
				<port id="0" precision="FP32">
					<dim>-1</dim>
					<dim>256</dim>
					<dim>184</dim>
					<dim>248</dim>
				</port>
				<port id="1" precision="FP32">
					<dim>256</dim>
					<dim>256</dim>
					<dim>1</dim>
					<dim>1</dim>
				</port>
			</input>
			<output>
				<port id="2" precision="FP32">
					<dim>-1</dim>
					<dim>256</dim>
					<dim>184</dim>
					<dim>248</dim>
				</port>
			</output>
		</layer>
		<layer id="159" name="Reshape_587" type="Const" version="opset1">
			<data element_type="f32" shape="1, 256, 1, 1" offset="417588" size="1024" />
			<output>
				<port id="0" precision="FP32">
					<dim>1</dim>
					<dim>256</dim>
					<dim>1</dim>
					<dim>1</dim>
				</port>
			</output>
		</layer>
		<layer id="160" name="/backbone/layer1/layer1.2/conv3/Conv" type="Add" version="opset1">
			<data auto_broadcast="numpy" />
			<input>
				<port id="0" precision="FP32">
					<dim>-1</dim>
					<dim>256</dim>
					<dim>184</dim>
					<dim>248</dim>
				</port>
				<port id="1" precision="FP32">
					<dim>1</dim>
					<dim>256</dim>
					<dim>1</dim>
					<dim>1</dim>
				</port>
			</input>
			<output>
				<port id="2" precision="FP32" names="/backbone/layer1/layer1.2/conv3/Conv_output_0">
					<dim>-1</dim>
					<dim>256</dim>
					<dim>184</dim>
					<dim>248</dim>
				</port>
			</output>
		</layer>
		<layer id="161" name="Constant_153449" type="Const" version="opset1">
			<data element_type="f32" shape="" offset="418612" size="4" />
			<output>
				<port id="0" precision="FP32" />
			</output>
		</layer>
		<layer id="162" name="Constant_153450" type="Const" version="opset1">
			<data element_type="f32" shape="" offset="418616" size="4" />
			<output>
				<port id="0" precision="FP32" />
			</output>
		</layer>
		<layer id="163" name="Constant_153451" type="Const" version="opset1">
			<data element_type="f32" shape="" offset="418612" size="4" />
			<output>
				<port id="0" precision="FP32" />
			</output>
		</layer>
		<layer id="164" name="Constant_153452" type="Const" version="opset1">
			<data element_type="f32" shape="" offset="418616" size="4" />
			<output>
				<port id="0" precision="FP32" />
			</output>
		</layer>
		<layer id="165" name="/backbone/layer1/layer1.2/conv3/Conv/fq_output_0" type="FakeQuantize" version="opset1">
			<data levels="256" auto_broadcast="numpy" />
			<input>
				<port id="0" precision="FP32">
					<dim>-1</dim>
					<dim>256</dim>
					<dim>184</dim>
					<dim>248</dim>
				</port>
				<port id="1" precision="FP32" />
				<port id="2" precision="FP32" />
				<port id="3" precision="FP32" />
				<port id="4" precision="FP32" />
			</input>
			<output>
				<port id="5" precision="FP32">
					<dim>-1</dim>
					<dim>256</dim>
					<dim>184</dim>
					<dim>248</dim>
				</port>
			</output>
		</layer>
		<layer id="166" name="/backbone/layer1/layer1.2/Add" type="Add" version="opset1">
			<data auto_broadcast="numpy" />
			<input>
				<port id="0" precision="FP32">
					<dim>-1</dim>
					<dim>256</dim>
					<dim>184</dim>
					<dim>248</dim>
				</port>
				<port id="1" precision="FP32">
					<dim>-1</dim>
					<dim>256</dim>
					<dim>184</dim>
					<dim>248</dim>
				</port>
			</input>
			<output>
				<port id="2" precision="FP32" names="/backbone/layer1/layer1.2/Add_output_0">
					<dim>-1</dim>
					<dim>256</dim>
					<dim>184</dim>
					<dim>248</dim>
				</port>
			</output>
		</layer>
		<layer id="167" name="/backbone/layer1/layer1.2/relu_2/Relu" type="ReLU" version="opset1">
			<input>
				<port id="0" precision="FP32">
					<dim>-1</dim>
					<dim>256</dim>
					<dim>184</dim>
					<dim>248</dim>
				</port>
			</input>
			<output>
				<port id="1" precision="FP32" names="/backbone/layer1/layer1.2/relu_2/Relu_output_0">
					<dim>-1</dim>
					<dim>256</dim>
					<dim>184</dim>
					<dim>248</dim>
				</port>
			</output>
		</layer>
		<layer id="168" name="Constant_153454" type="Const" version="opset1">
			<data element_type="f32" shape="" offset="48" size="4" />
			<output>
				<port id="0" precision="FP32" />
			</output>
		</layer>
		<layer id="169" name="Constant_153455" type="Const" version="opset1">
			<data element_type="f32" shape="" offset="418620" size="4" />
			<output>
				<port id="0" precision="FP32" />
			</output>
		</layer>
		<layer id="170" name="Constant_153456" type="Const" version="opset1">
			<data element_type="f32" shape="" offset="48" size="4" />
			<output>
				<port id="0" precision="FP32" />
			</output>
		</layer>
		<layer id="171" name="Constant_153457" type="Const" version="opset1">
			<data element_type="f32" shape="" offset="418620" size="4" />
			<output>
				<port id="0" precision="FP32" />
			</output>
		</layer>
		<layer id="172" name="/backbone/layer1/layer1.2/relu_2/Relu/fq_output_0" type="FakeQuantize" version="opset1">
			<data levels="256" auto_broadcast="numpy" />
			<input>
				<port id="0" precision="FP32">
					<dim>-1</dim>
					<dim>256</dim>
					<dim>184</dim>
					<dim>248</dim>
				</port>
				<port id="1" precision="FP32" />
				<port id="2" precision="FP32" />
				<port id="3" precision="FP32" />
				<port id="4" precision="FP32" />
			</input>
			<output>
				<port id="5" precision="FP32">
					<dim>-1</dim>
					<dim>256</dim>
					<dim>184</dim>
					<dim>248</dim>
				</port>
			</output>
		</layer>
		<layer id="173" name="onnx::Conv_2758" type="Const" version="opset1">
			<data element_type="i8" shape="512, 256, 1, 1" offset="418624" size="131072" />
			<output>
				<port id="0" precision="I8">
					<dim>512</dim>
					<dim>256</dim>
					<dim>1</dim>
					<dim>1</dim>
				</port>
			</output>
		</layer>
		<layer id="174" name="Convert_884209" type="Convert" version="opset1">
			<data destination_type="f32" />
			<input>
				<port id="0" precision="I8">
					<dim>512</dim>
					<dim>256</dim>
					<dim>1</dim>
					<dim>1</dim>
				</port>
			</input>
			<output>
				<port id="1" precision="FP32">
					<dim>512</dim>
					<dim>256</dim>
					<dim>1</dim>
					<dim>1</dim>
				</port>
			</output>
		</layer>
		<layer id="175" name="Constant_884107" type="Const" version="opset1">
			<data element_type="f32" shape="512, 1, 1, 1" offset="549696" size="2048" />
			<output>
				<port id="0" precision="FP32">
					<dim>512</dim>
					<dim>1</dim>
					<dim>1</dim>
					<dim>1</dim>
				</port>
			</output>
		</layer>
		<layer id="176" name="/backbone/layer2/layer2.0/conv1/Conv/WithoutBiases/fq_weights_1" type="Multiply" version="opset1">
			<data auto_broadcast="numpy" />
			<input>
				<port id="0" precision="FP32">
					<dim>512</dim>
					<dim>256</dim>
					<dim>1</dim>
					<dim>1</dim>
				</port>
				<port id="1" precision="FP32">
					<dim>512</dim>
					<dim>1</dim>
					<dim>1</dim>
					<dim>1</dim>
				</port>
			</input>
			<output>
				<port id="2" precision="FP32">
					<dim>512</dim>
					<dim>256</dim>
					<dim>1</dim>
					<dim>1</dim>
				</port>
			</output>
		</layer>
		<layer id="177" name="/backbone/layer2/layer2.0/conv1/Conv/WithoutBiases" type="Convolution" version="opset1">
			<data strides="1, 1" dilations="1, 1" pads_begin="0, 0" pads_end="0, 0" auto_pad="explicit" />
			<input>
				<port id="0" precision="FP32">
					<dim>-1</dim>
					<dim>256</dim>
					<dim>184</dim>
					<dim>248</dim>
				</port>
				<port id="1" precision="FP32">
					<dim>512</dim>
					<dim>256</dim>
					<dim>1</dim>
					<dim>1</dim>
				</port>
			</input>
			<output>
				<port id="2" precision="FP32">
					<dim>-1</dim>
					<dim>512</dim>
					<dim>184</dim>
					<dim>248</dim>
				</port>
			</output>
		</layer>
		<layer id="178" name="Reshape_604" type="Const" version="opset1">
			<data element_type="f32" shape="1, 512, 1, 1" offset="551744" size="2048" />
			<output>
				<port id="0" precision="FP32">
					<dim>1</dim>
					<dim>512</dim>
					<dim>1</dim>
					<dim>1</dim>
				</port>
			</output>
		</layer>
		<layer id="179" name="/backbone/layer2/layer2.0/conv1/Conv" type="Add" version="opset1">
			<data auto_broadcast="numpy" />
			<input>
				<port id="0" precision="FP32">
					<dim>-1</dim>
					<dim>512</dim>
					<dim>184</dim>
					<dim>248</dim>
				</port>
				<port id="1" precision="FP32">
					<dim>1</dim>
					<dim>512</dim>
					<dim>1</dim>
					<dim>1</dim>
				</port>
			</input>
			<output>
				<port id="2" precision="FP32" names="/backbone/layer2/layer2.0/conv1/Conv_output_0">
					<dim>-1</dim>
					<dim>512</dim>
					<dim>184</dim>
					<dim>248</dim>
				</port>
			</output>
		</layer>
		<layer id="180" name="/backbone/layer2/layer2.0/relu/Relu" type="ReLU" version="opset1">
			<input>
				<port id="0" precision="FP32">
					<dim>-1</dim>
					<dim>512</dim>
					<dim>184</dim>
					<dim>248</dim>
				</port>
			</input>
			<output>
				<port id="1" precision="FP32" names="/backbone/layer2/layer2.0/relu/Relu_output_0">
					<dim>-1</dim>
					<dim>512</dim>
					<dim>184</dim>
					<dim>248</dim>
				</port>
			</output>
		</layer>
		<layer id="181" name="Constant_153474" type="Const" version="opset1">
			<data element_type="f32" shape="" offset="48" size="4" />
			<output>
				<port id="0" precision="FP32" />
			</output>
		</layer>
		<layer id="182" name="Constant_153475" type="Const" version="opset1">
			<data element_type="f32" shape="" offset="553792" size="4" />
			<output>
				<port id="0" precision="FP32" />
			</output>
		</layer>
		<layer id="183" name="Constant_153476" type="Const" version="opset1">
			<data element_type="f32" shape="" offset="48" size="4" />
			<output>
				<port id="0" precision="FP32" />
			</output>
		</layer>
		<layer id="184" name="Constant_153477" type="Const" version="opset1">
			<data element_type="f32" shape="" offset="553792" size="4" />
			<output>
				<port id="0" precision="FP32" />
			</output>
		</layer>
		<layer id="185" name="/backbone/layer2/layer2.0/relu/Relu/fq_output_0" type="FakeQuantize" version="opset1">
			<data levels="256" auto_broadcast="numpy" />
			<input>
				<port id="0" precision="FP32">
					<dim>-1</dim>
					<dim>512</dim>
					<dim>184</dim>
					<dim>248</dim>
				</port>
				<port id="1" precision="FP32" />
				<port id="2" precision="FP32" />
				<port id="3" precision="FP32" />
				<port id="4" precision="FP32" />
			</input>
			<output>
				<port id="5" precision="FP32">
					<dim>-1</dim>
					<dim>512</dim>
					<dim>184</dim>
					<dim>248</dim>
				</port>
			</output>
		</layer>
		<layer id="186" name="Reshape_616" type="Const" version="opset1">
			<data element_type="i8" shape="64, 8, 8, 3, 3" offset="553796" size="36864" />
			<output>
				<port id="0" precision="I8">
					<dim>64</dim>
					<dim>8</dim>
					<dim>8</dim>
					<dim>3</dim>
					<dim>3</dim>
				</port>
			</output>
		</layer>
		<layer id="187" name="Convert_884363" type="Convert" version="opset1">
			<data destination_type="f32" />
			<input>
				<port id="0" precision="I8">
					<dim>64</dim>
					<dim>8</dim>
					<dim>8</dim>
					<dim>3</dim>
					<dim>3</dim>
				</port>
			</input>
			<output>
				<port id="1" precision="FP32">
					<dim>64</dim>
					<dim>8</dim>
					<dim>8</dim>
					<dim>3</dim>
					<dim>3</dim>
				</port>
			</output>
		</layer>
		<layer id="188" name="Constant_884261" type="Const" version="opset1">
			<data element_type="f32" shape="64, 8, 1, 1, 1" offset="590660" size="2048" />
			<output>
				<port id="0" precision="FP32">
					<dim>64</dim>
					<dim>8</dim>
					<dim>1</dim>
					<dim>1</dim>
					<dim>1</dim>
				</port>
			</output>
		</layer>
		<layer id="189" name="/backbone/layer2/layer2.0/conv2/Conv/WithoutBiases/fq_weights_1" type="Multiply" version="opset1">
			<data auto_broadcast="numpy" />
			<input>
				<port id="0" precision="FP32">
					<dim>64</dim>
					<dim>8</dim>
					<dim>8</dim>
					<dim>3</dim>
					<dim>3</dim>
				</port>
				<port id="1" precision="FP32">
					<dim>64</dim>
					<dim>8</dim>
					<dim>1</dim>
					<dim>1</dim>
					<dim>1</dim>
				</port>
			</input>
			<output>
				<port id="2" precision="FP32">
					<dim>64</dim>
					<dim>8</dim>
					<dim>8</dim>
					<dim>3</dim>
					<dim>3</dim>
				</port>
			</output>
		</layer>
		<layer id="190" name="/backbone/layer2/layer2.0/conv2/Conv/WithoutBiases" type="GroupConvolution" version="opset1">
			<data strides="2, 2" pads_begin="1, 1" pads_end="1, 1" dilations="1, 1" auto_pad="explicit" />
			<input>
				<port id="0" precision="FP32">
					<dim>-1</dim>
					<dim>512</dim>
					<dim>184</dim>
					<dim>248</dim>
				</port>
				<port id="1" precision="FP32">
					<dim>64</dim>
					<dim>8</dim>
					<dim>8</dim>
					<dim>3</dim>
					<dim>3</dim>
				</port>
			</input>
			<output>
				<port id="2" precision="FP32">
					<dim>-1</dim>
					<dim>512</dim>
					<dim>92</dim>
					<dim>124</dim>
				</port>
			</output>
		</layer>
		<layer id="191" name="Reshape_668" type="Const" version="opset1">
			<data element_type="f32" shape="1, 512, 1, 1" offset="592708" size="2048" />
			<output>
				<port id="0" precision="FP32">
					<dim>1</dim>
					<dim>512</dim>
					<dim>1</dim>
					<dim>1</dim>
				</port>
			</output>
		</layer>
		<layer id="192" name="/backbone/layer2/layer2.0/conv2/Conv" type="Add" version="opset1">
			<data auto_broadcast="numpy" />
			<input>
				<port id="0" precision="FP32">
					<dim>-1</dim>
					<dim>512</dim>
					<dim>92</dim>
					<dim>124</dim>
				</port>
				<port id="1" precision="FP32">
					<dim>1</dim>
					<dim>512</dim>
					<dim>1</dim>
					<dim>1</dim>
				</port>
			</input>
			<output>
				<port id="2" precision="FP32" names="/backbone/layer2/layer2.0/conv2/Conv_output_0">
					<dim>-1</dim>
					<dim>512</dim>
					<dim>92</dim>
					<dim>124</dim>
				</port>
			</output>
		</layer>
		<layer id="193" name="/backbone/layer2/layer2.0/relu_1/Relu" type="ReLU" version="opset1">
			<input>
				<port id="0" precision="FP32">
					<dim>-1</dim>
					<dim>512</dim>
					<dim>92</dim>
					<dim>124</dim>
				</port>
			</input>
			<output>
				<port id="1" precision="FP32" names="/backbone/layer2/layer2.0/relu_1/Relu_output_0">
					<dim>-1</dim>
					<dim>512</dim>
					<dim>92</dim>
					<dim>124</dim>
				</port>
			</output>
		</layer>
		<layer id="194" name="Constant_153484" type="Const" version="opset1">
			<data element_type="f32" shape="" offset="48" size="4" />
			<output>
				<port id="0" precision="FP32" />
			</output>
		</layer>
		<layer id="195" name="Constant_153485" type="Const" version="opset1">
			<data element_type="f32" shape="" offset="594756" size="4" />
			<output>
				<port id="0" precision="FP32" />
			</output>
		</layer>
		<layer id="196" name="Constant_153486" type="Const" version="opset1">
			<data element_type="f32" shape="" offset="48" size="4" />
			<output>
				<port id="0" precision="FP32" />
			</output>
		</layer>
		<layer id="197" name="Constant_153487" type="Const" version="opset1">
			<data element_type="f32" shape="" offset="594756" size="4" />
			<output>
				<port id="0" precision="FP32" />
			</output>
		</layer>
		<layer id="198" name="/backbone/layer2/layer2.0/relu_1/Relu/fq_output_0" type="FakeQuantize" version="opset1">
			<data levels="256" auto_broadcast="numpy" />
			<input>
				<port id="0" precision="FP32">
					<dim>-1</dim>
					<dim>512</dim>
					<dim>92</dim>
					<dim>124</dim>
				</port>
				<port id="1" precision="FP32" />
				<port id="2" precision="FP32" />
				<port id="3" precision="FP32" />
				<port id="4" precision="FP32" />
			</input>
			<output>
				<port id="5" precision="FP32">
					<dim>-1</dim>
					<dim>512</dim>
					<dim>92</dim>
					<dim>124</dim>
				</port>
			</output>
		</layer>
		<layer id="199" name="onnx::Conv_2764" type="Const" version="opset1">
			<data element_type="i8" shape="512, 512, 1, 1" offset="594760" size="262144" />
			<output>
				<port id="0" precision="I8">
					<dim>512</dim>
					<dim>512</dim>
					<dim>1</dim>
					<dim>1</dim>
				</port>
			</output>
		</layer>
		<layer id="200" name="Convert_884517" type="Convert" version="opset1">
			<data destination_type="f32" />
			<input>
				<port id="0" precision="I8">
					<dim>512</dim>
					<dim>512</dim>
					<dim>1</dim>
					<dim>1</dim>
				</port>
			</input>
			<output>
				<port id="1" precision="FP32">
					<dim>512</dim>
					<dim>512</dim>
					<dim>1</dim>
					<dim>1</dim>
				</port>
			</output>
		</layer>
		<layer id="201" name="Constant_884415" type="Const" version="opset1">
			<data element_type="f32" shape="512, 1, 1, 1" offset="856904" size="2048" />
			<output>
				<port id="0" precision="FP32">
					<dim>512</dim>
					<dim>1</dim>
					<dim>1</dim>
					<dim>1</dim>
				</port>
			</output>
		</layer>
		<layer id="202" name="/backbone/layer2/layer2.0/conv3/Conv/WithoutBiases/fq_weights_1" type="Multiply" version="opset1">
			<data auto_broadcast="numpy" />
			<input>
				<port id="0" precision="FP32">
					<dim>512</dim>
					<dim>512</dim>
					<dim>1</dim>
					<dim>1</dim>
				</port>
				<port id="1" precision="FP32">
					<dim>512</dim>
					<dim>1</dim>
					<dim>1</dim>
					<dim>1</dim>
				</port>
			</input>
			<output>
				<port id="2" precision="FP32">
					<dim>512</dim>
					<dim>512</dim>
					<dim>1</dim>
					<dim>1</dim>
				</port>
			</output>
		</layer>
		<layer id="203" name="/backbone/layer2/layer2.0/conv3/Conv/WithoutBiases" type="Convolution" version="opset1">
			<data strides="1, 1" dilations="1, 1" pads_begin="0, 0" pads_end="0, 0" auto_pad="explicit" />
			<input>
				<port id="0" precision="FP32">
					<dim>-1</dim>
					<dim>512</dim>
					<dim>92</dim>
					<dim>124</dim>
				</port>
				<port id="1" precision="FP32">
					<dim>512</dim>
					<dim>512</dim>
					<dim>1</dim>
					<dim>1</dim>
				</port>
			</input>
			<output>
				<port id="2" precision="FP32">
					<dim>-1</dim>
					<dim>512</dim>
					<dim>92</dim>
					<dim>124</dim>
				</port>
			</output>
		</layer>
		<layer id="204" name="Reshape_684" type="Const" version="opset1">
			<data element_type="f32" shape="1, 512, 1, 1" offset="858952" size="2048" />
			<output>
				<port id="0" precision="FP32">
					<dim>1</dim>
					<dim>512</dim>
					<dim>1</dim>
					<dim>1</dim>
				</port>
			</output>
		</layer>
		<layer id="205" name="/backbone/layer2/layer2.0/conv3/Conv" type="Add" version="opset1">
			<data auto_broadcast="numpy" />
			<input>
				<port id="0" precision="FP32">
					<dim>-1</dim>
					<dim>512</dim>
					<dim>92</dim>
					<dim>124</dim>
				</port>
				<port id="1" precision="FP32">
					<dim>1</dim>
					<dim>512</dim>
					<dim>1</dim>
					<dim>1</dim>
				</port>
			</input>
			<output>
				<port id="2" precision="FP32" names="/backbone/layer2/layer2.0/conv3/Conv_output_0">
					<dim>-1</dim>
					<dim>512</dim>
					<dim>92</dim>
					<dim>124</dim>
				</port>
			</output>
		</layer>
		<layer id="206" name="Constant_153494" type="Const" version="opset1">
			<data element_type="f32" shape="" offset="861000" size="4" />
			<output>
				<port id="0" precision="FP32" />
			</output>
		</layer>
		<layer id="207" name="Constant_153495" type="Const" version="opset1">
			<data element_type="f32" shape="" offset="861004" size="4" />
			<output>
				<port id="0" precision="FP32" />
			</output>
		</layer>
		<layer id="208" name="Constant_153496" type="Const" version="opset1">
			<data element_type="f32" shape="" offset="861000" size="4" />
			<output>
				<port id="0" precision="FP32" />
			</output>
		</layer>
		<layer id="209" name="Constant_153497" type="Const" version="opset1">
			<data element_type="f32" shape="" offset="861004" size="4" />
			<output>
				<port id="0" precision="FP32" />
			</output>
		</layer>
		<layer id="210" name="/backbone/layer2/layer2.0/conv3/Conv/fq_output_0" type="FakeQuantize" version="opset1">
			<data levels="256" auto_broadcast="numpy" />
			<input>
				<port id="0" precision="FP32">
					<dim>-1</dim>
					<dim>512</dim>
					<dim>92</dim>
					<dim>124</dim>
				</port>
				<port id="1" precision="FP32" />
				<port id="2" precision="FP32" />
				<port id="3" precision="FP32" />
				<port id="4" precision="FP32" />
			</input>
			<output>
				<port id="5" precision="FP32">
					<dim>-1</dim>
					<dim>512</dim>
					<dim>92</dim>
					<dim>124</dim>
				</port>
			</output>
		</layer>
		<layer id="211" name="onnx::Conv_2767" type="Const" version="opset1">
			<data element_type="i8" shape="512, 256, 1, 1" offset="861008" size="131072" />
			<output>
				<port id="0" precision="I8">
					<dim>512</dim>
					<dim>256</dim>
					<dim>1</dim>
					<dim>1</dim>
				</port>
			</output>
		</layer>
		<layer id="212" name="Convert_884671" type="Convert" version="opset1">
			<data destination_type="f32" />
			<input>
				<port id="0" precision="I8">
					<dim>512</dim>
					<dim>256</dim>
					<dim>1</dim>
					<dim>1</dim>
				</port>
			</input>
			<output>
				<port id="1" precision="FP32">
					<dim>512</dim>
					<dim>256</dim>
					<dim>1</dim>
					<dim>1</dim>
				</port>
			</output>
		</layer>
		<layer id="213" name="Constant_884569" type="Const" version="opset1">
			<data element_type="f32" shape="512, 1, 1, 1" offset="992080" size="2048" />
			<output>
				<port id="0" precision="FP32">
					<dim>512</dim>
					<dim>1</dim>
					<dim>1</dim>
					<dim>1</dim>
				</port>
			</output>
		</layer>
		<layer id="214" name="/backbone/layer2/layer2.0/downsample/downsample.0/Conv/WithoutBiases/fq_weights_1" type="Multiply" version="opset1">
			<data auto_broadcast="numpy" />
			<input>
				<port id="0" precision="FP32">
					<dim>512</dim>
					<dim>256</dim>
					<dim>1</dim>
					<dim>1</dim>
				</port>
				<port id="1" precision="FP32">
					<dim>512</dim>
					<dim>1</dim>
					<dim>1</dim>
					<dim>1</dim>
				</port>
			</input>
			<output>
				<port id="2" precision="FP32">
					<dim>512</dim>
					<dim>256</dim>
					<dim>1</dim>
					<dim>1</dim>
				</port>
			</output>
		</layer>
		<layer id="215" name="/backbone/layer2/layer2.0/downsample/downsample.0/Conv/WithoutBiases" type="Convolution" version="opset1">
			<data strides="2, 2" dilations="1, 1" pads_begin="0, 0" pads_end="0, 0" auto_pad="explicit" />
			<input>
				<port id="0" precision="FP32">
					<dim>-1</dim>
					<dim>256</dim>
					<dim>184</dim>
					<dim>248</dim>
				</port>
				<port id="1" precision="FP32">
					<dim>512</dim>
					<dim>256</dim>
					<dim>1</dim>
					<dim>1</dim>
				</port>
			</input>
			<output>
				<port id="2" precision="FP32">
					<dim>-1</dim>
					<dim>512</dim>
					<dim>92</dim>
					<dim>124</dim>
				</port>
			</output>
		</layer>
		<layer id="216" name="Reshape_699" type="Const" version="opset1">
			<data element_type="f32" shape="1, 512, 1, 1" offset="994128" size="2048" />
			<output>
				<port id="0" precision="FP32">
					<dim>1</dim>
					<dim>512</dim>
					<dim>1</dim>
					<dim>1</dim>
				</port>
			</output>
		</layer>
		<layer id="217" name="/backbone/layer2/layer2.0/downsample/downsample.0/Conv" type="Add" version="opset1">
			<data auto_broadcast="numpy" />
			<input>
				<port id="0" precision="FP32">
					<dim>-1</dim>
					<dim>512</dim>
					<dim>92</dim>
					<dim>124</dim>
				</port>
				<port id="1" precision="FP32">
					<dim>1</dim>
					<dim>512</dim>
					<dim>1</dim>
					<dim>1</dim>
				</port>
			</input>
			<output>
				<port id="2" precision="FP32" names="/backbone/layer2/layer2.0/downsample/downsample.0/Conv_output_0">
					<dim>-1</dim>
					<dim>512</dim>
					<dim>92</dim>
					<dim>124</dim>
				</port>
			</output>
		</layer>
		<layer id="218" name="Constant_153464" type="Const" version="opset1">
			<data element_type="f32" shape="" offset="996176" size="4" />
			<output>
				<port id="0" precision="FP32" />
			</output>
		</layer>
		<layer id="219" name="Constant_153465" type="Const" version="opset1">
			<data element_type="f32" shape="" offset="996180" size="4" />
			<output>
				<port id="0" precision="FP32" />
			</output>
		</layer>
		<layer id="220" name="Constant_153466" type="Const" version="opset1">
			<data element_type="f32" shape="" offset="996176" size="4" />
			<output>
				<port id="0" precision="FP32" />
			</output>
		</layer>
		<layer id="221" name="Constant_153467" type="Const" version="opset1">
			<data element_type="f32" shape="" offset="996180" size="4" />
			<output>
				<port id="0" precision="FP32" />
			</output>
		</layer>
		<layer id="222" name="/backbone/layer2/layer2.0/downsample/downsample.0/Conv/fq_output_0" type="FakeQuantize" version="opset1">
			<data levels="256" auto_broadcast="numpy" />
			<input>
				<port id="0" precision="FP32">
					<dim>-1</dim>
					<dim>512</dim>
					<dim>92</dim>
					<dim>124</dim>
				</port>
				<port id="1" precision="FP32" />
				<port id="2" precision="FP32" />
				<port id="3" precision="FP32" />
				<port id="4" precision="FP32" />
			</input>
			<output>
				<port id="5" precision="FP32">
					<dim>-1</dim>
					<dim>512</dim>
					<dim>92</dim>
					<dim>124</dim>
				</port>
			</output>
		</layer>
		<layer id="223" name="/backbone/layer2/layer2.0/Add" type="Add" version="opset1">
			<data auto_broadcast="numpy" />
			<input>
				<port id="0" precision="FP32">
					<dim>-1</dim>
					<dim>512</dim>
					<dim>92</dim>
					<dim>124</dim>
				</port>
				<port id="1" precision="FP32">
					<dim>-1</dim>
					<dim>512</dim>
					<dim>92</dim>
					<dim>124</dim>
				</port>
			</input>
			<output>
				<port id="2" precision="FP32" names="/backbone/layer2/layer2.0/Add_output_0">
					<dim>-1</dim>
					<dim>512</dim>
					<dim>92</dim>
					<dim>124</dim>
				</port>
			</output>
		</layer>
		<layer id="224" name="/backbone/layer2/layer2.0/relu_2/Relu" type="ReLU" version="opset1">
			<input>
				<port id="0" precision="FP32">
					<dim>-1</dim>
					<dim>512</dim>
					<dim>92</dim>
					<dim>124</dim>
				</port>
			</input>
			<output>
				<port id="1" precision="FP32" names="/backbone/layer2/layer2.0/relu_2/Relu_output_0">
					<dim>-1</dim>
					<dim>512</dim>
					<dim>92</dim>
					<dim>124</dim>
				</port>
			</output>
		</layer>
		<layer id="225" name="Constant_153499" type="Const" version="opset1">
			<data element_type="f32" shape="" offset="48" size="4" />
			<output>
				<port id="0" precision="FP32" />
			</output>
		</layer>
		<layer id="226" name="Constant_153500" type="Const" version="opset1">
			<data element_type="f32" shape="" offset="996184" size="4" />
			<output>
				<port id="0" precision="FP32" />
			</output>
		</layer>
		<layer id="227" name="Constant_153501" type="Const" version="opset1">
			<data element_type="f32" shape="" offset="48" size="4" />
			<output>
				<port id="0" precision="FP32" />
			</output>
		</layer>
		<layer id="228" name="Constant_153502" type="Const" version="opset1">
			<data element_type="f32" shape="" offset="996184" size="4" />
			<output>
				<port id="0" precision="FP32" />
			</output>
		</layer>
		<layer id="229" name="/backbone/layer2/layer2.0/relu_2/Relu/fq_output_0" type="FakeQuantize" version="opset1">
			<data levels="256" auto_broadcast="numpy" />
			<input>
				<port id="0" precision="FP32">
					<dim>-1</dim>
					<dim>512</dim>
					<dim>92</dim>
					<dim>124</dim>
				</port>
				<port id="1" precision="FP32" />
				<port id="2" precision="FP32" />
				<port id="3" precision="FP32" />
				<port id="4" precision="FP32" />
			</input>
			<output>
				<port id="5" precision="FP32">
					<dim>-1</dim>
					<dim>512</dim>
					<dim>92</dim>
					<dim>124</dim>
				</port>
			</output>
		</layer>
		<layer id="230" name="onnx::Conv_2770" type="Const" version="opset1">
			<data element_type="i8" shape="512, 512, 1, 1" offset="996188" size="262144" />
			<output>
				<port id="0" precision="I8">
					<dim>512</dim>
					<dim>512</dim>
					<dim>1</dim>
					<dim>1</dim>
				</port>
			</output>
		</layer>
		<layer id="231" name="Convert_884825" type="Convert" version="opset1">
			<data destination_type="f32" />
			<input>
				<port id="0" precision="I8">
					<dim>512</dim>
					<dim>512</dim>
					<dim>1</dim>
					<dim>1</dim>
				</port>
			</input>
			<output>
				<port id="1" precision="FP32">
					<dim>512</dim>
					<dim>512</dim>
					<dim>1</dim>
					<dim>1</dim>
				</port>
			</output>
		</layer>
		<layer id="232" name="Constant_884723" type="Const" version="opset1">
			<data element_type="f32" shape="512, 1, 1, 1" offset="1258332" size="2048" />
			<output>
				<port id="0" precision="FP32">
					<dim>512</dim>
					<dim>1</dim>
					<dim>1</dim>
					<dim>1</dim>
				</port>
			</output>
		</layer>
		<layer id="233" name="/backbone/layer2/layer2.1/conv1/Conv/WithoutBiases/fq_weights_1" type="Multiply" version="opset1">
			<data auto_broadcast="numpy" />
			<input>
				<port id="0" precision="FP32">
					<dim>512</dim>
					<dim>512</dim>
					<dim>1</dim>
					<dim>1</dim>
				</port>
				<port id="1" precision="FP32">
					<dim>512</dim>
					<dim>1</dim>
					<dim>1</dim>
					<dim>1</dim>
				</port>
			</input>
			<output>
				<port id="2" precision="FP32">
					<dim>512</dim>
					<dim>512</dim>
					<dim>1</dim>
					<dim>1</dim>
				</port>
			</output>
		</layer>
		<layer id="234" name="/backbone/layer2/layer2.1/conv1/Conv/WithoutBiases" type="Convolution" version="opset1">
			<data strides="1, 1" dilations="1, 1" pads_begin="0, 0" pads_end="0, 0" auto_pad="explicit" />
			<input>
				<port id="0" precision="FP32">
					<dim>-1</dim>
					<dim>512</dim>
					<dim>92</dim>
					<dim>124</dim>
				</port>
				<port id="1" precision="FP32">
					<dim>512</dim>
					<dim>512</dim>
					<dim>1</dim>
					<dim>1</dim>
				</port>
			</input>
			<output>
				<port id="2" precision="FP32">
					<dim>-1</dim>
					<dim>512</dim>
					<dim>92</dim>
					<dim>124</dim>
				</port>
			</output>
		</layer>
		<layer id="235" name="Reshape_716" type="Const" version="opset1">
			<data element_type="f32" shape="1, 512, 1, 1" offset="1260380" size="2048" />
			<output>
				<port id="0" precision="FP32">
					<dim>1</dim>
					<dim>512</dim>
					<dim>1</dim>
					<dim>1</dim>
				</port>
			</output>
		</layer>
		<layer id="236" name="/backbone/layer2/layer2.1/conv1/Conv" type="Add" version="opset1">
			<data auto_broadcast="numpy" />
			<input>
				<port id="0" precision="FP32">
					<dim>-1</dim>
					<dim>512</dim>
					<dim>92</dim>
					<dim>124</dim>
				</port>
				<port id="1" precision="FP32">
					<dim>1</dim>
					<dim>512</dim>
					<dim>1</dim>
					<dim>1</dim>
				</port>
			</input>
			<output>
				<port id="2" precision="FP32" names="/backbone/layer2/layer2.1/conv1/Conv_output_0">
					<dim>-1</dim>
					<dim>512</dim>
					<dim>92</dim>
					<dim>124</dim>
				</port>
			</output>
		</layer>
		<layer id="237" name="/backbone/layer2/layer2.1/relu/Relu" type="ReLU" version="opset1">
			<input>
				<port id="0" precision="FP32">
					<dim>-1</dim>
					<dim>512</dim>
					<dim>92</dim>
					<dim>124</dim>
				</port>
			</input>
			<output>
				<port id="1" precision="FP32" names="/backbone/layer2/layer2.1/relu/Relu_output_0">
					<dim>-1</dim>
					<dim>512</dim>
					<dim>92</dim>
					<dim>124</dim>
				</port>
			</output>
		</layer>
		<layer id="238" name="Constant_153509" type="Const" version="opset1">
			<data element_type="f32" shape="" offset="48" size="4" />
			<output>
				<port id="0" precision="FP32" />
			</output>
		</layer>
		<layer id="239" name="Constant_153510" type="Const" version="opset1">
			<data element_type="f32" shape="" offset="1262428" size="4" />
			<output>
				<port id="0" precision="FP32" />
			</output>
		</layer>
		<layer id="240" name="Constant_153511" type="Const" version="opset1">
			<data element_type="f32" shape="" offset="48" size="4" />
			<output>
				<port id="0" precision="FP32" />
			</output>
		</layer>
		<layer id="241" name="Constant_153512" type="Const" version="opset1">
			<data element_type="f32" shape="" offset="1262428" size="4" />
			<output>
				<port id="0" precision="FP32" />
			</output>
		</layer>
		<layer id="242" name="/backbone/layer2/layer2.1/relu/Relu/fq_output_0" type="FakeQuantize" version="opset1">
			<data levels="256" auto_broadcast="numpy" />
			<input>
				<port id="0" precision="FP32">
					<dim>-1</dim>
					<dim>512</dim>
					<dim>92</dim>
					<dim>124</dim>
				</port>
				<port id="1" precision="FP32" />
				<port id="2" precision="FP32" />
				<port id="3" precision="FP32" />
				<port id="4" precision="FP32" />
			</input>
			<output>
				<port id="5" precision="FP32">
					<dim>-1</dim>
					<dim>512</dim>
					<dim>92</dim>
					<dim>124</dim>
				</port>
			</output>
		</layer>
		<layer id="243" name="Reshape_728" type="Const" version="opset1">
			<data element_type="i8" shape="64, 8, 8, 3, 3" offset="1262432" size="36864" />
			<output>
				<port id="0" precision="I8">
					<dim>64</dim>
					<dim>8</dim>
					<dim>8</dim>
					<dim>3</dim>
					<dim>3</dim>
				</port>
			</output>
		</layer>
		<layer id="244" name="Convert_884979" type="Convert" version="opset1">
			<data destination_type="f32" />
			<input>
				<port id="0" precision="I8">
					<dim>64</dim>
					<dim>8</dim>
					<dim>8</dim>
					<dim>3</dim>
					<dim>3</dim>
				</port>
			</input>
			<output>
				<port id="1" precision="FP32">
					<dim>64</dim>
					<dim>8</dim>
					<dim>8</dim>
					<dim>3</dim>
					<dim>3</dim>
				</port>
			</output>
		</layer>
		<layer id="245" name="Constant_884877" type="Const" version="opset1">
			<data element_type="f32" shape="64, 8, 1, 1, 1" offset="1299296" size="2048" />
			<output>
				<port id="0" precision="FP32">
					<dim>64</dim>
					<dim>8</dim>
					<dim>1</dim>
					<dim>1</dim>
					<dim>1</dim>
				</port>
			</output>
		</layer>
		<layer id="246" name="/backbone/layer2/layer2.1/conv2/Conv/WithoutBiases/fq_weights_1" type="Multiply" version="opset1">
			<data auto_broadcast="numpy" />
			<input>
				<port id="0" precision="FP32">
					<dim>64</dim>
					<dim>8</dim>
					<dim>8</dim>
					<dim>3</dim>
					<dim>3</dim>
				</port>
				<port id="1" precision="FP32">
					<dim>64</dim>
					<dim>8</dim>
					<dim>1</dim>
					<dim>1</dim>
					<dim>1</dim>
				</port>
			</input>
			<output>
				<port id="2" precision="FP32">
					<dim>64</dim>
					<dim>8</dim>
					<dim>8</dim>
					<dim>3</dim>
					<dim>3</dim>
				</port>
			</output>
		</layer>
		<layer id="247" name="/backbone/layer2/layer2.1/conv2/Conv/WithoutBiases" type="GroupConvolution" version="opset1">
			<data strides="1, 1" pads_begin="1, 1" pads_end="1, 1" dilations="1, 1" auto_pad="explicit" />
			<input>
				<port id="0" precision="FP32">
					<dim>-1</dim>
					<dim>512</dim>
					<dim>92</dim>
					<dim>124</dim>
				</port>
				<port id="1" precision="FP32">
					<dim>64</dim>
					<dim>8</dim>
					<dim>8</dim>
					<dim>3</dim>
					<dim>3</dim>
				</port>
			</input>
			<output>
				<port id="2" precision="FP32">
					<dim>-1</dim>
					<dim>512</dim>
					<dim>92</dim>
					<dim>124</dim>
				</port>
			</output>
		</layer>
		<layer id="248" name="Reshape_780" type="Const" version="opset1">
			<data element_type="f32" shape="1, 512, 1, 1" offset="1301344" size="2048" />
			<output>
				<port id="0" precision="FP32">
					<dim>1</dim>
					<dim>512</dim>
					<dim>1</dim>
					<dim>1</dim>
				</port>
			</output>
		</layer>
		<layer id="249" name="/backbone/layer2/layer2.1/conv2/Conv" type="Add" version="opset1">
			<data auto_broadcast="numpy" />
			<input>
				<port id="0" precision="FP32">
					<dim>-1</dim>
					<dim>512</dim>
					<dim>92</dim>
					<dim>124</dim>
				</port>
				<port id="1" precision="FP32">
					<dim>1</dim>
					<dim>512</dim>
					<dim>1</dim>
					<dim>1</dim>
				</port>
			</input>
			<output>
				<port id="2" precision="FP32" names="/backbone/layer2/layer2.1/conv2/Conv_output_0">
					<dim>-1</dim>
					<dim>512</dim>
					<dim>92</dim>
					<dim>124</dim>
				</port>
			</output>
		</layer>
		<layer id="250" name="/backbone/layer2/layer2.1/relu_1/Relu" type="ReLU" version="opset1">
			<input>
				<port id="0" precision="FP32">
					<dim>-1</dim>
					<dim>512</dim>
					<dim>92</dim>
					<dim>124</dim>
				</port>
			</input>
			<output>
				<port id="1" precision="FP32" names="/backbone/layer2/layer2.1/relu_1/Relu_output_0">
					<dim>-1</dim>
					<dim>512</dim>
					<dim>92</dim>
					<dim>124</dim>
				</port>
			</output>
		</layer>
		<layer id="251" name="Constant_153519" type="Const" version="opset1">
			<data element_type="f32" shape="" offset="48" size="4" />
			<output>
				<port id="0" precision="FP32" />
			</output>
		</layer>
		<layer id="252" name="Constant_153520" type="Const" version="opset1">
			<data element_type="f32" shape="" offset="1303392" size="4" />
			<output>
				<port id="0" precision="FP32" />
			</output>
		</layer>
		<layer id="253" name="Constant_153521" type="Const" version="opset1">
			<data element_type="f32" shape="" offset="48" size="4" />
			<output>
				<port id="0" precision="FP32" />
			</output>
		</layer>
		<layer id="254" name="Constant_153522" type="Const" version="opset1">
			<data element_type="f32" shape="" offset="1303392" size="4" />
			<output>
				<port id="0" precision="FP32" />
			</output>
		</layer>
		<layer id="255" name="/backbone/layer2/layer2.1/relu_1/Relu/fq_output_0" type="FakeQuantize" version="opset1">
			<data levels="256" auto_broadcast="numpy" />
			<input>
				<port id="0" precision="FP32">
					<dim>-1</dim>
					<dim>512</dim>
					<dim>92</dim>
					<dim>124</dim>
				</port>
				<port id="1" precision="FP32" />
				<port id="2" precision="FP32" />
				<port id="3" precision="FP32" />
				<port id="4" precision="FP32" />
			</input>
			<output>
				<port id="5" precision="FP32">
					<dim>-1</dim>
					<dim>512</dim>
					<dim>92</dim>
					<dim>124</dim>
				</port>
			</output>
		</layer>
		<layer id="256" name="onnx::Conv_2776" type="Const" version="opset1">
			<data element_type="i8" shape="512, 512, 1, 1" offset="1303396" size="262144" />
			<output>
				<port id="0" precision="I8">
					<dim>512</dim>
					<dim>512</dim>
					<dim>1</dim>
					<dim>1</dim>
				</port>
			</output>
		</layer>
		<layer id="257" name="Convert_885133" type="Convert" version="opset1">
			<data destination_type="f32" />
			<input>
				<port id="0" precision="I8">
					<dim>512</dim>
					<dim>512</dim>
					<dim>1</dim>
					<dim>1</dim>
				</port>
			</input>
			<output>
				<port id="1" precision="FP32">
					<dim>512</dim>
					<dim>512</dim>
					<dim>1</dim>
					<dim>1</dim>
				</port>
			</output>
		</layer>
		<layer id="258" name="Constant_885031" type="Const" version="opset1">
			<data element_type="f32" shape="512, 1, 1, 1" offset="1565540" size="2048" />
			<output>
				<port id="0" precision="FP32">
					<dim>512</dim>
					<dim>1</dim>
					<dim>1</dim>
					<dim>1</dim>
				</port>
			</output>
		</layer>
		<layer id="259" name="/backbone/layer2/layer2.1/conv3/Conv/WithoutBiases/fq_weights_1" type="Multiply" version="opset1">
			<data auto_broadcast="numpy" />
			<input>
				<port id="0" precision="FP32">
					<dim>512</dim>
					<dim>512</dim>
					<dim>1</dim>
					<dim>1</dim>
				</port>
				<port id="1" precision="FP32">
					<dim>512</dim>
					<dim>1</dim>
					<dim>1</dim>
					<dim>1</dim>
				</port>
			</input>
			<output>
				<port id="2" precision="FP32">
					<dim>512</dim>
					<dim>512</dim>
					<dim>1</dim>
					<dim>1</dim>
				</port>
			</output>
		</layer>
		<layer id="260" name="/backbone/layer2/layer2.1/conv3/Conv/WithoutBiases" type="Convolution" version="opset1">
			<data strides="1, 1" dilations="1, 1" pads_begin="0, 0" pads_end="0, 0" auto_pad="explicit" />
			<input>
				<port id="0" precision="FP32">
					<dim>-1</dim>
					<dim>512</dim>
					<dim>92</dim>
					<dim>124</dim>
				</port>
				<port id="1" precision="FP32">
					<dim>512</dim>
					<dim>512</dim>
					<dim>1</dim>
					<dim>1</dim>
				</port>
			</input>
			<output>
				<port id="2" precision="FP32">
					<dim>-1</dim>
					<dim>512</dim>
					<dim>92</dim>
					<dim>124</dim>
				</port>
			</output>
		</layer>
		<layer id="261" name="Reshape_796" type="Const" version="opset1">
			<data element_type="f32" shape="1, 512, 1, 1" offset="1567588" size="2048" />
			<output>
				<port id="0" precision="FP32">
					<dim>1</dim>
					<dim>512</dim>
					<dim>1</dim>
					<dim>1</dim>
				</port>
			</output>
		</layer>
		<layer id="262" name="/backbone/layer2/layer2.1/conv3/Conv" type="Add" version="opset1">
			<data auto_broadcast="numpy" />
			<input>
				<port id="0" precision="FP32">
					<dim>-1</dim>
					<dim>512</dim>
					<dim>92</dim>
					<dim>124</dim>
				</port>
				<port id="1" precision="FP32">
					<dim>1</dim>
					<dim>512</dim>
					<dim>1</dim>
					<dim>1</dim>
				</port>
			</input>
			<output>
				<port id="2" precision="FP32" names="/backbone/layer2/layer2.1/conv3/Conv_output_0">
					<dim>-1</dim>
					<dim>512</dim>
					<dim>92</dim>
					<dim>124</dim>
				</port>
			</output>
		</layer>
		<layer id="263" name="Constant_153529" type="Const" version="opset1">
			<data element_type="f32" shape="" offset="1569636" size="4" />
			<output>
				<port id="0" precision="FP32" />
			</output>
		</layer>
		<layer id="264" name="Constant_153530" type="Const" version="opset1">
			<data element_type="f32" shape="" offset="1569640" size="4" />
			<output>
				<port id="0" precision="FP32" />
			</output>
		</layer>
		<layer id="265" name="Constant_153531" type="Const" version="opset1">
			<data element_type="f32" shape="" offset="1569636" size="4" />
			<output>
				<port id="0" precision="FP32" />
			</output>
		</layer>
		<layer id="266" name="Constant_153532" type="Const" version="opset1">
			<data element_type="f32" shape="" offset="1569640" size="4" />
			<output>
				<port id="0" precision="FP32" />
			</output>
		</layer>
		<layer id="267" name="/backbone/layer2/layer2.1/conv3/Conv/fq_output_0" type="FakeQuantize" version="opset1">
			<data levels="256" auto_broadcast="numpy" />
			<input>
				<port id="0" precision="FP32">
					<dim>-1</dim>
					<dim>512</dim>
					<dim>92</dim>
					<dim>124</dim>
				</port>
				<port id="1" precision="FP32" />
				<port id="2" precision="FP32" />
				<port id="3" precision="FP32" />
				<port id="4" precision="FP32" />
			</input>
			<output>
				<port id="5" precision="FP32">
					<dim>-1</dim>
					<dim>512</dim>
					<dim>92</dim>
					<dim>124</dim>
				</port>
			</output>
		</layer>
		<layer id="268" name="/backbone/layer2/layer2.1/Add" type="Add" version="opset1">
			<data auto_broadcast="numpy" />
			<input>
				<port id="0" precision="FP32">
					<dim>-1</dim>
					<dim>512</dim>
					<dim>92</dim>
					<dim>124</dim>
				</port>
				<port id="1" precision="FP32">
					<dim>-1</dim>
					<dim>512</dim>
					<dim>92</dim>
					<dim>124</dim>
				</port>
			</input>
			<output>
				<port id="2" precision="FP32" names="/backbone/layer2/layer2.1/Add_output_0">
					<dim>-1</dim>
					<dim>512</dim>
					<dim>92</dim>
					<dim>124</dim>
				</port>
			</output>
		</layer>
		<layer id="269" name="/backbone/layer2/layer2.1/relu_2/Relu" type="ReLU" version="opset1">
			<input>
				<port id="0" precision="FP32">
					<dim>-1</dim>
					<dim>512</dim>
					<dim>92</dim>
					<dim>124</dim>
				</port>
			</input>
			<output>
				<port id="1" precision="FP32" names="/backbone/layer2/layer2.1/relu_2/Relu_output_0">
					<dim>-1</dim>
					<dim>512</dim>
					<dim>92</dim>
					<dim>124</dim>
				</port>
			</output>
		</layer>
		<layer id="270" name="Constant_153534" type="Const" version="opset1">
			<data element_type="f32" shape="" offset="48" size="4" />
			<output>
				<port id="0" precision="FP32" />
			</output>
		</layer>
		<layer id="271" name="Constant_153535" type="Const" version="opset1">
			<data element_type="f32" shape="" offset="1569644" size="4" />
			<output>
				<port id="0" precision="FP32" />
			</output>
		</layer>
		<layer id="272" name="Constant_153536" type="Const" version="opset1">
			<data element_type="f32" shape="" offset="48" size="4" />
			<output>
				<port id="0" precision="FP32" />
			</output>
		</layer>
		<layer id="273" name="Constant_153537" type="Const" version="opset1">
			<data element_type="f32" shape="" offset="1569644" size="4" />
			<output>
				<port id="0" precision="FP32" />
			</output>
		</layer>
		<layer id="274" name="/backbone/layer2/layer2.1/relu_2/Relu/fq_output_0" type="FakeQuantize" version="opset1">
			<data levels="256" auto_broadcast="numpy" />
			<input>
				<port id="0" precision="FP32">
					<dim>-1</dim>
					<dim>512</dim>
					<dim>92</dim>
					<dim>124</dim>
				</port>
				<port id="1" precision="FP32" />
				<port id="2" precision="FP32" />
				<port id="3" precision="FP32" />
				<port id="4" precision="FP32" />
			</input>
			<output>
				<port id="5" precision="FP32">
					<dim>-1</dim>
					<dim>512</dim>
					<dim>92</dim>
					<dim>124</dim>
				</port>
			</output>
		</layer>
		<layer id="275" name="onnx::Conv_2779" type="Const" version="opset1">
			<data element_type="i8" shape="512, 512, 1, 1" offset="1569648" size="262144" />
			<output>
				<port id="0" precision="I8">
					<dim>512</dim>
					<dim>512</dim>
					<dim>1</dim>
					<dim>1</dim>
				</port>
			</output>
		</layer>
		<layer id="276" name="Convert_885287" type="Convert" version="opset1">
			<data destination_type="f32" />
			<input>
				<port id="0" precision="I8">
					<dim>512</dim>
					<dim>512</dim>
					<dim>1</dim>
					<dim>1</dim>
				</port>
			</input>
			<output>
				<port id="1" precision="FP32">
					<dim>512</dim>
					<dim>512</dim>
					<dim>1</dim>
					<dim>1</dim>
				</port>
			</output>
		</layer>
		<layer id="277" name="Constant_885185" type="Const" version="opset1">
			<data element_type="f32" shape="512, 1, 1, 1" offset="1831792" size="2048" />
			<output>
				<port id="0" precision="FP32">
					<dim>512</dim>
					<dim>1</dim>
					<dim>1</dim>
					<dim>1</dim>
				</port>
			</output>
		</layer>
		<layer id="278" name="/backbone/layer2/layer2.2/conv1/Conv/WithoutBiases/fq_weights_1" type="Multiply" version="opset1">
			<data auto_broadcast="numpy" />
			<input>
				<port id="0" precision="FP32">
					<dim>512</dim>
					<dim>512</dim>
					<dim>1</dim>
					<dim>1</dim>
				</port>
				<port id="1" precision="FP32">
					<dim>512</dim>
					<dim>1</dim>
					<dim>1</dim>
					<dim>1</dim>
				</port>
			</input>
			<output>
				<port id="2" precision="FP32">
					<dim>512</dim>
					<dim>512</dim>
					<dim>1</dim>
					<dim>1</dim>
				</port>
			</output>
		</layer>
		<layer id="279" name="/backbone/layer2/layer2.2/conv1/Conv/WithoutBiases" type="Convolution" version="opset1">
			<data strides="1, 1" dilations="1, 1" pads_begin="0, 0" pads_end="0, 0" auto_pad="explicit" />
			<input>
				<port id="0" precision="FP32">
					<dim>-1</dim>
					<dim>512</dim>
					<dim>92</dim>
					<dim>124</dim>
				</port>
				<port id="1" precision="FP32">
					<dim>512</dim>
					<dim>512</dim>
					<dim>1</dim>
					<dim>1</dim>
				</port>
			</input>
			<output>
				<port id="2" precision="FP32">
					<dim>-1</dim>
					<dim>512</dim>
					<dim>92</dim>
					<dim>124</dim>
				</port>
			</output>
		</layer>
		<layer id="280" name="Reshape_813" type="Const" version="opset1">
			<data element_type="f32" shape="1, 512, 1, 1" offset="1833840" size="2048" />
			<output>
				<port id="0" precision="FP32">
					<dim>1</dim>
					<dim>512</dim>
					<dim>1</dim>
					<dim>1</dim>
				</port>
			</output>
		</layer>
		<layer id="281" name="/backbone/layer2/layer2.2/conv1/Conv" type="Add" version="opset1">
			<data auto_broadcast="numpy" />
			<input>
				<port id="0" precision="FP32">
					<dim>-1</dim>
					<dim>512</dim>
					<dim>92</dim>
					<dim>124</dim>
				</port>
				<port id="1" precision="FP32">
					<dim>1</dim>
					<dim>512</dim>
					<dim>1</dim>
					<dim>1</dim>
				</port>
			</input>
			<output>
				<port id="2" precision="FP32" names="/backbone/layer2/layer2.2/conv1/Conv_output_0">
					<dim>-1</dim>
					<dim>512</dim>
					<dim>92</dim>
					<dim>124</dim>
				</port>
			</output>
		</layer>
		<layer id="282" name="/backbone/layer2/layer2.2/relu/Relu" type="ReLU" version="opset1">
			<input>
				<port id="0" precision="FP32">
					<dim>-1</dim>
					<dim>512</dim>
					<dim>92</dim>
					<dim>124</dim>
				</port>
			</input>
			<output>
				<port id="1" precision="FP32" names="/backbone/layer2/layer2.2/relu/Relu_output_0">
					<dim>-1</dim>
					<dim>512</dim>
					<dim>92</dim>
					<dim>124</dim>
				</port>
			</output>
		</layer>
		<layer id="283" name="Constant_153544" type="Const" version="opset1">
			<data element_type="f32" shape="" offset="48" size="4" />
			<output>
				<port id="0" precision="FP32" />
			</output>
		</layer>
		<layer id="284" name="Constant_153545" type="Const" version="opset1">
			<data element_type="f32" shape="" offset="1835888" size="4" />
			<output>
				<port id="0" precision="FP32" />
			</output>
		</layer>
		<layer id="285" name="Constant_153546" type="Const" version="opset1">
			<data element_type="f32" shape="" offset="48" size="4" />
			<output>
				<port id="0" precision="FP32" />
			</output>
		</layer>
		<layer id="286" name="Constant_153547" type="Const" version="opset1">
			<data element_type="f32" shape="" offset="1835888" size="4" />
			<output>
				<port id="0" precision="FP32" />
			</output>
		</layer>
		<layer id="287" name="/backbone/layer2/layer2.2/relu/Relu/fq_output_0" type="FakeQuantize" version="opset1">
			<data levels="256" auto_broadcast="numpy" />
			<input>
				<port id="0" precision="FP32">
					<dim>-1</dim>
					<dim>512</dim>
					<dim>92</dim>
					<dim>124</dim>
				</port>
				<port id="1" precision="FP32" />
				<port id="2" precision="FP32" />
				<port id="3" precision="FP32" />
				<port id="4" precision="FP32" />
			</input>
			<output>
				<port id="5" precision="FP32">
					<dim>-1</dim>
					<dim>512</dim>
					<dim>92</dim>
					<dim>124</dim>
				</port>
			</output>
		</layer>
		<layer id="288" name="Reshape_825" type="Const" version="opset1">
			<data element_type="i8" shape="64, 8, 8, 3, 3" offset="1835892" size="36864" />
			<output>
				<port id="0" precision="I8">
					<dim>64</dim>
					<dim>8</dim>
					<dim>8</dim>
					<dim>3</dim>
					<dim>3</dim>
				</port>
			</output>
		</layer>
		<layer id="289" name="Convert_885441" type="Convert" version="opset1">
			<data destination_type="f32" />
			<input>
				<port id="0" precision="I8">
					<dim>64</dim>
					<dim>8</dim>
					<dim>8</dim>
					<dim>3</dim>
					<dim>3</dim>
				</port>
			</input>
			<output>
				<port id="1" precision="FP32">
					<dim>64</dim>
					<dim>8</dim>
					<dim>8</dim>
					<dim>3</dim>
					<dim>3</dim>
				</port>
			</output>
		</layer>
		<layer id="290" name="Constant_885339" type="Const" version="opset1">
			<data element_type="f32" shape="64, 8, 1, 1, 1" offset="1872756" size="2048" />
			<output>
				<port id="0" precision="FP32">
					<dim>64</dim>
					<dim>8</dim>
					<dim>1</dim>
					<dim>1</dim>
					<dim>1</dim>
				</port>
			</output>
		</layer>
		<layer id="291" name="/backbone/layer2/layer2.2/conv2/Conv/WithoutBiases/fq_weights_1" type="Multiply" version="opset1">
			<data auto_broadcast="numpy" />
			<input>
				<port id="0" precision="FP32">
					<dim>64</dim>
					<dim>8</dim>
					<dim>8</dim>
					<dim>3</dim>
					<dim>3</dim>
				</port>
				<port id="1" precision="FP32">
					<dim>64</dim>
					<dim>8</dim>
					<dim>1</dim>
					<dim>1</dim>
					<dim>1</dim>
				</port>
			</input>
			<output>
				<port id="2" precision="FP32">
					<dim>64</dim>
					<dim>8</dim>
					<dim>8</dim>
					<dim>3</dim>
					<dim>3</dim>
				</port>
			</output>
		</layer>
		<layer id="292" name="/backbone/layer2/layer2.2/conv2/Conv/WithoutBiases" type="GroupConvolution" version="opset1">
			<data strides="1, 1" pads_begin="1, 1" pads_end="1, 1" dilations="1, 1" auto_pad="explicit" />
			<input>
				<port id="0" precision="FP32">
					<dim>-1</dim>
					<dim>512</dim>
					<dim>92</dim>
					<dim>124</dim>
				</port>
				<port id="1" precision="FP32">
					<dim>64</dim>
					<dim>8</dim>
					<dim>8</dim>
					<dim>3</dim>
					<dim>3</dim>
				</port>
			</input>
			<output>
				<port id="2" precision="FP32">
					<dim>-1</dim>
					<dim>512</dim>
					<dim>92</dim>
					<dim>124</dim>
				</port>
			</output>
		</layer>
		<layer id="293" name="Reshape_877" type="Const" version="opset1">
			<data element_type="f32" shape="1, 512, 1, 1" offset="1874804" size="2048" />
			<output>
				<port id="0" precision="FP32">
					<dim>1</dim>
					<dim>512</dim>
					<dim>1</dim>
					<dim>1</dim>
				</port>
			</output>
		</layer>
		<layer id="294" name="/backbone/layer2/layer2.2/conv2/Conv" type="Add" version="opset1">
			<data auto_broadcast="numpy" />
			<input>
				<port id="0" precision="FP32">
					<dim>-1</dim>
					<dim>512</dim>
					<dim>92</dim>
					<dim>124</dim>
				</port>
				<port id="1" precision="FP32">
					<dim>1</dim>
					<dim>512</dim>
					<dim>1</dim>
					<dim>1</dim>
				</port>
			</input>
			<output>
				<port id="2" precision="FP32" names="/backbone/layer2/layer2.2/conv2/Conv_output_0">
					<dim>-1</dim>
					<dim>512</dim>
					<dim>92</dim>
					<dim>124</dim>
				</port>
			</output>
		</layer>
		<layer id="295" name="/backbone/layer2/layer2.2/relu_1/Relu" type="ReLU" version="opset1">
			<input>
				<port id="0" precision="FP32">
					<dim>-1</dim>
					<dim>512</dim>
					<dim>92</dim>
					<dim>124</dim>
				</port>
			</input>
			<output>
				<port id="1" precision="FP32" names="/backbone/layer2/layer2.2/relu_1/Relu_output_0">
					<dim>-1</dim>
					<dim>512</dim>
					<dim>92</dim>
					<dim>124</dim>
				</port>
			</output>
		</layer>
		<layer id="296" name="Constant_153554" type="Const" version="opset1">
			<data element_type="f32" shape="" offset="48" size="4" />
			<output>
				<port id="0" precision="FP32" />
			</output>
		</layer>
		<layer id="297" name="Constant_153555" type="Const" version="opset1">
			<data element_type="f32" shape="" offset="1876852" size="4" />
			<output>
				<port id="0" precision="FP32" />
			</output>
		</layer>
		<layer id="298" name="Constant_153556" type="Const" version="opset1">
			<data element_type="f32" shape="" offset="48" size="4" />
			<output>
				<port id="0" precision="FP32" />
			</output>
		</layer>
		<layer id="299" name="Constant_153557" type="Const" version="opset1">
			<data element_type="f32" shape="" offset="1876852" size="4" />
			<output>
				<port id="0" precision="FP32" />
			</output>
		</layer>
		<layer id="300" name="/backbone/layer2/layer2.2/relu_1/Relu/fq_output_0" type="FakeQuantize" version="opset1">
			<data levels="256" auto_broadcast="numpy" />
			<input>
				<port id="0" precision="FP32">
					<dim>-1</dim>
					<dim>512</dim>
					<dim>92</dim>
					<dim>124</dim>
				</port>
				<port id="1" precision="FP32" />
				<port id="2" precision="FP32" />
				<port id="3" precision="FP32" />
				<port id="4" precision="FP32" />
			</input>
			<output>
				<port id="5" precision="FP32">
					<dim>-1</dim>
					<dim>512</dim>
					<dim>92</dim>
					<dim>124</dim>
				</port>
			</output>
		</layer>
		<layer id="301" name="onnx::Conv_2785" type="Const" version="opset1">
			<data element_type="i8" shape="512, 512, 1, 1" offset="1876856" size="262144" />
			<output>
				<port id="0" precision="I8">
					<dim>512</dim>
					<dim>512</dim>
					<dim>1</dim>
					<dim>1</dim>
				</port>
			</output>
		</layer>
		<layer id="302" name="Convert_885595" type="Convert" version="opset1">
			<data destination_type="f32" />
			<input>
				<port id="0" precision="I8">
					<dim>512</dim>
					<dim>512</dim>
					<dim>1</dim>
					<dim>1</dim>
				</port>
			</input>
			<output>
				<port id="1" precision="FP32">
					<dim>512</dim>
					<dim>512</dim>
					<dim>1</dim>
					<dim>1</dim>
				</port>
			</output>
		</layer>
		<layer id="303" name="Constant_885493" type="Const" version="opset1">
			<data element_type="f32" shape="512, 1, 1, 1" offset="2139000" size="2048" />
			<output>
				<port id="0" precision="FP32">
					<dim>512</dim>
					<dim>1</dim>
					<dim>1</dim>
					<dim>1</dim>
				</port>
			</output>
		</layer>
		<layer id="304" name="/backbone/layer2/layer2.2/conv3/Conv/WithoutBiases/fq_weights_1" type="Multiply" version="opset1">
			<data auto_broadcast="numpy" />
			<input>
				<port id="0" precision="FP32">
					<dim>512</dim>
					<dim>512</dim>
					<dim>1</dim>
					<dim>1</dim>
				</port>
				<port id="1" precision="FP32">
					<dim>512</dim>
					<dim>1</dim>
					<dim>1</dim>
					<dim>1</dim>
				</port>
			</input>
			<output>
				<port id="2" precision="FP32">
					<dim>512</dim>
					<dim>512</dim>
					<dim>1</dim>
					<dim>1</dim>
				</port>
			</output>
		</layer>
		<layer id="305" name="/backbone/layer2/layer2.2/conv3/Conv/WithoutBiases" type="Convolution" version="opset1">
			<data strides="1, 1" dilations="1, 1" pads_begin="0, 0" pads_end="0, 0" auto_pad="explicit" />
			<input>
				<port id="0" precision="FP32">
					<dim>-1</dim>
					<dim>512</dim>
					<dim>92</dim>
					<dim>124</dim>
				</port>
				<port id="1" precision="FP32">
					<dim>512</dim>
					<dim>512</dim>
					<dim>1</dim>
					<dim>1</dim>
				</port>
			</input>
			<output>
				<port id="2" precision="FP32">
					<dim>-1</dim>
					<dim>512</dim>
					<dim>92</dim>
					<dim>124</dim>
				</port>
			</output>
		</layer>
		<layer id="306" name="Reshape_893" type="Const" version="opset1">
			<data element_type="f32" shape="1, 512, 1, 1" offset="2141048" size="2048" />
			<output>
				<port id="0" precision="FP32">
					<dim>1</dim>
					<dim>512</dim>
					<dim>1</dim>
					<dim>1</dim>
				</port>
			</output>
		</layer>
		<layer id="307" name="/backbone/layer2/layer2.2/conv3/Conv" type="Add" version="opset1">
			<data auto_broadcast="numpy" />
			<input>
				<port id="0" precision="FP32">
					<dim>-1</dim>
					<dim>512</dim>
					<dim>92</dim>
					<dim>124</dim>
				</port>
				<port id="1" precision="FP32">
					<dim>1</dim>
					<dim>512</dim>
					<dim>1</dim>
					<dim>1</dim>
				</port>
			</input>
			<output>
				<port id="2" precision="FP32" names="/backbone/layer2/layer2.2/conv3/Conv_output_0">
					<dim>-1</dim>
					<dim>512</dim>
					<dim>92</dim>
					<dim>124</dim>
				</port>
			</output>
		</layer>
		<layer id="308" name="Constant_153564" type="Const" version="opset1">
			<data element_type="f32" shape="" offset="2143096" size="4" />
			<output>
				<port id="0" precision="FP32" />
			</output>
		</layer>
		<layer id="309" name="Constant_153565" type="Const" version="opset1">
			<data element_type="f32" shape="" offset="2143100" size="4" />
			<output>
				<port id="0" precision="FP32" />
			</output>
		</layer>
		<layer id="310" name="Constant_153566" type="Const" version="opset1">
			<data element_type="f32" shape="" offset="2143096" size="4" />
			<output>
				<port id="0" precision="FP32" />
			</output>
		</layer>
		<layer id="311" name="Constant_153567" type="Const" version="opset1">
			<data element_type="f32" shape="" offset="2143100" size="4" />
			<output>
				<port id="0" precision="FP32" />
			</output>
		</layer>
		<layer id="312" name="/backbone/layer2/layer2.2/conv3/Conv/fq_output_0" type="FakeQuantize" version="opset1">
			<data levels="256" auto_broadcast="numpy" />
			<input>
				<port id="0" precision="FP32">
					<dim>-1</dim>
					<dim>512</dim>
					<dim>92</dim>
					<dim>124</dim>
				</port>
				<port id="1" precision="FP32" />
				<port id="2" precision="FP32" />
				<port id="3" precision="FP32" />
				<port id="4" precision="FP32" />
			</input>
			<output>
				<port id="5" precision="FP32">
					<dim>-1</dim>
					<dim>512</dim>
					<dim>92</dim>
					<dim>124</dim>
				</port>
			</output>
		</layer>
		<layer id="313" name="/backbone/layer2/layer2.2/Add" type="Add" version="opset1">
			<data auto_broadcast="numpy" />
			<input>
				<port id="0" precision="FP32">
					<dim>-1</dim>
					<dim>512</dim>
					<dim>92</dim>
					<dim>124</dim>
				</port>
				<port id="1" precision="FP32">
					<dim>-1</dim>
					<dim>512</dim>
					<dim>92</dim>
					<dim>124</dim>
				</port>
			</input>
			<output>
				<port id="2" precision="FP32" names="/backbone/layer2/layer2.2/Add_output_0">
					<dim>-1</dim>
					<dim>512</dim>
					<dim>92</dim>
					<dim>124</dim>
				</port>
			</output>
		</layer>
		<layer id="314" name="/backbone/layer2/layer2.2/relu_2/Relu" type="ReLU" version="opset1">
			<input>
				<port id="0" precision="FP32">
					<dim>-1</dim>
					<dim>512</dim>
					<dim>92</dim>
					<dim>124</dim>
				</port>
			</input>
			<output>
				<port id="1" precision="FP32" names="/backbone/layer2/layer2.2/relu_2/Relu_output_0">
					<dim>-1</dim>
					<dim>512</dim>
					<dim>92</dim>
					<dim>124</dim>
				</port>
			</output>
		</layer>
		<layer id="315" name="Constant_153569" type="Const" version="opset1">
			<data element_type="f32" shape="" offset="48" size="4" />
			<output>
				<port id="0" precision="FP32" />
			</output>
		</layer>
		<layer id="316" name="Constant_153570" type="Const" version="opset1">
			<data element_type="f32" shape="" offset="2143104" size="4" />
			<output>
				<port id="0" precision="FP32" />
			</output>
		</layer>
		<layer id="317" name="Constant_153571" type="Const" version="opset1">
			<data element_type="f32" shape="" offset="48" size="4" />
			<output>
				<port id="0" precision="FP32" />
			</output>
		</layer>
		<layer id="318" name="Constant_153572" type="Const" version="opset1">
			<data element_type="f32" shape="" offset="2143104" size="4" />
			<output>
				<port id="0" precision="FP32" />
			</output>
		</layer>
		<layer id="319" name="/backbone/layer2/layer2.2/relu_2/Relu/fq_output_0" type="FakeQuantize" version="opset1">
			<data levels="256" auto_broadcast="numpy" />
			<input>
				<port id="0" precision="FP32">
					<dim>-1</dim>
					<dim>512</dim>
					<dim>92</dim>
					<dim>124</dim>
				</port>
				<port id="1" precision="FP32" />
				<port id="2" precision="FP32" />
				<port id="3" precision="FP32" />
				<port id="4" precision="FP32" />
			</input>
			<output>
				<port id="5" precision="FP32">
					<dim>-1</dim>
					<dim>512</dim>
					<dim>92</dim>
					<dim>124</dim>
				</port>
			</output>
		</layer>
		<layer id="320" name="onnx::Conv_2788" type="Const" version="opset1">
			<data element_type="i8" shape="512, 512, 1, 1" offset="2143108" size="262144" />
			<output>
				<port id="0" precision="I8">
					<dim>512</dim>
					<dim>512</dim>
					<dim>1</dim>
					<dim>1</dim>
				</port>
			</output>
		</layer>
		<layer id="321" name="Convert_885749" type="Convert" version="opset1">
			<data destination_type="f32" />
			<input>
				<port id="0" precision="I8">
					<dim>512</dim>
					<dim>512</dim>
					<dim>1</dim>
					<dim>1</dim>
				</port>
			</input>
			<output>
				<port id="1" precision="FP32">
					<dim>512</dim>
					<dim>512</dim>
					<dim>1</dim>
					<dim>1</dim>
				</port>
			</output>
		</layer>
		<layer id="322" name="Constant_885647" type="Const" version="opset1">
			<data element_type="f32" shape="512, 1, 1, 1" offset="2405252" size="2048" />
			<output>
				<port id="0" precision="FP32">
					<dim>512</dim>
					<dim>1</dim>
					<dim>1</dim>
					<dim>1</dim>
				</port>
			</output>
		</layer>
		<layer id="323" name="/backbone/layer2/layer2.3/conv1/Conv/WithoutBiases/fq_weights_1" type="Multiply" version="opset1">
			<data auto_broadcast="numpy" />
			<input>
				<port id="0" precision="FP32">
					<dim>512</dim>
					<dim>512</dim>
					<dim>1</dim>
					<dim>1</dim>
				</port>
				<port id="1" precision="FP32">
					<dim>512</dim>
					<dim>1</dim>
					<dim>1</dim>
					<dim>1</dim>
				</port>
			</input>
			<output>
				<port id="2" precision="FP32">
					<dim>512</dim>
					<dim>512</dim>
					<dim>1</dim>
					<dim>1</dim>
				</port>
			</output>
		</layer>
		<layer id="324" name="/backbone/layer2/layer2.3/conv1/Conv/WithoutBiases" type="Convolution" version="opset1">
			<data strides="1, 1" dilations="1, 1" pads_begin="0, 0" pads_end="0, 0" auto_pad="explicit" />
			<input>
				<port id="0" precision="FP32">
					<dim>-1</dim>
					<dim>512</dim>
					<dim>92</dim>
					<dim>124</dim>
				</port>
				<port id="1" precision="FP32">
					<dim>512</dim>
					<dim>512</dim>
					<dim>1</dim>
					<dim>1</dim>
				</port>
			</input>
			<output>
				<port id="2" precision="FP32">
					<dim>-1</dim>
					<dim>512</dim>
					<dim>92</dim>
					<dim>124</dim>
				</port>
			</output>
		</layer>
		<layer id="325" name="Reshape_910" type="Const" version="opset1">
			<data element_type="f32" shape="1, 512, 1, 1" offset="2407300" size="2048" />
			<output>
				<port id="0" precision="FP32">
					<dim>1</dim>
					<dim>512</dim>
					<dim>1</dim>
					<dim>1</dim>
				</port>
			</output>
		</layer>
		<layer id="326" name="/backbone/layer2/layer2.3/conv1/Conv" type="Add" version="opset1">
			<data auto_broadcast="numpy" />
			<input>
				<port id="0" precision="FP32">
					<dim>-1</dim>
					<dim>512</dim>
					<dim>92</dim>
					<dim>124</dim>
				</port>
				<port id="1" precision="FP32">
					<dim>1</dim>
					<dim>512</dim>
					<dim>1</dim>
					<dim>1</dim>
				</port>
			</input>
			<output>
				<port id="2" precision="FP32" names="/backbone/layer2/layer2.3/conv1/Conv_output_0">
					<dim>-1</dim>
					<dim>512</dim>
					<dim>92</dim>
					<dim>124</dim>
				</port>
			</output>
		</layer>
		<layer id="327" name="/backbone/layer2/layer2.3/relu/Relu" type="ReLU" version="opset1">
			<input>
				<port id="0" precision="FP32">
					<dim>-1</dim>
					<dim>512</dim>
					<dim>92</dim>
					<dim>124</dim>
				</port>
			</input>
			<output>
				<port id="1" precision="FP32" names="/backbone/layer2/layer2.3/relu/Relu_output_0">
					<dim>-1</dim>
					<dim>512</dim>
					<dim>92</dim>
					<dim>124</dim>
				</port>
			</output>
		</layer>
		<layer id="328" name="Constant_153579" type="Const" version="opset1">
			<data element_type="f32" shape="" offset="48" size="4" />
			<output>
				<port id="0" precision="FP32" />
			</output>
		</layer>
		<layer id="329" name="Constant_153580" type="Const" version="opset1">
			<data element_type="f32" shape="" offset="2409348" size="4" />
			<output>
				<port id="0" precision="FP32" />
			</output>
		</layer>
		<layer id="330" name="Constant_153581" type="Const" version="opset1">
			<data element_type="f32" shape="" offset="48" size="4" />
			<output>
				<port id="0" precision="FP32" />
			</output>
		</layer>
		<layer id="331" name="Constant_153582" type="Const" version="opset1">
			<data element_type="f32" shape="" offset="2409348" size="4" />
			<output>
				<port id="0" precision="FP32" />
			</output>
		</layer>
		<layer id="332" name="/backbone/layer2/layer2.3/relu/Relu/fq_output_0" type="FakeQuantize" version="opset1">
			<data levels="256" auto_broadcast="numpy" />
			<input>
				<port id="0" precision="FP32">
					<dim>-1</dim>
					<dim>512</dim>
					<dim>92</dim>
					<dim>124</dim>
				</port>
				<port id="1" precision="FP32" />
				<port id="2" precision="FP32" />
				<port id="3" precision="FP32" />
				<port id="4" precision="FP32" />
			</input>
			<output>
				<port id="5" precision="FP32">
					<dim>-1</dim>
					<dim>512</dim>
					<dim>92</dim>
					<dim>124</dim>
				</port>
			</output>
		</layer>
		<layer id="333" name="Reshape_922" type="Const" version="opset1">
			<data element_type="i8" shape="64, 8, 8, 3, 3" offset="2409352" size="36864" />
			<output>
				<port id="0" precision="I8">
					<dim>64</dim>
					<dim>8</dim>
					<dim>8</dim>
					<dim>3</dim>
					<dim>3</dim>
				</port>
			</output>
		</layer>
		<layer id="334" name="Convert_885903" type="Convert" version="opset1">
			<data destination_type="f32" />
			<input>
				<port id="0" precision="I8">
					<dim>64</dim>
					<dim>8</dim>
					<dim>8</dim>
					<dim>3</dim>
					<dim>3</dim>
				</port>
			</input>
			<output>
				<port id="1" precision="FP32">
					<dim>64</dim>
					<dim>8</dim>
					<dim>8</dim>
					<dim>3</dim>
					<dim>3</dim>
				</port>
			</output>
		</layer>
		<layer id="335" name="Constant_885801" type="Const" version="opset1">
			<data element_type="f32" shape="64, 8, 1, 1, 1" offset="2446216" size="2048" />
			<output>
				<port id="0" precision="FP32">
					<dim>64</dim>
					<dim>8</dim>
					<dim>1</dim>
					<dim>1</dim>
					<dim>1</dim>
				</port>
			</output>
		</layer>
		<layer id="336" name="/backbone/layer2/layer2.3/conv2/Conv/WithoutBiases/fq_weights_1" type="Multiply" version="opset1">
			<data auto_broadcast="numpy" />
			<input>
				<port id="0" precision="FP32">
					<dim>64</dim>
					<dim>8</dim>
					<dim>8</dim>
					<dim>3</dim>
					<dim>3</dim>
				</port>
				<port id="1" precision="FP32">
					<dim>64</dim>
					<dim>8</dim>
					<dim>1</dim>
					<dim>1</dim>
					<dim>1</dim>
				</port>
			</input>
			<output>
				<port id="2" precision="FP32">
					<dim>64</dim>
					<dim>8</dim>
					<dim>8</dim>
					<dim>3</dim>
					<dim>3</dim>
				</port>
			</output>
		</layer>
		<layer id="337" name="/backbone/layer2/layer2.3/conv2/Conv/WithoutBiases" type="GroupConvolution" version="opset1">
			<data strides="1, 1" pads_begin="1, 1" pads_end="1, 1" dilations="1, 1" auto_pad="explicit" />
			<input>
				<port id="0" precision="FP32">
					<dim>-1</dim>
					<dim>512</dim>
					<dim>92</dim>
					<dim>124</dim>
				</port>
				<port id="1" precision="FP32">
					<dim>64</dim>
					<dim>8</dim>
					<dim>8</dim>
					<dim>3</dim>
					<dim>3</dim>
				</port>
			</input>
			<output>
				<port id="2" precision="FP32">
					<dim>-1</dim>
					<dim>512</dim>
					<dim>92</dim>
					<dim>124</dim>
				</port>
			</output>
		</layer>
		<layer id="338" name="Reshape_974" type="Const" version="opset1">
			<data element_type="f32" shape="1, 512, 1, 1" offset="2448264" size="2048" />
			<output>
				<port id="0" precision="FP32">
					<dim>1</dim>
					<dim>512</dim>
					<dim>1</dim>
					<dim>1</dim>
				</port>
			</output>
		</layer>
		<layer id="339" name="/backbone/layer2/layer2.3/conv2/Conv" type="Add" version="opset1">
			<data auto_broadcast="numpy" />
			<input>
				<port id="0" precision="FP32">
					<dim>-1</dim>
					<dim>512</dim>
					<dim>92</dim>
					<dim>124</dim>
				</port>
				<port id="1" precision="FP32">
					<dim>1</dim>
					<dim>512</dim>
					<dim>1</dim>
					<dim>1</dim>
				</port>
			</input>
			<output>
				<port id="2" precision="FP32" names="/backbone/layer2/layer2.3/conv2/Conv_output_0">
					<dim>-1</dim>
					<dim>512</dim>
					<dim>92</dim>
					<dim>124</dim>
				</port>
			</output>
		</layer>
		<layer id="340" name="/backbone/layer2/layer2.3/relu_1/Relu" type="ReLU" version="opset1">
			<input>
				<port id="0" precision="FP32">
					<dim>-1</dim>
					<dim>512</dim>
					<dim>92</dim>
					<dim>124</dim>
				</port>
			</input>
			<output>
				<port id="1" precision="FP32" names="/backbone/layer2/layer2.3/relu_1/Relu_output_0">
					<dim>-1</dim>
					<dim>512</dim>
					<dim>92</dim>
					<dim>124</dim>
				</port>
			</output>
		</layer>
		<layer id="341" name="Constant_153589" type="Const" version="opset1">
			<data element_type="f32" shape="" offset="48" size="4" />
			<output>
				<port id="0" precision="FP32" />
			</output>
		</layer>
		<layer id="342" name="Constant_153590" type="Const" version="opset1">
			<data element_type="f32" shape="" offset="2450312" size="4" />
			<output>
				<port id="0" precision="FP32" />
			</output>
		</layer>
		<layer id="343" name="Constant_153591" type="Const" version="opset1">
			<data element_type="f32" shape="" offset="48" size="4" />
			<output>
				<port id="0" precision="FP32" />
			</output>
		</layer>
		<layer id="344" name="Constant_153592" type="Const" version="opset1">
			<data element_type="f32" shape="" offset="2450312" size="4" />
			<output>
				<port id="0" precision="FP32" />
			</output>
		</layer>
		<layer id="345" name="/backbone/layer2/layer2.3/relu_1/Relu/fq_output_0" type="FakeQuantize" version="opset1">
			<data levels="256" auto_broadcast="numpy" />
			<input>
				<port id="0" precision="FP32">
					<dim>-1</dim>
					<dim>512</dim>
					<dim>92</dim>
					<dim>124</dim>
				</port>
				<port id="1" precision="FP32" />
				<port id="2" precision="FP32" />
				<port id="3" precision="FP32" />
				<port id="4" precision="FP32" />
			</input>
			<output>
				<port id="5" precision="FP32">
					<dim>-1</dim>
					<dim>512</dim>
					<dim>92</dim>
					<dim>124</dim>
				</port>
			</output>
		</layer>
		<layer id="346" name="onnx::Conv_2794" type="Const" version="opset1">
			<data element_type="i8" shape="512, 512, 1, 1" offset="2450316" size="262144" />
			<output>
				<port id="0" precision="I8">
					<dim>512</dim>
					<dim>512</dim>
					<dim>1</dim>
					<dim>1</dim>
				</port>
			</output>
		</layer>
		<layer id="347" name="Convert_886057" type="Convert" version="opset1">
			<data destination_type="f32" />
			<input>
				<port id="0" precision="I8">
					<dim>512</dim>
					<dim>512</dim>
					<dim>1</dim>
					<dim>1</dim>
				</port>
			</input>
			<output>
				<port id="1" precision="FP32">
					<dim>512</dim>
					<dim>512</dim>
					<dim>1</dim>
					<dim>1</dim>
				</port>
			</output>
		</layer>
		<layer id="348" name="Constant_885955" type="Const" version="opset1">
			<data element_type="f32" shape="512, 1, 1, 1" offset="2712460" size="2048" />
			<output>
				<port id="0" precision="FP32">
					<dim>512</dim>
					<dim>1</dim>
					<dim>1</dim>
					<dim>1</dim>
				</port>
			</output>
		</layer>
		<layer id="349" name="/backbone/layer2/layer2.3/conv3/Conv/WithoutBiases/fq_weights_1" type="Multiply" version="opset1">
			<data auto_broadcast="numpy" />
			<input>
				<port id="0" precision="FP32">
					<dim>512</dim>
					<dim>512</dim>
					<dim>1</dim>
					<dim>1</dim>
				</port>
				<port id="1" precision="FP32">
					<dim>512</dim>
					<dim>1</dim>
					<dim>1</dim>
					<dim>1</dim>
				</port>
			</input>
			<output>
				<port id="2" precision="FP32">
					<dim>512</dim>
					<dim>512</dim>
					<dim>1</dim>
					<dim>1</dim>
				</port>
			</output>
		</layer>
		<layer id="350" name="/backbone/layer2/layer2.3/conv3/Conv/WithoutBiases" type="Convolution" version="opset1">
			<data strides="1, 1" dilations="1, 1" pads_begin="0, 0" pads_end="0, 0" auto_pad="explicit" />
			<input>
				<port id="0" precision="FP32">
					<dim>-1</dim>
					<dim>512</dim>
					<dim>92</dim>
					<dim>124</dim>
				</port>
				<port id="1" precision="FP32">
					<dim>512</dim>
					<dim>512</dim>
					<dim>1</dim>
					<dim>1</dim>
				</port>
			</input>
			<output>
				<port id="2" precision="FP32">
					<dim>-1</dim>
					<dim>512</dim>
					<dim>92</dim>
					<dim>124</dim>
				</port>
			</output>
		</layer>
		<layer id="351" name="Reshape_990" type="Const" version="opset1">
			<data element_type="f32" shape="1, 512, 1, 1" offset="2714508" size="2048" />
			<output>
				<port id="0" precision="FP32">
					<dim>1</dim>
					<dim>512</dim>
					<dim>1</dim>
					<dim>1</dim>
				</port>
			</output>
		</layer>
		<layer id="352" name="/backbone/layer2/layer2.3/conv3/Conv" type="Add" version="opset1">
			<data auto_broadcast="numpy" />
			<input>
				<port id="0" precision="FP32">
					<dim>-1</dim>
					<dim>512</dim>
					<dim>92</dim>
					<dim>124</dim>
				</port>
				<port id="1" precision="FP32">
					<dim>1</dim>
					<dim>512</dim>
					<dim>1</dim>
					<dim>1</dim>
				</port>
			</input>
			<output>
				<port id="2" precision="FP32" names="/backbone/layer2/layer2.3/conv3/Conv_output_0">
					<dim>-1</dim>
					<dim>512</dim>
					<dim>92</dim>
					<dim>124</dim>
				</port>
			</output>
		</layer>
		<layer id="353" name="Constant_153599" type="Const" version="opset1">
			<data element_type="f32" shape="" offset="2716556" size="4" />
			<output>
				<port id="0" precision="FP32" />
			</output>
		</layer>
		<layer id="354" name="Constant_153600" type="Const" version="opset1">
			<data element_type="f32" shape="" offset="2716560" size="4" />
			<output>
				<port id="0" precision="FP32" />
			</output>
		</layer>
		<layer id="355" name="Constant_153601" type="Const" version="opset1">
			<data element_type="f32" shape="" offset="2716556" size="4" />
			<output>
				<port id="0" precision="FP32" />
			</output>
		</layer>
		<layer id="356" name="Constant_153602" type="Const" version="opset1">
			<data element_type="f32" shape="" offset="2716560" size="4" />
			<output>
				<port id="0" precision="FP32" />
			</output>
		</layer>
		<layer id="357" name="/backbone/layer2/layer2.3/conv3/Conv/fq_output_0" type="FakeQuantize" version="opset1">
			<data levels="256" auto_broadcast="numpy" />
			<input>
				<port id="0" precision="FP32">
					<dim>-1</dim>
					<dim>512</dim>
					<dim>92</dim>
					<dim>124</dim>
				</port>
				<port id="1" precision="FP32" />
				<port id="2" precision="FP32" />
				<port id="3" precision="FP32" />
				<port id="4" precision="FP32" />
			</input>
			<output>
				<port id="5" precision="FP32">
					<dim>-1</dim>
					<dim>512</dim>
					<dim>92</dim>
					<dim>124</dim>
				</port>
			</output>
		</layer>
		<layer id="358" name="/backbone/layer2/layer2.3/Add" type="Add" version="opset1">
			<data auto_broadcast="numpy" />
			<input>
				<port id="0" precision="FP32">
					<dim>-1</dim>
					<dim>512</dim>
					<dim>92</dim>
					<dim>124</dim>
				</port>
				<port id="1" precision="FP32">
					<dim>-1</dim>
					<dim>512</dim>
					<dim>92</dim>
					<dim>124</dim>
				</port>
			</input>
			<output>
				<port id="2" precision="FP32" names="/backbone/layer2/layer2.3/Add_output_0">
					<dim>-1</dim>
					<dim>512</dim>
					<dim>92</dim>
					<dim>124</dim>
				</port>
			</output>
		</layer>
		<layer id="359" name="/backbone/layer2/layer2.3/relu_2/Relu" type="ReLU" version="opset1">
			<input>
				<port id="0" precision="FP32">
					<dim>-1</dim>
					<dim>512</dim>
					<dim>92</dim>
					<dim>124</dim>
				</port>
			</input>
			<output>
				<port id="1" precision="FP32" names="/backbone/layer2/layer2.3/relu_2/Relu_output_0">
					<dim>-1</dim>
					<dim>512</dim>
					<dim>92</dim>
					<dim>124</dim>
				</port>
			</output>
		</layer>
		<layer id="360" name="Constant_153604" type="Const" version="opset1">
			<data element_type="f32" shape="" offset="48" size="4" />
			<output>
				<port id="0" precision="FP32" />
			</output>
		</layer>
		<layer id="361" name="Constant_153605" type="Const" version="opset1">
			<data element_type="f32" shape="" offset="2716564" size="4" />
			<output>
				<port id="0" precision="FP32" />
			</output>
		</layer>
		<layer id="362" name="Constant_153606" type="Const" version="opset1">
			<data element_type="f32" shape="" offset="48" size="4" />
			<output>
				<port id="0" precision="FP32" />
			</output>
		</layer>
		<layer id="363" name="Constant_153607" type="Const" version="opset1">
			<data element_type="f32" shape="" offset="2716564" size="4" />
			<output>
				<port id="0" precision="FP32" />
			</output>
		</layer>
		<layer id="364" name="/backbone/layer2/layer2.3/relu_2/Relu/fq_output_0" type="FakeQuantize" version="opset1">
			<data levels="256" auto_broadcast="numpy" />
			<input>
				<port id="0" precision="FP32">
					<dim>-1</dim>
					<dim>512</dim>
					<dim>92</dim>
					<dim>124</dim>
				</port>
				<port id="1" precision="FP32" />
				<port id="2" precision="FP32" />
				<port id="3" precision="FP32" />
				<port id="4" precision="FP32" />
			</input>
			<output>
				<port id="5" precision="FP32">
					<dim>-1</dim>
					<dim>512</dim>
					<dim>92</dim>
					<dim>124</dim>
				</port>
			</output>
		</layer>
		<layer id="365" name="neck.lateral_convs.0.conv.weight" type="Const" version="opset1">
			<data element_type="i8" shape="256, 512, 1, 1" offset="2716568" size="131072" />
			<output>
				<port id="0" precision="I8">
					<dim>256</dim>
					<dim>512</dim>
					<dim>1</dim>
					<dim>1</dim>
				</port>
			</output>
		</layer>
		<layer id="366" name="Convert_886211" type="Convert" version="opset1">
			<data destination_type="f32" />
			<input>
				<port id="0" precision="I8">
					<dim>256</dim>
					<dim>512</dim>
					<dim>1</dim>
					<dim>1</dim>
				</port>
			</input>
			<output>
				<port id="1" precision="FP32">
					<dim>256</dim>
					<dim>512</dim>
					<dim>1</dim>
					<dim>1</dim>
				</port>
			</output>
		</layer>
		<layer id="367" name="Constant_886109" type="Const" version="opset1">
			<data element_type="f32" shape="256, 1, 1, 1" offset="2847640" size="1024" />
			<output>
				<port id="0" precision="FP32">
					<dim>256</dim>
					<dim>1</dim>
					<dim>1</dim>
					<dim>1</dim>
				</port>
			</output>
		</layer>
		<layer id="368" name="/neck/lateral_convs.0/conv/Conv/WithoutBiases/fq_weights_1" type="Multiply" version="opset1">
			<data auto_broadcast="numpy" />
			<input>
				<port id="0" precision="FP32">
					<dim>256</dim>
					<dim>512</dim>
					<dim>1</dim>
					<dim>1</dim>
				</port>
				<port id="1" precision="FP32">
					<dim>256</dim>
					<dim>1</dim>
					<dim>1</dim>
					<dim>1</dim>
				</port>
			</input>
			<output>
				<port id="2" precision="FP32">
					<dim>256</dim>
					<dim>512</dim>
					<dim>1</dim>
					<dim>1</dim>
				</port>
			</output>
		</layer>
		<layer id="369" name="/neck/lateral_convs.0/conv/Conv/WithoutBiases" type="Convolution" version="opset1">
			<data strides="1, 1" dilations="1, 1" pads_begin="0, 0" pads_end="0, 0" auto_pad="explicit" />
			<input>
				<port id="0" precision="FP32">
					<dim>-1</dim>
					<dim>512</dim>
					<dim>92</dim>
					<dim>124</dim>
				</port>
				<port id="1" precision="FP32">
					<dim>256</dim>
					<dim>512</dim>
					<dim>1</dim>
					<dim>1</dim>
				</port>
			</input>
			<output>
				<port id="2" precision="FP32">
					<dim>-1</dim>
					<dim>256</dim>
					<dim>92</dim>
					<dim>124</dim>
				</port>
			</output>
		</layer>
		<layer id="370" name="Reshape_3559" type="Const" version="opset1">
			<data element_type="f32" shape="1, 256, 1, 1" offset="2848664" size="1024" />
			<output>
				<port id="0" precision="FP32">
					<dim>1</dim>
					<dim>256</dim>
					<dim>1</dim>
					<dim>1</dim>
				</port>
			</output>
		</layer>
		<layer id="371" name="/neck/lateral_convs.0/conv/Conv" type="Add" version="opset1">
			<data auto_broadcast="numpy" />
			<input>
				<port id="0" precision="FP32">
					<dim>-1</dim>
					<dim>256</dim>
					<dim>92</dim>
					<dim>124</dim>
				</port>
				<port id="1" precision="FP32">
					<dim>1</dim>
					<dim>256</dim>
					<dim>1</dim>
					<dim>1</dim>
				</port>
			</input>
			<output>
				<port id="2" precision="FP32" names="/neck/lateral_convs.0/conv/Conv_output_0">
					<dim>-1</dim>
					<dim>256</dim>
					<dim>92</dim>
					<dim>124</dim>
				</port>
			</output>
		</layer>
		<layer id="372" name="Constant_153614" type="Const" version="opset1">
			<data element_type="f32" shape="" offset="2849688" size="4" />
			<output>
				<port id="0" precision="FP32" />
			</output>
		</layer>
		<layer id="373" name="Constant_153615" type="Const" version="opset1">
			<data element_type="f32" shape="" offset="2849692" size="4" />
			<output>
				<port id="0" precision="FP32" />
			</output>
		</layer>
		<layer id="374" name="Constant_153616" type="Const" version="opset1">
			<data element_type="f32" shape="" offset="2849688" size="4" />
			<output>
				<port id="0" precision="FP32" />
			</output>
		</layer>
		<layer id="375" name="Constant_153617" type="Const" version="opset1">
			<data element_type="f32" shape="" offset="2849692" size="4" />
			<output>
				<port id="0" precision="FP32" />
			</output>
		</layer>
		<layer id="376" name="/neck/lateral_convs.0/conv/Conv/fq_output_0" type="FakeQuantize" version="opset1">
			<data levels="256" auto_broadcast="numpy" />
			<input>
				<port id="0" precision="FP32">
					<dim>-1</dim>
					<dim>256</dim>
					<dim>92</dim>
					<dim>124</dim>
				</port>
				<port id="1" precision="FP32" />
				<port id="2" precision="FP32" />
				<port id="3" precision="FP32" />
				<port id="4" precision="FP32" />
			</input>
			<output>
				<port id="5" precision="FP32">
					<dim>-1</dim>
					<dim>256</dim>
					<dim>92</dim>
					<dim>124</dim>
				</port>
			</output>
		</layer>
		<layer id="377" name="onnx::Conv_2797" type="Const" version="opset1">
			<data element_type="i8" shape="1024, 512, 1, 1" offset="2849696" size="524288" />
			<output>
				<port id="0" precision="I8">
					<dim>1024</dim>
					<dim>512</dim>
					<dim>1</dim>
					<dim>1</dim>
				</port>
			</output>
		</layer>
		<layer id="378" name="Convert_886365" type="Convert" version="opset1">
			<data destination_type="f32" />
			<input>
				<port id="0" precision="I8">
					<dim>1024</dim>
					<dim>512</dim>
					<dim>1</dim>
					<dim>1</dim>
				</port>
			</input>
			<output>
				<port id="1" precision="FP32">
					<dim>1024</dim>
					<dim>512</dim>
					<dim>1</dim>
					<dim>1</dim>
				</port>
			</output>
		</layer>
		<layer id="379" name="Constant_886263" type="Const" version="opset1">
			<data element_type="f32" shape="1024, 1, 1, 1" offset="3373984" size="4096" />
			<output>
				<port id="0" precision="FP32">
					<dim>1024</dim>
					<dim>1</dim>
					<dim>1</dim>
					<dim>1</dim>
				</port>
			</output>
		</layer>
		<layer id="380" name="/backbone/layer3/layer3.0/conv1/Conv/WithoutBiases/fq_weights_1" type="Multiply" version="opset1">
			<data auto_broadcast="numpy" />
			<input>
				<port id="0" precision="FP32">
					<dim>1024</dim>
					<dim>512</dim>
					<dim>1</dim>
					<dim>1</dim>
				</port>
				<port id="1" precision="FP32">
					<dim>1024</dim>
					<dim>1</dim>
					<dim>1</dim>
					<dim>1</dim>
				</port>
			</input>
			<output>
				<port id="2" precision="FP32">
					<dim>1024</dim>
					<dim>512</dim>
					<dim>1</dim>
					<dim>1</dim>
				</port>
			</output>
		</layer>
		<layer id="381" name="/backbone/layer3/layer3.0/conv1/Conv/WithoutBiases" type="Convolution" version="opset1">
			<data strides="1, 1" dilations="1, 1" pads_begin="0, 0" pads_end="0, 0" auto_pad="explicit" />
			<input>
				<port id="0" precision="FP32">
					<dim>-1</dim>
					<dim>512</dim>
					<dim>92</dim>
					<dim>124</dim>
				</port>
				<port id="1" precision="FP32">
					<dim>1024</dim>
					<dim>512</dim>
					<dim>1</dim>
					<dim>1</dim>
				</port>
			</input>
			<output>
				<port id="2" precision="FP32">
					<dim>-1</dim>
					<dim>1024</dim>
					<dim>92</dim>
					<dim>124</dim>
				</port>
			</output>
		</layer>
		<layer id="382" name="Reshape_1007" type="Const" version="opset1">
			<data element_type="f32" shape="1, 1024, 1, 1" offset="3378080" size="4096" />
			<output>
				<port id="0" precision="FP32">
					<dim>1</dim>
					<dim>1024</dim>
					<dim>1</dim>
					<dim>1</dim>
				</port>
			</output>
		</layer>
		<layer id="383" name="/backbone/layer3/layer3.0/conv1/Conv" type="Add" version="opset1">
			<data auto_broadcast="numpy" />
			<input>
				<port id="0" precision="FP32">
					<dim>-1</dim>
					<dim>1024</dim>
					<dim>92</dim>
					<dim>124</dim>
				</port>
				<port id="1" precision="FP32">
					<dim>1</dim>
					<dim>1024</dim>
					<dim>1</dim>
					<dim>1</dim>
				</port>
			</input>
			<output>
				<port id="2" precision="FP32" names="/backbone/layer3/layer3.0/conv1/Conv_output_0">
					<dim>-1</dim>
					<dim>1024</dim>
					<dim>92</dim>
					<dim>124</dim>
				</port>
			</output>
		</layer>
		<layer id="384" name="/backbone/layer3/layer3.0/relu/Relu" type="ReLU" version="opset1">
			<input>
				<port id="0" precision="FP32">
					<dim>-1</dim>
					<dim>1024</dim>
					<dim>92</dim>
					<dim>124</dim>
				</port>
			</input>
			<output>
				<port id="1" precision="FP32" names="/backbone/layer3/layer3.0/relu/Relu_output_0">
					<dim>-1</dim>
					<dim>1024</dim>
					<dim>92</dim>
					<dim>124</dim>
				</port>
			</output>
		</layer>
		<layer id="385" name="Constant_153634" type="Const" version="opset1">
			<data element_type="f32" shape="" offset="48" size="4" />
			<output>
				<port id="0" precision="FP32" />
			</output>
		</layer>
		<layer id="386" name="Constant_153635" type="Const" version="opset1">
			<data element_type="f32" shape="" offset="3382176" size="4" />
			<output>
				<port id="0" precision="FP32" />
			</output>
		</layer>
		<layer id="387" name="Constant_153636" type="Const" version="opset1">
			<data element_type="f32" shape="" offset="48" size="4" />
			<output>
				<port id="0" precision="FP32" />
			</output>
		</layer>
…
		<edge from-layer="3712" from-port="2" to-layer="3732" to-port="0" />
		<edge from-layer="3713" from-port="0" to-layer="3744" to-port="1" />
		<edge from-layer="3713" from-port="0" to-layer="3715" to-port="1" />
		<edge from-layer="3713" from-port="0" to-layer="3734" to-port="1" />
		<edge from-layer="3713" from-port="0" to-layer="4109" to-port="1" />
		<edge from-layer="3714" from-port="0" to-layer="3715" to-port="2" />
		<edge from-layer="3715" from-port="3" to-layer="3725" to-port="0" />
		<edge from-layer="3716" from-port="1" to-layer="3720" to-port="0" />
		<edge from-layer="3717" from-port="0" to-layer="3720" to-port="1" />
		<edge from-layer="3718" from-port="0" to-layer="3720" to-port="2" />
		<edge from-layer="3719" from-port="0" to-layer="3720" to-port="3" />
		<edge from-layer="3720" from-port="4" to-layer="3734" to-port="0" />
		<edge from-layer="3720" from-port="4" to-layer="3723" to-port="0" />
		<edge from-layer="3721" from-port="0" to-layer="4117" to-port="1" />
		<edge from-layer="3721" from-port="0" to-layer="3732" to-port="1" />
		<edge from-layer="3721" from-port="0" to-layer="3723" to-port="1" />
		<edge from-layer="3721" from-port="0" to-layer="3753" to-port="1" />
		<edge from-layer="3722" from-port="0" to-layer="3723" to-port="2" />
		<edge from-layer="3723" from-port="3" to-layer="3727" to-port="0" />
		<edge from-layer="3723" from-port="3" to-layer="3724" to-port="0" />
		<edge from-layer="3723" from-port="3" to-layer="3745" to-port="0" />
		<edge from-layer="3723" from-port="3" to-layer="3748" to-port="0" />
		<edge from-layer="3724" from-port="1" to-layer="3725" to-port="1" />
		<edge from-layer="3725" from-port="2" to-layer="3726" to-port="0" />
		<edge from-layer="3726" from-port="1" to-layer="3728" to-port="0" />
		<edge from-layer="3727" from-port="1" to-layer="3728" to-port="1" />
		<edge from-layer="3728" from-port="2" to-layer="3730" to-port="0" />
		<edge from-layer="3729" from-port="0" to-layer="3730" to-port="1" />
		<edge from-layer="3730" from-port="2" to-layer="3761" to-port="0" />
		<edge from-layer="3731" from-port="0" to-layer="3732" to-port="2" />
		<edge from-layer="3732" from-port="3" to-layer="3736" to-port="0" />
		<edge from-layer="3733" from-port="0" to-layer="3734" to-port="2" />
		<edge from-layer="3734" from-port="3" to-layer="3738" to-port="0" />
		<edge from-layer="3734" from-port="3" to-layer="3735" to-port="0" />
		<edge from-layer="3734" from-port="3" to-layer="3754" to-port="0" />
		<edge from-layer="3734" from-port="3" to-layer="3757" to-port="0" />
		<edge from-layer="3735" from-port="1" to-layer="3736" to-port="1" />
		<edge from-layer="3736" from-port="2" to-layer="3737" to-port="0" />
		<edge from-layer="3737" from-port="1" to-layer="3739" to-port="0" />
		<edge from-layer="3738" from-port="1" to-layer="3739" to-port="1" />
		<edge from-layer="3739" from-port="2" to-layer="3741" to-port="0" />
		<edge from-layer="3740" from-port="0" to-layer="3741" to-port="1" />
		<edge from-layer="3741" from-port="2" to-layer="3761" to-port="1" />
		<edge from-layer="3742" from-port="2" to-layer="3753" to-port="0" />
		<edge from-layer="3742" from-port="2" to-layer="3744" to-port="0" />
		<edge from-layer="3743" from-port="0" to-layer="3744" to-port="2" />
		<edge from-layer="3744" from-port="3" to-layer="3746" to-port="0" />
		<edge from-layer="3745" from-port="1" to-layer="3746" to-port="1" />
		<edge from-layer="3746" from-port="2" to-layer="3747" to-port="0" />
		<edge from-layer="3747" from-port="1" to-layer="3749" to-port="0" />
		<edge from-layer="3748" from-port="1" to-layer="3749" to-port="1" />
		<edge from-layer="3749" from-port="2" to-layer="3751" to-port="0" />
		<edge from-layer="3750" from-port="0" to-layer="3751" to-port="1" />
		<edge from-layer="3751" from-port="2" to-layer="3761" to-port="2" />
		<edge from-layer="3752" from-port="0" to-layer="3753" to-port="2" />
		<edge from-layer="3753" from-port="3" to-layer="3755" to-port="0" />
		<edge from-layer="3754" from-port="1" to-layer="3755" to-port="1" />
		<edge from-layer="3755" from-port="2" to-layer="3756" to-port="0" />
		<edge from-layer="3756" from-port="1" to-layer="3758" to-port="0" />
		<edge from-layer="3757" from-port="1" to-layer="3758" to-port="1" />
		<edge from-layer="3758" from-port="2" to-layer="3760" to-port="0" />
		<edge from-layer="3759" from-port="0" to-layer="3760" to-port="1" />
		<edge from-layer="3760" from-port="2" to-layer="3761" to-port="3" />
		<edge from-layer="3761" from-port="4" to-layer="3763" to-port="0" />
		<edge from-layer="3762" from-port="1" to-layer="3763" to-port="1" />
		<edge from-layer="3763" from-port="2" to-layer="3764" to-port="0" />
		<edge from-layer="3763" from-port="2" to-layer="3773" to-port="0" />
		<edge from-layer="3764" from-port="1" to-layer="4063" to-port="0" />
		<edge from-layer="3764" from-port="1" to-layer="3768" to-port="0" />
		<edge from-layer="3764" from-port="1" to-layer="4071" to-port="0" />
		<edge from-layer="3765" from-port="0" to-layer="3768" to-port="1" />
		<edge from-layer="3766" from-port="0" to-layer="3768" to-port="2" />
		<edge from-layer="3767" from-port="0" to-layer="3768" to-port="3" />
		<edge from-layer="3768" from-port="4" to-layer="3770" to-port="0" />
		<edge from-layer="3769" from-port="0" to-layer="3770" to-port="1" />
		<edge from-layer="3770" from-port="2" to-layer="3772" to-port="0" />
		<edge from-layer="3771" from-port="0" to-layer="3772" to-port="1" />
		<edge from-layer="3772" from-port="2" to-layer="3773" to-port="1" />
		<edge from-layer="3773" from-port="2" to-layer="4067" to-port="0" />
		<edge from-layer="3774" from-port="1" to-layer="3778" to-port="0" />
		<edge from-layer="3774" from-port="1" to-layer="3786" to-port="0" />
		<edge from-layer="3774" from-port="1" to-layer="3794" to-port="0" />
		<edge from-layer="3775" from-port="0" to-layer="3778" to-port="1" />
		<edge from-layer="3776" from-port="0" to-layer="3778" to-port="2" />
		<edge from-layer="3777" from-port="0" to-layer="3778" to-port="3" />
		<edge from-layer="3778" from-port="4" to-layer="3780" to-port="0" />
		<edge from-layer="3779" from-port="0" to-layer="3780" to-port="1" />
		<edge from-layer="3780" from-port="2" to-layer="3782" to-port="0" />
		<edge from-layer="3781" from-port="0" to-layer="3782" to-port="1" />
		<edge from-layer="3782" from-port="2" to-layer="3783" to-port="1" />
		<edge from-layer="3783" from-port="2" to-layer="3790" to-port="0" />
		<edge from-layer="3784" from-port="0" to-layer="3786" to-port="1" />
		<edge from-layer="3785" from-port="0" to-layer="3786" to-port="2" />
		<edge from-layer="3786" from-port="3" to-layer="3787" to-port="1" />
		<edge from-layer="3787" from-port="2" to-layer="3788" to-port="1" />
		<edge from-layer="3788" from-port="2" to-layer="3797" to-port="0" />
		<edge from-layer="3788" from-port="2" to-layer="3790" to-port="1" />
		<edge from-layer="3789" from-port="0" to-layer="3790" to-port="2" />
		<edge from-layer="3790" from-port="3" to-layer="3796" to-port="0" />
		<edge from-layer="3791" from-port="0" to-layer="3795" to-port="0" />
		<edge from-layer="3792" from-port="0" to-layer="3794" to-port="1" />
		<edge from-layer="3793" from-port="0" to-layer="3794" to-port="2" />
		<edge from-layer="3794" from-port="3" to-layer="3798" to-port="1" />
		<edge from-layer="3794" from-port="3" to-layer="3795" to-port="1" />
		<edge from-layer="3795" from-port="2" to-layer="3796" to-port="1" />
		<edge from-layer="3796" from-port="2" to-layer="3799" to-port="0" />
		<edge from-layer="3797" from-port="1" to-layer="3798" to-port="0" />
		<edge from-layer="3798" from-port="2" to-layer="3799" to-port="1" />
		<edge from-layer="3799" from-port="2" to-layer="3904" to-port="0" />
		<edge from-layer="3800" from-port="1" to-layer="3812" to-port="0" />
		<edge from-layer="3800" from-port="1" to-layer="3804" to-port="0" />
		<edge from-layer="3800" from-port="1" to-layer="3820" to-port="0" />
		<edge from-layer="3801" from-port="0" to-layer="3804" to-port="1" />
		<edge from-layer="3802" from-port="0" to-layer="3804" to-port="2" />
		<edge from-layer="3803" from-port="0" to-layer="3804" to-port="3" />
		<edge from-layer="3804" from-port="4" to-layer="3806" to-port="0" />
		<edge from-layer="3805" from-port="0" to-layer="3806" to-port="1" />
		<edge from-layer="3806" from-port="2" to-layer="3808" to-port="0" />
		<edge from-layer="3807" from-port="0" to-layer="3808" to-port="1" />
		<edge from-layer="3808" from-port="2" to-layer="3809" to-port="1" />
		<edge from-layer="3809" from-port="2" to-layer="3816" to-port="0" />
		<edge from-layer="3810" from-port="0" to-layer="3812" to-port="1" />
		<edge from-layer="3811" from-port="0" to-layer="3812" to-port="2" />
		<edge from-layer="3812" from-port="3" to-layer="3813" to-port="1" />
		<edge from-layer="3813" from-port="2" to-layer="3814" to-port="1" />
		<edge from-layer="3814" from-port="2" to-layer="3823" to-port="0" />
		<edge from-layer="3814" from-port="2" to-layer="3816" to-port="1" />
		<edge from-layer="3815" from-port="0" to-layer="3816" to-port="2" />
		<edge from-layer="3816" from-port="3" to-layer="3822" to-port="0" />
		<edge from-layer="3817" from-port="0" to-layer="3821" to-port="0" />
		<edge from-layer="3818" from-port="0" to-layer="3820" to-port="1" />
		<edge from-layer="3819" from-port="0" to-layer="3820" to-port="2" />
		<edge from-layer="3820" from-port="3" to-layer="3824" to-port="1" />
		<edge from-layer="3820" from-port="3" to-layer="3821" to-port="1" />
		<edge from-layer="3821" from-port="2" to-layer="3822" to-port="1" />
		<edge from-layer="3822" from-port="2" to-layer="3825" to-port="0" />
		<edge from-layer="3823" from-port="1" to-layer="3824" to-port="0" />
		<edge from-layer="3824" from-port="2" to-layer="3825" to-port="1" />
		<edge from-layer="3825" from-port="2" to-layer="3904" to-port="1" />
		<edge from-layer="3826" from-port="1" to-layer="3838" to-port="0" />
		<edge from-layer="3826" from-port="1" to-layer="3830" to-port="0" />
		<edge from-layer="3826" from-port="1" to-layer="3846" to-port="0" />
		<edge from-layer="3827" from-port="0" to-layer="3830" to-port="1" />
		<edge from-layer="3828" from-port="0" to-layer="3830" to-port="2" />
		<edge from-layer="3829" from-port="0" to-layer="3830" to-port="3" />
		<edge from-layer="3830" from-port="4" to-layer="3832" to-port="0" />
		<edge from-layer="3831" from-port="0" to-layer="3832" to-port="1" />
		<edge from-layer="3832" from-port="2" to-layer="3834" to-port="0" />
		<edge from-layer="3833" from-port="0" to-layer="3834" to-port="1" />
		<edge from-layer="3834" from-port="2" to-layer="3835" to-port="1" />
		<edge from-layer="3835" from-port="2" to-layer="3842" to-port="0" />
		<edge from-layer="3836" from-port="0" to-layer="3838" to-port="1" />
		<edge from-layer="3837" from-port="0" to-layer="3838" to-port="2" />
		<edge from-layer="3838" from-port="3" to-layer="3839" to-port="1" />
		<edge from-layer="3839" from-port="2" to-layer="3840" to-port="1" />
		<edge from-layer="3840" from-port="2" to-layer="3849" to-port="0" />
		<edge from-layer="3840" from-port="2" to-layer="3842" to-port="1" />
		<edge from-layer="3841" from-port="0" to-layer="3842" to-port="2" />
		<edge from-layer="3842" from-port="3" to-layer="3848" to-port="0" />
		<edge from-layer="3843" from-port="0" to-layer="3847" to-port="0" />
		<edge from-layer="3844" from-port="0" to-layer="3846" to-port="1" />
		<edge from-layer="3845" from-port="0" to-layer="3846" to-port="2" />
		<edge from-layer="3846" from-port="3" to-layer="3850" to-port="1" />
		<edge from-layer="3846" from-port="3" to-layer="3847" to-port="1" />
		<edge from-layer="3847" from-port="2" to-layer="3848" to-port="1" />
		<edge from-layer="3848" from-port="2" to-layer="3851" to-port="0" />
		<edge from-layer="3849" from-port="1" to-layer="3850" to-port="0" />
		<edge from-layer="3850" from-port="2" to-layer="3851" to-port="1" />
		<edge from-layer="3851" from-port="2" to-layer="3904" to-port="2" />
		<edge from-layer="3852" from-port="1" to-layer="3872" to-port="0" />
		<edge from-layer="3852" from-port="1" to-layer="3856" to-port="0" />
		<edge from-layer="3852" from-port="1" to-layer="3864" to-port="0" />
		<edge from-layer="3853" from-port="0" to-layer="3856" to-port="1" />
		<edge from-layer="3854" from-port="0" to-layer="3856" to-port="2" />
		<edge from-layer="3855" from-port="0" to-layer="3856" to-port="3" />
		<edge from-layer="3856" from-port="4" to-layer="3858" to-port="0" />
		<edge from-layer="3857" from-port="0" to-layer="3858" to-port="1" />
		<edge from-layer="3858" from-port="2" to-layer="3860" to-port="0" />
		<edge from-layer="3859" from-port="0" to-layer="3860" to-port="1" />
		<edge from-layer="3860" from-port="2" to-layer="3861" to-port="1" />
		<edge from-layer="3861" from-port="2" to-layer="3868" to-port="0" />
		<edge from-layer="3862" from-port="0" to-layer="3864" to-port="1" />
		<edge from-layer="3863" from-port="0" to-layer="3864" to-port="2" />
		<edge from-layer="3864" from-port="3" to-layer="3865" to-port="1" />
		<edge from-layer="3865" from-port="2" to-layer="3866" to-port="1" />
		<edge from-layer="3866" from-port="2" to-layer="3875" to-port="0" />
		<edge from-layer="3866" from-port="2" to-layer="3868" to-port="1" />
		<edge from-layer="3867" from-port="0" to-layer="3868" to-port="2" />
		<edge from-layer="3868" from-port="3" to-layer="3874" to-port="0" />
		<edge from-layer="3869" from-port="0" to-layer="3873" to-port="0" />
		<edge from-layer="3870" from-port="0" to-layer="3872" to-port="1" />
		<edge from-layer="3871" from-port="0" to-layer="3872" to-port="2" />
		<edge from-layer="3872" from-port="3" to-layer="3873" to-port="1" />
		<edge from-layer="3872" from-port="3" to-layer="3876" to-port="1" />
		<edge from-layer="3873" from-port="2" to-layer="3874" to-port="1" />
		<edge from-layer="3874" from-port="2" to-layer="3877" to-port="0" />
		<edge from-layer="3875" from-port="1" to-layer="3876" to-port="0" />
		<edge from-layer="3876" from-port="2" to-layer="3877" to-port="1" />
		<edge from-layer="3877" from-port="2" to-layer="3904" to-port="3" />
		<edge from-layer="3878" from-port="1" to-layer="3890" to-port="0" />
		<edge from-layer="3878" from-port="1" to-layer="3898" to-port="0" />
		<edge from-layer="3878" from-port="1" to-layer="3882" to-port="0" />
		<edge from-layer="3879" from-port="0" to-layer="3882" to-port="1" />
		<edge from-layer="3880" from-port="0" to-layer="3882" to-port="2" />
		<edge from-layer="3881" from-port="0" to-layer="3882" to-port="3" />
		<edge from-layer="3882" from-port="4" to-layer="3884" to-port="0" />
		<edge from-layer="3883" from-port="0" to-layer="3884" to-port="1" />
		<edge from-layer="3884" from-port="2" to-layer="3886" to-port="0" />
		<edge from-layer="3885" from-port="0" to-layer="3886" to-port="1" />
		<edge from-layer="3886" from-port="2" to-layer="3887" to-port="1" />
		<edge from-layer="3887" from-port="2" to-layer="3894" to-port="0" />
		<edge from-layer="3888" from-port="0" to-layer="3890" to-port="1" />
		<edge from-layer="3889" from-port="0" to-layer="3890" to-port="2" />
		<edge from-layer="3890" from-port="3" to-layer="3891" to-port="1" />
		<edge from-layer="3891" from-port="2" to-layer="3892" to-port="1" />
		<edge from-layer="3892" from-port="2" to-layer="3894" to-port="1" />
		<edge from-layer="3892" from-port="2" to-layer="3901" to-port="0" />
		<edge from-layer="3893" from-port="0" to-layer="3894" to-port="2" />
		<edge from-layer="3894" from-port="3" to-layer="3900" to-port="0" />
		<edge from-layer="3895" from-port="0" to-layer="3899" to-port="0" />
		<edge from-layer="3896" from-port="0" to-layer="3898" to-port="1" />
		<edge from-layer="3897" from-port="0" to-layer="3898" to-port="2" />
		<edge from-layer="3898" from-port="3" to-layer="3902" to-port="1" />
		<edge from-layer="3898" from-port="3" to-layer="3899" to-port="1" />
		<edge from-layer="3899" from-port="2" to-layer="3900" to-port="1" />
		<edge from-layer="3900" from-port="2" to-layer="3903" to-port="0" />
		<edge from-layer="3901" from-port="1" to-layer="3902" to-port="0" />
		<edge from-layer="3902" from-port="2" to-layer="3903" to-port="1" />
		<edge from-layer="3903" from-port="2" to-layer="3904" to-port="4" />
		<edge from-layer="3904" from-port="5" to-layer="4036" to-port="0" />
		<edge from-layer="3905" from-port="1" to-layer="3909" to-port="0" />
		<edge from-layer="3905" from-port="1" to-layer="3925" to-port="0" />
		<edge from-layer="3905" from-port="1" to-layer="3917" to-port="0" />
		<edge from-layer="3906" from-port="0" to-layer="3909" to-port="1" />
		<edge from-layer="3907" from-port="0" to-layer="3909" to-port="2" />
		<edge from-layer="3908" from-port="0" to-layer="3909" to-port="3" />
		<edge from-layer="3909" from-port="4" to-layer="3911" to-port="0" />
		<edge from-layer="3910" from-port="0" to-layer="3911" to-port="1" />
		<edge from-layer="3911" from-port="2" to-layer="3913" to-port="0" />
		<edge from-layer="3912" from-port="0" to-layer="3913" to-port="1" />
		<edge from-layer="3913" from-port="2" to-layer="3914" to-port="1" />
		<edge from-layer="3914" from-port="2" to-layer="3921" to-port="0" />
		<edge from-layer="3915" from-port="0" to-layer="3917" to-port="1" />
		<edge from-layer="3916" from-port="0" to-layer="3917" to-port="2" />
		<edge from-layer="3917" from-port="3" to-layer="3918" to-port="1" />
		<edge from-layer="3918" from-port="2" to-layer="3919" to-port="1" />
		<edge from-layer="3919" from-port="2" to-layer="3928" to-port="0" />
		<edge from-layer="3919" from-port="2" to-layer="3921" to-port="1" />
		<edge from-layer="3920" from-port="0" to-layer="3921" to-port="2" />
		<edge from-layer="3921" from-port="3" to-layer="3927" to-port="0" />
		<edge from-layer="3922" from-port="0" to-layer="3926" to-port="0" />
		<edge from-layer="3923" from-port="0" to-layer="3925" to-port="1" />
		<edge from-layer="3924" from-port="0" to-layer="3925" to-port="2" />
		<edge from-layer="3925" from-port="3" to-layer="3929" to-port="1" />
		<edge from-layer="3925" from-port="3" to-layer="3926" to-port="1" />
		<edge from-layer="3926" from-port="2" to-layer="3927" to-port="1" />
		<edge from-layer="3927" from-port="2" to-layer="3930" to-port="0" />
		<edge from-layer="3928" from-port="1" to-layer="3929" to-port="0" />
		<edge from-layer="3929" from-port="2" to-layer="3930" to-port="1" />
		<edge from-layer="3930" from-port="2" to-layer="4035" to-port="0" />
		<edge from-layer="3931" from-port="1" to-layer="3943" to-port="0" />
		<edge from-layer="3931" from-port="1" to-layer="3951" to-port="0" />
		<edge from-layer="3931" from-port="1" to-layer="3935" to-port="0" />
		<edge from-layer="3932" from-port="0" to-layer="3935" to-port="1" />
		<edge from-layer="3933" from-port="0" to-layer="3935" to-port="2" />
		<edge from-layer="3934" from-port="0" to-layer="3935" to-port="3" />
		<edge from-layer="3935" from-port="4" to-layer="3937" to-port="0" />
		<edge from-layer="3936" from-port="0" to-layer="3937" to-port="1" />
		<edge from-layer="3937" from-port="2" to-layer="3939" to-port="0" />
		<edge from-layer="3938" from-port="0" to-layer="3939" to-port="1" />
		<edge from-layer="3939" from-port="2" to-layer="3940" to-port="1" />
		<edge from-layer="3940" from-port="2" to-layer="3947" to-port="0" />
		<edge from-layer="3941" from-port="0" to-layer="3943" to-port="1" />
		<edge from-layer="3942" from-port="0" to-layer="3943" to-port="2" />
		<edge from-layer="3943" from-port="3" to-layer="3944" to-port="1" />
		<edge from-layer="3944" from-port="2" to-layer="3945" to-port="1" />
		<edge from-layer="3945" from-port="2" to-layer="3947" to-port="1" />
		<edge from-layer="3945" from-port="2" to-layer="3954" to-port="0" />
		<edge from-layer="3946" from-port="0" to-layer="3947" to-port="2" />
		<edge from-layer="3947" from-port="3" to-layer="3953" to-port="0" />
		<edge from-layer="3948" from-port="0" to-layer="3952" to-port="0" />
		<edge from-layer="3949" from-port="0" to-layer="3951" to-port="1" />
		<edge from-layer="3950" from-port="0" to-layer="3951" to-port="2" />
		<edge from-layer="3951" from-port="3" to-layer="3952" to-port="1" />
		<edge from-layer="3951" from-port="3" to-layer="3955" to-port="1" />
		<edge from-layer="3952" from-port="2" to-layer="3953" to-port="1" />
		<edge from-layer="3953" from-port="2" to-layer="3956" to-port="0" />
		<edge from-layer="3954" from-port="1" to-layer="3955" to-port="0" />
		<edge from-layer="3955" from-port="2" to-layer="3956" to-port="1" />
		<edge from-layer="3956" from-port="2" to-layer="4035" to-port="1" />
		<edge from-layer="3957" from-port="1" to-layer="3961" to-port="0" />
		<edge from-layer="3957" from-port="1" to-layer="3977" to-port="0" />
		<edge from-layer="3957" from-port="1" to-layer="3969" to-port="0" />
		<edge from-layer="3958" from-port="0" to-layer="3961" to-port="1" />
		<edge from-layer="3959" from-port="0" to-layer="3961" to-port="2" />
		<edge from-layer="3960" from-port="0" to-layer="3961" to-port="3" />
		<edge from-layer="3961" from-port="4" to-layer="3963" to-port="0" />
		<edge from-layer="3962" from-port="0" to-layer="3963" to-port="1" />
		<edge from-layer="3963" from-port="2" to-layer="3965" to-port="0" />
		<edge from-layer="3964" from-port="0" to-layer="3965" to-port="1" />
		<edge from-layer="3965" from-port="2" to-layer="3966" to-port="1" />
		<edge from-layer="3966" from-port="2" to-layer="3973" to-port="0" />
		<edge from-layer="3967" from-port="0" to-layer="3969" to-port="1" />
		<edge from-layer="3968" from-port="0" to-layer="3969" to-port="2" />
		<edge from-layer="3969" from-port="3" to-layer="3970" to-port="1" />
		<edge from-layer="3970" from-port="2" to-layer="3971" to-port="1" />
		<edge from-layer="3971" from-port="2" to-layer="3980" to-port="0" />
		<edge from-layer="3971" from-port="2" to-layer="3973" to-port="1" />
		<edge from-layer="3972" from-port="0" to-layer="3973" to-port="2" />
		<edge from-layer="3973" from-port="3" to-layer="3979" to-port="0" />
		<edge from-layer="3974" from-port="0" to-layer="3978" to-port="0" />
		<edge from-layer="3975" from-port="0" to-layer="3977" to-port="1" />
		<edge from-layer="3976" from-port="0" to-layer="3977" to-port="2" />
		<edge from-layer="3977" from-port="3" to-layer="3981" to-port="1" />
		<edge from-layer="3977" from-port="3" to-layer="3978" to-port="1" />
		<edge from-layer="3978" from-port="2" to-layer="3979" to-port="1" />
		<edge from-layer="3979" from-port="2" to-layer="3982" to-port="0" />
		<edge from-layer="3980" from-port="1" to-layer="3981" to-port="0" />
		<edge from-layer="3981" from-port="2" to-layer="3982" to-port="1" />
		<edge from-layer="3982" from-port="2" to-layer="4035" to-port="2" />
		<edge from-layer="3983" from-port="1" to-layer="3987" to-port="0" />
		<edge from-layer="3983" from-port="1" to-layer="3995" to-port="0" />
		<edge from-layer="3983" from-port="1" to-layer="4003" to-port="0" />
		<edge from-layer="3984" from-port="0" to-layer="3987" to-port="1" />
		<edge from-layer="3985" from-port="0" to-layer="3987" to-port="2" />
		<edge from-layer="3986" from-port="0" to-layer="3987" to-port="3" />
		<edge from-layer="3987" from-port="4" to-layer="3989" to-port="0" />
		<edge from-layer="3988" from-port="0" to-layer="3989" to-port="1" />
		<edge from-layer="3989" from-port="2" to-layer="3991" to-port="0" />
		<edge from-layer="3990" from-port="0" to-layer="3991" to-port="1" />
		<edge from-layer="3991" from-port="2" to-layer="3992" to-port="1" />
		<edge from-layer="3992" from-port="2" to-layer="3999" to-port="0" />
		<edge from-layer="3993" from-port="0" to-layer="3995" to-port="1" />
		<edge from-layer="3994" from-port="0" to-layer="3995" to-port="2" />
		<edge from-layer="3995" from-port="3" to-layer="3996" to-port="1" />
		<edge from-layer="3996" from-port="2" to-layer="3997" to-port="1" />
		<edge from-layer="3997" from-port="2" to-layer="3999" to-port="1" />
		<edge from-layer="3997" from-port="2" to-layer="4006" to-port="0" />
		<edge from-layer="3998" from-port="0" to-layer="3999" to-port="2" />
		<edge from-layer="3999" from-port="3" to-layer="4005" to-port="0" />
		<edge from-layer="4000" from-port="0" to-layer="4004" to-port="0" />
		<edge from-layer="4001" from-port="0" to-layer="4003" to-port="1" />
		<edge from-layer="4002" from-port="0" to-layer="4003" to-port="2" />
		<edge from-layer="4003" from-port="3" to-layer="4004" to-port="1" />
		<edge from-layer="4003" from-port="3" to-layer="4007" to-port="1" />
		<edge from-layer="4004" from-port="2" to-layer="4005" to-port="1" />
		<edge from-layer="4005" from-port="2" to-layer="4008" to-port="0" />
		<edge from-layer="4006" from-port="1" to-layer="4007" to-port="0" />
		<edge from-layer="4007" from-port="2" to-layer="4008" to-port="1" />
		<edge from-layer="4008" from-port="2" to-layer="4035" to-port="3" />
		<edge from-layer="4009" from-port="1" to-layer="4021" to-port="0" />
		<edge from-layer="4009" from-port="1" to-layer="4013" to-port="0" />
		<edge from-layer="4009" from-port="1" to-layer="4029" to-port="0" />
		<edge from-layer="4010" from-port="0" to-layer="4013" to-port="1" />
		<edge from-layer="4011" from-port="0" to-layer="4013" to-port="2" />
		<edge from-layer="4012" from-port="0" to-layer="4013" to-port="3" />
		<edge from-layer="4013" from-port="4" to-layer="4015" to-port="0" />
		<edge from-layer="4014" from-port="0" to-layer="4015" to-port="1" />
		<edge from-layer="4015" from-port="2" to-layer="4017" to-port="0" />
		<edge from-layer="4016" from-port="0" to-layer="4017" to-port="1" />
		<edge from-layer="4017" from-port="2" to-layer="4018" to-port="1" />
		<edge from-layer="4018" from-port="2" to-layer="4025" to-port="0" />
		<edge from-layer="4019" from-port="0" to-layer="4021" to-port="1" />
		<edge from-layer="4020" from-port="0" to-layer="4021" to-port="2" />
		<edge from-layer="4021" from-port="3" to-layer="4022" to-port="1" />
		<edge from-layer="4022" from-port="2" to-layer="4023" to-port="1" />
		<edge from-layer="4023" from-port="2" to-layer="4025" to-port="1" />
		<edge from-layer="4023" from-port="2" to-layer="4032" to-port="0" />
		<edge from-layer="4024" from-port="0" to-layer="4025" to-port="2" />
		<edge from-layer="4025" from-port="3" to-layer="4031" to-port="0" />
		<edge from-layer="4026" from-port="0" to-layer="4030" to-port="0" />
		<edge from-layer="4027" from-port="0" to-layer="4029" to-port="1" />
		<edge from-layer="4028" from-port="0" to-layer="4029" to-port="2" />
		<edge from-layer="4029" from-port="3" to-layer="4033" to-port="1" />
		<edge from-layer="4029" from-port="3" to-layer="4030" to-port="1" />
		<edge from-layer="4030" from-port="2" to-layer="4031" to-port="1" />
		<edge from-layer="4031" from-port="2" to-layer="4034" to-port="0" />
		<edge from-layer="4032" from-port="1" to-layer="4033" to-port="0" />
		<edge from-layer="4033" from-port="2" to-layer="4034" to-port="1" />
		<edge from-layer="4034" from-port="2" to-layer="4035" to-port="4" />
		<edge from-layer="4035" from-port="5" to-layer="4036" to-port="1" />
		<edge from-layer="4036" from-port="2" to-layer="4085" to-port="0" />
		<edge from-layer="4036" from-port="2" to-layer="4053" to-port="0" />
		<edge from-layer="4036" from-port="2" to-layer="4038" to-port="0" />
		<edge from-layer="4037" from-port="0" to-layer="4038" to-port="1" />
		<edge from-layer="4038" from-port="2" to-layer="4040" to-port="0" />
		<edge from-layer="4038" from-port="2" to-layer="4051" to-port="0" />
		<edge from-layer="4039" from-port="0" to-layer="4044" to-port="0" />
		<edge from-layer="4040" from-port="1" to-layer="4043" to-port="0" />
		<edge from-layer="4041" from-port="0" to-layer="4043" to-port="1" />
		<edge from-layer="4042" from-port="0" to-layer="4043" to-port="2" />
		<edge from-layer="4043" from-port="3" to-layer="4046" to-port="2" />
		<edge from-layer="4043" from-port="3" to-layer="4044" to-port="1" />
		<edge from-layer="4044" from-port="2" to-layer="4046" to-port="0" />
		<edge from-layer="4045" from-port="0" to-layer="4046" to-port="1" />
		<edge from-layer="4046" from-port="3" to-layer="4048" to-port="0" />
		<edge from-layer="4047" from-port="0" to-layer="4048" to-port="1" />
		<edge from-layer="4048" from-port="2" to-layer="4050" to-port="0" />
		<edge from-layer="4049" from-port="0" to-layer="4050" to-port="1" />
		<edge from-layer="4050" from-port="2" to-layer="4051" to-port="1" />
		<edge from-layer="4051" from-port="3" to-layer="4090" to-port="0" />
		<edge from-layer="4051" from-port="3" to-layer="4065" to-port="0" />
		<edge from-layer="4052" from-port="0" to-layer="4058" to-port="0" />
		<edge from-layer="4053" from-port="1" to-layer="4056" to-port="0" />
		<edge from-layer="4053" from-port="1" to-layer="4088" to-port="0" />
		<edge from-layer="4053" from-port="1" to-layer="4080" to-port="0" />
		<edge from-layer="4053" from-port="1" to-layer="4199" to-port="0" />
		<edge from-layer="4053" from-port="1" to-layer="4096" to-port="0" />
		<edge from-layer="4053" from-port="1" to-layer="4123" to-port="0" />
		<edge from-layer="4054" from-port="0" to-layer="4056" to-port="1" />
		<edge from-layer="4055" from-port="0" to-layer="4056" to-port="2" />
		<edge from-layer="4055" from-port="0" to-layer="4123" to-port="2" />
		<edge from-layer="4055" from-port="0" to-layer="4199" to-port="2" />
		<edge from-layer="4056" from-port="3" to-layer="4058" to-port="1" />
		<edge from-layer="4056" from-port="3" to-layer="4112" to-port="1" />
		<edge from-layer="4056" from-port="3" to-layer="4250" to-port="1" />
		<edge from-layer="4057" from-port="0" to-layer="4058" to-port="2" />
		<edge from-layer="4058" from-port="3" to-layer="4060" to-port="0" />
		<edge from-layer="4059" from-port="0" to-layer="4060" to-port="1" />
		<edge from-layer="4060" from-port="2" to-layer="4064" to-port="0" />
		<edge from-layer="4060" from-port="2" to-layer="4089" to-port="0" />
		<edge from-layer="4061" from-port="0" to-layer="4063" to-port="1" />
		<edge from-layer="4062" from-port="0" to-layer="4063" to-port="2" />
		<edge from-layer="4063" from-port="3" to-layer="4064" to-port="1" />
		<edge from-layer="4064" from-port="2" to-layer="4065" to-port="1" />
		<edge from-layer="4065" from-port="2" to-layer="4074" to-port="0" />
		<edge from-layer="4065" from-port="2" to-layer="4067" to-port="1" />
		<edge from-layer="4066" from-port="0" to-layer="4067" to-port="2" />
		<edge from-layer="4067" from-port="3" to-layer="4073" to-port="0" />
		<edge from-layer="4068" from-port="0" to-layer="4072" to-port="0" />
		<edge from-layer="4069" from-port="0" to-layer="4071" to-port="1" />
		<edge from-layer="4070" from-port="0" to-layer="4071" to-port="2" />
		<edge from-layer="4071" from-port="3" to-layer="4072" to-port="1" />
		<edge from-layer="4071" from-port="3" to-layer="4075" to-port="1" />
		<edge from-layer="4072" from-port="2" to-layer="4073" to-port="1" />
		<edge from-layer="4073" from-port="2" to-layer="4076" to-port="0" />
		<edge from-layer="4074" from-port="1" to-layer="4075" to-port="0" />
		<edge from-layer="4075" from-port="2" to-layer="4076" to-port="1" />
		<edge from-layer="4076" from-port="2" to-layer="4107" to-port="0" />
		<edge from-layer="4076" from-port="2" to-layer="4132" to-port="0" />
		<edge from-layer="4076" from-port="2" to-layer="4141" to-port="0" />
		<edge from-layer="4077" from-port="0" to-layer="4080" to-port="1" />
		<edge from-layer="4078" from-port="0" to-layer="4080" to-port="2" />
		<edge from-layer="4079" from-port="0" to-layer="4080" to-port="3" />
		<edge from-layer="4080" from-port="4" to-layer="4082" to-port="0" />
		<edge from-layer="4081" from-port="0" to-layer="4082" to-port="1" />
		<edge from-layer="4082" from-port="2" to-layer="4084" to-port="0" />
		<edge from-layer="4083" from-port="0" to-layer="4084" to-port="1" />
		<edge from-layer="4084" from-port="2" to-layer="4085" to-port="1" />
		<edge from-layer="4085" from-port="2" to-layer="4092" to-port="0" />
		<edge from-layer="4086" from-port="0" to-layer="4088" to-port="1" />
		<edge from-layer="4087" from-port="0" to-layer="4088" to-port="2" />
		<edge from-layer="4088" from-port="3" to-layer="4089" to-port="1" />
		<edge from-layer="4089" from-port="2" to-layer="4090" to-port="1" />
		<edge from-layer="4090" from-port="2" to-layer="4092" to-port="1" />
		<edge from-layer="4090" from-port="2" to-layer="4099" to-port="0" />
		<edge from-layer="4091" from-port="0" to-layer="4092" to-port="2" />
		<edge from-layer="4092" from-port="3" to-layer="4098" to-port="0" />
		<edge from-layer="4093" from-port="0" to-layer="4097" to-port="0" />
		<edge from-layer="4094" from-port="0" to-layer="4096" to-port="1" />
		<edge from-layer="4095" from-port="0" to-layer="4096" to-port="2" />
		<edge from-layer="4096" from-port="3" to-layer="4100" to-port="1" />
		<edge from-layer="4096" from-port="3" to-layer="4097" to-port="1" />
		<edge from-layer="4097" from-port="2" to-layer="4098" to-port="1" />
		<edge from-layer="4098" from-port="2" to-layer="4101" to-port="0" />
		<edge from-layer="4099" from-port="1" to-layer="4100" to-port="0" />
		<edge from-layer="4100" from-port="2" to-layer="4101" to-port="1" />
		<edge from-layer="4101" from-port="2" to-layer="4162" to-port="0" />
		<edge from-layer="4101" from-port="2" to-layer="4103" to-port="0" />
		<edge from-layer="4102" from-port="0" to-layer="4103" to-port="1" />
		<edge from-layer="4103" from-port="2" to-layer="4173" to-port="0" />
		<edge from-layer="4103" from-port="2" to-layer="4107" to-port="1" />
		<edge from-layer="4104" from-port="0" to-layer="4107" to-port="2" />
		<edge from-layer="4105" from-port="0" to-layer="4107" to-port="3" />
		<edge from-layer="4106" from-port="0" to-layer="4107" to-port="4" />
		<edge from-layer="4107" from-port="5" to-layer="4117" to-port="0" />
		<edge from-layer="4107" from-port="5" to-layer="4109" to-port="0" />
		<edge from-layer="4107" from-port="5" to-layer="4144" to-port="0" />
		<edge from-layer="4108" from-port="0" to-layer="4109" to-port="2" />
		<edge from-layer="4109" from-port="3" to-layer="4148" to-port="0" />
		<edge from-layer="4109" from-port="3" to-layer="4115" to-port="0" />
		<edge from-layer="4109" from-port="3" to-layer="4183" to-port="0" />
		<edge from-layer="4110" from-port="0" to-layer="4112" to-port="0" />
		<edge from-layer="4111" from-port="0" to-layer="4112" to-port="2" />
		<edge from-layer="4112" from-port="3" to-layer="4114" to-port="0" />
		<edge from-layer="4113" from-port="0" to-layer="4114" to-port="1" />
		<edge from-layer="4114" from-port="2" to-layer="4115" to-port="1" />
		<edge from-layer="4115" from-port="2" to-layer="4128" to-port="0" />
		<edge from-layer="4115" from-port="2" to-layer="4131" to-port="0" />
		<edge from-layer="4116" from-port="0" to-layer="4117" to-port="2" />
		<edge from-layer="4117" from-port="3" to-layer="4177" to-port="0" />
		<edge from-layer="4117" from-port="3" to-layer="4119" to-port="0" />
		<edge from-layer="4118" from-port="0" to-layer="4119" to-port="1" />
		<edge from-layer="4119" from-port="2" to-layer="4121" to-port="0" />
		<edge from-layer="4120" from-port="0" to-layer="4121" to-port="1" />
		<edge from-layer="4121" from-port="2" to-layer="4126" to-port="0" />
		<edge from-layer="4122" from-port="0" to-layer="4123" to-port="1" />
		<edge from-layer="4123" from-port="3" to-layer="4125" to-port="0" />
		<edge from-layer="4124" from-port="0" to-layer="4125" to-port="1" />
		<edge from-layer="4125" from-port="2" to-layer="4126" to-port="1" />
		<edge from-layer="4126" from-port="2" to-layer="4128" to-port="1" />
		<edge from-layer="4127" from-port="0" to-layer="4128" to-port="2" />
		<edge from-layer="4128" from-port="3" to-layer="4213" to-port="0" />
		<edge from-layer="4129" from-port="0" to-layer="4212" to-port="0" />
		<edge from-layer="4130" from-port="0" to-layer="4131" to-port="1" />
		<edge from-layer="4131" from-port="2" to-layer="4205" to-port="0" />
		<edge from-layer="4132" from-port="1" to-layer="4147" to-port="0" />
		<edge from-layer="4132" from-port="1" to-layer="4155" to-port="0" />
		<edge from-layer="4132" from-port="1" to-layer="4136" to-port="0" />
		<edge from-layer="4133" from-port="0" to-layer="4136" to-port="1" />
		<edge from-layer="4134" from-port="0" to-layer="4136" to-port="2" />
		<edge from-layer="4135" from-port="0" to-layer="4136" to-port="3" />
		<edge from-layer="4136" from-port="4" to-layer="4138" to-port="0" />
		<edge from-layer="4137" from-port="0" to-layer="4138" to-port="1" />
		<edge from-layer="4138" from-port="2" to-layer="4140" to-port="0" />
		<edge from-layer="4139" from-port="0" to-layer="4140" to-port="1" />
		<edge from-layer="4140" from-port="2" to-layer="4141" to-port="1" />
		<edge from-layer="4141" from-port="2" to-layer="4151" to-port="0" />
		<edge from-layer="4142" from-port="0" to-layer="4144" to-port="1" />
		<edge from-layer="4143" from-port="0" to-layer="4144" to-port="2" />
		<edge from-layer="4144" from-port="3" to-layer="4149" to-port="0" />
		<edge from-layer="4144" from-port="3" to-layer="4178" to-port="0" />
		<edge from-layer="4145" from-port="0" to-layer="4147" to-port="1" />
		<edge from-layer="4146" from-port="0" to-layer="4147" to-port="2" />
		<edge from-layer="4147" from-port="3" to-layer="4148" to-port="1" />
		<edge from-layer="4148" from-port="2" to-layer="4149" to-port="1" />
		<edge from-layer="4149" from-port="2" to-layer="4158" to-port="0" />
		<edge from-layer="4149" from-port="2" to-layer="4151" to-port="1" />
		<edge from-layer="4150" from-port="0" to-layer="4151" to-port="2" />
		<edge from-layer="4151" from-port="3" to-layer="4157" to-port="0" />
		<edge from-layer="4152" from-port="0" to-layer="4156" to-port="0" />
		<edge from-layer="4153" from-port="0" to-layer="4155" to-port="1" />
		<edge from-layer="4154" from-port="0" to-layer="4155" to-port="2" />
		<edge from-layer="4155" from-port="3" to-layer="4156" to-port="1" />
		<edge from-layer="4155" from-port="3" to-layer="4159" to-port="1" />
		<edge from-layer="4156" from-port="2" to-layer="4157" to-port="1" />
		<edge from-layer="4157" from-port="2" to-layer="4160" to-port="0" />
		<edge from-layer="4158" from-port="1" to-layer="4159" to-port="0" />
		<edge from-layer="4159" from-port="2" to-layer="4160" to-port="1" />
		<edge from-layer="4160" from-port="2" to-layer="4193" to-port="0" />
		<edge from-layer="4161" from-port="0" to-layer="4162" to-port="1" />
		<edge from-layer="4162" from-port="2" to-layer="4172" to-port="0" />
		<edge from-layer="4162" from-port="2" to-layer="4163" to-port="0" />
		<edge from-layer="4163" from-port="1" to-layer="4167" to-port="0" />
		<edge from-layer="4164" from-port="0" to-layer="4167" to-port="1" />
		<edge from-layer="4165" from-port="0" to-layer="4167" to-port="2" />
		<edge from-layer="4166" from-port="0" to-layer="4167" to-port="3" />
		<edge from-layer="4167" from-port="4" to-layer="4169" to-port="0" />
		<edge from-layer="4168" from-port="0" to-layer="4169" to-port="1" />
		<edge from-layer="4169" from-port="2" to-layer="4171" to-port="0" />
		<edge from-layer="4170" from-port="0" to-layer="4171" to-port="1" />
		<edge from-layer="4171" from-port="2" to-layer="4172" to-port="1" />
		<edge from-layer="4172" from-port="2" to-layer="4186" to-port="0" />
		<edge from-layer="4173" from-port="1" to-layer="4181" to-port="0" />
		<edge from-layer="4173" from-port="1" to-layer="4176" to-port="0" />
		<edge from-layer="4174" from-port="0" to-layer="4176" to-port="1" />
		<edge from-layer="4175" from-port="0" to-layer="4176" to-port="2" />
		<edge from-layer="4176" from-port="3" to-layer="4182" to-port="0" />
		<edge from-layer="4176" from-port="3" to-layer="4177" to-port="1" />
		<edge from-layer="4177" from-port="2" to-layer="4178" to-port="1" />
		<edge from-layer="4178" from-port="2" to-layer="4184" to-port="0" />
		<edge from-layer="4179" from-port="0" to-layer="4181" to-port="1" />
		<edge from-layer="4180" from-port="0" to-layer="4181" to-port="2" />
		<edge from-layer="4181" from-port="3" to-layer="4182" to-port="1" />
		<edge from-layer="4182" from-port="2" to-layer="4183" to-port="1" />
		<edge from-layer="4183" from-port="2" to-layer="4184" to-port="1" />
		<edge from-layer="4184" from-port="2" to-layer="4189" to-port="0" />
		<edge from-layer="4184" from-port="2" to-layer="4186" to-port="1" />
		<edge from-layer="4185" from-port="0" to-layer="4186" to-port="2" />
		<edge from-layer="4186" from-port="3" to-layer="4188" to-port="0" />
		<edge from-layer="4187" from-port="0" to-layer="4188" to-port="1" />
		<edge from-layer="4188" from-port="2" to-layer="4190" to-port="0" />
		<edge from-layer="4189" from-port="1" to-layer="4190" to-port="1" />
		<edge from-layer="4190" from-port="2" to-layer="4192" to-port="0" />
		<edge from-layer="4191" from-port="0" to-layer="4192" to-port="1" />
		<edge from-layer="4192" from-port="2" to-layer="4193" to-port="1" />
		<edge from-layer="4193" from-port="2" to-layer="4195" to-port="0" />
		<edge from-layer="4194" from-port="0" to-layer="4195" to-port="1" />
		<edge from-layer="4195" from-port="2" to-layer="4197" to-port="0" />
		<edge from-layer="4196" from-port="0" to-layer="4197" to-port="1" />
		<edge from-layer="4197" from-port="2" to-layer="4203" to-port="0" />
		<edge from-layer="4198" from-port="0" to-layer="4199" to-port="1" />
		<edge from-layer="4199" from-port="3" to-layer="4202" to-port="0" />
		<edge from-layer="4200" from-port="0" to-layer="4202" to-port="1" />
		<edge from-layer="4201" from-port="0" to-layer="4202" to-port="2" />
		<edge from-layer="4202" from-port="3" to-layer="4203" to-port="1" />
		<edge from-layer="4203" from-port="2" to-layer="4205" to-port="1" />
		<edge from-layer="4204" from-port="0" to-layer="4205" to-port="2" />
		<edge from-layer="4205" from-port="3" to-layer="4206" to-port="0" />
		<edge from-layer="4205" from-port="3" to-layer="4231" to-port="0" />
		<edge from-layer="4206" from-port="1" to-layer="4209" to-port="0" />
		<edge from-layer="4206" from-port="1" to-layer="4226" to-port="0" />
		<edge from-layer="4207" from-port="0" to-layer="4209" to-port="1" />
		<edge from-layer="4208" from-port="0" to-layer="4226" to-port="2" />
		<edge from-layer="4208" from-port="0" to-layer="4209" to-port="2" />
		<edge from-layer="4209" from-port="3" to-layer="4211" to-port="0" />
		<edge from-layer="4210" from-port="0" to-layer="4211" to-port="1" />
		<edge from-layer="4211" from-port="2" to-layer="4212" to-port="1" />
		<edge from-layer="4212" from-port="2" to-layer="4213" to-port="1" />
		<edge from-layer="4213" from-port="2" to-layer="4214" to-port="0" />
		<edge from-layer="4213" from-port="2" to-layer="4223" to-port="0" />
		<edge from-layer="4214" from-port="1" to-layer="4255" to-port="0" />
		<edge from-layer="4214" from-port="1" to-layer="4218" to-port="0" />
		<edge from-layer="4215" from-port="0" to-layer="4218" to-port="1" />
		<edge from-layer="4216" from-port="0" to-layer="4218" to-port="2" />
		<edge from-layer="4217" from-port="0" to-layer="4218" to-port="3" />
		<edge from-layer="4218" from-port="4" to-layer="4220" to-port="0" />
		<edge from-layer="4219" from-port="0" to-layer="4220" to-port="1" />
		<edge from-layer="4220" from-port="2" to-layer="4222" to-port="0" />
		<edge from-layer="4221" from-port="0" to-layer="4222" to-port="1" />
		<edge from-layer="4222" from-port="2" to-layer="4223" to-port="1" />
		<edge from-layer="4223" from-port="2" to-layer="4259" to-port="0" />
		<edge from-layer="4224" from-port="0" to-layer="4230" to-port="0" />
		<edge from-layer="4225" from-port="0" to-layer="4226" to-port="1" />
		<edge from-layer="4226" from-port="3" to-layer="4229" to-port="0" />
		<edge from-layer="4227" from-port="0" to-layer="4229" to-port="1" />
		<edge from-layer="4228" from-port="0" to-layer="4229" to-port="2" />
		<edge from-layer="4229" from-port="3" to-layer="4230" to-port="1" />
		<edge from-layer="4230" from-port="2" to-layer="4231" to-port="1" />
		<edge from-layer="4231" from-port="2" to-layer="4265" to-port="0" />
		<edge from-layer="4231" from-port="2" to-layer="4234" to-port="0" />
		<edge from-layer="4231" from-port="2" to-layer="4274" to-port="0" />
		<edge from-layer="4232" from-port="0" to-layer="4234" to-port="1" />
		<edge from-layer="4233" from-port="0" to-layer="4234" to-port="2" />
		<edge from-layer="4234" from-port="3" to-layer="4247" to-port="0" />
		<edge from-layer="4234" from-port="3" to-layer="4236" to-port="0" />
		<edge from-layer="4235" from-port="0" to-layer="4240" to-port="0" />
		<edge from-layer="4236" from-port="1" to-layer="4239" to-port="0" />
		<edge from-layer="4237" from-port="0" to-layer="4239" to-port="1" />
		<edge from-layer="4238" from-port="0" to-layer="4239" to-port="2" />
		<edge from-layer="4239" from-port="3" to-layer="4240" to-port="1" />
		<edge from-layer="4239" from-port="3" to-layer="4242" to-port="2" />
		<edge from-layer="4240" from-port="2" to-layer="4242" to-port="0" />
		<edge from-layer="4241" from-port="0" to-layer="4242" to-port="1" />
		<edge from-layer="4242" from-port="3" to-layer="4244" to-port="0" />
		<edge from-layer="4243" from-port="0" to-layer="4244" to-port="1" />
		<edge from-layer="4244" from-port="2" to-layer="4246" to-port="0" />
		<edge from-layer="4245" from-port="0" to-layer="4246" to-port="1" />
		<edge from-layer="4246" from-port="2" to-layer="4247" to-port="1" />
		<edge from-layer="4247" from-port="3" to-layer="4279" to-port="0" />
		<edge from-layer="4247" from-port="3" to-layer="4257" to-port="0" />
		<edge from-layer="4248" from-port="0" to-layer="4250" to-port="0" />
		<edge from-layer="4249" from-port="0" to-layer="4250" to-port="2" />
		<edge from-layer="4250" from-port="3" to-layer="4252" to-port="0" />
		<edge from-layer="4251" from-port="0" to-layer="4252" to-port="1" />
		<edge from-layer="4252" from-port="2" to-layer="4256" to-port="0" />
		<edge from-layer="4252" from-port="2" to-layer="4278" to-port="0" />
		<edge from-layer="4253" from-port="0" to-layer="4255" to-port="1" />
		<edge from-layer="4254" from-port="0" to-layer="4255" to-port="2" />
		<edge from-layer="4255" from-port="3" to-layer="4256" to-port="1" />
		<edge from-layer="4256" from-port="2" to-layer="4257" to-port="1" />
		<edge from-layer="4257" from-port="2" to-layer="4262" to-port="0" />
		<edge from-layer="4257" from-port="2" to-layer="4259" to-port="1" />
		<edge from-layer="4258" from-port="0" to-layer="4259" to-port="2" />
		<edge from-layer="4259" from-port="3" to-layer="4261" to-port="0" />
		<edge from-layer="4260" from-port="0" to-layer="4261" to-port="1" />
		<edge from-layer="4261" from-port="2" to-layer="4263" to-port="0" />
		<edge from-layer="4262" from-port="1" to-layer="4263" to-port="1" />
		<edge from-layer="4263" from-port="2" to-layer="4264" to-port="0" />
		<edge from-layer="4265" from-port="1" to-layer="4277" to-port="0" />
		<edge from-layer="4265" from-port="1" to-layer="4285" to-port="0" />
		<edge from-layer="4265" from-port="1" to-layer="4269" to-port="0" />
		<edge from-layer="4266" from-port="0" to-layer="4269" to-port="1" />
		<edge from-layer="4267" from-port="0" to-layer="4269" to-port="2" />
		<edge from-layer="4268" from-port="0" to-layer="4269" to-port="3" />
		<edge from-layer="4269" from-port="4" to-layer="4271" to-port="0" />
		<edge from-layer="4270" from-port="0" to-layer="4271" to-port="1" />
		<edge from-layer="4271" from-port="2" to-layer="4273" to-port="0" />
		<edge from-layer="4272" from-port="0" to-layer="4273" to-port="1" />
		<edge from-layer="4273" from-port="2" to-layer="4274" to-port="1" />
		<edge from-layer="4274" from-port="2" to-layer="4281" to-port="0" />
		<edge from-layer="4275" from-port="0" to-layer="4277" to-port="1" />
		<edge from-layer="4276" from-port="0" to-layer="4277" to-port="2" />
		<edge from-layer="4277" from-port="3" to-layer="4278" to-port="1" />
		<edge from-layer="4278" from-port="2" to-layer="4279" to-port="1" />
		<edge from-layer="4279" from-port="2" to-layer="4281" to-port="1" />
		<edge from-layer="4279" from-port="2" to-layer="4288" to-port="0" />
		<edge from-layer="4280" from-port="0" to-layer="4281" to-port="2" />
		<edge from-layer="4281" from-port="3" to-layer="4287" to-port="0" />
		<edge from-layer="4282" from-port="0" to-layer="4286" to-port="0" />
		<edge from-layer="4283" from-port="0" to-layer="4285" to-port="1" />
		<edge from-layer="4284" from-port="0" to-layer="4285" to-port="2" />
		<edge from-layer="4285" from-port="3" to-layer="4286" to-port="1" />
		<edge from-layer="4285" from-port="3" to-layer="4289" to-port="1" />
		<edge from-layer="4286" from-port="2" to-layer="4287" to-port="1" />
		<edge from-layer="4287" from-port="2" to-layer="4290" to-port="0" />
		<edge from-layer="4288" from-port="1" to-layer="4289" to-port="0" />
		<edge from-layer="4289" from-port="2" to-layer="4290" to-port="1" />
		<edge from-layer="4290" from-port="2" to-layer="4291" to-port="0" />
	</edges>
	<rt_info>
		<MO_version value="2023.0.0-10926-b4452d56304-releases/2023/0" />
		<Runtime_version value="2023.0.0-10926-b4452d56304-releases/2023/0" />
		<conversion_parameters>
			<input value="image" />
			<input_model value="DIR/model_ready.onnx" />
			<input_shape value="[-1, 3, 736, 992]" />
			<is_python_api_used value="False" />
			<mean_values value="[0, 0, 0]" />
			<model_name value="model" />
			<output value="boxes,labels" />
			<output_dir value="DIR" />
			<scale_values value="[255, 255, 255]" />
		</conversion_parameters>
		<legacy_frontend value="False" />
		<model_info>
			<confidence_threshold value="0.30000000000000004" />
			<iou_threshold value="0.5" />
			<labels value="drone" />
			<model_type value="ssd" />
		</model_info>
		<nncf>
			<quantization>
				<advanced_parameters value="{}" />
				<fast_bias_correction value="True" />
				<ignored_scope value="None" />
				<model_type value="None" />
				<preset value="performance" />
				<subset_size value="300" />
				<target_device value="ANY" />
			</quantization>
		</nncf>
	</rt_info>
</net>
