<?xml version="1.0"?>
<net name="torch_jit" version="11">
	<layers>
		<layer id="0" name="image" type="Parameter" version="opset1">
			<data shape="?,3,640,640" element_type="f32" />
			<output>
				<port id="0" precision="FP32" names="image">
					<dim>-1</dim>
					<dim>3</dim>
					<dim>640</dim>
					<dim>640</dim>
				</port>
			</output>
		</layer>
		<layer id="1" name="Constant_75217" type="Const" version="opset1">
			<data element_type="f32" shape="" offset="0" size="4" />
			<output>
				<port id="0" precision="FP32" />
			</output>
		</layer>
		<layer id="2" name="Constant_75218" type="Const" version="opset1">
			<data element_type="f32" shape="" offset="4" size="4" />
			<output>
				<port id="0" precision="FP32" />
			</output>
		</layer>
		<layer id="3" name="Constant_75219" type="Const" version="opset1">
			<data element_type="f32" shape="" offset="0" size="4" />
			<output>
				<port id="0" precision="FP32" />
			</output>
		</layer>
		<layer id="4" name="Constant_75220" type="Const" version="opset1">
			<data element_type="f32" shape="" offset="4" size="4" />
			<output>
				<port id="0" precision="FP32" />
			</output>
		</layer>
		<layer id="5" name="image/fq_output_0" type="FakeQuantize" version="opset1">
			<data levels="256" auto_broadcast="numpy" />
			<input>
				<port id="0" precision="FP32">
					<dim>-1</dim>
					<dim>3</dim>
					<dim>640</dim>
					<dim>640</dim>
				</port>
				<port id="1" precision="FP32" />
				<port id="2" precision="FP32" />
				<port id="3" precision="FP32" />
				<port id="4" precision="FP32" />
			</input>
			<output>
				<port id="5" precision="FP32">
					<dim>-1</dim>
					<dim>3</dim>
					<dim>640</dim>
					<dim>640</dim>
				</port>
			</output>
		</layer>
		<layer id="6" name="Range_10359" type="Const" version="opset1">
			<data element_type="i32" shape="3" offset="8" size="12" />
			<output>
				<port id="0" precision="I32">
					<dim>3</dim>
				</port>
			</output>
		</layer>
		<layer id="7" name="Constant_10360" type="Const" version="opset1">
			<data element_type="i32" shape="1" offset="20" size="4" />
			<output>
				<port id="0" precision="I32">
					<dim>1</dim>
				</port>
			</output>
		</layer>
		<layer id="8" name="Gather_10361" type="Gather" version="opset8">
			<data batch_dims="0" />
			<rt_info>
				<attribute name="preprocessing" version="0" />
			</rt_info>
			<input>
				<port id="0" precision="FP32">
					<dim>-1</dim>
					<dim>3</dim>
					<dim>640</dim>
					<dim>640</dim>
				</port>
				<port id="1" precision="I32">
					<dim>3</dim>
				</port>
				<port id="2" precision="I32">
					<dim>1</dim>
				</port>
			</input>
			<output>
				<port id="3" precision="FP32">
					<dim>-1</dim>
					<dim>3</dim>
					<dim>640</dim>
					<dim>640</dim>
				</port>
			</output>
		</layer>
		<layer id="9" name="Constant_20010" type="Const" version="opset1">
			<data element_type="i64" shape="2" offset="24" size="16" />
			<output>
				<port id="0" precision="I64">
					<dim>2</dim>
				</port>
			</output>
		</layer>
		<layer id="10" name="/backbone/stem/Constant_7" type="Const" version="opset1">
			<data element_type="i64" shape="1" offset="40" size="8" />
			<output>
				<port id="0" precision="I64" names="/backbone/stem/Constant_7_output_0">
					<dim>1</dim>
				</port>
			</output>
		</layer>
		<layer id="11" name="/backbone/stem/Constant_8" type="Const" version="opset1">
			<data element_type="i64" shape="1" offset="48" size="8" />
			<output>
				<port id="0" precision="I64" names="/backbone/stem/Constant_8_output_0">
					<dim>1</dim>
				</port>
			</output>
		</layer>
		<layer id="12" name="/backbone/stem/Shape" type="ShapeOf" version="opset3">
			<data output_type="i64" />
			<input>
				<port id="0" precision="FP32">
					<dim>-1</dim>
					<dim>3</dim>
					<dim>640</dim>
					<dim>640</dim>
				</port>
			</input>
			<output>
				<port id="1" precision="I64" names="/backbone/stem/Shape_1_output_0,/backbone/stem/Shape_2_output_0,/backbone/stem/Shape_output_0">
					<dim>4</dim>
				</port>
			</output>
		</layer>
		<layer id="13" name="Constant_19085" type="Const" version="opset1">
			<data element_type="i64" shape="1" offset="56" size="8" />
			<output>
				<port id="0" precision="I64">
					<dim>1</dim>
				</port>
			</output>
		</layer>
		<layer id="14" name="Constant_324" type="Const" version="opset1">
			<data element_type="i64" shape="" offset="64" size="8" />
			<output>
				<port id="0" precision="I64" />
			</output>
		</layer>
		<layer id="15" name="/backbone/stem/Gather_2" type="Gather" version="opset8">
			<data batch_dims="0" />
			<input>
				<port id="0" precision="I64">
					<dim>4</dim>
				</port>
				<port id="1" precision="I64">
					<dim>1</dim>
				</port>
				<port id="2" precision="I64" />
			</input>
			<output>
				<port id="3" precision="I64" names="/backbone/stem/Unsqueeze_2_output_0">
					<dim>1</dim>
				</port>
			</output>
		</layer>
		<layer id="16" name="/backbone/stem/Concat" type="Concat" version="opset1">
			<data axis="0" />
			<input>
				<port id="0" precision="I64">
					<dim>2</dim>
				</port>
				<port id="1" precision="I64">
					<dim>1</dim>
				</port>
				<port id="2" precision="I64">
					<dim>1</dim>
				</port>
				<port id="3" precision="I64">
					<dim>1</dim>
				</port>
			</input>
			<output>
				<port id="4" precision="I64">
					<dim>5</dim>
				</port>
			</output>
		</layer>
		<layer id="17" name="/backbone/stem/Reshape" type="Reshape" version="opset1">
			<data special_zero="true" />
			<input>
				<port id="0" precision="FP32">
					<dim>-1</dim>
					<dim>3</dim>
					<dim>640</dim>
					<dim>640</dim>
				</port>
				<port id="1" precision="I64">
					<dim>5</dim>
				</port>
			</input>
			<output>
				<port id="2" precision="FP32" names="/backbone/stem/Reshape_output_0">
					<dim>-1</dim>
					<dim>3</dim>
					<dim>320</dim>
					<dim>2</dim>
					<dim>640</dim>
				</port>
			</output>
		</layer>
		<layer id="18" name="Constant_19243" type="Const" version="opset1">
			<data element_type="i64" shape="2" offset="72" size="16" />
			<output>
				<port id="0" precision="I64">
					<dim>2</dim>
				</port>
			</output>
		</layer>
		<layer id="19" name="Constant_19244" type="Const" version="opset1">
			<data element_type="i64" shape="" offset="64" size="8" />
			<output>
				<port id="0" precision="I64" />
			</output>
		</layer>
		<layer id="20" name="Gather_19245" type="Gather" version="opset8">
			<data batch_dims="0" />
			<input>
				<port id="0" precision="I64">
					<dim>4</dim>
				</port>
				<port id="1" precision="I64">
					<dim>2</dim>
				</port>
				<port id="2" precision="I64" />
			</input>
			<output>
				<port id="3" precision="I64">
					<dim>2</dim>
				</port>
			</output>
		</layer>
		<layer id="21" name="Constant_20019" type="Const" version="opset1">
			<data element_type="i64" shape="1" offset="64" size="8" />
			<output>
				<port id="0" precision="I64">
					<dim>1</dim>
				</port>
			</output>
		</layer>
		<layer id="22" name="/backbone/stem/Constant_10" type="Const" version="opset1">
			<data element_type="i64" shape="1" offset="48" size="8" />
			<output>
				<port id="0" precision="I64" names="/backbone/stem/Constant_10_output_0">
					<dim>1</dim>
				</port>
			</output>
		</layer>
		<layer id="23" name="/backbone/stem/Constant_11" type="Const" version="opset1">
			<data element_type="i64" shape="1" offset="40" size="8" />
			<output>
				<port id="0" precision="I64" names="/backbone/stem/Constant_11_output_0">
					<dim>1</dim>
				</port>
			</output>
		</layer>
		<layer id="24" name="/backbone/stem/Constant_12" type="Const" version="opset1">
			<data element_type="i64" shape="1" offset="48" size="8" />
			<output>
				<port id="0" precision="I64" names="/backbone/stem/Constant_12_output_0">
					<dim>1</dim>
				</port>
			</output>
		</layer>
		<layer id="25" name="/backbone/stem/Concat_1" type="Concat" version="opset1">
			<data axis="0" />
			<input>
				<port id="0" precision="I64">
					<dim>2</dim>
				</port>
				<port id="1" precision="I64">
					<dim>1</dim>
				</port>
				<port id="2" precision="I64">
					<dim>1</dim>
				</port>
				<port id="3" precision="I64">
					<dim>1</dim>
				</port>
				<port id="4" precision="I64">
					<dim>1</dim>
				</port>
			</input>
			<output>
				<port id="5" precision="I64">
					<dim>6</dim>
				</port>
			</output>
		</layer>
		<layer id="26" name="/backbone/stem/Reshape_1" type="Reshape" version="opset1">
			<data special_zero="true" />
			<input>
				<port id="0" precision="FP32">
					<dim>-1</dim>
					<dim>3</dim>
					<dim>320</dim>
					<dim>2</dim>
					<dim>640</dim>
				</port>
				<port id="1" precision="I64">
					<dim>6</dim>
				</port>
			</input>
			<output>
				<port id="2" precision="FP32" names="/backbone/stem/Reshape_1_output_0">
					<dim>-1</dim>
					<dim>3</dim>
					<dim>320</dim>
					<dim>2</dim>
					<dim>-1</dim>
					<dim>2</dim>
				</port>
			</output>
		</layer>
		<layer id="27" name="Constant_389" type="Const" version="opset1">
			<data element_type="i64" shape="6" offset="88" size="48" />
			<output>
				<port id="0" precision="I64">
					<dim>6</dim>
				</port>
			</output>
		</layer>
		<layer id="28" name="/backbone/stem/Transpose" type="Transpose" version="opset1">
			<input>
				<port id="0" precision="FP32">
					<dim>-1</dim>
					<dim>3</dim>
					<dim>320</dim>
					<dim>2</dim>
					<dim>-1</dim>
					<dim>2</dim>
				</port>
				<port id="1" precision="I64">
					<dim>6</dim>
				</port>
			</input>
			<output>
				<port id="2" precision="FP32" names="/backbone/stem/Transpose_output_0">
					<dim>-1</dim>
					<dim>2</dim>
					<dim>2</dim>
					<dim>3</dim>
					<dim>320</dim>
					<dim>-1</dim>
				</port>
			</output>
		</layer>
		<layer id="29" name="Constant_19109" type="Const" version="opset1">
			<data element_type="i64" shape="1" offset="64" size="8" />
			<output>
				<port id="0" precision="I64">
					<dim>1</dim>
				</port>
			</output>
		</layer>
		<layer id="30" name="Constant_315" type="Const" version="opset1">
			<data element_type="i64" shape="" offset="64" size="8" />
			<output>
				<port id="0" precision="I64" />
			</output>
		</layer>
		<layer id="31" name="/backbone/stem/Gather" type="Gather" version="opset8">
			<data batch_dims="0" />
			<input>
				<port id="0" precision="I64">
					<dim>4</dim>
				</port>
				<port id="1" precision="I64">
					<dim>1</dim>
				</port>
				<port id="2" precision="I64" />
			</input>
			<output>
				<port id="3" precision="I64" names="/backbone/stem/Unsqueeze_6_output_0">
					<dim>1</dim>
				</port>
			</output>
		</layer>
		<layer id="32" name="/backbone/stem/Constant_3" type="Const" version="opset1">
			<data element_type="i64" shape="" offset="136" size="8" />
			<output>
				<port id="0" precision="I64" names="/backbone/stem/Constant_3_output_0" />
			</output>
		</layer>
		<layer id="33" name="Constant_320" type="Const" version="opset1">
			<data element_type="i64" shape="" offset="64" size="8" />
			<output>
				<port id="0" precision="I64" />
			</output>
		</layer>
		<layer id="34" name="/backbone/stem/Gather_1" type="Gather" version="opset8">
			<data batch_dims="0" />
			<input>
				<port id="0" precision="I64">
					<dim>4</dim>
				</port>
				<port id="1" precision="I64" />
				<port id="2" precision="I64" />
			</input>
			<output>
				<port id="3" precision="I64" names="/backbone/stem/Gather_1_output_0" />
			</output>
		</layer>
		<layer id="35" name="/backbone/stem/Constant_15" type="Const" version="opset1">
			<data element_type="i64" shape="" offset="144" size="8" />
			<output>
				<port id="0" precision="I64" names="/backbone/stem/Constant_15_output_0" />
			</output>
		</layer>
		<layer id="36" name="/backbone/stem/Mul" type="Multiply" version="opset1">
			<data auto_broadcast="numpy" />
			<input>
				<port id="0" precision="I64" />
				<port id="1" precision="I64" />
			</input>
			<output>
				<port id="2" precision="I64" names="/backbone/stem/Mul_output_0" />
			</output>
		</layer>
		<layer id="37" name="Constant_395" type="Const" version="opset1">
			<data element_type="i64" shape="1" offset="64" size="8" />
			<output>
				<port id="0" precision="I64">
					<dim>1</dim>
				</port>
			</output>
		</layer>
		<layer id="38" name="/backbone/stem/Unsqueeze_7" type="Unsqueeze" version="opset1">
			<input>
				<port id="0" precision="I64" />
				<port id="1" precision="I64">
					<dim>1</dim>
				</port>
			</input>
			<output>
				<port id="2" precision="I64" names="/backbone/stem/Unsqueeze_7_output_0">
					<dim>1</dim>
				</port>
			</output>
		</layer>
		<layer id="39" name="/backbone/stem/Shape_4" type="ShapeOf" version="opset3">
			<data output_type="i64" />
			<input>
				<port id="0" precision="FP32">
					<dim>-1</dim>
					<dim>3</dim>
					<dim>320</dim>
					<dim>2</dim>
					<dim>-1</dim>
					<dim>2</dim>
				</port>
			</input>
			<output>
				<port id="1" precision="I64" names="/backbone/stem/Shape_4_output_0,/backbone/stem/Shape_5_output_0">
					<dim>6</dim>
				</port>
			</output>
		</layer>
		<layer id="40" name="Constant_19248" type="Const" version="opset1">
			<data element_type="i64" shape="2" offset="152" size="16" />
			<output>
				<port id="0" precision="I64">
					<dim>2</dim>
				</port>
			</output>
		</layer>
		<layer id="41" name="Constant_19249" type="Const" version="opset1">
			<data element_type="i64" shape="" offset="64" size="8" />
			<output>
				<port id="0" precision="I64" />
			</output>
		</layer>
		<layer id="42" name="Gather_19250" type="Gather" version="opset8">
			<data batch_dims="0" />
			<input>
				<port id="0" precision="I64">
					<dim>6</dim>
				</port>
				<port id="1" precision="I64">
					<dim>2</dim>
				</port>
				<port id="2" precision="I64" />
			</input>
			<output>
				<port id="3" precision="I64">
					<dim>2</dim>
				</port>
			</output>
		</layer>
		<layer id="43" name="/backbone/stem/Concat_2" type="Concat" version="opset1">
			<data axis="0" />
			<input>
				<port id="0" precision="I64">
					<dim>1</dim>
				</port>
				<port id="1" precision="I64">
					<dim>1</dim>
				</port>
				<port id="2" precision="I64">
					<dim>2</dim>
				</port>
			</input>
			<output>
				<port id="3" precision="I64" names="/backbone/stem/Concat_2_output_0">
					<dim>4</dim>
				</port>
			</output>
		</layer>
		<layer id="44" name="/backbone/stem/Reshape_2" type="Reshape" version="opset1">
			<data special_zero="true" />
			<input>
				<port id="0" precision="FP32">
					<dim>-1</dim>
					<dim>2</dim>
					<dim>2</dim>
					<dim>3</dim>
					<dim>320</dim>
					<dim>-1</dim>
				</port>
				<port id="1" precision="I64">
					<dim>4</dim>
				</port>
			</input>
			<output>
				<port id="2" precision="FP32" names="/backbone/stem/Reshape_2_output_0">
					<dim>-1</dim>
					<dim>12</dim>
					<dim>320</dim>
					<dim>-1</dim>
				</port>
			</output>
		</layer>
		<layer id="45" name="onnx::Conv_2066" type="Const" version="opset1">
			<data element_type="i8" shape="80, 12, 3, 3" offset="168" size="8640" />
			<output>
				<port id="0" precision="I8">
					<dim>80</dim>
					<dim>12</dim>
					<dim>3</dim>
					<dim>3</dim>
				</port>
			</output>
		</layer>
		<layer id="46" name="Convert_967037" type="Convert" version="opset1">
			<data destination_type="f32" />
			<input>
				<port id="0" precision="I8">
					<dim>80</dim>
					<dim>12</dim>
					<dim>3</dim>
					<dim>3</dim>
				</port>
			</input>
			<output>
				<port id="1" precision="FP32">
					<dim>80</dim>
					<dim>12</dim>
					<dim>3</dim>
					<dim>3</dim>
				</port>
			</output>
		</layer>
		<layer id="47" name="Constant_966935" type="Const" version="opset1">
			<data element_type="f32" shape="80, 1, 1, 1" offset="8808" size="320" />
			<output>
				<port id="0" precision="FP32">
					<dim>80</dim>
					<dim>1</dim>
					<dim>1</dim>
					<dim>1</dim>
				</port>
			</output>
		</layer>
		<layer id="48" name="/backbone/stem/conv/conv/Conv/WithoutBiases/fq_weights_1" type="Multiply" version="opset1">
			<data auto_broadcast="numpy" />
			<input>
				<port id="0" precision="FP32">
					<dim>80</dim>
					<dim>12</dim>
					<dim>3</dim>
					<dim>3</dim>
				</port>
				<port id="1" precision="FP32">
					<dim>80</dim>
					<dim>1</dim>
					<dim>1</dim>
					<dim>1</dim>
				</port>
			</input>
			<output>
				<port id="2" precision="FP32">
					<dim>80</dim>
					<dim>12</dim>
					<dim>3</dim>
					<dim>3</dim>
				</port>
			</output>
		</layer>
		<layer id="49" name="/backbone/stem/conv/conv/Conv/WithoutBiases" type="Convolution" version="opset1">
			<data strides="1, 1" dilations="1, 1" pads_begin="1, 1" pads_end="1, 1" auto_pad="explicit" />
			<input>
				<port id="0" precision="FP32">
					<dim>-1</dim>
					<dim>12</dim>
					<dim>320</dim>
					<dim>-1</dim>
				</port>
				<port id="1" precision="FP32">
					<dim>80</dim>
					<dim>12</dim>
					<dim>3</dim>
					<dim>3</dim>
				</port>
			</input>
			<output>
				<port id="2" precision="FP32">
					<dim>-1</dim>
					<dim>80</dim>
					<dim>320</dim>
					<dim>-1</dim>
				</port>
			</output>
		</layer>
		<layer id="50" name="Reshape_432" type="Const" version="opset1">
			<data element_type="f32" shape="1, 80, 1, 1" offset="9128" size="320" />
			<output>
				<port id="0" precision="FP32">
					<dim>1</dim>
					<dim>80</dim>
					<dim>1</dim>
					<dim>1</dim>
				</port>
			</output>
		</layer>
		<layer id="51" name="/backbone/stem/conv/conv/Conv" type="Add" version="opset1">
			<data auto_broadcast="numpy" />
			<input>
				<port id="0" precision="FP32">
					<dim>-1</dim>
					<dim>80</dim>
					<dim>320</dim>
					<dim>-1</dim>
				</port>
				<port id="1" precision="FP32">
					<dim>1</dim>
					<dim>80</dim>
					<dim>1</dim>
					<dim>1</dim>
				</port>
			</input>
			<output>
				<port id="2" precision="FP32" names="/backbone/stem/conv/conv/Conv_output_0">
					<dim>-1</dim>
					<dim>80</dim>
					<dim>320</dim>
					<dim>-1</dim>
				</port>
			</output>
		</layer>
		<layer id="52" name="/backbone/stem/conv/activate/Mul" type="Swish" version="opset4">
			<input>
				<port id="0" precision="FP32">
					<dim>-1</dim>
					<dim>80</dim>
					<dim>320</dim>
					<dim>-1</dim>
				</port>
			</input>
			<output>
				<port id="1" precision="FP32" names="/backbone/stem/conv/activate/Mul_output_0">
					<dim>-1</dim>
					<dim>80</dim>
					<dim>320</dim>
					<dim>-1</dim>
				</port>
			</output>
		</layer>
		<layer id="53" name="Constant_75227" type="Const" version="opset1">
			<data element_type="f32" shape="" offset="9448" size="4" />
			<output>
				<port id="0" precision="FP32" />
			</output>
		</layer>
		<layer id="54" name="Constant_75228" type="Const" version="opset1">
			<data element_type="f32" shape="" offset="9452" size="4" />
			<output>
				<port id="0" precision="FP32" />
			</output>
		</layer>
		<layer id="55" name="Constant_75229" type="Const" version="opset1">
			<data element_type="f32" shape="" offset="9448" size="4" />
			<output>
				<port id="0" precision="FP32" />
			</output>
		</layer>
		<layer id="56" name="Constant_75230" type="Const" version="opset1">
			<data element_type="f32" shape="" offset="9452" size="4" />
			<output>
				<port id="0" precision="FP32" />
			</output>
		</layer>
		<layer id="57" name="/backbone/stem/conv/activate/Mul/fq_output_0" type="FakeQuantize" version="opset1">
			<data levels="256" auto_broadcast="numpy" />
			<input>
				<port id="0" precision="FP32">
					<dim>-1</dim>
					<dim>80</dim>
					<dim>320</dim>
					<dim>-1</dim>
				</port>
				<port id="1" precision="FP32" />
				<port id="2" precision="FP32" />
				<port id="3" precision="FP32" />
				<port id="4" precision="FP32" />
			</input>
			<output>
				<port id="5" precision="FP32">
					<dim>-1</dim>
					<dim>80</dim>
					<dim>320</dim>
					<dim>-1</dim>
				</port>
			</output>
		</layer>
		<layer id="58" name="onnx::Conv_2069" type="Const" version="opset1">
			<data element_type="i8" shape="160, 80, 3, 3" offset="9456" size="115200" />
			<output>
				<port id="0" precision="I8">
					<dim>160</dim>
					<dim>80</dim>
					<dim>3</dim>
					<dim>3</dim>
				</port>
			</output>
		</layer>
		<layer id="59" name="Convert_967191" type="Convert" version="opset1">
			<data destination_type="f32" />
			<input>
				<port id="0" precision="I8">
					<dim>160</dim>
					<dim>80</dim>
					<dim>3</dim>
					<dim>3</dim>
				</port>
			</input>
			<output>
				<port id="1" precision="FP32">
					<dim>160</dim>
					<dim>80</dim>
					<dim>3</dim>
					<dim>3</dim>
				</port>
			</output>
		</layer>
		<layer id="60" name="Constant_967089" type="Const" version="opset1">
			<data element_type="f32" shape="160, 1, 1, 1" offset="124656" size="640" />
			<output>
				<port id="0" precision="FP32">
					<dim>160</dim>
					<dim>1</dim>
					<dim>1</dim>
					<dim>1</dim>
				</port>
			</output>
		</layer>
		<layer id="61" name="/backbone/stage1/stage1.0/conv/Conv/WithoutBiases/fq_weights_1" type="Multiply" version="opset1">
			<data auto_broadcast="numpy" />
			<input>
				<port id="0" precision="FP32">
					<dim>160</dim>
					<dim>80</dim>
					<dim>3</dim>
					<dim>3</dim>
				</port>
				<port id="1" precision="FP32">
					<dim>160</dim>
					<dim>1</dim>
					<dim>1</dim>
					<dim>1</dim>
				</port>
			</input>
			<output>
				<port id="2" precision="FP32">
					<dim>160</dim>
					<dim>80</dim>
					<dim>3</dim>
					<dim>3</dim>
				</port>
			</output>
		</layer>
		<layer id="62" name="/backbone/stage1/stage1.0/conv/Conv/WithoutBiases" type="Convolution" version="opset1">
			<data strides="2, 2" dilations="1, 1" pads_begin="1, 1" pads_end="1, 1" auto_pad="explicit" />
			<input>
				<port id="0" precision="FP32">
					<dim>-1</dim>
					<dim>80</dim>
					<dim>320</dim>
					<dim>-1</dim>
				</port>
				<port id="1" precision="FP32">
					<dim>160</dim>
					<dim>80</dim>
					<dim>3</dim>
					<dim>3</dim>
				</port>
			</input>
			<output>
				<port id="2" precision="FP32">
					<dim>-1</dim>
					<dim>160</dim>
					<dim>160</dim>
					<dim>-1</dim>
				</port>
			</output>
		</layer>
		<layer id="63" name="Reshape_449" type="Const" version="opset1">
			<data element_type="f32" shape="1, 160, 1, 1" offset="125296" size="640" />
			<output>
				<port id="0" precision="FP32">
					<dim>1</dim>
					<dim>160</dim>
					<dim>1</dim>
					<dim>1</dim>
				</port>
			</output>
		</layer>
		<layer id="64" name="/backbone/stage1/stage1.0/conv/Conv" type="Add" version="opset1">
			<data auto_broadcast="numpy" />
			<input>
				<port id="0" precision="FP32">
					<dim>-1</dim>
					<dim>160</dim>
					<dim>160</dim>
					<dim>-1</dim>
				</port>
				<port id="1" precision="FP32">
					<dim>1</dim>
					<dim>160</dim>
					<dim>1</dim>
					<dim>1</dim>
				</port>
			</input>
			<output>
				<port id="2" precision="FP32" names="/backbone/stage1/stage1.0/conv/Conv_output_0">
					<dim>-1</dim>
					<dim>160</dim>
					<dim>160</dim>
					<dim>-1</dim>
				</port>
			</output>
		</layer>
		<layer id="65" name="/backbone/stage1/stage1.0/activate/Mul" type="Swish" version="opset4">
			<input>
				<port id="0" precision="FP32">
					<dim>-1</dim>
					<dim>160</dim>
					<dim>160</dim>
					<dim>-1</dim>
				</port>
			</input>
			<output>
				<port id="1" precision="FP32" names="/backbone/stage1/stage1.0/activate/Mul_output_0">
					<dim>-1</dim>
					<dim>160</dim>
					<dim>160</dim>
					<dim>-1</dim>
				</port>
			</output>
		</layer>
		<layer id="66" name="Constant_75237" type="Const" version="opset1">
			<data element_type="f32" shape="" offset="125936" size="4" />
			<output>
				<port id="0" precision="FP32" />
			</output>
		</layer>
		<layer id="67" name="Constant_75238" type="Const" version="opset1">
			<data element_type="f32" shape="" offset="125940" size="4" />
			<output>
				<port id="0" precision="FP32" />
			</output>
		</layer>
		<layer id="68" name="Constant_75239" type="Const" version="opset1">
			<data element_type="f32" shape="" offset="125936" size="4" />
			<output>
				<port id="0" precision="FP32" />
			</output>
		</layer>
		<layer id="69" name="Constant_75240" type="Const" version="opset1">
			<data element_type="f32" shape="" offset="125940" size="4" />
			<output>
				<port id="0" precision="FP32" />
			</output>
		</layer>
		<layer id="70" name="/backbone/stage1/stage1.0/activate/Mul/fq_output_0" type="FakeQuantize" version="opset1">
			<data levels="256" auto_broadcast="numpy" />
			<input>
				<port id="0" precision="FP32">
					<dim>-1</dim>
					<dim>160</dim>
					<dim>160</dim>
					<dim>-1</dim>
				</port>
				<port id="1" precision="FP32" />
				<port id="2" precision="FP32" />
				<port id="3" precision="FP32" />
				<port id="4" precision="FP32" />
			</input>
			<output>
				<port id="5" precision="FP32">
					<dim>-1</dim>
					<dim>160</dim>
					<dim>160</dim>
					<dim>-1</dim>
				</port>
			</output>
		</layer>
		<layer id="71" name="onnx::Conv_2075" type="Const" version="opset1">
			<data element_type="i8" shape="80, 160, 1, 1" offset="125944" size="12800" />
			<output>
				<port id="0" precision="I8">
					<dim>80</dim>
					<dim>160</dim>
					<dim>1</dim>
					<dim>1</dim>
				</port>
			</output>
		</layer>
		<layer id="72" name="Convert_967345" type="Convert" version="opset1">
			<data destination_type="f32" />
			<input>
				<port id="0" precision="I8">
					<dim>80</dim>
					<dim>160</dim>
					<dim>1</dim>
					<dim>1</dim>
				</port>
			</input>
			<output>
				<port id="1" precision="FP32">
					<dim>80</dim>
					<dim>160</dim>
					<dim>1</dim>
					<dim>1</dim>
				</port>
			</output>
		</layer>
		<layer id="73" name="Constant_967243" type="Const" version="opset1">
			<data element_type="f32" shape="80, 1, 1, 1" offset="138744" size="320" />
			<output>
				<port id="0" precision="FP32">
					<dim>80</dim>
					<dim>1</dim>
					<dim>1</dim>
					<dim>1</dim>
				</port>
			</output>
		</layer>
		<layer id="74" name="/backbone/stage1/stage1.1/main_conv/conv/Conv/WithoutBiases/fq_weights_1" type="Multiply" version="opset1">
			<data auto_broadcast="numpy" />
			<input>
				<port id="0" precision="FP32">
					<dim>80</dim>
					<dim>160</dim>
					<dim>1</dim>
					<dim>1</dim>
				</port>
				<port id="1" precision="FP32">
					<dim>80</dim>
					<dim>1</dim>
					<dim>1</dim>
					<dim>1</dim>
				</port>
			</input>
			<output>
				<port id="2" precision="FP32">
					<dim>80</dim>
					<dim>160</dim>
					<dim>1</dim>
					<dim>1</dim>
				</port>
			</output>
		</layer>
		<layer id="75" name="/backbone/stage1/stage1.1/main_conv/conv/Conv/WithoutBiases" type="Convolution" version="opset1">
			<data strides="1, 1" dilations="1, 1" pads_begin="0, 0" pads_end="0, 0" auto_pad="explicit" />
			<input>
				<port id="0" precision="FP32">
					<dim>-1</dim>
					<dim>160</dim>
					<dim>160</dim>
					<dim>-1</dim>
				</port>
				<port id="1" precision="FP32">
					<dim>80</dim>
					<dim>160</dim>
					<dim>1</dim>
					<dim>1</dim>
				</port>
			</input>
			<output>
				<port id="2" precision="FP32">
					<dim>-1</dim>
					<dim>80</dim>
					<dim>160</dim>
					<dim>-1</dim>
				</port>
			</output>
		</layer>
		<layer id="76" name="Reshape_483" type="Const" version="opset1">
			<data element_type="f32" shape="1, 80, 1, 1" offset="139064" size="320" />
			<output>
				<port id="0" precision="FP32">
					<dim>1</dim>
					<dim>80</dim>
					<dim>1</dim>
					<dim>1</dim>
				</port>
			</output>
		</layer>
		<layer id="77" name="/backbone/stage1/stage1.1/main_conv/conv/Conv" type="Add" version="opset1">
			<data auto_broadcast="numpy" />
			<input>
				<port id="0" precision="FP32">
					<dim>-1</dim>
					<dim>80</dim>
					<dim>160</dim>
					<dim>-1</dim>
				</port>
				<port id="1" precision="FP32">
					<dim>1</dim>
					<dim>80</dim>
					<dim>1</dim>
					<dim>1</dim>
				</port>
			</input>
			<output>
				<port id="2" precision="FP32" names="/backbone/stage1/stage1.1/main_conv/conv/Conv_output_0">
					<dim>-1</dim>
					<dim>80</dim>
					<dim>160</dim>
					<dim>-1</dim>
				</port>
			</output>
		</layer>
		<layer id="78" name="/backbone/stage1/stage1.1/main_conv/activate/Mul" type="Swish" version="opset4">
			<input>
				<port id="0" precision="FP32">
					<dim>-1</dim>
					<dim>80</dim>
					<dim>160</dim>
					<dim>-1</dim>
				</port>
			</input>
			<output>
				<port id="1" precision="FP32" names="/backbone/stage1/stage1.1/main_conv/activate/Mul_output_0">
					<dim>-1</dim>
					<dim>80</dim>
					<dim>160</dim>
					<dim>-1</dim>
				</port>
			</output>
		</layer>
		<layer id="79" name="Constant_75252" type="Const" version="opset1">
			<data element_type="f32" shape="" offset="139384" size="4" />
			<output>
				<port id="0" precision="FP32" />
			</output>
		</layer>
		<layer id="80" name="Constant_75253" type="Const" version="opset1">
			<data element_type="f32" shape="" offset="139388" size="4" />
			<output>
				<port id="0" precision="FP32" />
			</output>
		</layer>
		<layer id="81" name="Constant_75254" type="Const" version="opset1">
			<data element_type="f32" shape="" offset="139384" size="4" />
			<output>
				<port id="0" precision="FP32" />
			</output>
		</layer>
		<layer id="82" name="Constant_75255" type="Const" version="opset1">
			<data element_type="f32" shape="" offset="139388" size="4" />
			<output>
				<port id="0" precision="FP32" />
			</output>
		</layer>
		<layer id="83" name="/backbone/stage1/stage1.1/main_conv/activate/Mul/fq_output_0" type="FakeQuantize" version="opset1">
			<data levels="256" auto_broadcast="numpy" />
			<input>
				<port id="0" precision="FP32">
					<dim>-1</dim>
					<dim>80</dim>
					<dim>160</dim>
					<dim>-1</dim>
				</port>
				<port id="1" precision="FP32" />
				<port id="2" precision="FP32" />
				<port id="3" precision="FP32" />
				<port id="4" precision="FP32" />
			</input>
			<output>
				<port id="5" precision="FP32">
					<dim>-1</dim>
					<dim>80</dim>
					<dim>160</dim>
					<dim>-1</dim>
				</port>
			</output>
		</layer>
		<layer id="84" name="onnx::Conv_2078" type="Const" version="opset1">
			<data element_type="i8" shape="80, 80, 1, 1" offset="139392" size="6400" />
			<output>
				<port id="0" precision="I8">
					<dim>80</dim>
					<dim>80</dim>
					<dim>1</dim>
					<dim>1</dim>
				</port>
			</output>
		</layer>
		<layer id="85" name="Convert_967499" type="Convert" version="opset1">
			<data destination_type="f32" />
			<input>
				<port id="0" precision="I8">
					<dim>80</dim>
					<dim>80</dim>
					<dim>1</dim>
					<dim>1</dim>
				</port>
			</input>
			<output>
				<port id="1" precision="FP32">
					<dim>80</dim>
					<dim>80</dim>
					<dim>1</dim>
					<dim>1</dim>
				</port>
			</output>
		</layer>
		<layer id="86" name="Constant_967397" type="Const" version="opset1">
			<data element_type="f32" shape="80, 1, 1, 1" offset="145792" size="320" />
			<output>
				<port id="0" precision="FP32">
					<dim>80</dim>
					<dim>1</dim>
					<dim>1</dim>
					<dim>1</dim>
				</port>
			</output>
		</layer>
		<layer id="87" name="/backbone/stage1/stage1.1/blocks/blocks.0/conv1/conv/Conv/WithoutBiases/fq_weights_1" type="Multiply" version="opset1">
			<data auto_broadcast="numpy" />
			<input>
				<port id="0" precision="FP32">
					<dim>80</dim>
					<dim>80</dim>
					<dim>1</dim>
					<dim>1</dim>
				</port>
				<port id="1" precision="FP32">
					<dim>80</dim>
					<dim>1</dim>
					<dim>1</dim>
					<dim>1</dim>
				</port>
			</input>
			<output>
				<port id="2" precision="FP32">
					<dim>80</dim>
					<dim>80</dim>
					<dim>1</dim>
					<dim>1</dim>
				</port>
			</output>
		</layer>
		<layer id="88" name="/backbone/stage1/stage1.1/blocks/blocks.0/conv1/conv/Conv/WithoutBiases" type="Convolution" version="opset1">
			<data strides="1, 1" dilations="1, 1" pads_begin="0, 0" pads_end="0, 0" auto_pad="explicit" />
			<input>
				<port id="0" precision="FP32">
					<dim>-1</dim>
					<dim>80</dim>
					<dim>160</dim>
					<dim>-1</dim>
				</port>
				<port id="1" precision="FP32">
					<dim>80</dim>
					<dim>80</dim>
					<dim>1</dim>
					<dim>1</dim>
				</port>
			</input>
			<output>
				<port id="2" precision="FP32">
					<dim>-1</dim>
					<dim>80</dim>
					<dim>160</dim>
					<dim>-1</dim>
				</port>
			</output>
		</layer>
		<layer id="89" name="Reshape_500" type="Const" version="opset1">
			<data element_type="f32" shape="1, 80, 1, 1" offset="146112" size="320" />
			<output>
				<port id="0" precision="FP32">
					<dim>1</dim>
					<dim>80</dim>
					<dim>1</dim>
					<dim>1</dim>
				</port>
			</output>
		</layer>
		<layer id="90" name="/backbone/stage1/stage1.1/blocks/blocks.0/conv1/conv/Conv" type="Add" version="opset1">
			<data auto_broadcast="numpy" />
			<input>
				<port id="0" precision="FP32">
					<dim>-1</dim>
					<dim>80</dim>
					<dim>160</dim>
					<dim>-1</dim>
				</port>
				<port id="1" precision="FP32">
					<dim>1</dim>
					<dim>80</dim>
					<dim>1</dim>
					<dim>1</dim>
				</port>
			</input>
			<output>
				<port id="2" precision="FP32" names="/backbone/stage1/stage1.1/blocks/blocks.0/conv1/conv/Conv_output_0">
					<dim>-1</dim>
					<dim>80</dim>
					<dim>160</dim>
					<dim>-1</dim>
				</port>
			</output>
		</layer>
		<layer id="91" name="/backbone/stage1/stage1.1/blocks/blocks.0/conv1/activate/Mul" type="Swish" version="opset4">
			<input>
				<port id="0" precision="FP32">
					<dim>-1</dim>
					<dim>80</dim>
					<dim>160</dim>
					<dim>-1</dim>
				</port>
			</input>
			<output>
				<port id="1" precision="FP32" names="/backbone/stage1/stage1.1/blocks/blocks.0/conv1/activate/Mul_output_0">
					<dim>-1</dim>
					<dim>80</dim>
					<dim>160</dim>
					<dim>-1</dim>
				</port>
			</output>
		</layer>
		<layer id="92" name="Constant_75262" type="Const" version="opset1">
			<data element_type="f32" shape="" offset="146432" size="4" />
			<output>
				<port id="0" precision="FP32" />
			</output>
		</layer>
		<layer id="93" name="Constant_75263" type="Const" version="opset1">
			<data element_type="f32" shape="" offset="146436" size="4" />
			<output>
				<port id="0" precision="FP32" />
			</output>
		</layer>
		<layer id="94" name="Constant_75264" type="Const" version="opset1">
			<data element_type="f32" shape="" offset="146432" size="4" />
			<output>
				<port id="0" precision="FP32" />
			</output>
		</layer>
		<layer id="95" name="Constant_75265" type="Const" version="opset1">
			<data element_type="f32" shape="" offset="146436" size="4" />
			<output>
				<port id="0" precision="FP32" />
			</output>
		</layer>
		<layer id="96" name="/backbone/stage1/stage1.1/blocks/blocks.0/conv1/activate/Mul/fq_output_0" type="FakeQuantize" version="opset1">
			<data levels="256" auto_broadcast="numpy" />
			<input>
				<port id="0" precision="FP32">
					<dim>-1</dim>
					<dim>80</dim>
					<dim>160</dim>
					<dim>-1</dim>
				</port>
				<port id="1" precision="FP32" />
				<port id="2" precision="FP32" />
				<port id="3" precision="FP32" />
				<port id="4" precision="FP32" />
			</input>
			<output>
				<port id="5" precision="FP32">
					<dim>-1</dim>
					<dim>80</dim>
					<dim>160</dim>
					<dim>-1</dim>
				</port>
			</output>
		</layer>
		<layer id="97" name="onnx::Conv_2081" type="Const" version="opset1">
			<data element_type="i8" shape="80, 80, 3, 3" offset="146440" size="57600" />
			<output>
				<port id="0" precision="I8">
					<dim>80</dim>
					<dim>80</dim>
					<dim>3</dim>
					<dim>3</dim>
				</port>
			</output>
		</layer>
		<layer id="98" name="Convert_967653" type="Convert" version="opset1">
			<data destination_type="f32" />
			<input>
				<port id="0" precision="I8">
					<dim>80</dim>
					<dim>80</dim>
					<dim>3</dim>
					<dim>3</dim>
				</port>
			</input>
			<output>
				<port id="1" precision="FP32">
					<dim>80</dim>
					<dim>80</dim>
					<dim>3</dim>
					<dim>3</dim>
				</port>
			</output>
		</layer>
		<layer id="99" name="Constant_967551" type="Const" version="opset1">
			<data element_type="f32" shape="80, 1, 1, 1" offset="204040" size="320" />
			<output>
				<port id="0" precision="FP32">
					<dim>80</dim>
					<dim>1</dim>
					<dim>1</dim>
					<dim>1</dim>
				</port>
			</output>
		</layer>
		<layer id="100" name="/backbone/stage1/stage1.1/blocks/blocks.0/conv2/conv/Conv/WithoutBiases/fq_weights_1" type="Multiply" version="opset1">
			<data auto_broadcast="numpy" />
			<input>
				<port id="0" precision="FP32">
					<dim>80</dim>
					<dim>80</dim>
					<dim>3</dim>
					<dim>3</dim>
				</port>
				<port id="1" precision="FP32">
					<dim>80</dim>
					<dim>1</dim>
					<dim>1</dim>
					<dim>1</dim>
				</port>
			</input>
			<output>
				<port id="2" precision="FP32">
					<dim>80</dim>
					<dim>80</dim>
					<dim>3</dim>
					<dim>3</dim>
				</port>
			</output>
		</layer>
		<layer id="101" name="/backbone/stage1/stage1.1/blocks/blocks.0/conv2/conv/Conv/WithoutBiases" type="Convolution" version="opset1">
			<data strides="1, 1" dilations="1, 1" pads_begin="1, 1" pads_end="1, 1" auto_pad="explicit" />
			<input>
				<port id="0" precision="FP32">
					<dim>-1</dim>
					<dim>80</dim>
					<dim>160</dim>
					<dim>-1</dim>
				</port>
				<port id="1" precision="FP32">
					<dim>80</dim>
					<dim>80</dim>
					<dim>3</dim>
					<dim>3</dim>
				</port>
			</input>
			<output>
				<port id="2" precision="FP32">
					<dim>-1</dim>
					<dim>80</dim>
					<dim>160</dim>
					<dim>-1</dim>
				</port>
			</output>
		</layer>
		<layer id="102" name="Reshape_517" type="Const" version="opset1">
			<data element_type="f32" shape="1, 80, 1, 1" offset="204360" size="320" />
			<output>
				<port id="0" precision="FP32">
					<dim>1</dim>
					<dim>80</dim>
					<dim>1</dim>
					<dim>1</dim>
				</port>
			</output>
		</layer>
		<layer id="103" name="/backbone/stage1/stage1.1/blocks/blocks.0/conv2/conv/Conv" type="Add" version="opset1">
			<data auto_broadcast="numpy" />
			<input>
				<port id="0" precision="FP32">
					<dim>-1</dim>
					<dim>80</dim>
					<dim>160</dim>
					<dim>-1</dim>
				</port>
				<port id="1" precision="FP32">
					<dim>1</dim>
					<dim>80</dim>
					<dim>1</dim>
					<dim>1</dim>
				</port>
			</input>
			<output>
				<port id="2" precision="FP32" names="/backbone/stage1/stage1.1/blocks/blocks.0/conv2/conv/Conv_output_0">
					<dim>-1</dim>
					<dim>80</dim>
					<dim>160</dim>
					<dim>-1</dim>
				</port>
			</output>
		</layer>
		<layer id="104" name="/backbone/stage1/stage1.1/blocks/blocks.0/conv2/activate/Mul" type="Swish" version="opset4">
			<input>
				<port id="0" precision="FP32">
					<dim>-1</dim>
					<dim>80</dim>
					<dim>160</dim>
					<dim>-1</dim>
				</port>
			</input>
			<output>
				<port id="1" precision="FP32" names="/backbone/stage1/stage1.1/blocks/blocks.0/conv2/activate/Mul_output_0">
					<dim>-1</dim>
					<dim>80</dim>
					<dim>160</dim>
					<dim>-1</dim>
				</port>
			</output>
		</layer>
		<layer id="105" name="Constant_75272" type="Const" version="opset1">
			<data element_type="f32" shape="" offset="204680" size="4" />
			<output>
				<port id="0" precision="FP32" />
			</output>
		</layer>
		<layer id="106" name="Constant_75273" type="Const" version="opset1">
			<data element_type="f32" shape="" offset="204684" size="4" />
			<output>
				<port id="0" precision="FP32" />
			</output>
		</layer>
		<layer id="107" name="Constant_75274" type="Const" version="opset1">
			<data element_type="f32" shape="" offset="204680" size="4" />
			<output>
				<port id="0" precision="FP32" />
			</output>
		</layer>
		<layer id="108" name="Constant_75275" type="Const" version="opset1">
			<data element_type="f32" shape="" offset="204684" size="4" />
			<output>
				<port id="0" precision="FP32" />
			</output>
		</layer>
		<layer id="109" name="/backbone/stage1/stage1.1/blocks/blocks.0/conv2/activate/Mul/fq_output_0" type="FakeQuantize" version="opset1">
			<data levels="256" auto_broadcast="numpy" />
			<input>
				<port id="0" precision="FP32">
					<dim>-1</dim>
					<dim>80</dim>
					<dim>160</dim>
					<dim>-1</dim>
				</port>
				<port id="1" precision="FP32" />
				<port id="2" precision="FP32" />
				<port id="3" precision="FP32" />
				<port id="4" precision="FP32" />
			</input>
			<output>
				<port id="5" precision="FP32">
					<dim>-1</dim>
					<dim>80</dim>
					<dim>160</dim>
					<dim>-1</dim>
				</port>
			</output>
		</layer>
		<layer id="110" name="/backbone/stage1/stage1.1/blocks/blocks.0/Add" type="Add" version="opset1">
			<data auto_broadcast="numpy" />
			<input>
				<port id="0" precision="FP32">
					<dim>-1</dim>
					<dim>80</dim>
					<dim>160</dim>
					<dim>-1</dim>
				</port>
				<port id="1" precision="FP32">
					<dim>-1</dim>
					<dim>80</dim>
					<dim>160</dim>
					<dim>-1</dim>
				</port>
			</input>
			<output>
				<port id="2" precision="FP32" names="/backbone/stage1/stage1.1/blocks/blocks.0/Add_output_0">
					<dim>-1</dim>
					<dim>80</dim>
					<dim>160</dim>
					<dim>-1</dim>
				</port>
			</output>
		</layer>
		<layer id="111" name="Constant_75277" type="Const" version="opset1">
			<data element_type="f32" shape="" offset="204688" size="4" />
			<output>
				<port id="0" precision="FP32" />
			</output>
		</layer>
		<layer id="112" name="Constant_75278" type="Const" version="opset1">
			<data element_type="f32" shape="" offset="204692" size="4" />
			<output>
				<port id="0" precision="FP32" />
			</output>
		</layer>
		<layer id="113" name="Constant_75279" type="Const" version="opset1">
			<data element_type="f32" shape="" offset="204688" size="4" />
			<output>
				<port id="0" precision="FP32" />
			</output>
		</layer>
		<layer id="114" name="Constant_75280" type="Const" version="opset1">
			<data element_type="f32" shape="" offset="204692" size="4" />
			<output>
				<port id="0" precision="FP32" />
			</output>
		</layer>
		<layer id="115" name="/backbone/stage1/stage1.1/blocks/blocks.0/Add/fq_output_0" type="FakeQuantize" version="opset1">
			<data levels="256" auto_broadcast="numpy" />
			<input>
				<port id="0" precision="FP32">
					<dim>-1</dim>
					<dim>80</dim>
					<dim>160</dim>
					<dim>-1</dim>
				</port>
				<port id="1" precision="FP32" />
				<port id="2" precision="FP32" />
				<port id="3" precision="FP32" />
				<port id="4" precision="FP32" />
			</input>
			<output>
				<port id="5" precision="FP32">
					<dim>-1</dim>
					<dim>80</dim>
					<dim>160</dim>
					<dim>-1</dim>
				</port>
			</output>
		</layer>
		<layer id="116" name="onnx::Conv_2084" type="Const" version="opset1">
			<data element_type="i8" shape="80, 80, 1, 1" offset="204696" size="6400" />
			<output>
				<port id="0" precision="I8">
					<dim>80</dim>
					<dim>80</dim>
					<dim>1</dim>
					<dim>1</dim>
				</port>
			</output>
		</layer>
		<layer id="117" name="Convert_967807" type="Convert" version="opset1">
			<data destination_type="f32" />
			<input>
				<port id="0" precision="I8">
					<dim>80</dim>
					<dim>80</dim>
					<dim>1</dim>
					<dim>1</dim>
				</port>
			</input>
			<output>
				<port id="1" precision="FP32">
					<dim>80</dim>
					<dim>80</dim>
					<dim>1</dim>
					<dim>1</dim>
				</port>
			</output>
		</layer>
		<layer id="118" name="Constant_967705" type="Const" version="opset1">
			<data element_type="f32" shape="80, 1, 1, 1" offset="211096" size="320" />
			<output>
				<port id="0" precision="FP32">
					<dim>80</dim>
					<dim>1</dim>
					<dim>1</dim>
					<dim>1</dim>
				</port>
			</output>
		</layer>
		<layer id="119" name="/backbone/stage1/stage1.1/blocks/blocks.1/conv1/conv/Conv/WithoutBiases/fq_weights_1" type="Multiply" version="opset1">
			<data auto_broadcast="numpy" />
			<input>
				<port id="0" precision="FP32">
					<dim>80</dim>
					<dim>80</dim>
					<dim>1</dim>
					<dim>1</dim>
				</port>
				<port id="1" precision="FP32">
					<dim>80</dim>
					<dim>1</dim>
					<dim>1</dim>
					<dim>1</dim>
				</port>
			</input>
			<output>
				<port id="2" precision="FP32">
					<dim>80</dim>
					<dim>80</dim>
					<dim>1</dim>
					<dim>1</dim>
				</port>
			</output>
		</layer>
		<layer id="120" name="/backbone/stage1/stage1.1/blocks/blocks.1/conv1/conv/Conv/WithoutBiases" type="Convolution" version="opset1">
			<data strides="1, 1" dilations="1, 1" pads_begin="0, 0" pads_end="0, 0" auto_pad="explicit" />
			<input>
				<port id="0" precision="FP32">
					<dim>-1</dim>
					<dim>80</dim>
					<dim>160</dim>
					<dim>-1</dim>
				</port>
				<port id="1" precision="FP32">
					<dim>80</dim>
					<dim>80</dim>
					<dim>1</dim>
					<dim>1</dim>
				</port>
			</input>
			<output>
				<port id="2" precision="FP32">
					<dim>-1</dim>
					<dim>80</dim>
					<dim>160</dim>
					<dim>-1</dim>
				</port>
			</output>
		</layer>
		<layer id="121" name="Reshape_535" type="Const" version="opset1">
			<data element_type="f32" shape="1, 80, 1, 1" offset="211416" size="320" />
			<output>
				<port id="0" precision="FP32">
					<dim>1</dim>
					<dim>80</dim>
					<dim>1</dim>
					<dim>1</dim>
				</port>
			</output>
		</layer>
		<layer id="122" name="/backbone/stage1/stage1.1/blocks/blocks.1/conv1/conv/Conv" type="Add" version="opset1">
			<data auto_broadcast="numpy" />
			<input>
				<port id="0" precision="FP32">
					<dim>-1</dim>
					<dim>80</dim>
					<dim>160</dim>
					<dim>-1</dim>
				</port>
				<port id="1" precision="FP32">
					<dim>1</dim>
					<dim>80</dim>
					<dim>1</dim>
					<dim>1</dim>
				</port>
			</input>
			<output>
				<port id="2" precision="FP32" names="/backbone/stage1/stage1.1/blocks/blocks.1/conv1/conv/Conv_output_0">
					<dim>-1</dim>
					<dim>80</dim>
					<dim>160</dim>
					<dim>-1</dim>
				</port>
			</output>
		</layer>
		<layer id="123" name="/backbone/stage1/stage1.1/blocks/blocks.1/conv1/activate/Mul" type="Swish" version="opset4">
			<input>
				<port id="0" precision="FP32">
					<dim>-1</dim>
					<dim>80</dim>
					<dim>160</dim>
					<dim>-1</dim>
				</port>
			</input>
			<output>
				<port id="1" precision="FP32" names="/backbone/stage1/stage1.1/blocks/blocks.1/conv1/activate/Mul_output_0">
					<dim>-1</dim>
					<dim>80</dim>
					<dim>160</dim>
					<dim>-1</dim>
				</port>
			</output>
		</layer>
		<layer id="124" name="Constant_75287" type="Const" version="opset1">
			<data element_type="f32" shape="" offset="211736" size="4" />
			<output>
				<port id="0" precision="FP32" />
			</output>
		</layer>
		<layer id="125" name="Constant_75288" type="Const" version="opset1">
			<data element_type="f32" shape="" offset="211740" size="4" />
			<output>
				<port id="0" precision="FP32" />
			</output>
		</layer>
		<layer id="126" name="Constant_75289" type="Const" version="opset1">
			<data element_type="f32" shape="" offset="211736" size="4" />
			<output>
				<port id="0" precision="FP32" />
			</output>
		</layer>
		<layer id="127" name="Constant_75290" type="Const" version="opset1">
			<data element_type="f32" shape="" offset="211740" size="4" />
			<output>
				<port id="0" precision="FP32" />
			</output>
		</layer>
		<layer id="128" name="/backbone/stage1/stage1.1/blocks/blocks.1/conv1/activate/Mul/fq_output_0" type="FakeQuantize" version="opset1">
			<data levels="256" auto_broadcast="numpy" />
			<input>
				<port id="0" precision="FP32">
					<dim>-1</dim>
					<dim>80</dim>
					<dim>160</dim>
					<dim>-1</dim>
				</port>
				<port id="1" precision="FP32" />
				<port id="2" precision="FP32" />
				<port id="3" precision="FP32" />
				<port id="4" precision="FP32" />
			</input>
			<output>
				<port id="5" precision="FP32">
					<dim>-1</dim>
					<dim>80</dim>
					<dim>160</dim>
					<dim>-1</dim>
				</port>
			</output>
		</layer>
		<layer id="129" name="onnx::Conv_2087" type="Const" version="opset1">
			<data element_type="i8" shape="80, 80, 3, 3" offset="211744" size="57600" />
			<output>
				<port id="0" precision="I8">
					<dim>80</dim>
					<dim>80</dim>
					<dim>3</dim>
					<dim>3</dim>
				</port>
			</output>
		</layer>
		<layer id="130" name="Convert_967961" type="Convert" version="opset1">
			<data destination_type="f32" />
			<input>
				<port id="0" precision="I8">
					<dim>80</dim>
					<dim>80</dim>
					<dim>3</dim>
					<dim>3</dim>
				</port>
			</input>
			<output>
				<port id="1" precision="FP32">
					<dim>80</dim>
					<dim>80</dim>
					<dim>3</dim>
					<dim>3</dim>
				</port>
			</output>
		</layer>
		<layer id="131" name="Constant_967859" type="Const" version="opset1">
			<data element_type="f32" shape="80, 1, 1, 1" offset="269344" size="320" />
			<output>
				<port id="0" precision="FP32">
					<dim>80</dim>
					<dim>1</dim>
					<dim>1</dim>
					<dim>1</dim>
				</port>
			</output>
		</layer>
		<layer id="132" name="/backbone/stage1/stage1.1/blocks/blocks.1/conv2/conv/Conv/WithoutBiases/fq_weights_1" type="Multiply" version="opset1">
			<data auto_broadcast="numpy" />
			<input>
				<port id="0" precision="FP32">
					<dim>80</dim>
					<dim>80</dim>
					<dim>3</dim>
					<dim>3</dim>
				</port>
				<port id="1" precision="FP32">
					<dim>80</dim>
					<dim>1</dim>
					<dim>1</dim>
					<dim>1</dim>
				</port>
			</input>
			<output>
				<port id="2" precision="FP32">
					<dim>80</dim>
					<dim>80</dim>
					<dim>3</dim>
					<dim>3</dim>
				</port>
			</output>
		</layer>
		<layer id="133" name="/backbone/stage1/stage1.1/blocks/blocks.1/conv2/conv/Conv/WithoutBiases" type="Convolution" version="opset1">
			<data strides="1, 1" dilations="1, 1" pads_begin="1, 1" pads_end="1, 1" auto_pad="explicit" />
			<input>
				<port id="0" precision="FP32">
					<dim>-1</dim>
					<dim>80</dim>
					<dim>160</dim>
					<dim>-1</dim>
				</port>
				<port id="1" precision="FP32">
					<dim>80</dim>
					<dim>80</dim>
					<dim>3</dim>
					<dim>3</dim>
				</port>
			</input>
			<output>
				<port id="2" precision="FP32">
					<dim>-1</dim>
					<dim>80</dim>
					<dim>160</dim>
					<dim>-1</dim>
				</port>
			</output>
		</layer>
		<layer id="134" name="Reshape_552" type="Const" version="opset1">
			<data element_type="f32" shape="1, 80, 1, 1" offset="269664" size="320" />
			<output>
				<port id="0" precision="FP32">
					<dim>1</dim>
					<dim>80</dim>
					<dim>1</dim>
					<dim>1</dim>
				</port>
			</output>
		</layer>
		<layer id="135" name="/backbone/stage1/stage1.1/blocks/blocks.1/conv2/conv/Conv" type="Add" version="opset1">
			<data auto_broadcast="numpy" />
			<input>
				<port id="0" precision="FP32">
					<dim>-1</dim>
					<dim>80</dim>
					<dim>160</dim>
					<dim>-1</dim>
				</port>
				<port id="1" precision="FP32">
					<dim>1</dim>
					<dim>80</dim>
					<dim>1</dim>
					<dim>1</dim>
				</port>
			</input>
			<output>
				<port id="2" precision="FP32" names="/backbone/stage1/stage1.1/blocks/blocks.1/conv2/conv/Conv_output_0">
					<dim>-1</dim>
					<dim>80</dim>
					<dim>160</dim>
					<dim>-1</dim>
				</port>
			</output>
		</layer>
		<layer id="136" name="/backbone/stage1/stage1.1/blocks/blocks.1/conv2/activate/Mul" type="Swish" version="opset4">
			<input>
				<port id="0" precision="FP32">
					<dim>-1</dim>
					<dim>80</dim>
					<dim>160</dim>
					<dim>-1</dim>
				</port>
			</input>
			<output>
				<port id="1" precision="FP32" names="/backbone/stage1/stage1.1/blocks/blocks.1/conv2/activate/Mul_output_0">
					<dim>-1</dim>
					<dim>80</dim>
					<dim>160</dim>
					<dim>-1</dim>
				</port>
			</output>
		</layer>
		<layer id="137" name="Constant_75297" type="Const" version="opset1">
			<data element_type="f32" shape="" offset="269984" size="4" />
			<output>
				<port id="0" precision="FP32" />
			</output>
		</layer>
		<layer id="138" name="Constant_75298" type="Const" version="opset1">
			<data element_type="f32" shape="" offset="269988" size="4" />
			<output>
				<port id="0" precision="FP32" />
			</output>
		</layer>
		<layer id="139" name="Constant_75299" type="Const" version="opset1">
			<data element_type="f32" shape="" offset="269984" size="4" />
			<output>
				<port id="0" precision="FP32" />
			</output>
		</layer>
		<layer id="140" name="Constant_75300" type="Const" version="opset1">
			<data element_type="f32" shape="" offset="269988" size="4" />
			<output>
				<port id="0" precision="FP32" />
			</output>
		</layer>
		<layer id="141" name="/backbone/stage1/stage1.1/blocks/blocks.1/conv2/activate/Mul/fq_output_0" type="FakeQuantize" version="opset1">
			<data levels="256" auto_broadcast="numpy" />
			<input>
				<port id="0" precision="FP32">
					<dim>-1</dim>
					<dim>80</dim>
					<dim>160</dim>
					<dim>-1</dim>
				</port>
				<port id="1" precision="FP32" />
				<port id="2" precision="FP32" />
				<port id="3" precision="FP32" />
				<port id="4" precision="FP32" />
			</input>
			<output>
				<port id="5" precision="FP32">
					<dim>-1</dim>
					<dim>80</dim>
					<dim>160</dim>
					<dim>-1</dim>
				</port>
			</output>
		</layer>
		<layer id="142" name="/backbone/stage1/stage1.1/blocks/blocks.1/Add" type="Add" version="opset1">
			<data auto_broadcast="numpy" />
			<input>
				<port id="0" precision="FP32">
					<dim>-1</dim>
					<dim>80</dim>
					<dim>160</dim>
					<dim>-1</dim>
				</port>
				<port id="1" precision="FP32">
					<dim>-1</dim>
					<dim>80</dim>
					<dim>160</dim>
					<dim>-1</dim>
				</port>
			</input>
			<output>
				<port id="2" precision="FP32" names="/backbone/stage1/stage1.1/blocks/blocks.1/Add_output_0">
					<dim>-1</dim>
					<dim>80</dim>
					<dim>160</dim>
					<dim>-1</dim>
				</port>
			</output>
		</layer>
		<layer id="143" name="Constant_75302" type="Const" version="opset1">
			<data element_type="f32" shape="" offset="269992" size="4" />
			<output>
				<port id="0" precision="FP32" />
			</output>
		</layer>
		<layer id="144" name="Constant_75303" type="Const" version="opset1">
			<data element_type="f32" shape="" offset="269996" size="4" />
			<output>
				<port id="0" precision="FP32" />
			</output>
		</layer>
		<layer id="145" name="Constant_75304" type="Const" version="opset1">
			<data element_type="f32" shape="" offset="269992" size="4" />
			<output>
				<port id="0" precision="FP32" />
			</output>
		</layer>
		<layer id="146" name="Constant_75305" type="Const" version="opset1">
			<data element_type="f32" shape="" offset="269996" size="4" />
			<output>
				<port id="0" precision="FP32" />
			</output>
		</layer>
		<layer id="147" name="/backbone/stage1/stage1.1/blocks/blocks.1/Add/fq_output_0" type="FakeQuantize" version="opset1">
			<data levels="256" auto_broadcast="numpy" />
			<input>
				<port id="0" precision="FP32">
					<dim>-1</dim>
					<dim>80</dim>
					<dim>160</dim>
					<dim>-1</dim>
				</port>
				<port id="1" precision="FP32" />
				<port id="2" precision="FP32" />
				<port id="3" precision="FP32" />
				<port id="4" precision="FP32" />
			</input>
			<output>
				<port id="5" precision="FP32">
					<dim>-1</dim>
					<dim>80</dim>
					<dim>160</dim>
					<dim>-1</dim>
				</port>
			</output>
		</layer>
		<layer id="148" name="onnx::Conv_2090" type="Const" version="opset1">
			<data element_type="i8" shape="80, 80, 1, 1" offset="270000" size="6400" />
			<output>
				<port id="0" precision="I8">
					<dim>80</dim>
					<dim>80</dim>
					<dim>1</dim>
					<dim>1</dim>
				</port>
			</output>
		</layer>
		<layer id="149" name="Convert_968115" type="Convert" version="opset1">
			<data destination_type="f32" />
			<input>
				<port id="0" precision="I8">
					<dim>80</dim>
					<dim>80</dim>
					<dim>1</dim>
					<dim>1</dim>
				</port>
			</input>
			<output>
				<port id="1" precision="FP32">
					<dim>80</dim>
					<dim>80</dim>
					<dim>1</dim>
					<dim>1</dim>
				</port>
			</output>
		</layer>
		<layer id="150" name="Constant_968013" type="Const" version="opset1">
			<data element_type="f32" shape="80, 1, 1, 1" offset="276400" size="320" />
			<output>
				<port id="0" precision="FP32">
					<dim>80</dim>
					<dim>1</dim>
					<dim>1</dim>
					<dim>1</dim>
				</port>
			</output>
		</layer>
		<layer id="151" name="/backbone/stage1/stage1.1/blocks/blocks.2/conv1/conv/Conv/WithoutBiases/fq_weights_1" type="Multiply" version="opset1">
			<data auto_broadcast="numpy" />
			<input>
				<port id="0" precision="FP32">
					<dim>80</dim>
					<dim>80</dim>
					<dim>1</dim>
					<dim>1</dim>
				</port>
				<port id="1" precision="FP32">
					<dim>80</dim>
					<dim>1</dim>
					<dim>1</dim>
					<dim>1</dim>
				</port>
			</input>
			<output>
				<port id="2" precision="FP32">
					<dim>80</dim>
					<dim>80</dim>
					<dim>1</dim>
					<dim>1</dim>
				</port>
			</output>
		</layer>
		<layer id="152" name="/backbone/stage1/stage1.1/blocks/blocks.2/conv1/conv/Conv/WithoutBiases" type="Convolution" version="opset1">
			<data strides="1, 1" dilations="1, 1" pads_begin="0, 0" pads_end="0, 0" auto_pad="explicit" />
			<input>
				<port id="0" precision="FP32">
					<dim>-1</dim>
					<dim>80</dim>
					<dim>160</dim>
					<dim>-1</dim>
				</port>
				<port id="1" precision="FP32">
					<dim>80</dim>
					<dim>80</dim>
					<dim>1</dim>
					<dim>1</dim>
				</port>
			</input>
			<output>
				<port id="2" precision="FP32">
					<dim>-1</dim>
					<dim>80</dim>
					<dim>160</dim>
					<dim>-1</dim>
				</port>
			</output>
		</layer>
		<layer id="153" name="Reshape_570" type="Const" version="opset1">
			<data element_type="f32" shape="1, 80, 1, 1" offset="276720" size="320" />
			<output>
				<port id="0" precision="FP32">
					<dim>1</dim>
					<dim>80</dim>
					<dim>1</dim>
					<dim>1</dim>
				</port>
			</output>
		</layer>
		<layer id="154" name="/backbone/stage1/stage1.1/blocks/blocks.2/conv1/conv/Conv" type="Add" version="opset1">
			<data auto_broadcast="numpy" />
			<input>
				<port id="0" precision="FP32">
					<dim>-1</dim>
					<dim>80</dim>
					<dim>160</dim>
					<dim>-1</dim>
				</port>
				<port id="1" precision="FP32">
					<dim>1</dim>
					<dim>80</dim>
					<dim>1</dim>
					<dim>1</dim>
				</port>
			</input>
			<output>
				<port id="2" precision="FP32" names="/backbone/stage1/stage1.1/blocks/blocks.2/conv1/conv/Conv_output_0">
					<dim>-1</dim>
					<dim>80</dim>
					<dim>160</dim>
					<dim>-1</dim>
				</port>
			</output>
		</layer>
		<layer id="155" name="/backbone/stage1/stage1.1/blocks/blocks.2/conv1/activate/Mul" type="Swish" version="opset4">
			<input>
				<port id="0" precision="FP32">
					<dim>-1</dim>
					<dim>80</dim>
					<dim>160</dim>
					<dim>-1</dim>
				</port>
			</input>
			<output>
				<port id="1" precision="FP32" names="/backbone/stage1/stage1.1/blocks/blocks.2/conv1/activate/Mul_output_0">
					<dim>-1</dim>
					<dim>80</dim>
					<dim>160</dim>
					<dim>-1</dim>
				</port>
			</output>
		</layer>
		<layer id="156" name="Constant_75312" type="Const" version="opset1">
			<data element_type="f32" shape="" offset="277040" size="4" />
			<output>
				<port id="0" precision="FP32" />
			</output>
		</layer>
		<layer id="157" name="Constant_75313" type="Const" version="opset1">
			<data element_type="f32" shape="" offset="277044" size="4" />
			<output>
				<port id="0" precision="FP32" />
			</output>
		</layer>
		<layer id="158" name="Constant_75314" type="Const" version="opset1">
			<data element_type="f32" shape="" offset="277040" size="4" />
			<output>
				<port id="0" precision="FP32" />
			</output>
		</layer>
		<layer id="159" name="Constant_75315" type="Const" version="opset1">
			<data element_type="f32" shape="" offset="277044" size="4" />
			<output>
				<port id="0" precision="FP32" />
			</output>
		</layer>
		<layer id="160" name="/backbone/stage1/stage1.1/blocks/blocks.2/conv1/activate/Mul/fq_output_0" type="FakeQuantize" version="opset1">
			<data levels="256" auto_broadcast="numpy" />
			<input>
				<port id="0" precision="FP32">
					<dim>-1</dim>
					<dim>80</dim>
					<dim>160</dim>
					<dim>-1</dim>
				</port>
				<port id="1" precision="FP32" />
				<port id="2" precision="FP32" />
				<port id="3" precision="FP32" />
				<port id="4" precision="FP32" />
			</input>
			<output>
				<port id="5" precision="FP32">
					<dim>-1</dim>
					<dim>80</dim>
					<dim>160</dim>
					<dim>-1</dim>
				</port>
			</output>
		</layer>
		<layer id="161" name="onnx::Conv_2093" type="Const" version="opset1">
			<data element_type="i8" shape="80, 80, 3, 3" offset="277048" size="57600" />
			<output>
				<port id="0" precision="I8">
					<dim>80</dim>
					<dim>80</dim>
					<dim>3</dim>
					<dim>3</dim>
				</port>
			</output>
		</layer>
		<layer id="162" name="Convert_968269" type="Convert" version="opset1">
			<data destination_type="f32" />
			<input>
				<port id="0" precision="I8">
					<dim>80</dim>
					<dim>80</dim>
					<dim>3</dim>
					<dim>3</dim>
				</port>
			</input>
			<output>
				<port id="1" precision="FP32">
					<dim>80</dim>
					<dim>80</dim>
					<dim>3</dim>
					<dim>3</dim>
				</port>
			</output>
		</layer>
		<layer id="163" name="Constant_968167" type="Const" version="opset1">
			<data element_type="f32" shape="80, 1, 1, 1" offset="334648" size="320" />
			<output>
				<port id="0" precision="FP32">
					<dim>80</dim>
					<dim>1</dim>
					<dim>1</dim>
					<dim>1</dim>
				</port>
			</output>
		</layer>
		<layer id="164" name="/backbone/stage1/stage1.1/blocks/blocks.2/conv2/conv/Conv/WithoutBiases/fq_weights_1" type="Multiply" version="opset1">
			<data auto_broadcast="numpy" />
			<input>
				<port id="0" precision="FP32">
					<dim>80</dim>
					<dim>80</dim>
					<dim>3</dim>
					<dim>3</dim>
				</port>
				<port id="1" precision="FP32">
					<dim>80</dim>
					<dim>1</dim>
					<dim>1</dim>
					<dim>1</dim>
				</port>
			</input>
			<output>
				<port id="2" precision="FP32">
					<dim>80</dim>
					<dim>80</dim>
					<dim>3</dim>
					<dim>3</dim>
				</port>
			</output>
		</layer>
		<layer id="165" name="/backbone/stage1/stage1.1/blocks/blocks.2/conv2/conv/Conv/WithoutBiases" type="Convolution" version="opset1">
			<data strides="1, 1" dilations="1, 1" pads_begin="1, 1" pads_end="1, 1" auto_pad="explicit" />
			<input>
				<port id="0" precision="FP32">
					<dim>-1</dim>
					<dim>80</dim>
					<dim>160</dim>
					<dim>-1</dim>
				</port>
				<port id="1" precision="FP32">
					<dim>80</dim>
					<dim>80</dim>
					<dim>3</dim>
					<dim>3</dim>
				</port>
			</input>
			<output>
				<port id="2" precision="FP32">
					<dim>-1</dim>
					<dim>80</dim>
					<dim>160</dim>
					<dim>-1</dim>
				</port>
			</output>
		</layer>
		<layer id="166" name="Reshape_587" type="Const" version="opset1">
			<data element_type="f32" shape="1, 80, 1, 1" offset="334968" size="320" />
			<output>
				<port id="0" precision="FP32">
					<dim>1</dim>
					<dim>80</dim>
					<dim>1</dim>
					<dim>1</dim>
				</port>
			</output>
		</layer>
		<layer id="167" name="/backbone/stage1/stage1.1/blocks/blocks.2/conv2/conv/Conv" type="Add" version="opset1">
			<data auto_broadcast="numpy" />
			<input>
				<port id="0" precision="FP32">
					<dim>-1</dim>
					<dim>80</dim>
					<dim>160</dim>
					<dim>-1</dim>
				</port>
				<port id="1" precision="FP32">
					<dim>1</dim>
					<dim>80</dim>
					<dim>1</dim>
					<dim>1</dim>
				</port>
			</input>
			<output>
				<port id="2" precision="FP32" names="/backbone/stage1/stage1.1/blocks/blocks.2/conv2/conv/Conv_output_0">
					<dim>-1</dim>
					<dim>80</dim>
					<dim>160</dim>
					<dim>-1</dim>
				</port>
			</output>
		</layer>
		<layer id="168" name="/backbone/stage1/stage1.1/blocks/blocks.2/conv2/activate/Mul" type="Swish" version="opset4">
			<input>
				<port id="0" precision="FP32">
					<dim>-1</dim>
					<dim>80</dim>
					<dim>160</dim>
					<dim>-1</dim>
				</port>
			</input>
			<output>
				<port id="1" precision="FP32" names="/backbone/stage1/stage1.1/blocks/blocks.2/conv2/activate/Mul_output_0">
					<dim>-1</dim>
					<dim>80</dim>
					<dim>160</dim>
					<dim>-1</dim>
				</port>
			</output>
		</layer>
		<layer id="169" name="Constant_75322" type="Const" version="opset1">
			<data element_type="f32" shape="" offset="335288" size="4" />
			<output>
				<port id="0" precision="FP32" />
			</output>
		</layer>
		<layer id="170" name="Constant_75323" type="Const" version="opset1">
			<data element_type="f32" shape="" offset="335292" size="4" />
			<output>
				<port id="0" precision="FP32" />
			</output>
		</layer>
		<layer id="171" name="Constant_75324" type="Const" version="opset1">
			<data element_type="f32" shape="" offset="335288" size="4" />
			<output>
				<port id="0" precision="FP32" />
			</output>
		</layer>
		<layer id="172" name="Constant_75325" type="Const" version="opset1">
			<data element_type="f32" shape="" offset="335292" size="4" />
			<output>
				<port id="0" precision="FP32" />
			</output>
		</layer>
		<layer id="173" name="/backbone/stage1/stage1.1/blocks/blocks.2/conv2/activate/Mul/fq_output_0" type="FakeQuantize" version="opset1">
			<data levels="256" auto_broadcast="numpy" />
			<input>
				<port id="0" precision="FP32">
					<dim>-1</dim>
					<dim>80</dim>
					<dim>160</dim>
					<dim>-1</dim>
				</port>
				<port id="1" precision="FP32" />
				<port id="2" precision="FP32" />
				<port id="3" precision="FP32" />
				<port id="4" precision="FP32" />
			</input>
			<output>
				<port id="5" precision="FP32">
					<dim>-1</dim>
					<dim>80</dim>
					<dim>160</dim>
					<dim>-1</dim>
				</port>
			</output>
		</layer>
		<layer id="174" name="/backbone/stage1/stage1.1/blocks/blocks.2/Add" type="Add" version="opset1">
			<data auto_broadcast="numpy" />
			<input>
				<port id="0" precision="FP32">
					<dim>-1</dim>
					<dim>80</dim>
					<dim>160</dim>
					<dim>-1</dim>
				</port>
				<port id="1" precision="FP32">
					<dim>-1</dim>
					<dim>80</dim>
					<dim>160</dim>
					<dim>-1</dim>
				</port>
			</input>
			<output>
				<port id="2" precision="FP32" names="/backbone/stage1/stage1.1/blocks/blocks.2/Add_output_0">
					<dim>-1</dim>
					<dim>80</dim>
					<dim>160</dim>
					<dim>-1</dim>
				</port>
			</output>
		</layer>
		<layer id="175" name="Constant_75327" type="Const" version="opset1">
			<data element_type="f32" shape="" offset="335296" size="4" />
			<output>
				<port id="0" precision="FP32" />
			</output>
		</layer>
		<layer id="176" name="Constant_75328" type="Const" version="opset1">
			<data element_type="f32" shape="" offset="335300" size="4" />
			<output>
				<port id="0" precision="FP32" />
			</output>
		</layer>
		<layer id="177" name="Constant_75329" type="Const" version="opset1">
			<data element_type="f32" shape="" offset="335296" size="4" />
			<output>
				<port id="0" precision="FP32" />
			</output>
		</layer>
		<layer id="178" name="Constant_75330" type="Const" version="opset1">
			<data element_type="f32" shape="" offset="335300" size="4" />
			<output>
				<port id="0" precision="FP32" />
			</output>
		</layer>
		<layer id="179" name="/backbone/stage1/stage1.1/blocks/blocks.2/Add/fq_output_0" type="FakeQuantize" version="opset1">
			<data levels="256" auto_broadcast="numpy" />
			<input>
				<port id="0" precision="FP32">
					<dim>-1</dim>
					<dim>80</dim>
					<dim>160</dim>
					<dim>-1</dim>
				</port>
				<port id="1" precision="FP32" />
				<port id="2" precision="FP32" />
				<port id="3" precision="FP32" />
				<port id="4" precision="FP32" />
			</input>
			<output>
				<port id="5" precision="FP32">
					<dim>-1</dim>
					<dim>80</dim>
					<dim>160</dim>
					<dim>-1</dim>
				</port>
			</output>
		</layer>
		<layer id="180" name="onnx::Conv_2096" type="Const" version="opset1">
			<data element_type="i8" shape="80, 80, 1, 1" offset="335304" size="6400" />
			<output>
				<port id="0" precision="I8">
					<dim>80</dim>
					<dim>80</dim>
					<dim>1</dim>
					<dim>1</dim>
				</port>
			</output>
		</layer>
		<layer id="181" name="Convert_968423" type="Convert" version="opset1">
			<data destination_type="f32" />
			<input>
				<port id="0" precision="I8">
					<dim>80</dim>
					<dim>80</dim>
					<dim>1</dim>
					<dim>1</dim>
				</port>
			</input>
			<output>
				<port id="1" precision="FP32">
					<dim>80</dim>
					<dim>80</dim>
					<dim>1</dim>
					<dim>1</dim>
				</port>
			</output>
		</layer>
		<layer id="182" name="Constant_968321" type="Const" version="opset1">
			<data element_type="f32" shape="80, 1, 1, 1" offset="341704" size="320" />
			<output>
				<port id="0" precision="FP32">
					<dim>80</dim>
					<dim>1</dim>
					<dim>1</dim>
					<dim>1</dim>
				</port>
			</output>
		</layer>
		<layer id="183" name="/backbone/stage1/stage1.1/blocks/blocks.3/conv1/conv/Conv/WithoutBiases/fq_weights_1" type="Multiply" version="opset1">
			<data auto_broadcast="numpy" />
			<input>
				<port id="0" precision="FP32">
					<dim>80</dim>
					<dim>80</dim>
					<dim>1</dim>
					<dim>1</dim>
				</port>
				<port id="1" precision="FP32">
					<dim>80</dim>
					<dim>1</dim>
					<dim>1</dim>
					<dim>1</dim>
				</port>
			</input>
			<output>
				<port id="2" precision="FP32">
					<dim>80</dim>
					<dim>80</dim>
					<dim>1</dim>
					<dim>1</dim>
				</port>
			</output>
		</layer>
		<layer id="184" name="/backbone/stage1/stage1.1/blocks/blocks.3/conv1/conv/Conv/WithoutBiases" type="Convolution" version="opset1">
			<data strides="1, 1" dilations="1, 1" pads_begin="0, 0" pads_end="0, 0" auto_pad="explicit" />
			<input>
				<port id="0" precision="FP32">
					<dim>-1</dim>
					<dim>80</dim>
					<dim>160</dim>
					<dim>-1</dim>
				</port>
				<port id="1" precision="FP32">
					<dim>80</dim>
					<dim>80</dim>
					<dim>1</dim>
					<dim>1</dim>
				</port>
			</input>
			<output>
				<port id="2" precision="FP32">
					<dim>-1</dim>
					<dim>80</dim>
					<dim>160</dim>
					<dim>-1</dim>
				</port>
			</output>
		</layer>
		<layer id="185" name="Reshape_605" type="Const" version="opset1">
			<data element_type="f32" shape="1, 80, 1, 1" offset="342024" size="320" />
			<output>
				<port id="0" precision="FP32">
					<dim>1</dim>
					<dim>80</dim>
					<dim>1</dim>
					<dim>1</dim>
				</port>
			</output>
		</layer>
		<layer id="186" name="/backbone/stage1/stage1.1/blocks/blocks.3/conv1/conv/Conv" type="Add" version="opset1">
			<data auto_broadcast="numpy" />
			<input>
				<port id="0" precision="FP32">
					<dim>-1</dim>
					<dim>80</dim>
					<dim>160</dim>
					<dim>-1</dim>
				</port>
				<port id="1" precision="FP32">
					<dim>1</dim>
					<dim>80</dim>
					<dim>1</dim>
					<dim>1</dim>
				</port>
			</input>
			<output>
				<port id="2" precision="FP32" names="/backbone/stage1/stage1.1/blocks/blocks.3/conv1/conv/Conv_output_0">
					<dim>-1</dim>
					<dim>80</dim>
					<dim>160</dim>
					<dim>-1</dim>
				</port>
			</output>
		</layer>
		<layer id="187" name="/backbone/stage1/stage1.1/blocks/blocks.3/conv1/activate/Mul" type="Swish" version="opset4">
			<input>
				<port id="0" precision="FP32">
					<dim>-1</dim>
					<dim>80</dim>
					<dim>160</dim>
					<dim>-1</dim>
				</port>
			</input>
			<output>
				<port id="1" precision="FP32" names="/backbone/stage1/stage1.1/blocks/blocks.3/conv1/activate/Mul_output_0">
					<dim>-1</dim>
					<dim>80</dim>
					<dim>160</dim>
					<dim>-1</dim>
				</port>
			</output>
		</layer>
		<layer id="188" name="Constant_75337" type="Const" version="opset1">
			<data element_type="f32" shape="" offset="342344" size="4" />
			<output>
				<port id="0" precision="FP32" />
			</output>
		</layer>
		<layer id="189" name="Constant_75338" type="Const" version="opset1">
			<data element_type="f32" shape="" offset="342348" size="4" />
			<output>
				<port id="0" precision="FP32" />
			</output>
		</layer>
		<layer id="190" name="Constant_75339" type="Const" version="opset1">
			<data element_type="f32" shape="" offset="342344" size="4" />
			<output>
				<port id="0" precision="FP32" />
			</output>
		</layer>
		<layer id="191" name="Constant_75340" type="Const" version="opset1">
			<data element_type="f32" shape="" offset="342348" size="4" />
			<output>
				<port id="0" precision="FP32" />
			</output>
		</layer>
		<layer id="192" name="/backbone/stage1/stage1.1/blocks/blocks.3/conv1/activate/Mul/fq_output_0" type="FakeQuantize" version="opset1">
			<data levels="256" auto_broadcast="numpy" />
			<input>
				<port id="0" precision="FP32">
					<dim>-1</dim>
					<dim>80</dim>
					<dim>160</dim>
					<dim>-1</dim>
				</port>
				<port id="1" precision="FP32" />
				<port id="2" precision="FP32" />
				<port id="3" precision="FP32" />
				<port id="4" precision="FP32" />
			</input>
			<output>
				<port id="5" precision="FP32">
					<dim>-1</dim>
					<dim>80</dim>
					<dim>160</dim>
					<dim>-1</dim>
				</port>
			</output>
		</layer>
		<layer id="193" name="onnx::Conv_2099" type="Const" version="opset1">
			<data element_type="i8" shape="80, 80, 3, 3" offset="342352" size="57600" />
			<output>
				<port id="0" precision="I8">
					<dim>80</dim>
					<dim>80</dim>
					<dim>3</dim>
					<dim>3</dim>
				</port>
			</output>
		</layer>
		<layer id="194" name="Convert_968577" type="Convert" version="opset1">
			<data destination_type="f32" />
			<input>
				<port id="0" precision="I8">
					<dim>80</dim>
					<dim>80</dim>
					<dim>3</dim>
					<dim>3</dim>
				</port>
			</input>
			<output>
				<port id="1" precision="FP32">
					<dim>80</dim>
					<dim>80</dim>
					<dim>3</dim>
					<dim>3</dim>
				</port>
			</output>
		</layer>
		<layer id="195" name="Constant_968475" type="Const" version="opset1">
			<data element_type="f32" shape="80, 1, 1, 1" offset="399952" size="320" />
			<output>
				<port id="0" precision="FP32">
					<dim>80</dim>
					<dim>1</dim>
					<dim>1</dim>
					<dim>1</dim>
				</port>
			</output>
		</layer>
		<layer id="196" name="/backbone/stage1/stage1.1/blocks/blocks.3/conv2/conv/Conv/WithoutBiases/fq_weights_1" type="Multiply" version="opset1">
			<data auto_broadcast="numpy" />
			<input>
				<port id="0" precision="FP32">
					<dim>80</dim>
					<dim>80</dim>
					<dim>3</dim>
					<dim>3</dim>
				</port>
				<port id="1" precision="FP32">
					<dim>80</dim>
					<dim>1</dim>
					<dim>1</dim>
					<dim>1</dim>
				</port>
			</input>
			<output>
				<port id="2" precision="FP32">
					<dim>80</dim>
					<dim>80</dim>
					<dim>3</dim>
					<dim>3</dim>
				</port>
			</output>
		</layer>
		<layer id="197" name="/backbone/stage1/stage1.1/blocks/blocks.3/conv2/conv/Conv/WithoutBiases" type="Convolution" version="opset1">
			<data strides="1, 1" dilations="1, 1" pads_begin="1, 1" pads_end="1, 1" auto_pad="explicit" />
			<input>
				<port id="0" precision="FP32">
					<dim>-1</dim>
					<dim>80</dim>
					<dim>160</dim>
					<dim>-1</dim>
				</port>
				<port id="1" precision="FP32">
					<dim>80</dim>
					<dim>80</dim>
					<dim>3</dim>
					<dim>3</dim>
				</port>
			</input>
			<output>
				<port id="2" precision="FP32">
					<dim>-1</dim>
					<dim>80</dim>
					<dim>160</dim>
					<dim>-1</dim>
				</port>
			</output>
		</layer>
		<layer id="198" name="Reshape_622" type="Const" version="opset1">
			<data element_type="f32" shape="1, 80, 1, 1" offset="400272" size="320" />
			<output>
				<port id="0" precision="FP32">
					<dim>1</dim>
					<dim>80</dim>
					<dim>1</dim>
					<dim>1</dim>
				</port>
			</output>
		</layer>
		<layer id="199" name="/backbone/stage1/stage1.1/blocks/blocks.3/conv2/conv/Conv" type="Add" version="opset1">
			<data auto_broadcast="numpy" />
			<input>
				<port id="0" precision="FP32">
					<dim>-1</dim>
					<dim>80</dim>
					<dim>160</dim>
					<dim>-1</dim>
				</port>
				<port id="1" precision="FP32">
					<dim>1</dim>
					<dim>80</dim>
					<dim>1</dim>
					<dim>1</dim>
				</port>
			</input>
			<output>
				<port id="2" precision="FP32" names="/backbone/stage1/stage1.1/blocks/blocks.3/conv2/conv/Conv_output_0">
					<dim>-1</dim>
					<dim>80</dim>
					<dim>160</dim>
					<dim>-1</dim>
				</port>
			</output>
		</layer>
		<layer id="200" name="/backbone/stage1/stage1.1/blocks/blocks.3/conv2/activate/Mul" type="Swish" version="opset4">
			<input>
				<port id="0" precision="FP32">
					<dim>-1</dim>
					<dim>80</dim>
					<dim>160</dim>
					<dim>-1</dim>
				</port>
			</input>
			<output>
				<port id="1" precision="FP32" names="/backbone/stage1/stage1.1/blocks/blocks.3/conv2/activate/Mul_output_0">
					<dim>-1</dim>
					<dim>80</dim>
					<dim>160</dim>
					<dim>-1</dim>
				</port>
			</output>
		</layer>
		<layer id="201" name="Constant_75347" type="Const" version="opset1">
			<data element_type="f32" shape="" offset="400592" size="4" />
			<output>
				<port id="0" precision="FP32" />
			</output>
		</layer>
		<layer id="202" name="Constant_75348" type="Const" version="opset1">
			<data element_type="f32" shape="" offset="400596" size="4" />
			<output>
				<port id="0" precision="FP32" />
			</output>
		</layer>
		<layer id="203" name="Constant_75349" type="Const" version="opset1">
			<data element_type="f32" shape="" offset="400592" size="4" />
			<output>
				<port id="0" precision="FP32" />
			</output>
		</layer>
		<layer id="204" name="Constant_75350" type="Const" version="opset1">
			<data element_type="f32" shape="" offset="400596" size="4" />
			<output>
				<port id="0" precision="FP32" />
			</output>
		</layer>
		<layer id="205" name="/backbone/stage1/stage1.1/blocks/blocks.3/conv2/activate/Mul/fq_output_0" type="FakeQuantize" version="opset1">
			<data levels="256" auto_broadcast="numpy" />
			<input>
				<port id="0" precision="FP32">
					<dim>-1</dim>
					<dim>80</dim>
					<dim>160</dim>
					<dim>-1</dim>
				</port>
				<port id="1" precision="FP32" />
				<port id="2" precision="FP32" />
				<port id="3" precision="FP32" />
				<port id="4" precision="FP32" />
			</input>
			<output>
				<port id="5" precision="FP32">
					<dim>-1</dim>
					<dim>80</dim>
					<dim>160</dim>
					<dim>-1</dim>
				</port>
			</output>
		</layer>
		<layer id="206" name="/backbone/stage1/stage1.1/blocks/blocks.3/Add" type="Add" version="opset1">
			<data auto_broadcast="numpy" />
			<input>
				<port id="0" precision="FP32">
					<dim>-1</dim>
					<dim>80</dim>
					<dim>160</dim>
					<dim>-1</dim>
				</port>
				<port id="1" precision="FP32">
					<dim>-1</dim>
					<dim>80</dim>
					<dim>160</dim>
					<dim>-1</dim>
				</port>
			</input>
			<output>
				<port id="2" precision="FP32" names="/backbone/stage1/stage1.1/blocks/blocks.3/Add_output_0">
					<dim>-1</dim>
					<dim>80</dim>
					<dim>160</dim>
					<dim>-1</dim>
				</port>
			</output>
		</layer>
		<layer id="207" name="Constant_75097" type="Const" version="opset1">
			<data element_type="f32" shape="" offset="400600" size="4" />
			<output>
				<port id="0" precision="FP32" />
			</output>
		</layer>
		<layer id="208" name="Constant_75098" type="Const" version="opset1">
			<data element_type="f32" shape="" offset="400604" size="4" />
			<output>
				<port id="0" precision="FP32" />
			</output>
		</layer>
		<layer id="209" name="Constant_75099" type="Const" version="opset1">
			<data element_type="f32" shape="" offset="400600" size="4" />
			<output>
				<port id="0" precision="FP32" />
			</output>
		</layer>
		<layer id="210" name="Constant_75100" type="Const" version="opset1">
			<data element_type="f32" shape="" offset="400604" size="4" />
			<output>
				<port id="0" precision="FP32" />
			</output>
		</layer>
		<layer id="211" name="/backbone/stage1/stage1.1/blocks/blocks.3/Add/fq_output_0" type="FakeQuantize" version="opset1">
			<data levels="256" auto_broadcast="numpy" />
			<input>
				<port id="0" precision="FP32">
					<dim>-1</dim>
					<dim>80</dim>
					<dim>160</dim>
					<dim>-1</dim>
				</port>
				<port id="1" precision="FP32" />
				<port id="2" precision="FP32" />
				<port id="3" precision="FP32" />
				<port id="4" precision="FP32" />
			</input>
			<output>
				<port id="5" precision="FP32">
					<dim>-1</dim>
					<dim>80</dim>
					<dim>160</dim>
					<dim>-1</dim>
				</port>
			</output>
		</layer>
		<layer id="212" name="onnx::Conv_2072" type="Const" version="opset1">
			<data element_type="i8" shape="80, 160, 1, 1" offset="400608" size="12800" />
			<output>
				<port id="0" precision="I8">
					<dim>80</dim>
					<dim>160</dim>
					<dim>1</dim>
					<dim>1</dim>
				</port>
			</output>
		</layer>
		<layer id="213" name="Convert_968731" type="Convert" version="opset1">
			<data destination_type="f32" />
			<input>
				<port id="0" precision="I8">
					<dim>80</dim>
					<dim>160</dim>
					<dim>1</dim>
					<dim>1</dim>
				</port>
			</input>
			<output>
				<port id="1" precision="FP32">
					<dim>80</dim>
					<dim>160</dim>
					<dim>1</dim>
					<dim>1</dim>
				</port>
			</output>
		</layer>
		<layer id="214" name="Constant_968629" type="Const" version="opset1">
			<data element_type="f32" shape="80, 1, 1, 1" offset="413408" size="320" />
			<output>
				<port id="0" precision="FP32">
					<dim>80</dim>
					<dim>1</dim>
					<dim>1</dim>
					<dim>1</dim>
				</port>
			</output>
		</layer>
		<layer id="215" name="/backbone/stage1/stage1.1/short_conv/conv/Conv/WithoutBiases/fq_weights_1" type="Multiply" version="opset1">
			<data auto_broadcast="numpy" />
			<input>
				<port id="0" precision="FP32">
					<dim>80</dim>
					<dim>160</dim>
					<dim>1</dim>
					<dim>1</dim>
				</port>
				<port id="1" precision="FP32">
					<dim>80</dim>
					<dim>1</dim>
					<dim>1</dim>
					<dim>1</dim>
				</port>
			</input>
			<output>
				<port id="2" precision="FP32">
					<dim>80</dim>
					<dim>160</dim>
					<dim>1</dim>
					<dim>1</dim>
				</port>
			</output>
		</layer>
		<layer id="216" name="/backbone/stage1/stage1.1/short_conv/conv/Conv/WithoutBiases" type="Convolution" version="opset1">
			<data strides="1, 1" dilations="1, 1" pads_begin="0, 0" pads_end="0, 0" auto_pad="explicit" />
			<input>
				<port id="0" precision="FP32">
					<dim>-1</dim>
					<dim>160</dim>
					<dim>160</dim>
					<dim>-1</dim>
				</port>
				<port id="1" precision="FP32">
					<dim>80</dim>
					<dim>160</dim>
					<dim>1</dim>
					<dim>1</dim>
				</port>
			</input>
			<output>
				<port id="2" precision="FP32">
					<dim>-1</dim>
					<dim>80</dim>
					<dim>160</dim>
					<dim>-1</dim>
				</port>
			</output>
		</layer>
		<layer id="217" name="Reshape_466" type="Const" version="opset1">
			<data element_type="f32" shape="1, 80, 1, 1" offset="413728" size="320" />
			<output>
				<port id="0" precision="FP32">
					<dim>1</dim>
					<dim>80</dim>
					<dim>1</dim>
					<dim>1</dim>
				</port>
			</output>
		</layer>
		<layer id="218" name="/backbone/stage1/stage1.1/short_conv/conv/Conv" type="Add" version="opset1">
			<data auto_broadcast="numpy" />
			<input>
				<port id="0" precision="FP32">
					<dim>-1</dim>
					<dim>80</dim>
					<dim>160</dim>
					<dim>-1</dim>
				</port>
				<port id="1" precision="FP32">
					<dim>1</dim>
					<dim>80</dim>
					<dim>1</dim>
					<dim>1</dim>
				</port>
			</input>
			<output>
				<port id="2" precision="FP32" names="/backbone/stage1/stage1.1/short_conv/conv/Conv_output_0">
					<dim>-1</dim>
					<dim>80</dim>
					<dim>160</dim>
					<dim>-1</dim>
				</port>
			</output>
		</layer>
		<layer id="219" name="/backbone/stage1/stage1.1/short_conv/activate/Mul" type="Swish" version="opset4">
			<input>
				<port id="0" precision="FP32">
					<dim>-1</dim>
					<dim>80</dim>
					<dim>160</dim>
					<dim>-1</dim>
				</port>
			</input>
			<output>
				<port id="1" precision="FP32" names="/backbone/stage1/stage1.1/short_conv/activate/Mul_output_0">
					<dim>-1</dim>
					<dim>80</dim>
					<dim>160</dim>
					<dim>-1</dim>
				</port>
			</output>
		</layer>
		<layer id="220" name="Constant_75092" type="Const" version="opset1">
			<data element_type="f32" shape="" offset="400600" size="4" />
			<output>
				<port id="0" precision="FP32" />
			</output>
		</layer>
		<layer id="221" name="Constant_75093" type="Const" version="opset1">
			<data element_type="f32" shape="" offset="400604" size="4" />
			<output>
				<port id="0" precision="FP32" />
			</output>
		</layer>
		<layer id="222" name="Constant_75094" type="Const" version="opset1">
			<data element_type="f32" shape="" offset="400600" size="4" />
			<output>
				<port id="0" precision="FP32" />
			</output>
		</layer>
		<layer id="223" name="Constant_75095" type="Const" version="opset1">
			<data element_type="f32" shape="" offset="400604" size="4" />
			<output>
				<port id="0" precision="FP32" />
			</output>
		</layer>
		<layer id="224" name="/backbone/stage1/stage1.1/short_conv/activate/Mul/fq_output_0" type="FakeQuantize" version="opset1">
			<data levels="256" auto_broadcast="numpy" />
			<input>
				<port id="0" precision="FP32">
					<dim>-1</dim>
					<dim>80</dim>
					<dim>160</dim>
					<dim>-1</dim>
				</port>
				<port id="1" precision="FP32" />
				<port id="2" precision="FP32" />
				<port id="3" precision="FP32" />
				<port id="4" precision="FP32" />
			</input>
			<output>
				<port id="5" precision="FP32">
					<dim>-1</dim>
					<dim>80</dim>
					<dim>160</dim>
					<dim>-1</dim>
				</port>
			</output>
		</layer>
		<layer id="225" name="/backbone/stage1/stage1.1/Concat" type="Concat" version="opset1">
			<data axis="1" />
			<input>
				<port id="0" precision="FP32">
					<dim>-1</dim>
					<dim>80</dim>
					<dim>160</dim>
					<dim>-1</dim>
				</port>
				<port id="1" precision="FP32">
					<dim>-1</dim>
					<dim>80</dim>
					<dim>160</dim>
					<dim>-1</dim>
				</port>
			</input>
			<output>
				<port id="2" precision="FP32" names="/backbone/stage1/stage1.1/Concat_output_0">
					<dim>-1</dim>
					<dim>160</dim>
					<dim>160</dim>
					<dim>-1</dim>
				</port>
			</output>
		</layer>
		<layer id="226" name="onnx::Conv_2102" type="Const" version="opset1">
			<data element_type="i8" shape="160, 160, 1, 1" offset="414048" size="25600" />
			<output>
				<port id="0" precision="I8">
					<dim>160</dim>
					<dim>160</dim>
					<dim>1</dim>
					<dim>1</dim>
				</port>
			</output>
		</layer>
		<layer id="227" name="Convert_968885" type="Convert" version="opset1">
			<data destination_type="f32" />
			<input>
				<port id="0" precision="I8">
					<dim>160</dim>
					<dim>160</dim>
					<dim>1</dim>
					<dim>1</dim>
				</port>
			</input>
			<output>
				<port id="1" precision="FP32">
					<dim>160</dim>
					<dim>160</dim>
					<dim>1</dim>
					<dim>1</dim>
				</port>
			</output>
		</layer>
		<layer id="228" name="Constant_968783" type="Const" version="opset1">
			<data element_type="f32" shape="160, 1, 1, 1" offset="439648" size="640" />
			<output>
				<port id="0" precision="FP32">
					<dim>160</dim>
					<dim>1</dim>
					<dim>1</dim>
					<dim>1</dim>
				</port>
			</output>
		</layer>
		<layer id="229" name="/backbone/stage1/stage1.1/final_conv/conv/Conv/WithoutBiases/fq_weights_1" type="Multiply" version="opset1">
			<data auto_broadcast="numpy" />
			<input>
				<port id="0" precision="FP32">
					<dim>160</dim>
					<dim>160</dim>
					<dim>1</dim>
					<dim>1</dim>
				</port>
				<port id="1" precision="FP32">
					<dim>160</dim>
					<dim>1</dim>
					<dim>1</dim>
					<dim>1</dim>
				</port>
			</input>
			<output>
				<port id="2" precision="FP32">
					<dim>160</dim>
					<dim>160</dim>
					<dim>1</dim>
					<dim>1</dim>
				</port>
			</output>
		</layer>
		<layer id="230" name="/backbone/stage1/stage1.1/final_conv/conv/Conv/WithoutBiases" type="Convolution" version="opset1">
			<data strides="1, 1" dilations="1, 1" pads_begin="0, 0" pads_end="0, 0" auto_pad="explicit" />
			<input>
				<port id="0" precision="FP32">
					<dim>-1</dim>
					<dim>160</dim>
					<dim>160</dim>
					<dim>-1</dim>
				</port>
				<port id="1" precision="FP32">
					<dim>160</dim>
					<dim>160</dim>
					<dim>1</dim>
					<dim>1</dim>
				</port>
			</input>
			<output>
				<port id="2" precision="FP32">
					<dim>-1</dim>
					<dim>160</dim>
					<dim>160</dim>
					<dim>-1</dim>
				</port>
			</output>
		</layer>
		<layer id="231" name="Reshape_641" type="Const" version="opset1">
			<data element_type="f32" shape="1, 160, 1, 1" offset="440288" size="640" />
			<output>
				<port id="0" precision="FP32">
					<dim>1</dim>
					<dim>160</dim>
					<dim>1</dim>
					<dim>1</dim>
				</port>
			</output>
		</layer>
		<layer id="232" name="/backbone/stage1/stage1.1/final_conv/conv/Conv" type="Add" version="opset1">
			<data auto_broadcast="numpy" />
			<input>
				<port id="0" precision="FP32">
					<dim>-1</dim>
					<dim>160</dim>
					<dim>160</dim>
					<dim>-1</dim>
				</port>
				<port id="1" precision="FP32">
					<dim>1</dim>
					<dim>160</dim>
					<dim>1</dim>
					<dim>1</dim>
				</port>
			</input>
			<output>
				<port id="2" precision="FP32" names="/backbone/stage1/stage1.1/final_conv/conv/Conv_output_0">
					<dim>-1</dim>
					<dim>160</dim>
					<dim>160</dim>
					<dim>-1</dim>
				</port>
			</output>
		</layer>
		<layer id="233" name="/backbone/stage1/stage1.1/final_conv/activate/Mul" type="Swish" version="opset4">
			<input>
				<port id="0" precision="FP32">
					<dim>-1</dim>
					<dim>160</dim>
					<dim>160</dim>
					<dim>-1</dim>
				</port>
			</input>
			<output>
				<port id="1" precision="FP32" names="/backbone/stage1/stage1.1/final_conv/activate/Mul_output_0">
					<dim>-1</dim>
					<dim>160</dim>
					<dim>160</dim>
					<dim>-1</dim>
				</port>
			</output>
		</layer>
		<layer id="234" name="Constant_75357" type="Const" version="opset1">
			<data element_type="f32" shape="" offset="440928" size="4" />
			<output>
				<port id="0" precision="FP32" />
			</output>
		</layer>
		<layer id="235" name="Constant_75358" type="Const" version="opset1">
			<data element_type="f32" shape="" offset="440932" size="4" />
			<output>
				<port id="0" precision="FP32" />
			</output>
		</layer>
		<layer id="236" name="Constant_75359" type="Const" version="opset1">
			<data element_type="f32" shape="" offset="440928" size="4" />
			<output>
				<port id="0" precision="FP32" />
			</output>
		</layer>
		<layer id="237" name="Constant_75360" type="Const" version="opset1">
			<data element_type="f32" shape="" offset="440932" size="4" />
			<output>
				<port id="0" precision="FP32" />
			</output>
		</layer>
		<layer id="238" name="/backbone/stage1/stage1.1/final_conv/activate/Mul/fq_output_0" type="FakeQuantize" version="opset1">
			<data levels="256" auto_broadcast="numpy" />
			<input>
				<port id="0" precision="FP32">
					<dim>-1</dim>
					<dim>160</dim>
					<dim>160</dim>
					<dim>-1</dim>
				</port>
				<port id="1" precision="FP32" />
				<port id="2" precision="FP32" />
				<port id="3" precision="FP32" />
				<port id="4" precision="FP32" />
			</input>
			<output>
				<port id="5" precision="FP32">
					<dim>-1</dim>
					<dim>160</dim>
					<dim>160</dim>
					<dim>-1</dim>
				</port>
			</output>
		</layer>
		<layer id="239" name="onnx::Conv_2105" type="Const" version="opset1">
			<data element_type="i8" shape="320, 160, 3, 3" offset="440936" size="460800" />
			<output>
				<port id="0" precision="I8">
					<dim>320</dim>
					<dim>160</dim>
					<dim>3</dim>
					<dim>3</dim>
				</port>
			</output>
		</layer>
		<layer id="240" name="Convert_969039" type="Convert" version="opset1">
			<data destination_type="f32" />
			<input>
				<port id="0" precision="I8">
					<dim>320</dim>
					<dim>160</dim>
					<dim>3</dim>
					<dim>3</dim>
				</port>
			</input>
			<output>
				<port id="1" precision="FP32">
					<dim>320</dim>
					<dim>160</dim>
					<dim>3</dim>
					<dim>3</dim>
				</port>
			</output>
		</layer>
		<layer id="241" name="Constant_968937" type="Const" version="opset1">
			<data element_type="f32" shape="320, 1, 1, 1" offset="901736" size="1280" />
			<output>
				<port id="0" precision="FP32">
					<dim>320</dim>
					<dim>1</dim>
					<dim>1</dim>
					<dim>1</dim>
				</port>
			</output>
		</layer>
		<layer id="242" name="/backbone/stage2/stage2.0/conv/Conv/WithoutBiases/fq_weights_1" type="Multiply" version="opset1">
			<data auto_broadcast="numpy" />
			<input>
				<port id="0" precision="FP32">
					<dim>320</dim>
					<dim>160</dim>
					<dim>3</dim>
					<dim>3</dim>
				</port>
				<port id="1" precision="FP32">
					<dim>320</dim>
					<dim>1</dim>
					<dim>1</dim>
					<dim>1</dim>
				</port>
			</input>
			<output>
				<port id="2" precision="FP32">
					<dim>320</dim>
					<dim>160</dim>
					<dim>3</dim>
					<dim>3</dim>
				</port>
			</output>
		</layer>
		<layer id="243" name="/backbone/stage2/stage2.0/conv/Conv/WithoutBiases" type="Convolution" version="opset1">
			<data strides="2, 2" dilations="1, 1" pads_begin="1, 1" pads_end="1, 1" auto_pad="explicit" />
			<input>
				<port id="0" precision="FP32">
					<dim>-1</dim>
					<dim>160</dim>
					<dim>160</dim>
					<dim>-1</dim>
				</port>
				<port id="1" precision="FP32">
					<dim>320</dim>
					<dim>160</dim>
					<dim>3</dim>
					<dim>3</dim>
				</port>
			</input>
			<output>
				<port id="2" precision="FP32">
					<dim>-1</dim>
					<dim>320</dim>
					<dim>80</dim>
					<dim>-1</dim>
				</port>
			</output>
		</layer>
		<layer id="244" name="Reshape_658" type="Const" version="opset1">
			<data element_type="f32" shape="1, 320, 1, 1" offset="903016" size="1280" />
			<output>
				<port id="0" precision="FP32">
					<dim>1</dim>
					<dim>320</dim>
					<dim>1</dim>
					<dim>1</dim>
				</port>
			</output>
		</layer>
		<layer id="245" name="/backbone/stage2/stage2.0/conv/Conv" type="Add" version="opset1">
			<data auto_broadcast="numpy" />
			<input>
				<port id="0" precision="FP32">
					<dim>-1</dim>
					<dim>320</dim>
					<dim>80</dim>
					<dim>-1</dim>
				</port>
				<port id="1" precision="FP32">
					<dim>1</dim>
					<dim>320</dim>
					<dim>1</dim>
					<dim>1</dim>
				</port>
			</input>
			<output>
				<port id="2" precision="FP32" names="/backbone/stage2/stage2.0/conv/Conv_output_0">
					<dim>-1</dim>
					<dim>320</dim>
					<dim>80</dim>
					<dim>-1</dim>
				</port>
			</output>
		</layer>
		<layer id="246" name="/backbone/stage2/stage2.0/activate/Mul" type="Swish" version="opset4">
			<input>
				<port id="0" precision="FP32">
					<dim>-1</dim>
					<dim>320</dim>
					<dim>80</dim>
					<dim>-1</dim>
				</port>
			</input>
			<output>
				<port id="1" precision="FP32" names="/backbone/stage2/stage2.0/activate/Mul_output_0">
					<dim>-1</dim>
					<dim>320</dim>
					<dim>80</dim>
					<dim>-1</dim>
				</port>
			</output>
		</layer>
		<layer id="247" name="Constant_75367" type="Const" version="opset1">
			<data element_type="f32" shape="" offset="904296" size="4" />
			<output>
				<port id="0" precision="FP32" />
			</output>
		</layer>
		<layer id="248" name="Constant_75368" type="Const" version="opset1">
			<data element_type="f32" shape="" offset="904300" size="4" />
			<output>
				<port id="0" precision="FP32" />
			</output>
		</layer>
		<layer id="249" name="Constant_75369" type="Const" version="opset1">
			<data element_type="f32" shape="" offset="904296" size="4" />
			<output>
				<port id="0" precision="FP32" />
			</output>
		</layer>
		<layer id="250" name="Constant_75370" type="Const" version="opset1">
			<data element_type="f32" shape="" offset="904300" size="4" />
			<output>
				<port id="0" precision="FP32" />
			</output>
		</layer>
		<layer id="251" name="/backbone/stage2/stage2.0/activate/Mul/fq_output_0" type="FakeQuantize" version="opset1">
			<data levels="256" auto_broadcast="numpy" />
			<input>
				<port id="0" precision="FP32">
					<dim>-1</dim>
					<dim>320</dim>
					<dim>80</dim>
					<dim>-1</dim>
				</port>
				<port id="1" precision="FP32" />
				<port id="2" precision="FP32" />
				<port id="3" precision="FP32" />
				<port id="4" precision="FP32" />
			</input>
			<output>
				<port id="5" precision="FP32">
					<dim>-1</dim>
					<dim>320</dim>
					<dim>80</dim>
					<dim>-1</dim>
				</port>
			</output>
		</layer>
		<layer id="252" name="onnx::Conv_2111" type="Const" version="opset1">
			<data element_type="i8" shape="160, 320, 1, 1" offset="904304" size="51200" />
			<output>
				<port id="0" precision="I8">
					<dim>160</dim>
					<dim>320</dim>
					<dim>1</dim>
					<dim>1</dim>
				</port>
			</output>
		</layer>
		<layer id="253" name="Convert_969193" type="Convert" version="opset1">
			<data destination_type="f32" />
			<input>
				<port id="0" precision="I8">
					<dim>160</dim>
					<dim>320</dim>
					<dim>1</dim>
					<dim>1</dim>
				</port>
			</input>
			<output>
				<port id="1" precision="FP32">
					<dim>160</dim>
					<dim>320</dim>
					<dim>1</dim>
					<dim>1</dim>
				</port>
			</output>
		</layer>
		<layer id="254" name="Constant_969091" type="Const" version="opset1">
			<data element_type="f32" shape="160, 1, 1, 1" offset="955504" size="640" />
			<output>
				<port id="0" precision="FP32">
					<dim>160</dim>
					<dim>1</dim>
					<dim>1</dim>
					<dim>1</dim>
				</port>
			</output>
		</layer>
		<layer id="255" name="/backbone/stage2/stage2.1/main_conv/conv/Conv/WithoutBiases/fq_weights_1" type="Multiply" version="opset1">
			<data auto_broadcast="numpy" />
			<input>
				<port id="0" precision="FP32">
					<dim>160</dim>
					<dim>320</dim>
					<dim>1</dim>
					<dim>1</dim>
				</port>
				<port id="1" precision="FP32">
					<dim>160</dim>
					<dim>1</dim>
					<dim>1</dim>
					<dim>1</dim>
				</port>
			</input>
			<output>
				<port id="2" precision="FP32">
					<dim>160</dim>
					<dim>320</dim>
					<dim>1</dim>
					<dim>1</dim>
				</port>
			</output>
		</layer>
		<layer id="256" name="/backbone/stage2/stage2.1/main_conv/conv/Conv/WithoutBiases" type="Convolution" version="opset1">
			<data strides="1, 1" dilations="1, 1" pads_begin="0, 0" pads_end="0, 0" auto_pad="explicit" />
			<input>
				<port id="0" precision="FP32">
					<dim>-1</dim>
					<dim>320</dim>
					<dim>80</dim>
					<dim>-1</dim>
				</port>
				<port id="1" precision="FP32">
					<dim>160</dim>
					<dim>320</dim>
					<dim>1</dim>
					<dim>1</dim>
				</port>
			</input>
			<output>
				<port id="2" precision="FP32">
					<dim>-1</dim>
					<dim>160</dim>
					<dim>80</dim>
					<dim>-1</dim>
				</port>
			</output>
		</layer>
		<layer id="257" name="Reshape_692" type="Const" version="opset1">
			<data element_type="f32" shape="1, 160, 1, 1" offset="956144" size="640" />
			<output>
				<port id="0" precision="FP32">
					<dim>1</dim>
					<dim>160</dim>
					<dim>1</dim>
					<dim>1</dim>
				</port>
			</output>
		</layer>
		<layer id="258" name="/backbone/stage2/stage2.1/main_conv/conv/Conv" type="Add" version="opset1">
			<data auto_broadcast="numpy" />
			<input>
				<port id="0" precision="FP32">
					<dim>-1</dim>
					<dim>160</dim>
					<dim>80</dim>
					<dim>-1</dim>
				</port>
				<port id="1" precision="FP32">
					<dim>1</dim>
					<dim>160</dim>
					<dim>1</dim>
					<dim>1</dim>
				</port>
			</input>
			<output>
				<port id="2" precision="FP32" names="/backbone/stage2/stage2.1/main_conv/conv/Conv_output_0">
					<dim>-1</dim>
					<dim>160</dim>
					<dim>80</dim>
					<dim>-1</dim>
				</port>
			</output>
		</layer>
		<layer id="259" name="/backbone/stage2/stage2.1/main_conv/activate/Mul" type="Swish" version="opset4">
			<input>
				<port id="0" precision="FP32">
					<dim>-1</dim>
					<dim>160</dim>
					<dim>80</dim>
					<dim>-1</dim>
				</port>
			</input>
			<output>
				<port id="1" precision="FP32" names="/backbone/stage2/stage2.1/main_conv/activate/Mul_output_0">
					<dim>-1</dim>
					<dim>160</dim>
					<dim>80</dim>
					<dim>-1</dim>
				</port>
			</output>
		</layer>
		<layer id="260" name="Constant_75382" type="Const" version="opset1">
			<data element_type="f32" shape="" offset="956784" size="4" />
			<output>
				<port id="0" precision="FP32" />
			</output>
		</layer>
		<layer id="261" name="Constant_75383" type="Const" version="opset1">
			<data element_type="f32" shape="" offset="956788" size="4" />
			<output>
				<port id="0" precision="FP32" />
			</output>
		</layer>
		<layer id="262" name="Constant_75384" type="Const" version="opset1">
			<data element_type="f32" shape="" offset="956784" size="4" />
			<output>
				<port id="0" precision="FP32" />
			</output>
		</layer>
		<layer id="263" name="Constant_75385" type="Const" version="opset1">
			<data element_type="f32" shape="" offset="956788" size="4" />
			<output>
				<port id="0" precision="FP32" />
			</output>
		</layer>
		<layer id="264" name="/backbone/stage2/stage2.1/main_conv/activate/Mul/fq_output_0" type="FakeQuantize" version="opset1">
			<data levels="256" auto_broadcast="numpy" />
			<input>
				<port id="0" precision="FP32">
					<dim>-1</dim>
					<dim>160</dim>
					<dim>80</dim>
					<dim>-1</dim>
				</port>
				<port id="1" precision="FP32" />
				<port id="2" precision="FP32" />
				<port id="3" precision="FP32" />
				<port id="4" precision="FP32" />
			</input>
			<output>
				<port id="5" precision="FP32">
					<dim>-1</dim>
					<dim>160</dim>
					<dim>80</dim>
					<dim>-1</dim>
				</port>
			</output>
		</layer>
		<layer id="265" name="onnx::Conv_2114" type="Const" version="opset1">
			<data element_type="i8" shape="160, 160, 1, 1" offset="956792" size="25600" />
			<output>
				<port id="0" precision="I8">
					<dim>160</dim>
					<dim>160</dim>
					<dim>1</dim>
					<dim>1</dim>
				</port>
			</output>
		</layer>
		<layer id="266" name="Convert_969347" type="Convert" version="opset1">
			<data destination_type="f32" />
			<input>
				<port id="0" precision="I8">
					<dim>160</dim>
					<dim>160</dim>
					<dim>1</dim>
					<dim>1</dim>
				</port>
			</input>
			<output>
				<port id="1" precision="FP32">
					<dim>160</dim>
					<dim>160</dim>
					<dim>1</dim>
					<dim>1</dim>
				</port>
			</output>
		</layer>
		<layer id="267" name="Constant_969245" type="Const" version="opset1">
			<data element_type="f32" shape="160, 1, 1, 1" offset="982392" size="640" />
			<output>
				<port id="0" precision="FP32">
					<dim>160</dim>
					<dim>1</dim>
					<dim>1</dim>
					<dim>1</dim>
				</port>
			</output>
		</layer>
		<layer id="268" name="/backbone/stage2/stage2.1/blocks/blocks.0/conv1/conv/Conv/WithoutBiases/fq_weights_1" type="Multiply" version="opset1">
			<data auto_broadcast="numpy" />
			<input>
				<port id="0" precision="FP32">
					<dim>160</dim>
					<dim>160</dim>
					<dim>1</dim>
					<dim>1</dim>
				</port>
				<port id="1" precision="FP32">
					<dim>160</dim>
					<dim>1</dim>
					<dim>1</dim>
					<dim>1</dim>
				</port>
			</input>
			<output>
				<port id="2" precision="FP32">
					<dim>160</dim>
					<dim>160</dim>
					<dim>1</dim>
					<dim>1</dim>
				</port>
			</output>
		</layer>
		<layer id="269" name="/backbone/stage2/stage2.1/blocks/blocks.0/conv1/conv/Conv/WithoutBiases" type="Convolution" version="opset1">
			<data strides="1, 1" dilations="1, 1" pads_begin="0, 0" pads_end="0, 0" auto_pad="explicit" />
			<input>
				<port id="0" precision="FP32">
					<dim>-1</dim>
					<dim>160</dim>
					<dim>80</dim>
					<dim>-1</dim>
				</port>
				<port id="1" precision="FP32">
					<dim>160</dim>
					<dim>160</dim>
					<dim>1</dim>
					<dim>1</dim>
				</port>
			</input>
			<output>
				<port id="2" precision="FP32">
					<dim>-1</dim>
					<dim>160</dim>
					<dim>80</dim>
					<dim>-1</dim>
				</port>
			</output>
		</layer>
		<layer id="270" name="Reshape_709" type="Const" version="opset1">
			<data element_type="f32" shape="1, 160, 1, 1" offset="983032" size="640" />
			<output>
				<port id="0" precision="FP32">
					<dim>1</dim>
					<dim>160</dim>
					<dim>1</dim>
					<dim>1</dim>
				</port>
			</output>
		</layer>
		<layer id="271" name="/backbone/stage2/stage2.1/blocks/blocks.0/conv1/conv/Conv" type="Add" version="opset1">
			<data auto_broadcast="numpy" />
			<input>
				<port id="0" precision="FP32">
					<dim>-1</dim>
					<dim>160</dim>
					<dim>80</dim>
					<dim>-1</dim>
				</port>
				<port id="1" precision="FP32">
					<dim>1</dim>
					<dim>160</dim>
					<dim>1</dim>
					<dim>1</dim>
				</port>
			</input>
			<output>
				<port id="2" precision="FP32" names="/backbone/stage2/stage2.1/blocks/blocks.0/conv1/conv/Conv_output_0">
					<dim>-1</dim>
					<dim>160</dim>
					<dim>80</dim>
					<dim>-1</dim>
				</port>
			</output>
		</layer>
		<layer id="272" name="/backbone/stage2/stage2.1/blocks/blocks.0/conv1/activate/Mul" type="Swish" version="opset4">
			<input>
				<port id="0" precision="FP32">
					<dim>-1</dim>
					<dim>160</dim>
					<dim>80</dim>
					<dim>-1</dim>
				</port>
			</input>
			<output>
				<port id="1" precision="FP32" names="/backbone/stage2/stage2.1/blocks/blocks.0/conv1/activate/Mul_output_0">
					<dim>-1</dim>
					<dim>160</dim>
					<dim>80</dim>
					<dim>-1</dim>
				</port>
			</output>
		</layer>
		<layer id="273" name="Constant_75392" type="Const" version="opset1">
			<data element_type="f32" shape="" offset="983672" size="4" />
			<output>
				<port id="0" precision="FP32" />
			</output>
		</layer>
		<layer id="274" name="Constant_75393" type="Const" version="opset1">
			<data element_type="f32" shape="" offset="983676" size="4" />
			<output>
				<port id="0" precision="FP32" />
			</output>
		</layer>
		<layer id="275" name="Constant_75394" type="Const" version="opset1">
			<data element_type="f32" shape="" offset="983672" size="4" />
			<output>
				<port id="0" precision="FP32" />
			</output>
		</layer>
		<layer id="276" name="Constant_75395" type="Const" version="opset1">
			<data element_type="f32" shape="" offset="983676" size="4" />
			<output>
				<port id="0" precision="FP32" />
			</output>
		</layer>
		<layer id="277" name="/backbone/stage2/stage2.1/blocks/blocks.0/conv1/activate/Mul/fq_output_0" type="FakeQuantize" version="opset1">
			<data levels="256" auto_broadcast="numpy" />
			<input>
				<port id="0" precision="FP32">
					<dim>-1</dim>
					<dim>160</dim>
					<dim>80</dim>
					<dim>-1</dim>
				</port>
				<port id="1" precision="FP32" />
				<port id="2" precision="FP32" />
				<port id="3" precision="FP32" />
				<port id="4" precision="FP32" />
			</input>
			<output>
				<port id="5" precision="FP32">
					<dim>-1</dim>
					<dim>160</dim>
					<dim>80</dim>
					<dim>-1</dim>
				</port>
			</output>
		</layer>
		<layer id="278" name="onnx::Conv_2117" type="Const" version="opset1">
			<data element_type="i8" shape="160, 160, 3, 3" offset="983680" size="230400" />
			<output>
				<port id="0" precision="I8">
					<dim>160</dim>
					<dim>160</dim>
					<dim>3</dim>
					<dim>3</dim>
				</port>
			</output>
		</layer>
		<layer id="279" name="Convert_969501" type="Convert" version="opset1">
			<data destination_type="f32" />
			<input>
				<port id="0" precision="I8">
					<dim>160</dim>
					<dim>160</dim>
					<dim>3</dim>
					<dim>3</dim>
				</port>
			</input>
			<output>
				<port id="1" precision="FP32">
					<dim>160</dim>
					<dim>160</dim>
					<dim>3</dim>
					<dim>3</dim>
				</port>
			</output>
		</layer>
		<layer id="280" name="Constant_969399" type="Const" version="opset1">
			<data element_type="f32" shape="160, 1, 1, 1" offset="1214080" size="640" />
			<output>
				<port id="0" precision="FP32">
					<dim>160</dim>
					<dim>1</dim>
					<dim>1</dim>
					<dim>1</dim>
				</port>
			</output>
		</layer>
		<layer id="281" name="/backbone/stage2/stage2.1/blocks/blocks.0/conv2/conv/Conv/WithoutBiases/fq_weights_1" type="Multiply" version="opset1">
			<data auto_broadcast="numpy" />
			<input>
				<port id="0" precision="FP32">
					<dim>160</dim>
					<dim>160</dim>
					<dim>3</dim>
					<dim>3</dim>
				</port>
				<port id="1" precision="FP32">
					<dim>160</dim>
					<dim>1</dim>
					<dim>1</dim>
					<dim>1</dim>
				</port>
			</input>
			<output>
				<port id="2" precision="FP32">
					<dim>160</dim>
					<dim>160</dim>
					<dim>3</dim>
					<dim>3</dim>
				</port>
			</output>
		</layer>
		<layer id="282" name="/backbone/stage2/stage2.1/blocks/blocks.0/conv2/conv/Conv/WithoutBiases" type="Convolution" version="opset1">
			<data strides="1, 1" dilations="1, 1" pads_begin="1, 1" pads_end="1, 1" auto_pad="explicit" />
			<input>
				<port id="0" precision="FP32">
					<dim>-1</dim>
					<dim>160</dim>
					<dim>80</dim>
					<dim>-1</dim>
				</port>
				<port id="1" precision="FP32">
					<dim>160</dim>
					<dim>160</dim>
					<dim>3</dim>
					<dim>3</dim>
				</port>
			</input>
			<output>
				<port id="2" precision="FP32">
					<dim>-1</dim>
					<dim>160</dim>
					<dim>80</dim>
					<dim>-1</dim>
				</port>
			</output>
		</layer>
		<layer id="283" name="Reshape_726" type="Const" version="opset1">
			<data element_type="f32" shape="1, 160, 1, 1" offset="1214720" size="640" />
			<output>
				<port id="0" precision="FP32">
					<dim>1</dim>
					<dim>160</dim>
					<dim>1</dim>
					<dim>1</dim>
				</port>
			</output>
		</layer>
		<layer id="284" name="/backbone/stage2/stage2.1/blocks/blocks.0/conv2/conv/Conv" type="Add" version="opset1">
			<data auto_broadcast="numpy" />
			<input>
				<port id="0" precision="FP32">
					<dim>-1</dim>
					<dim>160</dim>
					<dim>80</dim>
					<dim>-1</dim>
				</port>
				<port id="1" precision="FP32">
					<dim>1</dim>
					<dim>160</dim>
					<dim>1</dim>
					<dim>1</dim>
				</port>
			</input>
			<output>
				<port id="2" precision="FP32" names="/backbone/stage2/stage2.1/blocks/blocks.0/conv2/conv/Conv_output_0">
					<dim>-1</dim>
					<dim>160</dim>
					<dim>80</dim>
					<dim>-1</dim>
				</port>
			</output>
		</layer>
		<layer id="285" name="/backbone/stage2/stage2.1/blocks/blocks.0/conv2/activate/Mul" type="Swish" version="opset4">
			<input>
				<port id="0" precision="FP32">
					<dim>-1</dim>
					<dim>160</dim>
					<dim>80</dim>
					<dim>-1</dim>
				</port>
			</input>
			<output>
				<port id="1" precision="FP32" names="/backbone/stage2/stage2.1/blocks/blocks.0/conv2/activate/Mul_output_0">
					<dim>-1</dim>
					<dim>160</dim>
					<dim>80</dim>
					<dim>-1</dim>
				</port>
			</output>
		</layer>
		<layer id="286" name="Constant_75402" type="Const" version="opset1">
			<data element_type="f32" shape="" offset="1215360" size="4" />
			<output>
				<port id="0" precision="FP32" />
			</output>
		</layer>
		<layer id="287" name="Constant_75403" type="Const" version="opset1">
			<data element_type="f32" shape="" offset="1215364" size="4" />
			<output>
				<port id="0" precision="FP32" />
			</output>
		</layer>
		<layer id="288" name="Constant_75404" type="Const" version="opset1">
			<data element_type="f32" shape="" offset="1215360" size="4" />
			<output>
				<port id="0" precision="FP32" />
			</output>
		</layer>
		<layer id="289" name="Constant_75405" type="Const" version="opset1">
			<data element_type="f32" shape="" offset="1215364" size="4" />
			<output>
				<port id="0" precision="FP32" />
			</output>
		</layer>
		<layer id="290" name="/backbone/stage2/stage2.1/blocks/blocks.0/conv2/activate/Mul/fq_output_0" type="FakeQuantize" version="opset1">
			<data levels="256" auto_broadcast="numpy" />
			<input>
				<port id="0" precision="FP32">
					<dim>-1</dim>
					<dim>160</dim>
					<dim>80</dim>
					<dim>-1</dim>
				</port>
				<port id="1" precision="FP32" />
				<port id="2" precision="FP32" />
				<port id="3" precision="FP32" />
				<port id="4" precision="FP32" />
			</input>
			<output>
				<port id="5" precision="FP32">
					<dim>-1</dim>
					<dim>160</dim>
					<dim>80</dim>
					<dim>-1</dim>
				</port>
			</output>
		</layer>
		<layer id="291" name="/backbone/stage2/stage2.1/blocks/blocks.0/Add" type="Add" version="opset1">
			<data auto_broadcast="numpy" />
			<input>
				<port id="0" precision="FP32">
					<dim>-1</dim>
					<dim>160</dim>
					<dim>80</dim>
					<dim>-1</dim>
				</port>
				<port id="1" precision="FP32">
					<dim>-1</dim>
					<dim>160</dim>
					<dim>80</dim>
					<dim>-1</dim>
				</port>
			</input>
			<output>
				<port id="2" precision="FP32" names="/backbone/stage2/stage2.1/blocks/blocks.0/Add_output_0">
					<dim>-1</dim>
					<dim>160</dim>
					<dim>80</dim>
					<dim>-1</dim>
				</port>
			</output>
		</layer>
		<layer id="292" name="Constant_75407" type="Const" version="opset1">
			<data element_type="f32" shape="" offset="1215368" size="4" />
			<output>
				<port id="0" precision="FP32" />
			</output>
		</layer>
		<layer id="293" name="Constant_75408" type="Const" version="opset1">
			<data element_type="f32" shape="" offset="1215372" size="4" />
			<output>
				<port id="0" precision="FP32" />
			</output>
		</layer>
		<layer id="294" name="Constant_75409" type="Const" version="opset1">
			<data element_type="f32" shape="" offset="1215368" size="4" />
			<output>
				<port id="0" precision="FP32" />
			</output>
		</layer>
		<layer id="295" name="Constant_75410" type="Const" version="opset1">
			<data element_type="f32" shape="" offset="1215372" size="4" />
			<output>
				<port id="0" precision="FP32" />
			</output>
		</layer>
		<layer id="296" name="/backbone/stage2/stage2.1/blocks/blocks.0/Add/fq_output_0" type="FakeQuantize" version="opset1">
			<data levels="256" auto_broadcast="numpy" />
			<input>
				<port id="0" precision="FP32">
					<dim>-1</dim>
					<dim>160</dim>
					<dim>80</dim>
					<dim>-1</dim>
				</port>
				<port id="1" precision="FP32" />
				<port id="2" precision="FP32" />
				<port id="3" precision="FP32" />
				<port id="4" precision="FP32" />
			</input>
			<output>
				<port id="5" precision="FP32">
					<dim>-1</dim>
					<dim>160</dim>
					<dim>80</dim>
					<dim>-1</dim>
				</port>
			</output>
		</layer>
		<layer id="297" name="onnx::Conv_2120" type="Const" version="opset1">
			<data element_type="i8" shape="160, 160, 1, 1" offset="1215376" size="25600" />
			<output>
				<port id="0" precision="I8">
					<dim>160</dim>
					<dim>160</dim>
					<dim>1</dim>
					<dim>1</dim>
				</port>
			</output>
		</layer>
		<layer id="298" name="Convert_969655" type="Convert" version="opset1">
			<data destination_type="f32" />
			<input>
				<port id="0" precision="I8">
					<dim>160</dim>
					<dim>160</dim>
					<dim>1</dim>
					<dim>1</dim>
				</port>
			</input>
			<output>
				<port id="1" precision="FP32">
					<dim>160</dim>
					<dim>160</dim>
					<dim>1</dim>
					<dim>1</dim>
				</port>
			</output>
		</layer>
		<layer id="299" name="Constant_969553" type="Const" version="opset1">
			<data element_type="f32" shape="160, 1, 1, 1" offset="1240976" size="640" />
			<output>
				<port id="0" precision="FP32">
					<dim>160</dim>
					<dim>1</dim>
					<dim>1</dim>
					<dim>1</dim>
				</port>
			</output>
		</layer>
		<layer id="300" name="/backbone/stage2/stage2.1/blocks/blocks.1/conv1/conv/Conv/WithoutBiases/fq_weights_1" type="Multiply" version="opset1">
			<data auto_broadcast="numpy" />
			<input>
				<port id="0" precision="FP32">
					<dim>160</dim>
					<dim>160</dim>
					<dim>1</dim>
					<dim>1</dim>
				</port>
				<port id="1" precision="FP32">
					<dim>160</dim>
					<dim>1</dim>
					<dim>1</dim>
					<dim>1</dim>
				</port>
			</input>
			<output>
				<port id="2" precision="FP32">
					<dim>160</dim>
					<dim>160</dim>
					<dim>1</dim>
					<dim>1</dim>
				</port>
			</output>
		</layer>
		<layer id="301" name="/backbone/stage2/stage2.1/blocks/blocks.1/conv1/conv/Conv/WithoutBiases" type="Convolution" version="opset1">
			<data strides="1, 1" dilations="1, 1" pads_begin="0, 0" pads_end="0, 0" auto_pad="explicit" />
			<input>
				<port id="0" precision="FP32">
					<dim>-1</dim>
					<dim>160</dim>
					<dim>80</dim>
					<dim>-1</dim>
				</port>
				<port id="1" precision="FP32">
					<dim>160</dim>
					<dim>160</dim>
					<dim>1</dim>
					<dim>1</dim>
				</port>
			</input>
			<output>
				<port id="2" precision="FP32">
					<dim>-1</dim>
					<dim>160</dim>
					<dim>80</dim>
					<dim>-1</dim>
				</port>
			</output>
		</layer>
		<layer id="302" name="Reshape_744" type="Const" version="opset1">
			<data element_type="f32" shape="1, 160, 1, 1" offset="1241616" size="640" />
			<output>
				<port id="0" precision="FP32">
					<dim>1</dim>
					<dim>160</dim>
					<dim>1</dim>
					<dim>1</dim>
				</port>
			</output>
		</layer>
		<layer id="303" name="/backbone/stage2/stage2.1/blocks/blocks.1/conv1/conv/Conv" type="Add" version="opset1">
			<data auto_broadcast="numpy" />
			<input>
				<port id="0" precision="FP32">
					<dim>-1</dim>
					<dim>160</dim>
					<dim>80</dim>
					<dim>-1</dim>
				</port>
				<port id="1" precision="FP32">
					<dim>1</dim>
					<dim>160</dim>
					<dim>1</dim>
					<dim>1</dim>
				</port>
			</input>
			<output>
				<port id="2" precision="FP32" names="/backbone/stage2/stage2.1/blocks/blocks.1/conv1/conv/Conv_output_0">
					<dim>-1</dim>
					<dim>160</dim>
					<dim>80</dim>
					<dim>-1</dim>
				</port>
			</output>
		</layer>
		<layer id="304" name="/backbone/stage2/stage2.1/blocks/blocks.1/conv1/activate/Mul" type="Swish" version="opset4">
			<input>
				<port id="0" precision="FP32">
					<dim>-1</dim>
					<dim>160</dim>
					<dim>80</dim>
					<dim>-1</dim>
				</port>
			</input>
			<output>
				<port id="1" precision="FP32" names="/backbone/stage2/stage2.1/blocks/blocks.1/conv1/activate/Mul_output_0">
					<dim>-1</dim>
					<dim>160</dim>
					<dim>80</dim>
					<dim>-1</dim>
				</port>
			</output>
		</layer>
		<layer id="305" name="Constant_75417" type="Const" version="opset1">
			<data element_type="f32" shape="" offset="1242256" size="4" />
			<output>
				<port id="0" precision="FP32" />
			</output>
		</layer>
		<layer id="306" name="Constant_75418" type="Const" version="opset1">
			<data element_type="f32" shape="" offset="1242260" size="4" />
			<output>
				<port id="0" precision="FP32" />
			</output>
		</layer>
		<layer id="307" name="Constant_75419" type="Const" version="opset1">
			<data element_type="f32" shape="" offset="1242256" size="4" />
			<output>
				<port id="0" precision="FP32" />
			</output>
		</layer>
		<layer id="308" name="Constant_75420" type="Const" version="opset1">
			<data element_type="f32" shape="" offset="1242260" size="4" />
			<output>
				<port id="0" precision="FP32" />
			</output>
		</layer>
		<layer id="309" name="/backbone/stage2/stage2.1/blocks/blocks.1/conv1/activate/Mul/fq_output_0" type="FakeQuantize" version="opset1">
			<data levels="256" auto_broadcast="numpy" />
			<input>
				<port id="0" precision="FP32">
					<dim>-1</dim>
					<dim>160</dim>
					<dim>80</dim>
					<dim>-1</dim>
				</port>
				<port id="1" precision="FP32" />
				<port id="2" precision="FP32" />
				<port id="3" precision="FP32" />
				<port id="4" precision="FP32" />
			</input>
			<output>
				<port id="5" precision="FP32">
					<dim>-1</dim>
					<dim>160</dim>
					<dim>80</dim>
					<dim>-1</dim>
				</port>
			</output>
		</layer>
		<layer id="310" name="onnx::Conv_2123" type="Const" version="opset1">
			<data element_type="i8" shape="160, 160, 3, 3" offset="1242264" size="230400" />
			<output>
				<port id="0" precision="I8">
					<dim>160</dim>
					<dim>160</dim>
					<dim>3</dim>
					<dim>3</dim>
				</port>
			</output>
		</layer>
		<layer id="311" name="Convert_969809" type="Convert" version="opset1">
			<data destination_type="f32" />
			<input>
				<port id="0" precision="I8">
					<dim>160</dim>
					<dim>160</dim>
					<dim>3</dim>
					<dim>3</dim>
				</port>
			</input>
			<output>
				<port id="1" precision="FP32">
					<dim>160</dim>
					<dim>160</dim>
					<dim>3</dim>
					<dim>3</dim>
				</port>
			</output>
		</layer>
		<layer id="312" name="Constant_969707" type="Const" version="opset1">
			<data element_type="f32" shape="160, 1, 1, 1" offset="1472664" size="640" />
			<output>
				<port id="0" precision="FP32">
					<dim>160</dim>
					<dim>1</dim>
					<dim>1</dim>
					<dim>1</dim>
				</port>
			</output>
		</layer>
		<layer id="313" name="/backbone/stage2/stage2.1/blocks/blocks.1/conv2/conv/Conv/WithoutBiases/fq_weights_1" type="Multiply" version="opset1">
			<data auto_broadcast="numpy" />
			<input>
				<port id="0" precision="FP32">
					<dim>160</dim>
					<dim>160</dim>
					<dim>3</dim>
					<dim>3</dim>
				</port>
				<port id="1" precision="FP32">
					<dim>160</dim>
					<dim>1</dim>
					<dim>1</dim>
					<dim>1</dim>
				</port>
			</input>
			<output>
				<port id="2" precision="FP32">
					<dim>160</dim>
					<dim>160</dim>
					<dim>3</dim>
					<dim>3</dim>
				</port>
			</output>
		</layer>
		<layer id="314" name="/backbone/stage2/stage2.1/blocks/blocks.1/conv2/conv/Conv/WithoutBiases" type="Convolution" version="opset1">
			<data strides="1, 1" dilations="1, 1" pads_begin="1, 1" pads_end="1, 1" auto_pad="explicit" />
			<input>
				<port id="0" precision="FP32">
					<dim>-1</dim>
					<dim>160</dim>
					<dim>80</dim>
					<dim>-1</dim>
				</port>
				<port id="1" precision="FP32">
					<dim>160</dim>
					<dim>160</dim>
					<dim>3</dim>
					<dim>3</dim>
				</port>
			</input>
			<output>
				<port id="2" precision="FP32">
					<dim>-1</dim>
					<dim>160</dim>
					<dim>80</dim>
					<dim>-1</dim>
				</port>
			</output>
		</layer>
		<layer id="315" name="Reshape_761" type="Const" version="opset1">
			<data element_type="f32" shape="1, 160, 1, 1" offset="1473304" size="640" />
			<output>
				<port id="0" precision="FP32">
					<dim>1</dim>
					<dim>160</dim>
					<dim>1</dim>
					<dim>1</dim>
				</port>
			</output>
		</layer>
		<layer id="316" name="/backbone/stage2/stage2.1/blocks/blocks.1/conv2/conv/Conv" type="Add" version="opset1">
			<data auto_broadcast="numpy" />
			<input>
				<port id="0" precision="FP32">
					<dim>-1</dim>
					<dim>160</dim>
					<dim>80</dim>
					<dim>-1</dim>
				</port>
				<port id="1" precision="FP32">
					<dim>1</dim>
					<dim>160</dim>
					<dim>1</dim>
					<dim>1</dim>
				</port>
			</input>
			<output>
				<port id="2" precision="FP32" names="/backbone/stage2/stage2.1/blocks/blocks.1/conv2/conv/Conv_output_0">
					<dim>-1</dim>
					<dim>160</dim>
					<dim>80</dim>
					<dim>-1</dim>
				</port>
			</output>
		</layer>
		<layer id="317" name="/backbone/stage2/stage2.1/blocks/blocks.1/conv2/activate/Mul" type="Swish" version="opset4">
			<input>
				<port id="0" precision="FP32">
					<dim>-1</dim>
					<dim>160</dim>
					<dim>80</dim>
					<dim>-1</dim>
				</port>
			</input>
			<output>
				<port id="1" precision="FP32" names="/backbone/stage2/stage2.1/blocks/blocks.1/conv2/activate/Mul_output_0">
					<dim>-1</dim>
					<dim>160</dim>
					<dim>80</dim>
					<dim>-1</dim>
				</port>
			</output>
		</layer>
		<layer id="318" name="Constant_75427" type="Const" version="opset1">
			<data element_type="f32" shape="" offset="1473944" size="4" />
			<output>
				<port id="0" precision="FP32" />
			</output>
		</layer>
		<layer id="319" name="Constant_75428" type="Const" version="opset1">
			<data element_type="f32" shape="" offset="1473948" size="4" />
			<output>
				<port id="0" precision="FP32" />
			</output>
		</layer>
		<layer id="320" name="Constant_75429" type="Const" version="opset1">
			<data element_type="f32" shape="" offset="1473944" size="4" />
			<output>
				<port id="0" precision="FP32" />
			</output>
		</layer>
		<layer id="321" name="Constant_75430" type="Const" version="opset1">
			<data element_type="f32" shape="" offset="1473948" size="4" />
			<output>
				<port id="0" precision="FP32" />
			</output>
		</layer>
		<layer id="322" name="/backbone/stage2/stage2.1/blocks/blocks.1/conv2/activate/Mul/fq_output_0" type="FakeQuantize" version="opset1">
			<data levels="256" auto_broadcast="numpy" />
			<input>
				<port id="0" precision="FP32">
					<dim>-1</dim>
					<dim>160</dim>
					<dim>80</dim>
					<dim>-1</dim>
				</port>
				<port id="1" precision="FP32" />
				<port id="2" precision="FP32" />
				<port id="3" precision="FP32" />
				<port id="4" precision="FP32" />
			</input>
			<output>
				<port id="5" precision="FP32">
					<dim>-1</dim>
					<dim>160</dim>
					<dim>80</dim>
					<dim>-1</dim>
				</port>
			</output>
		</layer>
		<layer id="323" name="/backbone/stage2/stage2.1/blocks/blocks.1/Add" type="Add" version="opset1">
			<data auto_broadcast="numpy" />
			<input>
				<port id="0" precision="FP32">
					<dim>-1</dim>
					<dim>160</dim>
					<dim>80</dim>
					<dim>-1</dim>
				</port>
				<port id="1" precision="FP32">
					<dim>-1</dim>
					<dim>160</dim>
					<dim>80</dim>
					<dim>-1</dim>
				</port>
			</input>
			<output>
				<port id="2" precision="FP32" names="/backbone/stage2/stage2.1/blocks/blocks.1/Add_output_0">
					<dim>-1</dim>
					<dim>160</dim>
					<dim>80</dim>
					<dim>-1</dim>
				</port>
			</output>
		</layer>
		<layer id="324" name="Constant_75432" type="Const" version="opset1">
			<data element_type="f32" shape="" offset="1473952" size="4" />
			<output>
				<port id="0" precision="FP32" />
			</output>
		</layer>
		<layer id="325" name="Constant_75433" type="Const" version="opset1">
			<data element_type="f32" shape="" offset="1473956" size="4" />
			<output>
				<port id="0" precision="FP32" />
			</output>
		</layer>
		<layer id="326" name="Constant_75434" type="Const" version="opset1">
			<data element_type="f32" shape="" offset="1473952" size="4" />
			<output>
				<port id="0" precision="FP32" />
			</output>
		</layer>
		<layer id="327" name="Constant_75435" type="Const" version="opset1">
			<data element_type="f32" shape="" offset="1473956" size="4" />
			<output>
				<port id="0" precision="FP32" />
			</output>
		</layer>
		<layer id="328" name="/backbone/stage2/stage2.1/blocks/blocks.1/Add/fq_output_0" type="FakeQuantize" version="opset1">
			<data levels="256" auto_broadcast="numpy" />
			<input>
				<port id="0" precision="FP32">
					<dim>-1</dim>
					<dim>160</dim>
					<dim>80</dim>
					<dim>-1</dim>
				</port>
				<port id="1" precision="FP32" />
				<port id="2" precision="FP32" />
				<port id="3" precision="FP32" />
				<port id="4" precision="FP32" />
			</input>
			<output>
				<port id="5" precision="FP32">
					<dim>-1</dim>
					<dim>160</dim>
					<dim>80</dim>
					<dim>-1</dim>
				</port>
			</output>
		</layer>
		<layer id="329" name="onnx::Conv_2126" type="Const" version="opset1">
			<data element_type="i8" shape="160, 160, 1, 1" offset="1473960" size="25600" />
			<output>
				<port id="0" precision="I8">
					<dim>160</dim>
					<dim>160</dim>
					<dim>1</dim>
					<dim>1</dim>
				</port>
			</output>
		</layer>
		<layer id="330" name="Convert_969963" type="Convert" version="opset1">
			<data destination_type="f32" />
			<input>
				<port id="0" precision="I8">
					<dim>160</dim>
					<dim>160</dim>
					<dim>1</dim>
					<dim>1</dim>
				</port>
			</input>
			<output>
				<port id="1" precision="FP32">
					<dim>160</dim>
					<dim>160</dim>
					<dim>1</dim>
					<dim>1</dim>
				</port>
			</output>
		</layer>
		<layer id="331" name="Constant_969861" type="Const" version="opset1">
			<data element_type="f32" shape="160, 1, 1, 1" offset="1499560" size="640" />
			<output>
				<port id="0" precision="FP32">
					<dim>160</dim>
					<dim>1</dim>
					<dim>1</dim>
					<dim>1</dim>
				</port>
			</output>
		</layer>
		<layer id="332" name="/backbone/stage2/stage2.1/blocks/blocks.2/conv1/conv/Conv/WithoutBiases/fq_weights_1" type="Multiply" version="opset1">
			<data auto_broadcast="numpy" />
			<input>
				<port id="0" precision="FP32">
					<dim>160</dim>
					<dim>160</dim>
					<dim>1</dim>
					<dim>1</dim>
				</port>
				<port id="1" precision="FP32">
					<dim>160</dim>
					<dim>1</dim>
					<dim>1</dim>
					<dim>1</dim>
				</port>
			</input>
			<output>
				<port id="2" precision="FP32">
					<dim>160</dim>
					<dim>160</dim>
					<dim>1</dim>
					<dim>1</dim>
				</port>
			</output>
		</layer>
		<layer id="333" name="/backbone/stage2/stage2.1/blocks/blocks.2/conv1/conv/Conv/WithoutBiases" type="Convolution" version="opset1">
			<data strides="1, 1" dilations="1, 1" pads_begin="0, 0" pads_end="0, 0" auto_pad="explicit" />
			<input>
				<port id="0" precision="FP32">
					<dim>-1</dim>
					<dim>160</dim>
					<dim>80</dim>
					<dim>-1</dim>
				</port>
				<port id="1" precision="FP32">
					<dim>160</dim>
					<dim>160</dim>
					<dim>1</dim>
					<dim>1</dim>
				</port>
			</input>
			<output>
				<port id="2" precision="FP32">
					<dim>-1</dim>
					<dim>160</dim>
					<dim>80</dim>
					<dim>-1</dim>
				</port>
			</output>
		</layer>
		<layer id="334" name="Reshape_779" type="Const" version="opset1">
			<data element_type="f32" shape="1, 160, 1, 1" offset="1500200" size="640" />
			<output>
				<port id="0" precision="FP32">
					<dim>1</dim>
					<dim>160</dim>
					<dim>1</dim>
					<dim>1</dim>
				</port>
			</output>
		</layer>
		<layer id="335" name="/backbone/stage2/stage2.1/blocks/blocks.2/conv1/conv/Conv" type="Add" version="opset1">
			<data auto_broadcast="numpy" />
			<input>
				<port id="0" precision="FP32">
					<dim>-1</dim>
					<dim>160</dim>
					<dim>80</dim>
					<dim>-1</dim>
				</port>
				<port id="1" precision="FP32">
					<dim>1</dim>
					<dim>160</dim>
					<dim>1</dim>
					<dim>1</dim>
				</port>
			</input>
			<output>
				<port id="2" precision="FP32" names="/backbone/stage2/stage2.1/blocks/blocks.2/conv1/conv/Conv_output_0">
					<dim>-1</dim>
					<dim>160</dim>
					<dim>80</dim>
					<dim>-1</dim>
				</port>
			</output>
		</layer>
		<layer id="336" name="/backbone/stage2/stage2.1/blocks/blocks.2/conv1/activate/Mul" type="Swish" version="opset4">
			<input>
				<port id="0" precision="FP32">
					<dim>-1</dim>
					<dim>160</dim>
					<dim>80</dim>
					<dim>-1</dim>
				</port>
			</input>
			<output>
				<port id="1" precision="FP32" names="/backbone/stage2/stage2.1/blocks/blocks.2/conv1/activate/Mul_output_0">
					<dim>-1</dim>
					<dim>160</dim>
					<dim>80</dim>
					<dim>-1</dim>
				</port>
			</output>
		</layer>
		<layer id="337" name="Constant_75442" type="Const" version="opset1">
			<data element_type="f32" shape="" offset="1500840" size="4" />
			<output>
				<port id="0" precision="FP32" />
			</output>
		</layer>
		<layer id="338" name="Constant_75443" type="Const" version="opset1">
			<data element_type="f32" shape="" offset="1500844" size="4" />
			<output>
				<port id="0" precision="FP32" />
			</output>
		</layer>
		<layer id="339" name="Constant_75444" type="Const" version="opset1">
			<data element_type="f32" shape="" offset="1500840" size="4" />
			<output>
				<port id="0" precision="FP32" />
			</output>
		</layer>
		<layer id="340" name="Constant_75445" type="Const" version="opset1">
			<data element_type="f32" shape="" offset="1500844" size="4" />
			<output>
				<port id="0" precision="FP32" />
			</output>
		</layer>
		<layer id="341" name="/backbone/stage2/stage2.1/blocks/blocks.2/conv1/activate/Mul/fq_output_0" type="FakeQuantize" version="opset1">
			<data levels="256" auto_broadcast="numpy" />
			<input>
				<port id="0" precision="FP32">
					<dim>-1</dim>
					<dim>160</dim>
					<dim>80</dim>
					<dim>-1</dim>
				</port>
				<port id="1" precision="FP32" />
				<port id="2" precision="FP32" />
				<port id="3" precision="FP32" />
				<port id="4" precision="FP32" />
			</input>
			<output>
				<port id="5" precision="FP32">
					<dim>-1</dim>
					<dim>160</dim>
					<dim>80</dim>
					<dim>-1</dim>
				</port>
			</output>
		</layer>
		<layer id="342" name="onnx::Conv_2129" type="Const" version="opset1">
			<data element_type="i8" shape="160, 160, 3, 3" offset="1500848" size="230400" />
			<output>
				<port id="0" precision="I8">
					<dim>160</dim>
					<dim>160</dim>
					<dim>3</dim>
					<dim>3</dim>
				</port>
			</output>
		</layer>
		<layer id="343" name="Convert_970117" type="Convert" version="opset1">
			<data destination_type="f32" />
			<input>
				<port id="0" precision="I8">
					<dim>160</dim>
					<dim>160</dim>
					<dim>3</dim>
					<dim>3</dim>
				</port>
			</input>
			<output>
				<port id="1" precision="FP32">
					<dim>160</dim>
					<dim>160</dim>
					<dim>3</dim>
					<dim>3</dim>
				</port>
			</output>
		</layer>
		<layer id="344" name="Constant_970015" type="Const" version="opset1">
			<data element_type="f32" shape="160, 1, 1, 1" offset="1731248" size="640" />
			<output>
				<port id="0" precision="FP32">
					<dim>160</dim>
					<dim>1</dim>
					<dim>1</dim>
					<dim>1</dim>
				</port>
			</output>
		</layer>
		<layer id="345" name="/backbone/stage2/stage2.1/blocks/blocks.2/conv2/conv/Conv/WithoutBiases/fq_weights_1" type="Multiply" version="opset1">
			<data auto_broadcast="numpy" />
			<input>
				<port id="0" precision="FP32">
					<dim>160</dim>
					<dim>160</dim>
					<dim>3</dim>
					<dim>3</dim>
				</port>
				<port id="1" precision="FP32">
					<dim>160</dim>
					<dim>1</dim>
					<dim>1</dim>
					<dim>1</dim>
				</port>
			</input>
			<output>
				<port id="2" precision="FP32">
					<dim>160</dim>
					<dim>160</dim>
					<dim>3</dim>
					<dim>3</dim>
				</port>
			</output>
		</layer>
		<layer id="346" name="/backbone/stage2/stage2.1/blocks/blocks.2/conv2/conv/Conv/WithoutBiases" type="Convolution" version="opset1">
			<data strides="1, 1" dilations="1, 1" pads_begin="1, 1" pads_end="1, 1" auto_pad="explicit" />
			<input>
				<port id="0" precision="FP32">
					<dim>-1</dim>
					<dim>160</dim>
					<dim>80</dim>
					<dim>-1</dim>
				</port>
				<port id="1" precision="FP32">
					<dim>160</dim>
					<dim>160</dim>
					<dim>3</dim>
					<dim>3</dim>
				</port>
			</input>
			<output>
				<port id="2" precision="FP32">
					<dim>-1</dim>
					<dim>160</dim>
					<dim>80</dim>
					<dim>-1</dim>
				</port>
			</output>
		</layer>
		<layer id="347" name="Reshape_796" type="Const" version="opset1">
			<data element_type="f32" shape="1, 160, 1, 1" offset="1731888" size="640" />
			<output>
				<port id="0" precision="FP32">
					<dim>1</dim>
					<dim>160</dim>
					<dim>1</dim>
					<dim>1</dim>
				</port>
			</output>
		</layer>
		<layer id="348" name="/backbone/stage2/stage2.1/blocks/blocks.2/conv2/conv/Conv" type="Add" version="opset1">
			<data auto_broadcast="numpy" />
			<input>
				<port id="0" precision="FP32">
					<dim>-1</dim>
					<dim>160</dim>
					<dim>80</dim>
					<dim>-1</dim>
				</port>
				<port id="1" precision="FP32">
					<dim>1</dim>
					<dim>160</dim>
					<dim>1</dim>
					<dim>1</dim>
				</port>
			</input>
			<output>
				<port id="2" precision="FP32" names="/backbone/stage2/stage2.1/blocks/blocks.2/conv2/conv/Conv_output_0">
					<dim>-1</dim>
					<dim>160</dim>
					<dim>80</dim>
					<dim>-1</dim>
				</port>
			</output>
		</layer>
		<layer id="349" name="/backbone/stage2/stage2.1/blocks/blocks.2/conv2/activate/Mul" type="Swish" version="opset4">
			<input>
				<port id="0" precision="FP32">
					<dim>-1</dim>
					<dim>160</dim>
					<dim>80</dim>
					<dim>-1</dim>
				</port>
			</input>
			<output>
				<port id="1" precision="FP32" names="/backbone/stage2/stage2.1/blocks/blocks.2/conv2/activate/Mul_output_0">
					<dim>-1</dim>
					<dim>160</dim>
					<dim>80</dim>
					<dim>-1</dim>
				</port>
			</output>
		</layer>
		<layer id="350" name="Constant_75452" type="Const" version="opset1">
			<data element_type="f32" shape="" offset="1732528" size="4" />
			<output>
				<port id="0" precision="FP32" />
			</output>
		</layer>
		<layer id="351" name="Constant_75453" type="Const" version="opset1">
			<data element_type="f32" shape="" offset="1732532" size="4" />
			<output>
				<port id="0" precision="FP32" />
			</output>
		</layer>
		<layer id="352" name="Constant_75454" type="Const" version="opset1">
			<data element_type="f32" shape="" offset="1732528" size="4" />
			<output>
				<port id="0" precision="FP32" />
			</output>
		</layer>
		<layer id="353" name="Constant_75455" type="Const" version="opset1">
			<data element_type="f32" shape="" offset="1732532" size="4" />
			<output>
				<port id="0" precision="FP32" />
			</output>
		</layer>
		<layer id="354" name="/backbone/stage2/stage2.1/blocks/blocks.2/conv2/activate/Mul/fq_output_0" type="FakeQuantize" version="opset1">
			<data levels="256" auto_broadcast="numpy" />
			<input>
				<port id="0" precision="FP32">
					<dim>-1</dim>
					<dim>160</dim>
					<dim>80</dim>
					<dim>-1</dim>
				</port>
				<port id="1" precision="FP32" />
				<port id="2" precision="FP32" />
				<port id="3" precision="FP32" />
				<port id="4" precision="FP32" />
			</input>
			<output>
				<port id="5" precision="FP32">
					<dim>-1</dim>
					<dim>160</dim>
					<dim>80</dim>
					<dim>-1</dim>
				</port>
			</output>
		</layer>
		<layer id="355" name="/backbone/stage2/stage2.1/blocks/blocks.2/Add" type="Add" version="opset1">
			<data auto_broadcast="numpy" />
			<input>
				<port id="0" precision="FP32">
					<dim>-1</dim>
					<dim>160</dim>
					<dim>80</dim>
					<dim>-1</dim>
				</port>
				<port id="1" precision="FP32">
					<dim>-1</dim>
					<dim>160</dim>
					<dim>80</dim>
					<dim>-1</dim>
				</port>
			</input>
			<output>
				<port id="2" precision="FP32" names="/backbone/stage2/stage2.1/blocks/blocks.2/Add_output_0">
					<dim>-1</dim>
					<dim>160</dim>
					<dim>80</dim>
					<dim>-1</dim>
				</port>
			</output>
		</layer>
		<layer id="356" name="Constant_75457" type="Const" version="opset1">
			<data element_type="f32" shape="" offset="1732536" size="4" />
			<output>
				<port id="0" precision="FP32" />
			</output>
		</layer>
		<layer id="357" name="Constant_75458" type="Const" version="opset1">
			<data element_type="f32" shape="" offset="1732540" size="4" />
			<output>
				<port id="0" precision="FP32" />
			</output>
		</layer>
		<layer id="358" name="Constant_75459" type="Const" version="opset1">
			<data element_type="f32" shape="" offset="1732536" size="4" />
			<output>
				<port id="0" precision="FP32" />
			</output>
		</layer>
		<layer id="359" name="Constant_75460" type="Const" version="opset1">
			<data element_type="f32" shape="" offset="1732540" size="4" />
			<output>
				<port id="0" precision="FP32" />
			</output>
		</layer>
		<layer id="360" name="/backbone/stage2/stage2.1/blocks/blocks.2/Add/fq_output_0" type="FakeQuantize" version="opset1">
			<data levels="256" auto_broadcast="numpy" />
			<input>
				<port id="0" precision="FP32">
					<dim>-1</dim>
					<dim>160</dim>
					<dim>80</dim>
					<dim>-1</dim>
				</port>
				<port id="1" precision="FP32" />
				<port id="2" precision="FP32" />
				<port id="3" precision="FP32" />
				<port id="4" precision="FP32" />
			</input>
			<output>
				<port id="5" precision="FP32">
					<dim>-1</dim>
					<dim>160</dim>
					<dim>80</dim>
					<dim>-1</dim>
				</port>
			</output>
		</layer>
		<layer id="361" name="onnx::Conv_2132" type="Const" version="opset1">
			<data element_type="i8" shape="160, 160, 1, 1" offset="1732544" size="25600" />
			<output>
				<port id="0" precision="I8">
					<dim>160</dim>
					<dim>160</dim>
					<dim>1</dim>
					<dim>1</dim>
				</port>
			</output>
		</layer>
		<layer id="362" name="Convert_970271" type="Convert" version="opset1">
			<data destination_type="f32" />
			<input>
				<port id="0" precision="I8">
					<dim>160</dim>
					<dim>160</dim>
					<dim>1</dim>
					<dim>1</dim>
				</port>
			</input>
			<output>
				<port id="1" precision="FP32">
					<dim>160</dim>
					<dim>160</dim>
					<dim>1</dim>
					<dim>1</dim>
				</port>
			</output>
		</layer>
		<layer id="363" name="Constant_970169" type="Const" version="opset1">
			<data element_type="f32" shape="160, 1, 1, 1" offset="1758144" size="640" />
			<output>
				<port id="0" precision="FP32">
					<dim>160</dim>
					<dim>1</dim>
					<dim>1</dim>
					<dim>1</dim>
				</port>
			</output>
		</layer>
		<layer id="364" name="/backbone/stage2/stage2.1/blocks/blocks.3/conv1/conv/Conv/WithoutBiases/fq_weights_1" type="Multiply" version="opset1">
			<data auto_broadcast="numpy" />
			<input>
				<port id="0" precision="FP32">
					<dim>160</dim>
					<dim>160</dim>
					<dim>1</dim>
					<dim>1</dim>
				</port>
				<port id="1" precision="FP32">
					<dim>160</dim>
					<dim>1</dim>
					<dim>1</dim>
					<dim>1</dim>
				</port>
			</input>
			<output>
				<port id="2" precision="FP32">
					<dim>160</dim>
					<dim>160</dim>
					<dim>1</dim>
					<dim>1</dim>
				</port>
			</output>
		</layer>
		<layer id="365" name="/backbone/stage2/stage2.1/blocks/blocks.3/conv1/conv/Conv/WithoutBiases" type="Convolution" version="opset1">
			<data strides="1, 1" dilations="1, 1" pads_begin="0, 0" pads_end="0, 0" auto_pad="explicit" />
			<input>
				<port id="0" precision="FP32">
					<dim>-1</dim>
					<dim>160</dim>
					<dim>80</dim>
					<dim>-1</dim>
				</port>
				<port id="1" precision="FP32">
					<dim>160</dim>
					<dim>160</dim>
					<dim>1</dim>
					<dim>1</dim>
				</port>
			</input>
			<output>
				<port id="2" precision="FP32">
					<dim>-1</dim>
					<dim>160</dim>
					<dim>80</dim>
					<dim>-1</dim>
				</port>
			</output>
		</layer>
		<layer id="366" name="Reshape_814" type="Const" version="opset1">
			<data element_type="f32" shape="1, 160, 1, 1" offset="1758784" size="640" />
			<output>
				<port id="0" precision="FP32">
					<dim>1</dim>
					<dim>160</dim>
					<dim>1</dim>
					<dim>1</dim>
				</port>
			</output>
		</layer>
		<layer id="367" name="/backbone/stage2/stage2.1/blocks/blocks.3/conv1/conv/Conv" type="Add" version="opset1">
			<data auto_broadcast="numpy" />
			<input>
				<port id="0" precision="FP32">
					<dim>-1</dim>
					<dim>160</dim>
					<dim>80</dim>
					<dim>-1</dim>
				</port>
				<port id="1" precision="FP32">
					<dim>1</dim>
					<dim>160</dim>
					<dim>1</dim>
					<dim>1</dim>
				</port>
			</input>
			<output>
				<port id="2" precision="FP32" names="/backbone/stage2/stage2.1/blocks/blocks.3/conv1/conv/Conv_output_0">
					<dim>-1</dim>
					<dim>160</dim>
					<dim>80</dim>
					<dim>-1</dim>
				</port>
			</output>
		</layer>
		<layer id="368" name="/backbone/stage2/stage2.1/blocks/blocks.3/conv1/activate/Mul" type="Swish" version="opset4">
			<input>
				<port id="0" precision="FP32">
					<dim>-1</dim>
					<dim>160</dim>
					<dim>80</dim>
					<dim>-1</dim>
				</port>
			</input>
			<output>
				<port id="1" precision="FP32" names="/backbone/stage2/stage2.1/blocks/blocks.3/conv1/activate/Mul_output_0">
					<dim>-1</dim>
					<dim>160</dim>
					<dim>80</dim>
					<dim>-1</dim>
				</port>
			</output>
		</layer>
		<layer id="369" name="Constant_75467" type="Const" version="opset1">
			<data element_type="f32" shape="" offset="1759424" size="4" />
			<output>
				<port id="0" precision="FP32" />
			</output>
		</layer>
		<layer id="370" name="Constant_75468" type="Const" version="opset1">
			<data element_type="f32" shape="" offset="1759428" size="4" />
			<output>
				<port id="0" precision="FP32" />
			</output>
		</layer>
		<layer id="371" name="Constant_75469" type="Const" version="opset1">
			<data element_type="f32" shape="" offset="1759424" size="4" />
			<output>
				<port id="0" precision="FP32" />
			</output>
		</layer>
		<layer id="372" name="Constant_75470" type="Const" version="opset1">
			<data element_type="f32" shape="" offset="1759428" size="4" />
			<output>
				<port id="0" precision="FP32" />
			</output>
		</layer>
		<layer id="373" name="/backbone/stage2/stage2.1/blocks/blocks.3/conv1/activate/Mul/fq_output_0" type="FakeQuantize" version="opset1">
			<data levels="256" auto_broadcast="numpy" />
			<input>
				<port id="0" precision="FP32">
					<dim>-1</dim>
					<dim>160</dim>
					<dim>80</dim>
					<dim>-1</dim>
				</port>
				<port id="1" precision="FP32" />
				<port id="2" precision="FP32" />
				<port id="3" precision="FP32" />
				<port id="4" precision="FP32" />
			</input>
			<output>
				<port id="5" precision="FP32">
					<dim>-1</dim>
					<dim>160</dim>
					<dim>80</dim>
					<dim>-1</dim>
				</port>
			</output>
		</layer>
		<layer id="374" name="onnx::Conv_2135" type="Const" version="opset1">
			<data element_type="i8" shape="160, 160, 3, 3" offset="1759432" size="230400" />
			<output>
				<port id="0" precision="I8">
					<dim>160</dim>
					<dim>160</dim>
					<dim>3</dim>
					<dim>3</dim>
				</port>
			</output>
		</layer>
		<layer id="375" name="Convert_970425" type="Convert" version="opset1">
			<data destination_type="f32" />
			<input>
				<port id="0" precision="I8">
					<dim>160</dim>
					<dim>160</dim>
					<dim>3</dim>
					<dim>3</dim>
				</port>
			</input>
			<output>
				<port id="1" precision="FP32">
					<dim>160</dim>
					<dim>160</dim>
					<dim>3</dim>
					<dim>3</dim>
				</port>
			</output>
		</layer>
		<layer id="376" name="Constant_970323" type="Const" version="opset1">
			<data element_type="f32" shape="160, 1, 1, 1" offset="1989832" size="640" />
			<output>
				<port id="0" precision="FP32">
					<dim>160</dim>
					<dim>1</dim>
					<dim>1</dim>
					<dim>1</dim>
				</port>
			</output>
		</layer>
		<layer id="377" name="/backbone/stage2/stage2.1/blocks/blocks.3/conv2/conv/Conv/WithoutBiases/fq_weights_1" type="Multiply" version="opset1">
			<data auto_broadcast="numpy" />
			<input>
				<port id="0" precision="FP32">
					<dim>160</dim>
					<dim>160</dim>
					<dim>3</dim>
					<dim>3</dim>
				</port>
				<port id="1" precision="FP32">
					<dim>160</dim>
					<dim>1</dim>
					<dim>1</dim>
					<dim>1</dim>
				</port>
			</input>
			<output>
				<port id="2" precision="FP32">
					<dim>160</dim>
					<dim>160</dim>
					<dim>3</dim>
					<dim>3</dim>
				</port>
			</output>
		</layer>
		<layer id="378" name="/backbone/stage2/stage2.1/blocks/blocks.3/conv2/conv/Conv/WithoutBiases" type="Convolution" version="opset1">
			<data strides="1, 1" dilations="1, 1" pads_begin="1, 1" pads_end="1, 1" auto_pad="explicit" />
			<input>
				<port id="0" precision="FP32">
					<dim>-1</dim>
					<dim>160</dim>
					<dim>80</dim>
					<dim>-1</dim>
				</port>
				<port id="1" precision="FP32">
					<dim>160</dim>
					<dim>160</dim>
					<dim>3</dim>
					<dim>3</dim>
				</port>
			</input>
			<output>
				<port id="2" precision="FP32">
					<dim>-1</dim>
					<dim>160</dim>
					<dim>80</dim>
					<dim>-1</dim>
				</port>
			</output>
		</layer>
		<layer id="379" name="Reshape_831" type="Const" version="opset1">
			<data element_type="f32" shape="1, 160, 1, 1" offset="1990472" size="640" />
			<output>
				<port id="0" precision="FP32">
					<dim>1</dim>
					<dim>160</dim>
					<dim>1</dim>
					<dim>1</dim>
				</port>
			</output>
		</layer>
		<layer id="380" name="/backbone/stage2/stage2.1/blocks/blocks.3/conv2/conv/Conv" type="Add" version="opset1">
			<data auto_broadcast="numpy" />
			<input>
				<port id="0" precision="FP32">
					<dim>-1</dim>
					<dim>160</dim>
					<dim>80</dim>
					<dim>-1</dim>
				</port>
				<port id="1" precision="FP32">
					<dim>1</dim>
					<dim>160</dim>
					<dim>1</dim>
					<dim>1</dim>
				</port>
			</input>
			<output>
				<port id="2" precision="FP32" names="/backbone/stage2/stage2.1/blocks/blocks.3/conv2/conv/Conv_output_0">
					<dim>-1</dim>
					<dim>160</dim>
					<dim>80</dim>
					<dim>-1</dim>
				</port>
			</output>
		</layer>
		<layer id="381" name="/backbone/stage2/stage2.1/blocks/blocks.3/conv2/activate/Mul" type="Swish" version="opset4">
			<input>
				<port id="0" precision="FP32">
					<dim>-1</dim>
					<dim>160</dim>
					<dim>80</dim>
					<dim>-1</dim>
				</port>
			</input>
			<output>
				<port id="1" precision="FP32" names="/backbone/stage2/stage2.1/blocks/blocks.3/conv2/activate/Mul_output_0">
					<dim>-1</dim>
					<dim>160</dim>
					<dim>80</dim>
					<dim>-1</dim>
				</port>
			</output>
		</layer>
		<layer id="382" name="Constant_75477" type="Const" version="opset1">
			<data element_type="f32" shape="" offset="1991112" size="4" />
			<output>
				<port id="0" precision="FP32" />
			</output>
		</layer>
		<layer id="383" name="Constant_75478" type="Const" version="opset1">
			<data element_type="f32" shape="" offset="1991116" size="4" />
			<output>
				<port id="0" precision="FP32" />
			</output>
		</layer>
		<layer id="384" name="Constant_75479" type="Const" version="opset1">
			<data element_type="f32" shape="" offset="1991112" size="4" />
			<output>
				<port id="0" precision="FP32" />
			</output>
		</layer>
		<layer id="385" name="Constant_75480" type="Const" version="opset1">
			<data element_type="f32" shape="" offset="1991116" size="4" />
			<output>
				<port id="0" precision="FP32" />
			</output>
		</layer>
		<layer id="386" name="/backbone/stage2/stage2.1/blocks/blocks.3/conv2/activate/Mul/fq_output_0" type="FakeQuantize" version="opset1">
			<data levels="256" auto_broadcast="numpy" />
			<input>
				<port id="0" precision="FP32">
					<dim>-1</dim>
					<dim>160</dim>
					<dim>80</dim>
					<dim>-1</dim>
				</port>
				<port id="1" precision="FP32" />
				<port id="2" precision="FP32" />
				<port id="3" precision="FP32" />
				<port id="4" precision="FP32" />
			</input>
			<output>
				<port id="5" precision="FP32">
					<dim>-1</dim>
					<dim>160</dim>
					<dim>80</dim>
					<dim>-1</dim>
				</port>
			</output>
		</layer>
		<layer id="387" name="/backbone/stage2/stage2.1/blocks/blocks.3/Add" type="Add" version="opset1">
			<data auto_broadcast="numpy" />
			<input>
				<port id="0" precision="FP32">
					<dim>-1</dim>
					<dim>160</dim>
					<dim>80</dim>
					<dim>-1</dim>
				</port>
				<port id="1" precision="FP32">
					<dim>-1</dim>
					<dim>160</dim>
					<dim>80</dim>
					<dim>-1</dim>
				</port>
			</input>
			<output>
				<port id="2" precision="FP32" names="/backbone/stage2/stage2.1/blocks/blocks.3/Add_output_0">
					<dim>-1</dim>
					<dim>160</dim>
					<dim>80</dim>
					<dim>-1</dim>
…
		<edge from-layer="2176" from-port="2" to-layer="2185" to-port="1" />
		<edge from-layer="2177" from-port="2" to-layer="2179" to-port="0" />
		<edge from-layer="2178" from-port="0" to-layer="2179" to-port="1" />
		<edge from-layer="2179" from-port="2" to-layer="2181" to-port="0" />
		<edge from-layer="2179" from-port="2" to-layer="2191" to-port="0" />
		<edge from-layer="2180" from-port="0" to-layer="2181" to-port="1" />
		<edge from-layer="2181" from-port="2" to-layer="2200" to-port="0" />
		<edge from-layer="2182" from-port="0" to-layer="2183" to-port="1" />
		<edge from-layer="2183" from-port="2" to-layer="2184" to-port="1" />
		<edge from-layer="2184" from-port="2" to-layer="2185" to-port="0" />
		<edge from-layer="2185" from-port="2" to-layer="2187" to-port="0" />
		<edge from-layer="2186" from-port="0" to-layer="2187" to-port="1" />
		<edge from-layer="2187" from-port="2" to-layer="2196" to-port="0" />
		<edge from-layer="2187" from-port="2" to-layer="2189" to-port="0" />
		<edge from-layer="2188" from-port="0" to-layer="2189" to-port="1" />
		<edge from-layer="2189" from-port="2" to-layer="2200" to-port="1" />
		<edge from-layer="2190" from-port="0" to-layer="2192" to-port="0" />
		<edge from-layer="2191" from-port="1" to-layer="2192" to-port="1" />
		<edge from-layer="2192" from-port="2" to-layer="2194" to-port="0" />
		<edge from-layer="2193" from-port="0" to-layer="2194" to-port="1" />
		<edge from-layer="2194" from-port="2" to-layer="2200" to-port="2" />
		<edge from-layer="2195" from-port="0" to-layer="2197" to-port="0" />
		<edge from-layer="2196" from-port="1" to-layer="2197" to-port="1" />
		<edge from-layer="2197" from-port="2" to-layer="2199" to-port="0" />
		<edge from-layer="2198" from-port="0" to-layer="2199" to-port="1" />
		<edge from-layer="2199" from-port="2" to-layer="2200" to-port="3" />
		<edge from-layer="2200" from-port="4" to-layer="2373" to-port="0" />
		<edge from-layer="2201" from-port="0" to-layer="2240" to-port="0" />
		<edge from-layer="2202" from-port="0" to-layer="2203" to-port="0" />
		<edge from-layer="2203" from-port="1" to-layer="2205" to-port="0" />
		<edge from-layer="2204" from-port="0" to-layer="2205" to-port="1" />
		<edge from-layer="2205" from-port="2" to-layer="2206" to-port="1" />
		<edge from-layer="2206" from-port="2" to-layer="2208" to-port="0" />
		<edge from-layer="2207" from-port="0" to-layer="2208" to-port="1" />
		<edge from-layer="2208" from-port="2" to-layer="2209" to-port="0" />
		<edge from-layer="2209" from-port="1" to-layer="2214" to-port="0" />
		<edge from-layer="2210" from-port="0" to-layer="2214" to-port="1" />
		<edge from-layer="2211" from-port="0" to-layer="2214" to-port="2" />
		<edge from-layer="2212" from-port="0" to-layer="2214" to-port="3" />
		<edge from-layer="2213" from-port="0" to-layer="2214" to-port="4" />
		<edge from-layer="2214" from-port="5" to-layer="2219" to-port="0" />
		<edge from-layer="2215" from-port="0" to-layer="2216" to-port="0" />
		<edge from-layer="2216" from-port="1" to-layer="2218" to-port="0" />
		<edge from-layer="2217" from-port="0" to-layer="2218" to-port="1" />
		<edge from-layer="2218" from-port="2" to-layer="2219" to-port="1" />
		<edge from-layer="2219" from-port="2" to-layer="2221" to-port="0" />
		<edge from-layer="2220" from-port="0" to-layer="2221" to-port="1" />
		<edge from-layer="2221" from-port="2" to-layer="2222" to-port="0" />
		<edge from-layer="2222" from-port="1" to-layer="2227" to-port="0" />
		<edge from-layer="2223" from-port="0" to-layer="2227" to-port="1" />
		<edge from-layer="2224" from-port="0" to-layer="2227" to-port="2" />
		<edge from-layer="2225" from-port="0" to-layer="2227" to-port="3" />
		<edge from-layer="2226" from-port="0" to-layer="2227" to-port="4" />
		<edge from-layer="2227" from-port="5" to-layer="2232" to-port="0" />
		<edge from-layer="2228" from-port="0" to-layer="2229" to-port="0" />
		<edge from-layer="2229" from-port="1" to-layer="2231" to-port="0" />
		<edge from-layer="2230" from-port="0" to-layer="2231" to-port="1" />
		<edge from-layer="2231" from-port="2" to-layer="2232" to-port="1" />
		<edge from-layer="2232" from-port="2" to-layer="2234" to-port="0" />
		<edge from-layer="2233" from-port="0" to-layer="2234" to-port="1" />
		<edge from-layer="2234" from-port="2" to-layer="2235" to-port="0" />
		<edge from-layer="2234" from-port="2" to-layer="2438" to-port="0" />
		<edge from-layer="2234" from-port="2" to-layer="2442" to-port="0" />
		<edge from-layer="2235" from-port="1" to-layer="2238" to-port="0" />
		<edge from-layer="2235" from-port="1" to-layer="2253" to-port="0" />
		<edge from-layer="2236" from-port="0" to-layer="2238" to-port="1" />
		<edge from-layer="2237" from-port="0" to-layer="2238" to-port="2" />
		<edge from-layer="2238" from-port="3" to-layer="2240" to-port="1" />
		<edge from-layer="2239" from-port="0" to-layer="2240" to-port="2" />
		<edge from-layer="2240" from-port="3" to-layer="2242" to-port="0" />
		<edge from-layer="2241" from-port="0" to-layer="2242" to-port="1" />
		<edge from-layer="2242" from-port="2" to-layer="2243" to-port="0" />
		<edge from-layer="2243" from-port="1" to-layer="2245" to-port="0" />
		<edge from-layer="2244" from-port="0" to-layer="2245" to-port="1" />
		<edge from-layer="2245" from-port="2" to-layer="2249" to-port="0" />
		<edge from-layer="2245" from-port="2" to-layer="2247" to-port="0" />
		<edge from-layer="2246" from-port="0" to-layer="2248" to-port="0" />
		<edge from-layer="2247" from-port="1" to-layer="2248" to-port="1" />
		<edge from-layer="2247" from-port="1" to-layer="2262" to-port="1" />
		<edge from-layer="2248" from-port="2" to-layer="2249" to-port="1" />
		<edge from-layer="2249" from-port="2" to-layer="2263" to-port="0" />
		<edge from-layer="2250" from-port="0" to-layer="2255" to-port="0" />
		<edge from-layer="2251" from-port="0" to-layer="2253" to-port="1" />
		<edge from-layer="2252" from-port="0" to-layer="2253" to-port="2" />
		<edge from-layer="2253" from-port="3" to-layer="2255" to-port="1" />
		<edge from-layer="2254" from-port="0" to-layer="2255" to-port="2" />
		<edge from-layer="2255" from-port="3" to-layer="2257" to-port="0" />
		<edge from-layer="2256" from-port="0" to-layer="2257" to-port="1" />
		<edge from-layer="2257" from-port="2" to-layer="2258" to-port="0" />
		<edge from-layer="2258" from-port="1" to-layer="2260" to-port="0" />
		<edge from-layer="2259" from-port="0" to-layer="2260" to-port="1" />
		<edge from-layer="2260" from-port="2" to-layer="2270" to-port="0" />
		<edge from-layer="2260" from-port="2" to-layer="2261" to-port="0" />
		<edge from-layer="2261" from-port="1" to-layer="2269" to-port="0" />
		<edge from-layer="2261" from-port="1" to-layer="2262" to-port="0" />
		<edge from-layer="2262" from-port="2" to-layer="2271" to-port="1" />
		<edge from-layer="2262" from-port="2" to-layer="2263" to-port="1" />
		<edge from-layer="2263" from-port="2" to-layer="2265" to-port="0" />
		<edge from-layer="2264" from-port="0" to-layer="2265" to-port="1" />
		<edge from-layer="2265" from-port="2" to-layer="2267" to-port="0" />
		<edge from-layer="2265" from-port="2" to-layer="2277" to-port="0" />
		<edge from-layer="2266" from-port="0" to-layer="2267" to-port="1" />
		<edge from-layer="2267" from-port="2" to-layer="2286" to-port="0" />
		<edge from-layer="2268" from-port="0" to-layer="2269" to-port="1" />
		<edge from-layer="2269" from-port="2" to-layer="2270" to-port="1" />
		<edge from-layer="2270" from-port="2" to-layer="2271" to-port="0" />
		<edge from-layer="2271" from-port="2" to-layer="2273" to-port="0" />
		<edge from-layer="2272" from-port="0" to-layer="2273" to-port="1" />
		<edge from-layer="2273" from-port="2" to-layer="2282" to-port="0" />
		<edge from-layer="2273" from-port="2" to-layer="2275" to-port="0" />
		<edge from-layer="2274" from-port="0" to-layer="2275" to-port="1" />
		<edge from-layer="2275" from-port="2" to-layer="2286" to-port="1" />
		<edge from-layer="2276" from-port="0" to-layer="2278" to-port="0" />
		<edge from-layer="2277" from-port="1" to-layer="2278" to-port="1" />
		<edge from-layer="2278" from-port="2" to-layer="2280" to-port="0" />
		<edge from-layer="2279" from-port="0" to-layer="2280" to-port="1" />
		<edge from-layer="2280" from-port="2" to-layer="2286" to-port="2" />
		<edge from-layer="2281" from-port="0" to-layer="2283" to-port="0" />
		<edge from-layer="2282" from-port="1" to-layer="2283" to-port="1" />
		<edge from-layer="2283" from-port="2" to-layer="2285" to-port="0" />
		<edge from-layer="2284" from-port="0" to-layer="2285" to-port="1" />
		<edge from-layer="2285" from-port="2" to-layer="2286" to-port="3" />
		<edge from-layer="2286" from-port="4" to-layer="2373" to-port="1" />
		<edge from-layer="2287" from-port="0" to-layer="2326" to-port="0" />
		<edge from-layer="2288" from-port="0" to-layer="2289" to-port="0" />
		<edge from-layer="2289" from-port="1" to-layer="2291" to-port="0" />
		<edge from-layer="2290" from-port="0" to-layer="2291" to-port="1" />
		<edge from-layer="2291" from-port="2" to-layer="2292" to-port="1" />
		<edge from-layer="2292" from-port="2" to-layer="2294" to-port="0" />
		<edge from-layer="2293" from-port="0" to-layer="2294" to-port="1" />
		<edge from-layer="2294" from-port="2" to-layer="2295" to-port="0" />
		<edge from-layer="2295" from-port="1" to-layer="2300" to-port="0" />
		<edge from-layer="2296" from-port="0" to-layer="2300" to-port="1" />
		<edge from-layer="2297" from-port="0" to-layer="2300" to-port="2" />
		<edge from-layer="2298" from-port="0" to-layer="2300" to-port="3" />
		<edge from-layer="2299" from-port="0" to-layer="2300" to-port="4" />
		<edge from-layer="2300" from-port="5" to-layer="2305" to-port="0" />
		<edge from-layer="2301" from-port="0" to-layer="2302" to-port="0" />
		<edge from-layer="2302" from-port="1" to-layer="2304" to-port="0" />
		<edge from-layer="2303" from-port="0" to-layer="2304" to-port="1" />
		<edge from-layer="2304" from-port="2" to-layer="2305" to-port="1" />
		<edge from-layer="2305" from-port="2" to-layer="2307" to-port="0" />
		<edge from-layer="2306" from-port="0" to-layer="2307" to-port="1" />
		<edge from-layer="2307" from-port="2" to-layer="2308" to-port="0" />
		<edge from-layer="2308" from-port="1" to-layer="2313" to-port="0" />
		<edge from-layer="2309" from-port="0" to-layer="2313" to-port="1" />
		<edge from-layer="2310" from-port="0" to-layer="2313" to-port="2" />
		<edge from-layer="2311" from-port="0" to-layer="2313" to-port="3" />
		<edge from-layer="2312" from-port="0" to-layer="2313" to-port="4" />
		<edge from-layer="2313" from-port="5" to-layer="2318" to-port="0" />
		<edge from-layer="2314" from-port="0" to-layer="2315" to-port="0" />
		<edge from-layer="2315" from-port="1" to-layer="2317" to-port="0" />
		<edge from-layer="2316" from-port="0" to-layer="2317" to-port="1" />
		<edge from-layer="2317" from-port="2" to-layer="2318" to-port="1" />
		<edge from-layer="2318" from-port="2" to-layer="2320" to-port="0" />
		<edge from-layer="2319" from-port="0" to-layer="2320" to-port="1" />
		<edge from-layer="2320" from-port="2" to-layer="2449" to-port="0" />
		<edge from-layer="2320" from-port="2" to-layer="2453" to-port="0" />
		<edge from-layer="2320" from-port="2" to-layer="2321" to-port="0" />
		<edge from-layer="2321" from-port="1" to-layer="2324" to-port="0" />
		<edge from-layer="2321" from-port="1" to-layer="2339" to-port="0" />
		<edge from-layer="2322" from-port="0" to-layer="2324" to-port="1" />
		<edge from-layer="2323" from-port="0" to-layer="2324" to-port="2" />
		<edge from-layer="2324" from-port="3" to-layer="2326" to-port="1" />
		<edge from-layer="2325" from-port="0" to-layer="2326" to-port="2" />
		<edge from-layer="2326" from-port="3" to-layer="2328" to-port="0" />
		<edge from-layer="2327" from-port="0" to-layer="2328" to-port="1" />
		<edge from-layer="2328" from-port="2" to-layer="2329" to-port="0" />
		<edge from-layer="2329" from-port="1" to-layer="2331" to-port="0" />
		<edge from-layer="2330" from-port="0" to-layer="2331" to-port="1" />
		<edge from-layer="2331" from-port="2" to-layer="2333" to-port="0" />
		<edge from-layer="2331" from-port="2" to-layer="2335" to-port="0" />
		<edge from-layer="2332" from-port="0" to-layer="2334" to-port="0" />
		<edge from-layer="2333" from-port="1" to-layer="2348" to-port="1" />
		<edge from-layer="2333" from-port="1" to-layer="2334" to-port="1" />
		<edge from-layer="2334" from-port="2" to-layer="2335" to-port="1" />
		<edge from-layer="2335" from-port="2" to-layer="2349" to-port="0" />
		<edge from-layer="2336" from-port="0" to-layer="2341" to-port="0" />
		<edge from-layer="2337" from-port="0" to-layer="2339" to-port="1" />
		<edge from-layer="2338" from-port="0" to-layer="2339" to-port="2" />
		<edge from-layer="2339" from-port="3" to-layer="2341" to-port="1" />
		<edge from-layer="2340" from-port="0" to-layer="2341" to-port="2" />
		<edge from-layer="2341" from-port="3" to-layer="2343" to-port="0" />
		<edge from-layer="2342" from-port="0" to-layer="2343" to-port="1" />
		<edge from-layer="2343" from-port="2" to-layer="2344" to-port="0" />
		<edge from-layer="2344" from-port="1" to-layer="2346" to-port="0" />
		<edge from-layer="2345" from-port="0" to-layer="2346" to-port="1" />
		<edge from-layer="2346" from-port="2" to-layer="2356" to-port="0" />
		<edge from-layer="2346" from-port="2" to-layer="2347" to-port="0" />
		<edge from-layer="2347" from-port="1" to-layer="2355" to-port="0" />
		<edge from-layer="2347" from-port="1" to-layer="2348" to-port="0" />
		<edge from-layer="2348" from-port="2" to-layer="2357" to-port="1" />
		<edge from-layer="2348" from-port="2" to-layer="2349" to-port="1" />
		<edge from-layer="2349" from-port="2" to-layer="2351" to-port="0" />
		<edge from-layer="2350" from-port="0" to-layer="2351" to-port="1" />
		<edge from-layer="2351" from-port="2" to-layer="2363" to-port="0" />
		<edge from-layer="2351" from-port="2" to-layer="2353" to-port="0" />
		<edge from-layer="2352" from-port="0" to-layer="2353" to-port="1" />
		<edge from-layer="2353" from-port="2" to-layer="2372" to-port="0" />
		<edge from-layer="2354" from-port="0" to-layer="2355" to-port="1" />
		<edge from-layer="2355" from-port="2" to-layer="2356" to-port="1" />
		<edge from-layer="2356" from-port="2" to-layer="2357" to-port="0" />
		<edge from-layer="2357" from-port="2" to-layer="2359" to-port="0" />
		<edge from-layer="2358" from-port="0" to-layer="2359" to-port="1" />
		<edge from-layer="2359" from-port="2" to-layer="2368" to-port="0" />
		<edge from-layer="2359" from-port="2" to-layer="2361" to-port="0" />
		<edge from-layer="2360" from-port="0" to-layer="2361" to-port="1" />
		<edge from-layer="2361" from-port="2" to-layer="2372" to-port="1" />
		<edge from-layer="2362" from-port="0" to-layer="2364" to-port="0" />
		<edge from-layer="2363" from-port="1" to-layer="2364" to-port="1" />
		<edge from-layer="2364" from-port="2" to-layer="2366" to-port="0" />
		<edge from-layer="2365" from-port="0" to-layer="2366" to-port="1" />
		<edge from-layer="2366" from-port="2" to-layer="2372" to-port="2" />
		<edge from-layer="2367" from-port="0" to-layer="2369" to-port="0" />
		<edge from-layer="2368" from-port="1" to-layer="2369" to-port="1" />
		<edge from-layer="2369" from-port="2" to-layer="2371" to-port="0" />
		<edge from-layer="2370" from-port="0" to-layer="2371" to-port="1" />
		<edge from-layer="2371" from-port="2" to-layer="2372" to-port="3" />
		<edge from-layer="2372" from-port="4" to-layer="2373" to-port="2" />
		<edge from-layer="2373" from-port="3" to-layer="2382" to-port="0" />
		<edge from-layer="2373" from-port="3" to-layer="2377" to-port="0" />
		<edge from-layer="2374" from-port="0" to-layer="2377" to-port="1" />
		<edge from-layer="2375" from-port="0" to-layer="2377" to-port="2" />
		<edge from-layer="2376" from-port="0" to-layer="2377" to-port="3" />
		<edge from-layer="2377" from-port="4" to-layer="2392" to-port="1" />
		<edge from-layer="2377" from-port="4" to-layer="2378" to-port="1" />
		<edge from-layer="2378" from-port="2" to-layer="2383" to-port="0" />
		<edge from-layer="2379" from-port="0" to-layer="2382" to-port="1" />
		<edge from-layer="2380" from-port="0" to-layer="2382" to-port="2" />
		<edge from-layer="2381" from-port="0" to-layer="2382" to-port="3" />
		<edge from-layer="2382" from-port="4" to-layer="2383" to-port="1" />
		<edge from-layer="2383" from-port="2" to-layer="2386" to-port="0" />
		<edge from-layer="2383" from-port="2" to-layer="2402" to-port="0" />
		<edge from-layer="2384" from-port="0" to-layer="2386" to-port="1" />
		<edge from-layer="2384" from-port="0" to-layer="2590" to-port="1" />
		<edge from-layer="2384" from-port="0" to-layer="2394" to-port="1" />
		<edge from-layer="2385" from-port="0" to-layer="2386" to-port="2" />
		<edge from-layer="2386" from-port="3" to-layer="2397" to-port="0" />
		<edge from-layer="2386" from-port="3" to-layer="2410" to-port="0" />
		<edge from-layer="2387" from-port="0" to-layer="2390" to-port="1" />
		<edge from-layer="2388" from-port="0" to-layer="2390" to-port="2" />
		<edge from-layer="2389" from-port="0" to-layer="2390" to-port="3" />
		<edge from-layer="2390" from-port="4" to-layer="2391" to-port="0" />
		<edge from-layer="2391" from-port="1" to-layer="2392" to-port="0" />
		<edge from-layer="2392" from-port="2" to-layer="2404" to-port="0" />
		<edge from-layer="2392" from-port="2" to-layer="2394" to-port="0" />
		<edge from-layer="2393" from-port="0" to-layer="2394" to-port="2" />
		<edge from-layer="2394" from-port="3" to-layer="2396" to-port="0" />
		<edge from-layer="2395" from-port="0" to-layer="2396" to-port="1" />
		<edge from-layer="2396" from-port="2" to-layer="2410" to-port="1" />
		<edge from-layer="2396" from-port="2" to-layer="2397" to-port="1" />
		<edge from-layer="2397" from-port="2" to-layer="2399" to-port="0" />
		<edge from-layer="2398" from-port="0" to-layer="2399" to-port="1" />
		<edge from-layer="2399" from-port="2" to-layer="2416" to-port="0" />
		<edge from-layer="2400" from-port="0" to-layer="2598" to-port="1" />
		<edge from-layer="2400" from-port="0" to-layer="2404" to-port="1" />
		<edge from-layer="2400" from-port="0" to-layer="2402" to-port="1" />
		<edge from-layer="2401" from-port="0" to-layer="2402" to-port="2" />
		<edge from-layer="2402" from-port="3" to-layer="2407" to-port="0" />
		<edge from-layer="2402" from-port="3" to-layer="2413" to-port="0" />
		<edge from-layer="2403" from-port="0" to-layer="2404" to-port="2" />
		<edge from-layer="2404" from-port="3" to-layer="2406" to-port="0" />
		<edge from-layer="2405" from-port="0" to-layer="2406" to-port="1" />
		<edge from-layer="2406" from-port="2" to-layer="2407" to-port="1" />
		<edge from-layer="2406" from-port="2" to-layer="2413" to-port="1" />
		<edge from-layer="2407" from-port="2" to-layer="2409" to-port="0" />
		<edge from-layer="2408" from-port="0" to-layer="2409" to-port="1" />
		<edge from-layer="2409" from-port="2" to-layer="2416" to-port="1" />
		<edge from-layer="2410" from-port="2" to-layer="2412" to-port="0" />
		<edge from-layer="2411" from-port="0" to-layer="2412" to-port="1" />
		<edge from-layer="2412" from-port="2" to-layer="2416" to-port="2" />
		<edge from-layer="2413" from-port="2" to-layer="2415" to-port="0" />
		<edge from-layer="2414" from-port="0" to-layer="2415" to-port="1" />
		<edge from-layer="2415" from-port="2" to-layer="2416" to-port="3" />
		<edge from-layer="2416" from-port="4" to-layer="2426" to-port="0" />
		<edge from-layer="2416" from-port="4" to-layer="2417" to-port="0" />
		<edge from-layer="2417" from-port="1" to-layer="2421" to-port="0" />
		<edge from-layer="2417" from-port="1" to-layer="2544" to-port="0" />
		<edge from-layer="2417" from-port="1" to-layer="2552" to-port="0" />
		<edge from-layer="2418" from-port="0" to-layer="2421" to-port="1" />
		<edge from-layer="2419" from-port="0" to-layer="2421" to-port="2" />
		<edge from-layer="2420" from-port="0" to-layer="2421" to-port="3" />
		<edge from-layer="2421" from-port="4" to-layer="2423" to-port="0" />
		<edge from-layer="2422" from-port="0" to-layer="2423" to-port="1" />
		<edge from-layer="2423" from-port="2" to-layer="2425" to-port="0" />
		<edge from-layer="2424" from-port="0" to-layer="2425" to-port="1" />
		<edge from-layer="2425" from-port="2" to-layer="2426" to-port="1" />
		<edge from-layer="2426" from-port="2" to-layer="2548" to-port="0" />
		<edge from-layer="2427" from-port="1" to-layer="2430" to-port="0" />
		<edge from-layer="2428" from-port="0" to-layer="2430" to-port="1" />
		<edge from-layer="2429" from-port="0" to-layer="2430" to-port="2" />
		<edge from-layer="2430" from-port="3" to-layer="2431" to-port="1" />
		<edge from-layer="2431" from-port="2" to-layer="2437" to-port="0" />
		<edge from-layer="2432" from-port="0" to-layer="2433" to-port="1" />
		<edge from-layer="2433" from-port="3" to-layer="2436" to-port="0" />
		<edge from-layer="2434" from-port="0" to-layer="2436" to-port="1" />
		<edge from-layer="2435" from-port="0" to-layer="2436" to-port="2" />
		<edge from-layer="2436" from-port="3" to-layer="2437" to-port="1" />
		<edge from-layer="2437" from-port="2" to-layer="2460" to-port="0" />
		<edge from-layer="2438" from-port="1" to-layer="2441" to-port="0" />
		<edge from-layer="2439" from-port="0" to-layer="2441" to-port="1" />
		<edge from-layer="2440" from-port="0" to-layer="2441" to-port="2" />
		<edge from-layer="2441" from-port="3" to-layer="2442" to-port="1" />
		<edge from-layer="2442" from-port="2" to-layer="2448" to-port="0" />
		<edge from-layer="2443" from-port="0" to-layer="2444" to-port="1" />
		<edge from-layer="2444" from-port="3" to-layer="2447" to-port="0" />
		<edge from-layer="2445" from-port="0" to-layer="2447" to-port="1" />
		<edge from-layer="2446" from-port="0" to-layer="2447" to-port="2" />
		<edge from-layer="2447" from-port="3" to-layer="2448" to-port="1" />
		<edge from-layer="2448" from-port="2" to-layer="2460" to-port="1" />
		<edge from-layer="2449" from-port="1" to-layer="2452" to-port="0" />
		<edge from-layer="2450" from-port="0" to-layer="2452" to-port="1" />
		<edge from-layer="2451" from-port="0" to-layer="2452" to-port="2" />
		<edge from-layer="2452" from-port="3" to-layer="2453" to-port="1" />
		<edge from-layer="2453" from-port="2" to-layer="2459" to-port="0" />
		<edge from-layer="2454" from-port="0" to-layer="2455" to-port="1" />
		<edge from-layer="2455" from-port="3" to-layer="2458" to-port="0" />
		<edge from-layer="2456" from-port="0" to-layer="2458" to-port="1" />
		<edge from-layer="2457" from-port="0" to-layer="2458" to-port="2" />
		<edge from-layer="2458" from-port="3" to-layer="2459" to-port="1" />
		<edge from-layer="2459" from-port="2" to-layer="2460" to-port="2" />
		<edge from-layer="2460" from-port="3" to-layer="2461" to-port="0" />
		<edge from-layer="2461" from-port="1" to-layer="2517" to-port="0" />
		<edge from-layer="2462" from-port="0" to-layer="2463" to-port="0" />
		<edge from-layer="2463" from-port="1" to-layer="2465" to-port="0" />
		<edge from-layer="2464" from-port="0" to-layer="2465" to-port="1" />
		<edge from-layer="2465" from-port="2" to-layer="2466" to-port="1" />
		<edge from-layer="2466" from-port="2" to-layer="2468" to-port="0" />
		<edge from-layer="2467" from-port="0" to-layer="2468" to-port="1" />
		<edge from-layer="2468" from-port="2" to-layer="2469" to-port="0" />
		<edge from-layer="2468" from-port="2" to-layer="2473" to-port="0" />
		<edge from-layer="2469" from-port="1" to-layer="2472" to-port="0" />
		<edge from-layer="2470" from-port="0" to-layer="2472" to-port="1" />
		<edge from-layer="2471" from-port="0" to-layer="2472" to-port="2" />
		<edge from-layer="2472" from-port="3" to-layer="2473" to-port="1" />
		<edge from-layer="2473" from-port="2" to-layer="2478" to-port="0" />
		<edge from-layer="2474" from-port="0" to-layer="2475" to-port="1" />
		<edge from-layer="2475" from-port="3" to-layer="2477" to-port="0" />
		<edge from-layer="2476" from-port="0" to-layer="2477" to-port="1" />
		<edge from-layer="2477" from-port="2" to-layer="2478" to-port="1" />
		<edge from-layer="2478" from-port="2" to-layer="2513" to-port="0" />
		<edge from-layer="2479" from-port="0" to-layer="2480" to-port="0" />
		<edge from-layer="2480" from-port="1" to-layer="2482" to-port="0" />
		<edge from-layer="2481" from-port="0" to-layer="2482" to-port="1" />
		<edge from-layer="2482" from-port="2" to-layer="2483" to-port="1" />
		<edge from-layer="2483" from-port="2" to-layer="2485" to-port="0" />
		<edge from-layer="2484" from-port="0" to-layer="2485" to-port="1" />
		<edge from-layer="2485" from-port="2" to-layer="2486" to-port="0" />
		<edge from-layer="2485" from-port="2" to-layer="2490" to-port="0" />
		<edge from-layer="2486" from-port="1" to-layer="2489" to-port="0" />
		<edge from-layer="2487" from-port="0" to-layer="2489" to-port="1" />
		<edge from-layer="2488" from-port="0" to-layer="2489" to-port="2" />
		<edge from-layer="2489" from-port="3" to-layer="2490" to-port="1" />
		<edge from-layer="2490" from-port="2" to-layer="2495" to-port="0" />
		<edge from-layer="2491" from-port="0" to-layer="2492" to-port="1" />
		<edge from-layer="2492" from-port="3" to-layer="2494" to-port="0" />
		<edge from-layer="2493" from-port="0" to-layer="2494" to-port="1" />
		<edge from-layer="2494" from-port="2" to-layer="2495" to-port="1" />
		<edge from-layer="2495" from-port="2" to-layer="2513" to-port="1" />
		<edge from-layer="2496" from-port="0" to-layer="2497" to-port="0" />
		<edge from-layer="2497" from-port="1" to-layer="2499" to-port="0" />
		<edge from-layer="2498" from-port="0" to-layer="2499" to-port="1" />
		<edge from-layer="2499" from-port="2" to-layer="2500" to-port="1" />
		<edge from-layer="2500" from-port="2" to-layer="2502" to-port="0" />
		<edge from-layer="2501" from-port="0" to-layer="2502" to-port="1" />
		<edge from-layer="2502" from-port="2" to-layer="2503" to-port="0" />
		<edge from-layer="2502" from-port="2" to-layer="2507" to-port="0" />
		<edge from-layer="2503" from-port="1" to-layer="2506" to-port="0" />
		<edge from-layer="2504" from-port="0" to-layer="2506" to-port="1" />
		<edge from-layer="2505" from-port="0" to-layer="2506" to-port="2" />
		<edge from-layer="2506" from-port="3" to-layer="2507" to-port="1" />
		<edge from-layer="2507" from-port="2" to-layer="2512" to-port="0" />
		<edge from-layer="2508" from-port="0" to-layer="2509" to-port="1" />
		<edge from-layer="2509" from-port="3" to-layer="2511" to-port="0" />
		<edge from-layer="2510" from-port="0" to-layer="2511" to-port="1" />
		<edge from-layer="2511" from-port="2" to-layer="2512" to-port="1" />
		<edge from-layer="2512" from-port="2" to-layer="2513" to-port="2" />
		<edge from-layer="2513" from-port="3" to-layer="2514" to-port="0" />
		<edge from-layer="2514" from-port="1" to-layer="2516" to-port="0" />
		<edge from-layer="2515" from-port="0" to-layer="2516" to-port="1" />
		<edge from-layer="2516" from-port="2" to-layer="2517" to-port="1" />
		<edge from-layer="2517" from-port="2" to-layer="2519" to-port="0" />
		<edge from-layer="2517" from-port="2" to-layer="2566" to-port="0" />
		<edge from-layer="2517" from-port="2" to-layer="2534" to-port="0" />
		<edge from-layer="2518" from-port="0" to-layer="2519" to-port="1" />
		<edge from-layer="2519" from-port="2" to-layer="2521" to-port="0" />
		<edge from-layer="2519" from-port="2" to-layer="2532" to-port="0" />
		<edge from-layer="2520" from-port="0" to-layer="2525" to-port="0" />
		<edge from-layer="2521" from-port="1" to-layer="2524" to-port="0" />
		<edge from-layer="2522" from-port="0" to-layer="2524" to-port="1" />
		<edge from-layer="2523" from-port="0" to-layer="2524" to-port="2" />
		<edge from-layer="2524" from-port="3" to-layer="2527" to-port="2" />
		<edge from-layer="2524" from-port="3" to-layer="2525" to-port="1" />
		<edge from-layer="2525" from-port="2" to-layer="2527" to-port="0" />
		<edge from-layer="2526" from-port="0" to-layer="2527" to-port="1" />
		<edge from-layer="2527" from-port="3" to-layer="2529" to-port="0" />
		<edge from-layer="2528" from-port="0" to-layer="2529" to-port="1" />
		<edge from-layer="2529" from-port="2" to-layer="2531" to-port="0" />
		<edge from-layer="2530" from-port="0" to-layer="2531" to-port="1" />
		<edge from-layer="2531" from-port="2" to-layer="2532" to-port="1" />
		<edge from-layer="2532" from-port="3" to-layer="2546" to-port="0" />
		<edge from-layer="2532" from-port="3" to-layer="2571" to-port="0" />
		<edge from-layer="2533" from-port="0" to-layer="2539" to-port="0" />
		<edge from-layer="2534" from-port="1" to-layer="2561" to-port="0" />
		<edge from-layer="2534" from-port="1" to-layer="2680" to-port="0" />
		<edge from-layer="2534" from-port="1" to-layer="2569" to-port="0" />
		<edge from-layer="2534" from-port="1" to-layer="2577" to-port="0" />
		<edge from-layer="2534" from-port="1" to-layer="2537" to-port="0" />
		<edge from-layer="2534" from-port="1" to-layer="2604" to-port="0" />
		<edge from-layer="2535" from-port="0" to-layer="2537" to-port="1" />
		<edge from-layer="2536" from-port="0" to-layer="2680" to-port="2" />
		<edge from-layer="2536" from-port="0" to-layer="2537" to-port="2" />
		<edge from-layer="2536" from-port="0" to-layer="2604" to-port="2" />
		<edge from-layer="2537" from-port="3" to-layer="2539" to-port="1" />
		<edge from-layer="2537" from-port="3" to-layer="2593" to-port="1" />
		<edge from-layer="2537" from-port="3" to-layer="2731" to-port="1" />
		<edge from-layer="2538" from-port="0" to-layer="2539" to-port="2" />
		<edge from-layer="2539" from-port="3" to-layer="2541" to-port="0" />
		<edge from-layer="2540" from-port="0" to-layer="2541" to-port="1" />
		<edge from-layer="2541" from-port="2" to-layer="2570" to-port="0" />
		<edge from-layer="2541" from-port="2" to-layer="2545" to-port="0" />
		<edge from-layer="2542" from-port="0" to-layer="2544" to-port="1" />
		<edge from-layer="2543" from-port="0" to-layer="2544" to-port="2" />
		<edge from-layer="2544" from-port="3" to-layer="2545" to-port="1" />
		<edge from-layer="2545" from-port="2" to-layer="2546" to-port="1" />
		<edge from-layer="2546" from-port="2" to-layer="2548" to-port="1" />
		<edge from-layer="2546" from-port="2" to-layer="2555" to-port="0" />
		<edge from-layer="2547" from-port="0" to-layer="2548" to-port="2" />
		<edge from-layer="2548" from-port="3" to-layer="2554" to-port="0" />
		<edge from-layer="2549" from-port="0" to-layer="2553" to-port="0" />
		<edge from-layer="2550" from-port="0" to-layer="2552" to-port="1" />
		<edge from-layer="2551" from-port="0" to-layer="2552" to-port="2" />
		<edge from-layer="2552" from-port="3" to-layer="2556" to-port="1" />
		<edge from-layer="2552" from-port="3" to-layer="2553" to-port="1" />
		<edge from-layer="2553" from-port="2" to-layer="2554" to-port="1" />
		<edge from-layer="2554" from-port="2" to-layer="2557" to-port="0" />
		<edge from-layer="2555" from-port="1" to-layer="2556" to-port="0" />
		<edge from-layer="2556" from-port="2" to-layer="2557" to-port="1" />
		<edge from-layer="2557" from-port="2" to-layer="2622" to-port="0" />
		<edge from-layer="2557" from-port="2" to-layer="2588" to-port="0" />
		<edge from-layer="2557" from-port="2" to-layer="2613" to-port="0" />
		<edge from-layer="2558" from-port="0" to-layer="2561" to-port="1" />
		<edge from-layer="2559" from-port="0" to-layer="2561" to-port="2" />
		<edge from-layer="2560" from-port="0" to-layer="2561" to-port="3" />
		<edge from-layer="2561" from-port="4" to-layer="2563" to-port="0" />
		<edge from-layer="2562" from-port="0" to-layer="2563" to-port="1" />
		<edge from-layer="2563" from-port="2" to-layer="2565" to-port="0" />
		<edge from-layer="2564" from-port="0" to-layer="2565" to-port="1" />
		<edge from-layer="2565" from-port="2" to-layer="2566" to-port="1" />
		<edge from-layer="2566" from-port="2" to-layer="2573" to-port="0" />
		<edge from-layer="2567" from-port="0" to-layer="2569" to-port="1" />
		<edge from-layer="2568" from-port="0" to-layer="2569" to-port="2" />
		<edge from-layer="2569" from-port="3" to-layer="2570" to-port="1" />
		<edge from-layer="2570" from-port="2" to-layer="2571" to-port="1" />
		<edge from-layer="2571" from-port="2" to-layer="2580" to-port="0" />
		<edge from-layer="2571" from-port="2" to-layer="2573" to-port="1" />
		<edge from-layer="2572" from-port="0" to-layer="2573" to-port="2" />
		<edge from-layer="2573" from-port="3" to-layer="2579" to-port="0" />
		<edge from-layer="2574" from-port="0" to-layer="2578" to-port="0" />
		<edge from-layer="2575" from-port="0" to-layer="2577" to-port="1" />
		<edge from-layer="2576" from-port="0" to-layer="2577" to-port="2" />
		<edge from-layer="2577" from-port="3" to-layer="2581" to-port="1" />
		<edge from-layer="2577" from-port="3" to-layer="2578" to-port="1" />
		<edge from-layer="2578" from-port="2" to-layer="2579" to-port="1" />
		<edge from-layer="2579" from-port="2" to-layer="2582" to-port="0" />
		<edge from-layer="2580" from-port="1" to-layer="2581" to-port="0" />
		<edge from-layer="2581" from-port="2" to-layer="2582" to-port="1" />
		<edge from-layer="2582" from-port="2" to-layer="2643" to-port="0" />
		<edge from-layer="2582" from-port="2" to-layer="2584" to-port="0" />
		<edge from-layer="2583" from-port="0" to-layer="2584" to-port="1" />
		<edge from-layer="2584" from-port="2" to-layer="2654" to-port="0" />
		<edge from-layer="2584" from-port="2" to-layer="2588" to-port="1" />
		<edge from-layer="2585" from-port="0" to-layer="2588" to-port="2" />
		<edge from-layer="2586" from-port="0" to-layer="2588" to-port="3" />
		<edge from-layer="2587" from-port="0" to-layer="2588" to-port="4" />
		<edge from-layer="2588" from-port="5" to-layer="2598" to-port="0" />
		<edge from-layer="2588" from-port="5" to-layer="2590" to-port="0" />
		<edge from-layer="2588" from-port="5" to-layer="2625" to-port="0" />
		<edge from-layer="2589" from-port="0" to-layer="2590" to-port="2" />
		<edge from-layer="2590" from-port="3" to-layer="2596" to-port="0" />
		<edge from-layer="2590" from-port="3" to-layer="2664" to-port="0" />
		<edge from-layer="2590" from-port="3" to-layer="2629" to-port="0" />
		<edge from-layer="2591" from-port="0" to-layer="2593" to-port="0" />
		<edge from-layer="2592" from-port="0" to-layer="2593" to-port="2" />
		<edge from-layer="2593" from-port="3" to-layer="2595" to-port="0" />
		<edge from-layer="2594" from-port="0" to-layer="2595" to-port="1" />
		<edge from-layer="2595" from-port="2" to-layer="2596" to-port="1" />
		<edge from-layer="2596" from-port="2" to-layer="2609" to-port="0" />
		<edge from-layer="2596" from-port="2" to-layer="2612" to-port="0" />
		<edge from-layer="2597" from-port="0" to-layer="2598" to-port="2" />
		<edge from-layer="2598" from-port="3" to-layer="2658" to-port="0" />
		<edge from-layer="2598" from-port="3" to-layer="2600" to-port="0" />
		<edge from-layer="2599" from-port="0" to-layer="2600" to-port="1" />
		<edge from-layer="2600" from-port="2" to-layer="2602" to-port="0" />
		<edge from-layer="2601" from-port="0" to-layer="2602" to-port="1" />
		<edge from-layer="2602" from-port="2" to-layer="2607" to-port="0" />
		<edge from-layer="2603" from-port="0" to-layer="2604" to-port="1" />
		<edge from-layer="2604" from-port="3" to-layer="2606" to-port="0" />
		<edge from-layer="2605" from-port="0" to-layer="2606" to-port="1" />
		<edge from-layer="2606" from-port="2" to-layer="2607" to-port="1" />
		<edge from-layer="2607" from-port="2" to-layer="2609" to-port="1" />
		<edge from-layer="2608" from-port="0" to-layer="2609" to-port="2" />
		<edge from-layer="2609" from-port="3" to-layer="2694" to-port="0" />
		<edge from-layer="2610" from-port="0" to-layer="2693" to-port="0" />
		<edge from-layer="2611" from-port="0" to-layer="2612" to-port="1" />
		<edge from-layer="2612" from-port="2" to-layer="2686" to-port="0" />
		<edge from-layer="2613" from-port="1" to-layer="2628" to-port="0" />
		<edge from-layer="2613" from-port="1" to-layer="2617" to-port="0" />
		<edge from-layer="2613" from-port="1" to-layer="2636" to-port="0" />
		<edge from-layer="2614" from-port="0" to-layer="2617" to-port="1" />
		<edge from-layer="2615" from-port="0" to-layer="2617" to-port="2" />
		<edge from-layer="2616" from-port="0" to-layer="2617" to-port="3" />
		<edge from-layer="2617" from-port="4" to-layer="2619" to-port="0" />
		<edge from-layer="2618" from-port="0" to-layer="2619" to-port="1" />
		<edge from-layer="2619" from-port="2" to-layer="2621" to-port="0" />
		<edge from-layer="2620" from-port="0" to-layer="2621" to-port="1" />
		<edge from-layer="2621" from-port="2" to-layer="2622" to-port="1" />
		<edge from-layer="2622" from-port="2" to-layer="2632" to-port="0" />
		<edge from-layer="2623" from-port="0" to-layer="2625" to-port="1" />
		<edge from-layer="2624" from-port="0" to-layer="2625" to-port="2" />
		<edge from-layer="2625" from-port="3" to-layer="2630" to-port="0" />
		<edge from-layer="2625" from-port="3" to-layer="2659" to-port="0" />
		<edge from-layer="2626" from-port="0" to-layer="2628" to-port="1" />
		<edge from-layer="2627" from-port="0" to-layer="2628" to-port="2" />
		<edge from-layer="2628" from-port="3" to-layer="2629" to-port="1" />
		<edge from-layer="2629" from-port="2" to-layer="2630" to-port="1" />
		<edge from-layer="2630" from-port="2" to-layer="2632" to-port="1" />
		<edge from-layer="2630" from-port="2" to-layer="2639" to-port="0" />
		<edge from-layer="2631" from-port="0" to-layer="2632" to-port="2" />
		<edge from-layer="2632" from-port="3" to-layer="2638" to-port="0" />
		<edge from-layer="2633" from-port="0" to-layer="2637" to-port="0" />
		<edge from-layer="2634" from-port="0" to-layer="2636" to-port="1" />
		<edge from-layer="2635" from-port="0" to-layer="2636" to-port="2" />
		<edge from-layer="2636" from-port="3" to-layer="2637" to-port="1" />
		<edge from-layer="2636" from-port="3" to-layer="2640" to-port="1" />
		<edge from-layer="2637" from-port="2" to-layer="2638" to-port="1" />
		<edge from-layer="2638" from-port="2" to-layer="2641" to-port="0" />
		<edge from-layer="2639" from-port="1" to-layer="2640" to-port="0" />
		<edge from-layer="2640" from-port="2" to-layer="2641" to-port="1" />
		<edge from-layer="2641" from-port="2" to-layer="2674" to-port="0" />
		<edge from-layer="2642" from-port="0" to-layer="2643" to-port="1" />
		<edge from-layer="2643" from-port="2" to-layer="2653" to-port="0" />
		<edge from-layer="2643" from-port="2" to-layer="2644" to-port="0" />
		<edge from-layer="2644" from-port="1" to-layer="2648" to-port="0" />
		<edge from-layer="2645" from-port="0" to-layer="2648" to-port="1" />
		<edge from-layer="2646" from-port="0" to-layer="2648" to-port="2" />
		<edge from-layer="2647" from-port="0" to-layer="2648" to-port="3" />
		<edge from-layer="2648" from-port="4" to-layer="2650" to-port="0" />
		<edge from-layer="2649" from-port="0" to-layer="2650" to-port="1" />
		<edge from-layer="2650" from-port="2" to-layer="2652" to-port="0" />
		<edge from-layer="2651" from-port="0" to-layer="2652" to-port="1" />
		<edge from-layer="2652" from-port="2" to-layer="2653" to-port="1" />
		<edge from-layer="2653" from-port="2" to-layer="2667" to-port="0" />
		<edge from-layer="2654" from-port="1" to-layer="2657" to-port="0" />
		<edge from-layer="2654" from-port="1" to-layer="2662" to-port="0" />
		<edge from-layer="2655" from-port="0" to-layer="2657" to-port="1" />
		<edge from-layer="2656" from-port="0" to-layer="2657" to-port="2" />
		<edge from-layer="2657" from-port="3" to-layer="2663" to-port="0" />
		<edge from-layer="2657" from-port="3" to-layer="2658" to-port="1" />
		<edge from-layer="2658" from-port="2" to-layer="2659" to-port="1" />
		<edge from-layer="2659" from-port="2" to-layer="2665" to-port="0" />
		<edge from-layer="2660" from-port="0" to-layer="2662" to-port="1" />
		<edge from-layer="2661" from-port="0" to-layer="2662" to-port="2" />
		<edge from-layer="2662" from-port="3" to-layer="2663" to-port="1" />
		<edge from-layer="2663" from-port="2" to-layer="2664" to-port="1" />
		<edge from-layer="2664" from-port="2" to-layer="2665" to-port="1" />
		<edge from-layer="2665" from-port="2" to-layer="2670" to-port="0" />
		<edge from-layer="2665" from-port="2" to-layer="2667" to-port="1" />
		<edge from-layer="2666" from-port="0" to-layer="2667" to-port="2" />
		<edge from-layer="2667" from-port="3" to-layer="2669" to-port="0" />
		<edge from-layer="2668" from-port="0" to-layer="2669" to-port="1" />
		<edge from-layer="2669" from-port="2" to-layer="2671" to-port="0" />
		<edge from-layer="2670" from-port="1" to-layer="2671" to-port="1" />
		<edge from-layer="2671" from-port="2" to-layer="2673" to-port="0" />
		<edge from-layer="2672" from-port="0" to-layer="2673" to-port="1" />
		<edge from-layer="2673" from-port="2" to-layer="2674" to-port="1" />
		<edge from-layer="2674" from-port="2" to-layer="2676" to-port="0" />
		<edge from-layer="2675" from-port="0" to-layer="2676" to-port="1" />
		<edge from-layer="2676" from-port="2" to-layer="2678" to-port="0" />
		<edge from-layer="2677" from-port="0" to-layer="2678" to-port="1" />
		<edge from-layer="2678" from-port="2" to-layer="2684" to-port="0" />
		<edge from-layer="2679" from-port="0" to-layer="2680" to-port="1" />
		<edge from-layer="2680" from-port="3" to-layer="2683" to-port="0" />
		<edge from-layer="2681" from-port="0" to-layer="2683" to-port="1" />
		<edge from-layer="2682" from-port="0" to-layer="2683" to-port="2" />
		<edge from-layer="2683" from-port="3" to-layer="2684" to-port="1" />
		<edge from-layer="2684" from-port="2" to-layer="2686" to-port="1" />
		<edge from-layer="2685" from-port="0" to-layer="2686" to-port="2" />
		<edge from-layer="2686" from-port="3" to-layer="2687" to-port="0" />
		<edge from-layer="2686" from-port="3" to-layer="2712" to-port="0" />
		<edge from-layer="2687" from-port="1" to-layer="2690" to-port="0" />
		<edge from-layer="2687" from-port="1" to-layer="2707" to-port="0" />
		<edge from-layer="2688" from-port="0" to-layer="2690" to-port="1" />
		<edge from-layer="2689" from-port="0" to-layer="2690" to-port="2" />
		<edge from-layer="2689" from-port="0" to-layer="2707" to-port="2" />
		<edge from-layer="2690" from-port="3" to-layer="2692" to-port="0" />
		<edge from-layer="2691" from-port="0" to-layer="2692" to-port="1" />
		<edge from-layer="2692" from-port="2" to-layer="2693" to-port="1" />
		<edge from-layer="2693" from-port="2" to-layer="2694" to-port="1" />
		<edge from-layer="2694" from-port="2" to-layer="2695" to-port="0" />
		<edge from-layer="2694" from-port="2" to-layer="2704" to-port="0" />
		<edge from-layer="2695" from-port="1" to-layer="2699" to-port="0" />
		<edge from-layer="2695" from-port="1" to-layer="2736" to-port="0" />
		<edge from-layer="2696" from-port="0" to-layer="2699" to-port="1" />
		<edge from-layer="2697" from-port="0" to-layer="2699" to-port="2" />
		<edge from-layer="2698" from-port="0" to-layer="2699" to-port="3" />
		<edge from-layer="2699" from-port="4" to-layer="2701" to-port="0" />
		<edge from-layer="2700" from-port="0" to-layer="2701" to-port="1" />
		<edge from-layer="2701" from-port="2" to-layer="2703" to-port="0" />
		<edge from-layer="2702" from-port="0" to-layer="2703" to-port="1" />
		<edge from-layer="2703" from-port="2" to-layer="2704" to-port="1" />
		<edge from-layer="2704" from-port="2" to-layer="2740" to-port="0" />
		<edge from-layer="2705" from-port="0" to-layer="2711" to-port="0" />
		<edge from-layer="2706" from-port="0" to-layer="2707" to-port="1" />
		<edge from-layer="2707" from-port="3" to-layer="2710" to-port="0" />
		<edge from-layer="2708" from-port="0" to-layer="2710" to-port="1" />
		<edge from-layer="2709" from-port="0" to-layer="2710" to-port="2" />
		<edge from-layer="2710" from-port="3" to-layer="2711" to-port="1" />
		<edge from-layer="2711" from-port="2" to-layer="2712" to-port="1" />
		<edge from-layer="2712" from-port="2" to-layer="2755" to-port="0" />
		<edge from-layer="2712" from-port="2" to-layer="2746" to-port="0" />
		<edge from-layer="2712" from-port="2" to-layer="2715" to-port="0" />
		<edge from-layer="2713" from-port="0" to-layer="2715" to-port="1" />
		<edge from-layer="2714" from-port="0" to-layer="2715" to-port="2" />
		<edge from-layer="2715" from-port="3" to-layer="2717" to-port="0" />
		<edge from-layer="2715" from-port="3" to-layer="2728" to-port="0" />
		<edge from-layer="2716" from-port="0" to-layer="2721" to-port="0" />
		<edge from-layer="2717" from-port="1" to-layer="2720" to-port="0" />
		<edge from-layer="2718" from-port="0" to-layer="2720" to-port="1" />
		<edge from-layer="2719" from-port="0" to-layer="2720" to-port="2" />
		<edge from-layer="2720" from-port="3" to-layer="2721" to-port="1" />
		<edge from-layer="2720" from-port="3" to-layer="2723" to-port="2" />
		<edge from-layer="2721" from-port="2" to-layer="2723" to-port="0" />
		<edge from-layer="2722" from-port="0" to-layer="2723" to-port="1" />
		<edge from-layer="2723" from-port="3" to-layer="2725" to-port="0" />
		<edge from-layer="2724" from-port="0" to-layer="2725" to-port="1" />
		<edge from-layer="2725" from-port="2" to-layer="2727" to-port="0" />
		<edge from-layer="2726" from-port="0" to-layer="2727" to-port="1" />
		<edge from-layer="2727" from-port="2" to-layer="2728" to-port="1" />
		<edge from-layer="2728" from-port="3" to-layer="2738" to-port="0" />
		<edge from-layer="2728" from-port="3" to-layer="2760" to-port="0" />
		<edge from-layer="2729" from-port="0" to-layer="2731" to-port="0" />
		<edge from-layer="2730" from-port="0" to-layer="2731" to-port="2" />
		<edge from-layer="2731" from-port="3" to-layer="2733" to-port="0" />
		<edge from-layer="2732" from-port="0" to-layer="2733" to-port="1" />
		<edge from-layer="2733" from-port="2" to-layer="2737" to-port="0" />
		<edge from-layer="2733" from-port="2" to-layer="2759" to-port="0" />
		<edge from-layer="2734" from-port="0" to-layer="2736" to-port="1" />
		<edge from-layer="2735" from-port="0" to-layer="2736" to-port="2" />
		<edge from-layer="2736" from-port="3" to-layer="2737" to-port="1" />
		<edge from-layer="2737" from-port="2" to-layer="2738" to-port="1" />
		<edge from-layer="2738" from-port="2" to-layer="2743" to-port="0" />
		<edge from-layer="2738" from-port="2" to-layer="2740" to-port="1" />
		<edge from-layer="2739" from-port="0" to-layer="2740" to-port="2" />
		<edge from-layer="2740" from-port="3" to-layer="2742" to-port="0" />
		<edge from-layer="2741" from-port="0" to-layer="2742" to-port="1" />
		<edge from-layer="2742" from-port="2" to-layer="2744" to-port="0" />
		<edge from-layer="2743" from-port="1" to-layer="2744" to-port="1" />
		<edge from-layer="2744" from-port="2" to-layer="2745" to-port="0" />
		<edge from-layer="2746" from-port="1" to-layer="2750" to-port="0" />
		<edge from-layer="2746" from-port="1" to-layer="2758" to-port="0" />
		<edge from-layer="2746" from-port="1" to-layer="2766" to-port="0" />
		<edge from-layer="2747" from-port="0" to-layer="2750" to-port="1" />
		<edge from-layer="2748" from-port="0" to-layer="2750" to-port="2" />
		<edge from-layer="2749" from-port="0" to-layer="2750" to-port="3" />
		<edge from-layer="2750" from-port="4" to-layer="2752" to-port="0" />
		<edge from-layer="2751" from-port="0" to-layer="2752" to-port="1" />
		<edge from-layer="2752" from-port="2" to-layer="2754" to-port="0" />
		<edge from-layer="2753" from-port="0" to-layer="2754" to-port="1" />
		<edge from-layer="2754" from-port="2" to-layer="2755" to-port="1" />
		<edge from-layer="2755" from-port="2" to-layer="2762" to-port="0" />
		<edge from-layer="2756" from-port="0" to-layer="2758" to-port="1" />
		<edge from-layer="2757" from-port="0" to-layer="2758" to-port="2" />
		<edge from-layer="2758" from-port="3" to-layer="2759" to-port="1" />
		<edge from-layer="2759" from-port="2" to-layer="2760" to-port="1" />
		<edge from-layer="2760" from-port="2" to-layer="2762" to-port="1" />
		<edge from-layer="2760" from-port="2" to-layer="2769" to-port="0" />
		<edge from-layer="2761" from-port="0" to-layer="2762" to-port="2" />
		<edge from-layer="2762" from-port="3" to-layer="2768" to-port="0" />
		<edge from-layer="2763" from-port="0" to-layer="2767" to-port="0" />
		<edge from-layer="2764" from-port="0" to-layer="2766" to-port="1" />
		<edge from-layer="2765" from-port="0" to-layer="2766" to-port="2" />
		<edge from-layer="2766" from-port="3" to-layer="2767" to-port="1" />
		<edge from-layer="2766" from-port="3" to-layer="2770" to-port="1" />
		<edge from-layer="2767" from-port="2" to-layer="2768" to-port="1" />
		<edge from-layer="2768" from-port="2" to-layer="2771" to-port="0" />
		<edge from-layer="2769" from-port="1" to-layer="2770" to-port="0" />
		<edge from-layer="2770" from-port="2" to-layer="2771" to-port="1" />
		<edge from-layer="2771" from-port="2" to-layer="2772" to-port="0" />
	</edges>
	<rt_info>
		<MO_version value="2023.0.0-10926-b4452d56304-releases/2023/0" />
		<Runtime_version value="2023.0.0-10926-b4452d56304-releases/2023/0" />
		<conversion_parameters>
			<input value="image" />
			<input_model value="DIR/model_ready.onnx" />
			<input_shape value="[-1, 3, 640, 640]" />
			<is_python_api_used value="False" />
			<mean_values value="[0.0, 0.0, 0.0]" />
			<model_name value="model" />
			<output value="boxes,labels" />
			<output_dir value="DIR" />
			<reverse_input_channels value="True" />
			<scale_values value="[1.0, 1.0, 1.0]" />
		</conversion_parameters>
		<legacy_frontend value="False" />
		<model_info>
			<confidence_threshold value="0.675" />
			<iou_threshold value="0.5" />
			<labels value="drone" />
			<model_type value="ssd" />
		</model_info>
		<nncf>
			<quantization>
				<advanced_parameters value="{}" />
				<fast_bias_correction value="True" />
				<ignored_scope value="None" />
				<model_type value="None" />
				<preset value="performance" />
				<subset_size value="300" />
				<target_device value="ANY" />
			</quantization>
		</nncf>
	</rt_info>
</net>
