<?xml version="1.0"?>
<net name="torch_jit" version="11">
	<layers>
		<layer id="0" name="image" type="Parameter" version="opset1">
			<data shape="?,3,256,256" element_type="f32" />
			<output>
				<port id="0" precision="FP32" names="image">
					<dim>-1</dim>
					<dim>3</dim>
					<dim>256</dim>
					<dim>256</dim>
				</port>
			</output>
		</layer>
		<layer id="1" name="/Constant_30" type="Const" version="opset1">
			<data element_type="f32" shape="1, 1, 4" offset="0" size="16" />
			<output>
				<port id="0" precision="FP32" names="/Constant_30_output_0">
					<dim>1</dim>
					<dim>1</dim>
					<dim>4</dim>
				</port>
			</output>
		</layer>
		<layer id="2" name="/Constant_17" type="Const" version="opset1">
			<data element_type="i64" shape="" offset="16" size="8" />
			<output>
				<port id="0" precision="I64" names="/Constant_17_output_0" />
			</output>
		</layer>
		<layer id="3" name="Constant_53609" type="Const" version="opset1">
			<data element_type="f32" shape="1, 3, 1, 1" offset="24" size="12" />
			<rt_info>
				<attribute name="preprocessing" version="0" />
			</rt_info>
			<output>
				<port id="0" precision="FP32">
					<dim>1</dim>
					<dim>3</dim>
					<dim>1</dim>
					<dim>1</dim>
				</port>
			</output>
		</layer>
		<layer id="4" name="Multiply_53611" type="Multiply" version="opset1">
			<data auto_broadcast="numpy" />
			<input>
				<port id="0" precision="FP32">
					<dim>-1</dim>
					<dim>3</dim>
					<dim>256</dim>
					<dim>256</dim>
				</port>
				<port id="1" precision="FP32">
					<dim>1</dim>
					<dim>3</dim>
					<dim>1</dim>
					<dim>1</dim>
				</port>
			</input>
			<output>
				<port id="2" precision="FP32">
					<dim>-1</dim>
					<dim>3</dim>
					<dim>256</dim>
					<dim>256</dim>
				</port>
			</output>
		</layer>
		<layer id="5" name="Constant_53613" type="Const" version="opset1">
			<data element_type="f32" shape="1, 3, 1, 1" offset="36" size="12" />
			<output>
				<port id="0" precision="FP32">
					<dim>1</dim>
					<dim>3</dim>
					<dim>1</dim>
					<dim>1</dim>
				</port>
			</output>
		</layer>
		<layer id="6" name="Divide_23603" type="Add" version="opset1">
			<data auto_broadcast="numpy" />
			<input>
				<port id="0" precision="FP32">
					<dim>-1</dim>
					<dim>3</dim>
					<dim>256</dim>
					<dim>256</dim>
				</port>
				<port id="1" precision="FP32">
					<dim>1</dim>
					<dim>3</dim>
					<dim>1</dim>
					<dim>1</dim>
				</port>
			</input>
			<output>
				<port id="2" precision="FP32">
					<dim>-1</dim>
					<dim>3</dim>
					<dim>256</dim>
					<dim>256</dim>
				</port>
			</output>
		</layer>
		<layer id="7" name="Constant_114028" type="Const" version="opset1">
			<data element_type="f32" shape="" offset="48" size="4" />
			<output>
				<port id="0" precision="FP32" />
			</output>
		</layer>
		<layer id="8" name="Constant_114029" type="Const" version="opset1">
			<data element_type="f32" shape="" offset="52" size="4" />
			<output>
				<port id="0" precision="FP32" />
			</output>
		</layer>
		<layer id="9" name="Constant_114030" type="Const" version="opset1">
			<data element_type="f32" shape="" offset="48" size="4" />
			<output>
				<port id="0" precision="FP32" />
			</output>
		</layer>
		<layer id="10" name="Constant_114031" type="Const" version="opset1">
			<data element_type="f32" shape="" offset="52" size="4" />
			<output>
				<port id="0" precision="FP32" />
			</output>
		</layer>
		<layer id="11" name="Divide_23603/fq_output_0" type="FakeQuantize" version="opset1">
			<data levels="256" auto_broadcast="numpy" />
			<input>
				<port id="0" precision="FP32">
					<dim>-1</dim>
					<dim>3</dim>
					<dim>256</dim>
					<dim>256</dim>
				</port>
				<port id="1" precision="FP32" />
				<port id="2" precision="FP32" />
				<port id="3" precision="FP32" />
				<port id="4" precision="FP32" />
			</input>
			<output>
				<port id="5" precision="FP32">
					<dim>-1</dim>
					<dim>3</dim>
					<dim>256</dim>
					<dim>256</dim>
				</port>
			</output>
		</layer>
		<layer id="12" name="onnx::Conv_2290" type="Const" version="opset1">
			<data element_type="i8" shape="32, 3, 3, 3" offset="56" size="864" />
			<output>
				<port id="0" precision="I8">
					<dim>32</dim>
					<dim>3</dim>
					<dim>3</dim>
					<dim>3</dim>
				</port>
			</output>
		</layer>
		<layer id="13" name="Convert_511198" type="Convert" version="opset1">
			<data destination_type="f32" />
			<input>
				<port id="0" precision="I8">
					<dim>32</dim>
					<dim>3</dim>
					<dim>3</dim>
					<dim>3</dim>
				</port>
			</input>
			<output>
				<port id="1" precision="FP32">
					<dim>32</dim>
					<dim>3</dim>
					<dim>3</dim>
					<dim>3</dim>
				</port>
			</output>
		</layer>
		<layer id="14" name="Constant_511096" type="Const" version="opset1">
			<data element_type="f32" shape="32, 1, 1, 1" offset="920" size="128" />
			<output>
				<port id="0" precision="FP32">
					<dim>32</dim>
					<dim>1</dim>
					<dim>1</dim>
					<dim>1</dim>
				</port>
			</output>
		</layer>
		<layer id="15" name="/backbone/init_block/conv/Conv/WithoutBiases/fq_weights_1" type="Multiply" version="opset1">
			<data auto_broadcast="numpy" />
			<input>
				<port id="0" precision="FP32">
					<dim>32</dim>
					<dim>3</dim>
					<dim>3</dim>
					<dim>3</dim>
				</port>
				<port id="1" precision="FP32">
					<dim>32</dim>
					<dim>1</dim>
					<dim>1</dim>
					<dim>1</dim>
				</port>
			</input>
			<output>
				<port id="2" precision="FP32">
					<dim>32</dim>
					<dim>3</dim>
					<dim>3</dim>
					<dim>3</dim>
				</port>
			</output>
		</layer>
		<layer id="16" name="/backbone/init_block/conv/Conv/WithoutBiases" type="Convolution" version="opset1">
			<data strides="2, 2" dilations="1, 1" pads_begin="1, 1" pads_end="1, 1" auto_pad="explicit" />
			<input>
				<port id="0" precision="FP32">
					<dim>-1</dim>
					<dim>3</dim>
					<dim>256</dim>
					<dim>256</dim>
				</port>
				<port id="1" precision="FP32">
					<dim>32</dim>
					<dim>3</dim>
					<dim>3</dim>
					<dim>3</dim>
				</port>
			</input>
			<output>
				<port id="2" precision="FP32">
					<dim>-1</dim>
					<dim>32</dim>
					<dim>128</dim>
					<dim>128</dim>
				</port>
			</output>
		</layer>
		<layer id="17" name="Reshape_177" type="Const" version="opset1">
			<data element_type="f32" shape="1, 32, 1, 1" offset="1048" size="128" />
			<output>
				<port id="0" precision="FP32">
					<dim>1</dim>
					<dim>32</dim>
					<dim>1</dim>
					<dim>1</dim>
				</port>
			</output>
		</layer>
		<layer id="18" name="/backbone/init_block/conv/Conv" type="Add" version="opset1">
			<data auto_broadcast="numpy" />
			<input>
				<port id="0" precision="FP32">
					<dim>-1</dim>
					<dim>32</dim>
					<dim>128</dim>
					<dim>128</dim>
				</port>
				<port id="1" precision="FP32">
					<dim>1</dim>
					<dim>32</dim>
					<dim>1</dim>
					<dim>1</dim>
				</port>
			</input>
			<output>
				<port id="2" precision="FP32" names="/backbone/init_block/conv/Conv_output_0">
					<dim>-1</dim>
					<dim>32</dim>
					<dim>128</dim>
					<dim>128</dim>
				</port>
			</output>
		</layer>
		<layer id="19" name="/backbone/init_block/activ/Clip" type="Clamp" version="opset1">
			<data min="0" max="6" />
			<input>
				<port id="0" precision="FP32">
					<dim>-1</dim>
					<dim>32</dim>
					<dim>128</dim>
					<dim>128</dim>
				</port>
			</input>
			<output>
				<port id="1" precision="FP32" names="/backbone/init_block/activ/Clip_output_0">
					<dim>-1</dim>
					<dim>32</dim>
					<dim>128</dim>
					<dim>128</dim>
				</port>
			</output>
		</layer>
		<layer id="20" name="Constant_114038" type="Const" version="opset1">
			<data element_type="f32" shape="" offset="48" size="4" />
			<output>
				<port id="0" precision="FP32" />
			</output>
		</layer>
		<layer id="21" name="Constant_114039" type="Const" version="opset1">
			<data element_type="f32" shape="" offset="1176" size="4" />
			<output>
				<port id="0" precision="FP32" />
			</output>
		</layer>
		<layer id="22" name="Constant_114040" type="Const" version="opset1">
			<data element_type="f32" shape="" offset="48" size="4" />
			<output>
				<port id="0" precision="FP32" />
			</output>
		</layer>
		<layer id="23" name="Constant_114041" type="Const" version="opset1">
			<data element_type="f32" shape="" offset="1176" size="4" />
			<output>
				<port id="0" precision="FP32" />
			</output>
		</layer>
		<layer id="24" name="/backbone/init_block/activ/Clip/fq_output_0" type="FakeQuantize" version="opset1">
			<data levels="256" auto_broadcast="numpy" />
			<input>
				<port id="0" precision="FP32">
					<dim>-1</dim>
					<dim>32</dim>
					<dim>128</dim>
					<dim>128</dim>
				</port>
				<port id="1" precision="FP32" />
				<port id="2" precision="FP32" />
				<port id="3" precision="FP32" />
				<port id="4" precision="FP32" />
			</input>
			<output>
				<port id="5" precision="FP32">
					<dim>-1</dim>
					<dim>32</dim>
					<dim>128</dim>
					<dim>128</dim>
				</port>
			</output>
		</layer>
		<layer id="25" name="onnx::Conv_2293" type="Const" version="opset1">
			<data element_type="i8" shape="32, 32, 1, 1" offset="1180" size="1024" />
			<output>
				<port id="0" precision="I8">
					<dim>32</dim>
					<dim>32</dim>
					<dim>1</dim>
					<dim>1</dim>
				</port>
			</output>
		</layer>
		<layer id="26" name="Convert_511352" type="Convert" version="opset1">
			<data destination_type="f32" />
			<input>
				<port id="0" precision="I8">
					<dim>32</dim>
					<dim>32</dim>
					<dim>1</dim>
					<dim>1</dim>
				</port>
			</input>
			<output>
				<port id="1" precision="FP32">
					<dim>32</dim>
					<dim>32</dim>
					<dim>1</dim>
					<dim>1</dim>
				</port>
			</output>
		</layer>
		<layer id="27" name="Constant_511250" type="Const" version="opset1">
			<data element_type="f32" shape="32, 1, 1, 1" offset="2204" size="128" />
			<output>
				<port id="0" precision="FP32">
					<dim>32</dim>
					<dim>1</dim>
					<dim>1</dim>
					<dim>1</dim>
				</port>
			</output>
		</layer>
		<layer id="28" name="/backbone/stage1/unit1/conv1/conv/Conv/WithoutBiases/fq_weights_1" type="Multiply" version="opset1">
			<data auto_broadcast="numpy" />
			<input>
				<port id="0" precision="FP32">
					<dim>32</dim>
					<dim>32</dim>
					<dim>1</dim>
					<dim>1</dim>
				</port>
				<port id="1" precision="FP32">
					<dim>32</dim>
					<dim>1</dim>
					<dim>1</dim>
					<dim>1</dim>
				</port>
			</input>
			<output>
				<port id="2" precision="FP32">
					<dim>32</dim>
					<dim>32</dim>
					<dim>1</dim>
					<dim>1</dim>
				</port>
			</output>
		</layer>
		<layer id="29" name="/backbone/stage1/unit1/conv1/conv/Conv/WithoutBiases" type="Convolution" version="opset1">
			<data strides="1, 1" dilations="1, 1" pads_begin="0, 0" pads_end="0, 0" auto_pad="explicit" />
			<input>
				<port id="0" precision="FP32">
					<dim>-1</dim>
					<dim>32</dim>
					<dim>128</dim>
					<dim>128</dim>
				</port>
				<port id="1" precision="FP32">
					<dim>32</dim>
					<dim>32</dim>
					<dim>1</dim>
					<dim>1</dim>
				</port>
			</input>
			<output>
				<port id="2" precision="FP32">
					<dim>-1</dim>
					<dim>32</dim>
					<dim>128</dim>
					<dim>128</dim>
				</port>
			</output>
		</layer>
		<layer id="30" name="Reshape_196" type="Const" version="opset1">
			<data element_type="f32" shape="1, 32, 1, 1" offset="2332" size="128" />
			<output>
				<port id="0" precision="FP32">
					<dim>1</dim>
					<dim>32</dim>
					<dim>1</dim>
					<dim>1</dim>
				</port>
			</output>
		</layer>
		<layer id="31" name="/backbone/stage1/unit1/conv1/conv/Conv" type="Add" version="opset1">
			<data auto_broadcast="numpy" />
			<input>
				<port id="0" precision="FP32">
					<dim>-1</dim>
					<dim>32</dim>
					<dim>128</dim>
					<dim>128</dim>
				</port>
				<port id="1" precision="FP32">
					<dim>1</dim>
					<dim>32</dim>
					<dim>1</dim>
					<dim>1</dim>
				</port>
			</input>
			<output>
				<port id="2" precision="FP32" names="/backbone/stage1/unit1/conv1/conv/Conv_output_0">
					<dim>-1</dim>
					<dim>32</dim>
					<dim>128</dim>
					<dim>128</dim>
				</port>
			</output>
		</layer>
		<layer id="32" name="/backbone/stage1/unit1/conv1/activ/Clip" type="Clamp" version="opset1">
			<data min="0" max="6" />
			<input>
				<port id="0" precision="FP32">
					<dim>-1</dim>
					<dim>32</dim>
					<dim>128</dim>
					<dim>128</dim>
				</port>
			</input>
			<output>
				<port id="1" precision="FP32" names="/backbone/stage1/unit1/conv1/activ/Clip_output_0">
					<dim>-1</dim>
					<dim>32</dim>
					<dim>128</dim>
					<dim>128</dim>
				</port>
			</output>
		</layer>
		<layer id="33" name="Constant_114048" type="Const" version="opset1">
			<data element_type="f32" shape="1, 32, 1, 1" offset="2460" size="128" />
			<output>
				<port id="0" precision="FP32">
					<dim>1</dim>
					<dim>32</dim>
					<dim>1</dim>
					<dim>1</dim>
				</port>
			</output>
		</layer>
		<layer id="34" name="Constant_114049" type="Const" version="opset1">
			<data element_type="f32" shape="1, 32, 1, 1" offset="2588" size="128" />
			<output>
				<port id="0" precision="FP32">
					<dim>1</dim>
					<dim>32</dim>
					<dim>1</dim>
					<dim>1</dim>
				</port>
			</output>
		</layer>
		<layer id="35" name="Constant_114050" type="Const" version="opset1">
			<data element_type="f32" shape="1, 32, 1, 1" offset="2460" size="128" />
			<output>
				<port id="0" precision="FP32">
					<dim>1</dim>
					<dim>32</dim>
					<dim>1</dim>
					<dim>1</dim>
				</port>
			</output>
		</layer>
		<layer id="36" name="Constant_114051" type="Const" version="opset1">
			<data element_type="f32" shape="1, 32, 1, 1" offset="2588" size="128" />
			<output>
				<port id="0" precision="FP32">
					<dim>1</dim>
					<dim>32</dim>
					<dim>1</dim>
					<dim>1</dim>
				</port>
			</output>
		</layer>
		<layer id="37" name="/backbone/stage1/unit1/conv1/activ/Clip/fq_output_0" type="FakeQuantize" version="opset1">
			<data levels="256" auto_broadcast="numpy" />
			<input>
				<port id="0" precision="FP32">
					<dim>-1</dim>
					<dim>32</dim>
					<dim>128</dim>
					<dim>128</dim>
				</port>
				<port id="1" precision="FP32">
					<dim>1</dim>
					<dim>32</dim>
					<dim>1</dim>
					<dim>1</dim>
				</port>
				<port id="2" precision="FP32">
					<dim>1</dim>
					<dim>32</dim>
					<dim>1</dim>
					<dim>1</dim>
				</port>
				<port id="3" precision="FP32">
					<dim>1</dim>
					<dim>32</dim>
					<dim>1</dim>
					<dim>1</dim>
				</port>
				<port id="4" precision="FP32">
					<dim>1</dim>
					<dim>32</dim>
					<dim>1</dim>
					<dim>1</dim>
				</port>
			</input>
			<output>
				<port id="5" precision="FP32">
					<dim>-1</dim>
					<dim>32</dim>
					<dim>128</dim>
					<dim>128</dim>
				</port>
			</output>
		</layer>
		<layer id="38" name="Reshape_211" type="Const" version="opset1">
			<data element_type="i8" shape="32, 1, 1, 3, 3" offset="2716" size="288" />
			<output>
				<port id="0" precision="I8">
					<dim>32</dim>
					<dim>1</dim>
					<dim>1</dim>
					<dim>3</dim>
					<dim>3</dim>
				</port>
			</output>
		</layer>
		<layer id="39" name="Convert_511506" type="Convert" version="opset1">
			<data destination_type="f32" />
			<input>
				<port id="0" precision="I8">
					<dim>32</dim>
					<dim>1</dim>
					<dim>1</dim>
					<dim>3</dim>
					<dim>3</dim>
				</port>
			</input>
			<output>
				<port id="1" precision="FP32">
					<dim>32</dim>
					<dim>1</dim>
					<dim>1</dim>
					<dim>3</dim>
					<dim>3</dim>
				</port>
			</output>
		</layer>
		<layer id="40" name="Constant_511404" type="Const" version="opset1">
			<data element_type="f32" shape="32, 1, 1, 1, 1" offset="3004" size="128" />
			<output>
				<port id="0" precision="FP32">
					<dim>32</dim>
					<dim>1</dim>
					<dim>1</dim>
					<dim>1</dim>
					<dim>1</dim>
				</port>
			</output>
		</layer>
		<layer id="41" name="/backbone/stage1/unit1/conv2/conv/Conv/WithoutBiases/fq_weights_1" type="Multiply" version="opset1">
			<data auto_broadcast="numpy" />
			<input>
				<port id="0" precision="FP32">
					<dim>32</dim>
					<dim>1</dim>
					<dim>1</dim>
					<dim>3</dim>
					<dim>3</dim>
				</port>
				<port id="1" precision="FP32">
					<dim>32</dim>
					<dim>1</dim>
					<dim>1</dim>
					<dim>1</dim>
					<dim>1</dim>
				</port>
			</input>
			<output>
				<port id="2" precision="FP32">
					<dim>32</dim>
					<dim>1</dim>
					<dim>1</dim>
					<dim>3</dim>
					<dim>3</dim>
				</port>
			</output>
		</layer>
		<layer id="42" name="/backbone/stage1/unit1/conv2/conv/Conv/WithoutBiases" type="GroupConvolution" version="opset1">
			<data strides="1, 1" pads_begin="1, 1" pads_end="1, 1" dilations="1, 1" auto_pad="explicit" />
			<input>
				<port id="0" precision="FP32">
					<dim>-1</dim>
					<dim>32</dim>
					<dim>128</dim>
					<dim>128</dim>
				</port>
				<port id="1" precision="FP32">
					<dim>32</dim>
					<dim>1</dim>
					<dim>1</dim>
					<dim>3</dim>
					<dim>3</dim>
				</port>
			</input>
			<output>
				<port id="2" precision="FP32">
					<dim>-1</dim>
					<dim>32</dim>
					<dim>128</dim>
					<dim>128</dim>
				</port>
			</output>
		</layer>
		<layer id="43" name="Reshape_263" type="Const" version="opset1">
			<data element_type="f32" shape="1, 32, 1, 1" offset="3132" size="128" />
			<output>
				<port id="0" precision="FP32">
					<dim>1</dim>
					<dim>32</dim>
					<dim>1</dim>
					<dim>1</dim>
				</port>
			</output>
		</layer>
		<layer id="44" name="/backbone/stage1/unit1/conv2/conv/Conv" type="Add" version="opset1">
			<data auto_broadcast="numpy" />
			<input>
				<port id="0" precision="FP32">
					<dim>-1</dim>
					<dim>32</dim>
					<dim>128</dim>
					<dim>128</dim>
				</port>
				<port id="1" precision="FP32">
					<dim>1</dim>
					<dim>32</dim>
					<dim>1</dim>
					<dim>1</dim>
				</port>
			</input>
			<output>
				<port id="2" precision="FP32" names="/backbone/stage1/unit1/conv2/conv/Conv_output_0">
					<dim>-1</dim>
					<dim>32</dim>
					<dim>128</dim>
					<dim>128</dim>
				</port>
			</output>
		</layer>
		<layer id="45" name="/backbone/stage1/unit1/conv2/activ/Clip" type="Clamp" version="opset1">
			<data min="0" max="6" />
			<input>
				<port id="0" precision="FP32">
					<dim>-1</dim>
					<dim>32</dim>
					<dim>128</dim>
					<dim>128</dim>
				</port>
			</input>
			<output>
				<port id="1" precision="FP32" names="/backbone/stage1/unit1/conv2/activ/Clip_output_0">
					<dim>-1</dim>
					<dim>32</dim>
					<dim>128</dim>
					<dim>128</dim>
				</port>
			</output>
		</layer>
		<layer id="46" name="Constant_114058" type="Const" version="opset1">
			<data element_type="f32" shape="" offset="48" size="4" />
			<output>
				<port id="0" precision="FP32" />
			</output>
		</layer>
		<layer id="47" name="Constant_114059" type="Const" version="opset1">
			<data element_type="f32" shape="" offset="3260" size="4" />
			<output>
				<port id="0" precision="FP32" />
			</output>
		</layer>
		<layer id="48" name="Constant_114060" type="Const" version="opset1">
			<data element_type="f32" shape="" offset="48" size="4" />
			<output>
				<port id="0" precision="FP32" />
			</output>
		</layer>
		<layer id="49" name="Constant_114061" type="Const" version="opset1">
			<data element_type="f32" shape="" offset="3260" size="4" />
			<output>
				<port id="0" precision="FP32" />
			</output>
		</layer>
		<layer id="50" name="/backbone/stage1/unit1/conv2/activ/Clip/fq_output_0" type="FakeQuantize" version="opset1">
			<data levels="256" auto_broadcast="numpy" />
			<input>
				<port id="0" precision="FP32">
					<dim>-1</dim>
					<dim>32</dim>
					<dim>128</dim>
					<dim>128</dim>
				</port>
				<port id="1" precision="FP32" />
				<port id="2" precision="FP32" />
				<port id="3" precision="FP32" />
				<port id="4" precision="FP32" />
			</input>
			<output>
				<port id="5" precision="FP32">
					<dim>-1</dim>
					<dim>32</dim>
					<dim>128</dim>
					<dim>128</dim>
				</port>
			</output>
		</layer>
		<layer id="51" name="onnx::Conv_2299" type="Const" version="opset1">
			<data element_type="i8" shape="16, 32, 1, 1" offset="3264" size="512" />
			<output>
				<port id="0" precision="I8">
					<dim>16</dim>
					<dim>32</dim>
					<dim>1</dim>
					<dim>1</dim>
				</port>
			</output>
		</layer>
		<layer id="52" name="Convert_511660" type="Convert" version="opset1">
			<data destination_type="f32" />
			<input>
				<port id="0" precision="I8">
					<dim>16</dim>
					<dim>32</dim>
					<dim>1</dim>
					<dim>1</dim>
				</port>
			</input>
			<output>
				<port id="1" precision="FP32">
					<dim>16</dim>
					<dim>32</dim>
					<dim>1</dim>
					<dim>1</dim>
				</port>
			</output>
		</layer>
		<layer id="53" name="Constant_511558" type="Const" version="opset1">
			<data element_type="f32" shape="16, 1, 1, 1" offset="3776" size="64" />
			<output>
				<port id="0" precision="FP32">
					<dim>16</dim>
					<dim>1</dim>
					<dim>1</dim>
					<dim>1</dim>
				</port>
			</output>
		</layer>
		<layer id="54" name="/backbone/stage1/unit1/conv3/conv/Conv/WithoutBiases/fq_weights_1" type="Multiply" version="opset1">
			<data auto_broadcast="numpy" />
			<input>
				<port id="0" precision="FP32">
					<dim>16</dim>
					<dim>32</dim>
					<dim>1</dim>
					<dim>1</dim>
				</port>
				<port id="1" precision="FP32">
					<dim>16</dim>
					<dim>1</dim>
					<dim>1</dim>
					<dim>1</dim>
				</port>
			</input>
			<output>
				<port id="2" precision="FP32">
					<dim>16</dim>
					<dim>32</dim>
					<dim>1</dim>
					<dim>1</dim>
				</port>
			</output>
		</layer>
		<layer id="55" name="/backbone/stage1/unit1/conv3/conv/Conv/WithoutBiases" type="Convolution" version="opset1">
			<data strides="1, 1" dilations="1, 1" pads_begin="0, 0" pads_end="0, 0" auto_pad="explicit" />
			<input>
				<port id="0" precision="FP32">
					<dim>-1</dim>
					<dim>32</dim>
					<dim>128</dim>
					<dim>128</dim>
				</port>
				<port id="1" precision="FP32">
					<dim>16</dim>
					<dim>32</dim>
					<dim>1</dim>
					<dim>1</dim>
				</port>
			</input>
			<output>
				<port id="2" precision="FP32">
					<dim>-1</dim>
					<dim>16</dim>
					<dim>128</dim>
					<dim>128</dim>
				</port>
			</output>
		</layer>
		<layer id="56" name="Reshape_282" type="Const" version="opset1">
			<data element_type="f32" shape="1, 16, 1, 1" offset="3840" size="64" />
			<output>
				<port id="0" precision="FP32">
					<dim>1</dim>
					<dim>16</dim>
					<dim>1</dim>
					<dim>1</dim>
				</port>
			</output>
		</layer>
		<layer id="57" name="/backbone/stage1/unit1/conv3/conv/Conv" type="Add" version="opset1">
			<data auto_broadcast="numpy" />
			<input>
				<port id="0" precision="FP32">
					<dim>-1</dim>
					<dim>16</dim>
					<dim>128</dim>
					<dim>128</dim>
				</port>
				<port id="1" precision="FP32">
					<dim>1</dim>
					<dim>16</dim>
					<dim>1</dim>
					<dim>1</dim>
				</port>
			</input>
			<output>
				<port id="2" precision="FP32" names="/backbone/stage1/unit1/conv3/conv/Conv_output_0">
					<dim>-1</dim>
					<dim>16</dim>
					<dim>128</dim>
					<dim>128</dim>
				</port>
			</output>
		</layer>
		<layer id="58" name="Constant_114068" type="Const" version="opset1">
			<data element_type="f32" shape="" offset="3904" size="4" />
			<output>
				<port id="0" precision="FP32" />
			</output>
		</layer>
		<layer id="59" name="Constant_114069" type="Const" version="opset1">
			<data element_type="f32" shape="" offset="3908" size="4" />
			<output>
				<port id="0" precision="FP32" />
			</output>
		</layer>
		<layer id="60" name="Constant_114070" type="Const" version="opset1">
			<data element_type="f32" shape="" offset="3904" size="4" />
			<output>
				<port id="0" precision="FP32" />
			</output>
		</layer>
		<layer id="61" name="Constant_114071" type="Const" version="opset1">
			<data element_type="f32" shape="" offset="3908" size="4" />
			<output>
				<port id="0" precision="FP32" />
			</output>
		</layer>
		<layer id="62" name="/backbone/stage1/unit1/conv3/conv/Conv/fq_output_0" type="FakeQuantize" version="opset1">
			<data levels="256" auto_broadcast="numpy" />
			<input>
				<port id="0" precision="FP32">
					<dim>-1</dim>
					<dim>16</dim>
					<dim>128</dim>
					<dim>128</dim>
				</port>
				<port id="1" precision="FP32" />
				<port id="2" precision="FP32" />
				<port id="3" precision="FP32" />
				<port id="4" precision="FP32" />
			</input>
			<output>
				<port id="5" precision="FP32">
					<dim>-1</dim>
					<dim>16</dim>
					<dim>128</dim>
					<dim>128</dim>
				</port>
			</output>
		</layer>
		<layer id="63" name="onnx::Conv_2302" type="Const" version="opset1">
			<data element_type="i8" shape="96, 16, 1, 1" offset="3912" size="1536" />
			<output>
				<port id="0" precision="I8">
					<dim>96</dim>
					<dim>16</dim>
					<dim>1</dim>
					<dim>1</dim>
				</port>
			</output>
		</layer>
		<layer id="64" name="Convert_511814" type="Convert" version="opset1">
			<data destination_type="f32" />
			<input>
				<port id="0" precision="I8">
					<dim>96</dim>
					<dim>16</dim>
					<dim>1</dim>
					<dim>1</dim>
				</port>
			</input>
			<output>
				<port id="1" precision="FP32">
					<dim>96</dim>
					<dim>16</dim>
					<dim>1</dim>
					<dim>1</dim>
				</port>
			</output>
		</layer>
		<layer id="65" name="Constant_511712" type="Const" version="opset1">
			<data element_type="f32" shape="96, 1, 1, 1" offset="5448" size="384" />
			<output>
				<port id="0" precision="FP32">
					<dim>96</dim>
					<dim>1</dim>
					<dim>1</dim>
					<dim>1</dim>
				</port>
			</output>
		</layer>
		<layer id="66" name="/backbone/stage2/unit1/conv1/conv/Conv/WithoutBiases/fq_weights_1" type="Multiply" version="opset1">
			<data auto_broadcast="numpy" />
			<input>
				<port id="0" precision="FP32">
					<dim>96</dim>
					<dim>16</dim>
					<dim>1</dim>
					<dim>1</dim>
				</port>
				<port id="1" precision="FP32">
					<dim>96</dim>
					<dim>1</dim>
					<dim>1</dim>
					<dim>1</dim>
				</port>
			</input>
			<output>
				<port id="2" precision="FP32">
					<dim>96</dim>
					<dim>16</dim>
					<dim>1</dim>
					<dim>1</dim>
				</port>
			</output>
		</layer>
		<layer id="67" name="/backbone/stage2/unit1/conv1/conv/Conv/WithoutBiases" type="Convolution" version="opset1">
			<data strides="1, 1" dilations="1, 1" pads_begin="0, 0" pads_end="0, 0" auto_pad="explicit" />
			<input>
				<port id="0" precision="FP32">
					<dim>-1</dim>
					<dim>16</dim>
					<dim>128</dim>
					<dim>128</dim>
				</port>
				<port id="1" precision="FP32">
					<dim>96</dim>
					<dim>16</dim>
					<dim>1</dim>
					<dim>1</dim>
				</port>
			</input>
			<output>
				<port id="2" precision="FP32">
					<dim>-1</dim>
					<dim>96</dim>
					<dim>128</dim>
					<dim>128</dim>
				</port>
			</output>
		</layer>
		<layer id="68" name="Reshape_297" type="Const" version="opset1">
			<data element_type="f32" shape="1, 96, 1, 1" offset="5832" size="384" />
			<output>
				<port id="0" precision="FP32">
					<dim>1</dim>
					<dim>96</dim>
					<dim>1</dim>
					<dim>1</dim>
				</port>
			</output>
		</layer>
		<layer id="69" name="/backbone/stage2/unit1/conv1/conv/Conv" type="Add" version="opset1">
			<data auto_broadcast="numpy" />
			<input>
				<port id="0" precision="FP32">
					<dim>-1</dim>
					<dim>96</dim>
					<dim>128</dim>
					<dim>128</dim>
				</port>
				<port id="1" precision="FP32">
					<dim>1</dim>
					<dim>96</dim>
					<dim>1</dim>
					<dim>1</dim>
				</port>
			</input>
			<output>
				<port id="2" precision="FP32" names="/backbone/stage2/unit1/conv1/conv/Conv_output_0">
					<dim>-1</dim>
					<dim>96</dim>
					<dim>128</dim>
					<dim>128</dim>
				</port>
			</output>
		</layer>
		<layer id="70" name="/backbone/stage2/unit1/conv1/activ/Clip" type="Clamp" version="opset1">
			<data min="0" max="6" />
			<input>
				<port id="0" precision="FP32">
					<dim>-1</dim>
					<dim>96</dim>
					<dim>128</dim>
					<dim>128</dim>
				</port>
			</input>
			<output>
				<port id="1" precision="FP32" names="/backbone/stage2/unit1/conv1/activ/Clip_output_0">
					<dim>-1</dim>
					<dim>96</dim>
					<dim>128</dim>
					<dim>128</dim>
				</port>
			</output>
		</layer>
		<layer id="71" name="Constant_114078" type="Const" version="opset1">
			<data element_type="f32" shape="1, 96, 1, 1" offset="6216" size="384" />
			<output>
				<port id="0" precision="FP32">
					<dim>1</dim>
					<dim>96</dim>
					<dim>1</dim>
					<dim>1</dim>
				</port>
			</output>
		</layer>
		<layer id="72" name="Constant_114079" type="Const" version="opset1">
			<data element_type="f32" shape="1, 96, 1, 1" offset="6600" size="384" />
			<output>
				<port id="0" precision="FP32">
					<dim>1</dim>
					<dim>96</dim>
					<dim>1</dim>
					<dim>1</dim>
				</port>
			</output>
		</layer>
		<layer id="73" name="Constant_114080" type="Const" version="opset1">
			<data element_type="f32" shape="1, 96, 1, 1" offset="6216" size="384" />
			<output>
				<port id="0" precision="FP32">
					<dim>1</dim>
					<dim>96</dim>
					<dim>1</dim>
					<dim>1</dim>
				</port>
			</output>
		</layer>
		<layer id="74" name="Constant_114081" type="Const" version="opset1">
			<data element_type="f32" shape="1, 96, 1, 1" offset="6600" size="384" />
			<output>
				<port id="0" precision="FP32">
					<dim>1</dim>
					<dim>96</dim>
					<dim>1</dim>
					<dim>1</dim>
				</port>
			</output>
		</layer>
		<layer id="75" name="/backbone/stage2/unit1/conv1/activ/Clip/fq_output_0" type="FakeQuantize" version="opset1">
			<data levels="256" auto_broadcast="numpy" />
			<input>
				<port id="0" precision="FP32">
					<dim>-1</dim>
					<dim>96</dim>
					<dim>128</dim>
					<dim>128</dim>
				</port>
				<port id="1" precision="FP32">
					<dim>1</dim>
					<dim>96</dim>
					<dim>1</dim>
					<dim>1</dim>
				</port>
				<port id="2" precision="FP32">
					<dim>1</dim>
					<dim>96</dim>
					<dim>1</dim>
					<dim>1</dim>
				</port>
				<port id="3" precision="FP32">
					<dim>1</dim>
					<dim>96</dim>
					<dim>1</dim>
					<dim>1</dim>
				</port>
				<port id="4" precision="FP32">
					<dim>1</dim>
					<dim>96</dim>
					<dim>1</dim>
					<dim>1</dim>
				</port>
			</input>
			<output>
				<port id="5" precision="FP32">
					<dim>-1</dim>
					<dim>96</dim>
					<dim>128</dim>
					<dim>128</dim>
				</port>
			</output>
		</layer>
		<layer id="76" name="Reshape_312" type="Const" version="opset1">
			<data element_type="i8" shape="96, 1, 1, 3, 3" offset="6984" size="864" />
			<output>
				<port id="0" precision="I8">
					<dim>96</dim>
					<dim>1</dim>
					<dim>1</dim>
					<dim>3</dim>
					<dim>3</dim>
				</port>
			</output>
		</layer>
		<layer id="77" name="Convert_511968" type="Convert" version="opset1">
			<data destination_type="f32" />
			<input>
				<port id="0" precision="I8">
					<dim>96</dim>
					<dim>1</dim>
					<dim>1</dim>
					<dim>3</dim>
					<dim>3</dim>
				</port>
			</input>
			<output>
				<port id="1" precision="FP32">
					<dim>96</dim>
					<dim>1</dim>
					<dim>1</dim>
					<dim>3</dim>
					<dim>3</dim>
				</port>
			</output>
		</layer>
		<layer id="78" name="Constant_511866" type="Const" version="opset1">
			<data element_type="f32" shape="96, 1, 1, 1, 1" offset="7848" size="384" />
			<output>
				<port id="0" precision="FP32">
					<dim>96</dim>
					<dim>1</dim>
					<dim>1</dim>
					<dim>1</dim>
					<dim>1</dim>
				</port>
			</output>
		</layer>
		<layer id="79" name="/backbone/stage2/unit1/conv2/conv/Conv/WithoutBiases/fq_weights_1" type="Multiply" version="opset1">
			<data auto_broadcast="numpy" />
			<input>
				<port id="0" precision="FP32">
					<dim>96</dim>
					<dim>1</dim>
					<dim>1</dim>
					<dim>3</dim>
					<dim>3</dim>
				</port>
				<port id="1" precision="FP32">
					<dim>96</dim>
					<dim>1</dim>
					<dim>1</dim>
					<dim>1</dim>
					<dim>1</dim>
				</port>
			</input>
			<output>
				<port id="2" precision="FP32">
					<dim>96</dim>
					<dim>1</dim>
					<dim>1</dim>
					<dim>3</dim>
					<dim>3</dim>
				</port>
			</output>
		</layer>
		<layer id="80" name="/backbone/stage2/unit1/conv2/conv/Conv/WithoutBiases" type="GroupConvolution" version="opset1">
			<data strides="2, 2" pads_begin="1, 1" pads_end="1, 1" dilations="1, 1" auto_pad="explicit" />
			<input>
				<port id="0" precision="FP32">
					<dim>-1</dim>
					<dim>96</dim>
					<dim>128</dim>
					<dim>128</dim>
				</port>
				<port id="1" precision="FP32">
					<dim>96</dim>
					<dim>1</dim>
					<dim>1</dim>
					<dim>3</dim>
					<dim>3</dim>
				</port>
			</input>
			<output>
				<port id="2" precision="FP32">
					<dim>-1</dim>
					<dim>96</dim>
					<dim>64</dim>
					<dim>64</dim>
				</port>
			</output>
		</layer>
		<layer id="81" name="Reshape_364" type="Const" version="opset1">
			<data element_type="f32" shape="1, 96, 1, 1" offset="8232" size="384" />
			<output>
				<port id="0" precision="FP32">
					<dim>1</dim>
					<dim>96</dim>
					<dim>1</dim>
					<dim>1</dim>
				</port>
			</output>
		</layer>
		<layer id="82" name="/backbone/stage2/unit1/conv2/conv/Conv" type="Add" version="opset1">
			<data auto_broadcast="numpy" />
			<input>
				<port id="0" precision="FP32">
					<dim>-1</dim>
					<dim>96</dim>
					<dim>64</dim>
					<dim>64</dim>
				</port>
				<port id="1" precision="FP32">
					<dim>1</dim>
					<dim>96</dim>
					<dim>1</dim>
					<dim>1</dim>
				</port>
			</input>
			<output>
				<port id="2" precision="FP32" names="/backbone/stage2/unit1/conv2/conv/Conv_output_0">
					<dim>-1</dim>
					<dim>96</dim>
					<dim>64</dim>
					<dim>64</dim>
				</port>
			</output>
		</layer>
		<layer id="83" name="/backbone/stage2/unit1/conv2/activ/Clip" type="Clamp" version="opset1">
			<data min="0" max="6" />
			<input>
				<port id="0" precision="FP32">
					<dim>-1</dim>
					<dim>96</dim>
					<dim>64</dim>
					<dim>64</dim>
				</port>
			</input>
			<output>
				<port id="1" precision="FP32" names="/backbone/stage2/unit1/conv2/activ/Clip_output_0">
					<dim>-1</dim>
					<dim>96</dim>
					<dim>64</dim>
					<dim>64</dim>
				</port>
			</output>
		</layer>
		<layer id="84" name="Constant_114088" type="Const" version="opset1">
			<data element_type="f32" shape="" offset="48" size="4" />
			<output>
				<port id="0" precision="FP32" />
			</output>
		</layer>
		<layer id="85" name="Constant_114089" type="Const" version="opset1">
			<data element_type="f32" shape="" offset="8616" size="4" />
			<output>
				<port id="0" precision="FP32" />
			</output>
		</layer>
		<layer id="86" name="Constant_114090" type="Const" version="opset1">
			<data element_type="f32" shape="" offset="48" size="4" />
			<output>
				<port id="0" precision="FP32" />
			</output>
		</layer>
		<layer id="87" name="Constant_114091" type="Const" version="opset1">
			<data element_type="f32" shape="" offset="8616" size="4" />
			<output>
				<port id="0" precision="FP32" />
			</output>
		</layer>
		<layer id="88" name="/backbone/stage2/unit1/conv2/activ/Clip/fq_output_0" type="FakeQuantize" version="opset1">
			<data levels="256" auto_broadcast="numpy" />
			<input>
				<port id="0" precision="FP32">
					<dim>-1</dim>
					<dim>96</dim>
					<dim>64</dim>
					<dim>64</dim>
				</port>
				<port id="1" precision="FP32" />
				<port id="2" precision="FP32" />
				<port id="3" precision="FP32" />
				<port id="4" precision="FP32" />
			</input>
			<output>
				<port id="5" precision="FP32">
					<dim>-1</dim>
					<dim>96</dim>
					<dim>64</dim>
					<dim>64</dim>
				</port>
			</output>
		</layer>
		<layer id="89" name="onnx::Conv_2308" type="Const" version="opset1">
			<data element_type="i8" shape="24, 96, 1, 1" offset="8620" size="2304" />
			<output>
				<port id="0" precision="I8">
					<dim>24</dim>
					<dim>96</dim>
					<dim>1</dim>
					<dim>1</dim>
				</port>
			</output>
		</layer>
		<layer id="90" name="Convert_512122" type="Convert" version="opset1">
			<data destination_type="f32" />
			<input>
				<port id="0" precision="I8">
					<dim>24</dim>
					<dim>96</dim>
					<dim>1</dim>
					<dim>1</dim>
				</port>
			</input>
			<output>
				<port id="1" precision="FP32">
					<dim>24</dim>
					<dim>96</dim>
					<dim>1</dim>
					<dim>1</dim>
				</port>
			</output>
		</layer>
		<layer id="91" name="Constant_512020" type="Const" version="opset1">
			<data element_type="f32" shape="24, 1, 1, 1" offset="10924" size="96" />
			<output>
				<port id="0" precision="FP32">
					<dim>24</dim>
					<dim>1</dim>
					<dim>1</dim>
					<dim>1</dim>
				</port>
			</output>
		</layer>
		<layer id="92" name="/backbone/stage2/unit1/conv3/conv/Conv/WithoutBiases/fq_weights_1" type="Multiply" version="opset1">
			<data auto_broadcast="numpy" />
			<input>
				<port id="0" precision="FP32">
					<dim>24</dim>
					<dim>96</dim>
					<dim>1</dim>
					<dim>1</dim>
				</port>
				<port id="1" precision="FP32">
					<dim>24</dim>
					<dim>1</dim>
					<dim>1</dim>
					<dim>1</dim>
				</port>
			</input>
			<output>
				<port id="2" precision="FP32">
					<dim>24</dim>
					<dim>96</dim>
					<dim>1</dim>
					<dim>1</dim>
				</port>
			</output>
		</layer>
		<layer id="93" name="/backbone/stage2/unit1/conv3/conv/Conv/WithoutBiases" type="Convolution" version="opset1">
			<data strides="1, 1" dilations="1, 1" pads_begin="0, 0" pads_end="0, 0" auto_pad="explicit" />
			<input>
				<port id="0" precision="FP32">
					<dim>-1</dim>
					<dim>96</dim>
					<dim>64</dim>
					<dim>64</dim>
				</port>
				<port id="1" precision="FP32">
					<dim>24</dim>
					<dim>96</dim>
					<dim>1</dim>
					<dim>1</dim>
				</port>
			</input>
			<output>
				<port id="2" precision="FP32">
					<dim>-1</dim>
					<dim>24</dim>
					<dim>64</dim>
					<dim>64</dim>
				</port>
			</output>
		</layer>
		<layer id="94" name="Reshape_383" type="Const" version="opset1">
			<data element_type="f32" shape="1, 24, 1, 1" offset="11020" size="96" />
			<output>
				<port id="0" precision="FP32">
					<dim>1</dim>
					<dim>24</dim>
					<dim>1</dim>
					<dim>1</dim>
				</port>
			</output>
		</layer>
		<layer id="95" name="/backbone/stage2/unit1/conv3/conv/Conv" type="Add" version="opset1">
			<data auto_broadcast="numpy" />
			<input>
				<port id="0" precision="FP32">
					<dim>-1</dim>
					<dim>24</dim>
					<dim>64</dim>
					<dim>64</dim>
				</port>
				<port id="1" precision="FP32">
					<dim>1</dim>
					<dim>24</dim>
					<dim>1</dim>
					<dim>1</dim>
				</port>
			</input>
			<output>
				<port id="2" precision="FP32" names="/backbone/stage2/unit1/conv3/conv/Conv_output_0">
					<dim>-1</dim>
					<dim>24</dim>
					<dim>64</dim>
					<dim>64</dim>
				</port>
			</output>
		</layer>
		<layer id="96" name="Constant_114098" type="Const" version="opset1">
			<data element_type="f32" shape="" offset="11116" size="4" />
			<output>
				<port id="0" precision="FP32" />
			</output>
		</layer>
		<layer id="97" name="Constant_114099" type="Const" version="opset1">
			<data element_type="f32" shape="" offset="11120" size="4" />
			<output>
				<port id="0" precision="FP32" />
			</output>
		</layer>
		<layer id="98" name="Constant_114100" type="Const" version="opset1">
			<data element_type="f32" shape="" offset="11116" size="4" />
			<output>
				<port id="0" precision="FP32" />
			</output>
		</layer>
		<layer id="99" name="Constant_114101" type="Const" version="opset1">
			<data element_type="f32" shape="" offset="11120" size="4" />
			<output>
				<port id="0" precision="FP32" />
			</output>
		</layer>
		<layer id="100" name="/backbone/stage2/unit1/conv3/conv/Conv/fq_output_0" type="FakeQuantize" version="opset1">
			<data levels="256" auto_broadcast="numpy" />
			<input>
				<port id="0" precision="FP32">
					<dim>-1</dim>
					<dim>24</dim>
					<dim>64</dim>
					<dim>64</dim>
				</port>
				<port id="1" precision="FP32" />
				<port id="2" precision="FP32" />
				<port id="3" precision="FP32" />
				<port id="4" precision="FP32" />
			</input>
			<output>
				<port id="5" precision="FP32">
					<dim>-1</dim>
					<dim>24</dim>
					<dim>64</dim>
					<dim>64</dim>
				</port>
			</output>
		</layer>
		<layer id="101" name="onnx::Conv_2311" type="Const" version="opset1">
			<data element_type="i8" shape="144, 24, 1, 1" offset="11124" size="3456" />
			<output>
				<port id="0" precision="I8">
					<dim>144</dim>
					<dim>24</dim>
					<dim>1</dim>
					<dim>1</dim>
				</port>
			</output>
		</layer>
		<layer id="102" name="Convert_512276" type="Convert" version="opset1">
			<data destination_type="f32" />
			<input>
				<port id="0" precision="I8">
					<dim>144</dim>
					<dim>24</dim>
					<dim>1</dim>
					<dim>1</dim>
				</port>
			</input>
			<output>
				<port id="1" precision="FP32">
					<dim>144</dim>
					<dim>24</dim>
					<dim>1</dim>
					<dim>1</dim>
				</port>
			</output>
		</layer>
		<layer id="103" name="Constant_512174" type="Const" version="opset1">
			<data element_type="f32" shape="144, 1, 1, 1" offset="14580" size="576" />
			<output>
				<port id="0" precision="FP32">
					<dim>144</dim>
					<dim>1</dim>
					<dim>1</dim>
					<dim>1</dim>
				</port>
			</output>
		</layer>
		<layer id="104" name="/backbone/stage2/unit2/conv1/conv/Conv/WithoutBiases/fq_weights_1" type="Multiply" version="opset1">
			<data auto_broadcast="numpy" />
			<input>
				<port id="0" precision="FP32">
					<dim>144</dim>
					<dim>24</dim>
					<dim>1</dim>
					<dim>1</dim>
				</port>
				<port id="1" precision="FP32">
					<dim>144</dim>
					<dim>1</dim>
					<dim>1</dim>
					<dim>1</dim>
				</port>
			</input>
			<output>
				<port id="2" precision="FP32">
					<dim>144</dim>
					<dim>24</dim>
					<dim>1</dim>
					<dim>1</dim>
				</port>
			</output>
		</layer>
		<layer id="105" name="/backbone/stage2/unit2/conv1/conv/Conv/WithoutBiases" type="Convolution" version="opset1">
			<data strides="1, 1" dilations="1, 1" pads_begin="0, 0" pads_end="0, 0" auto_pad="explicit" />
			<input>
				<port id="0" precision="FP32">
					<dim>-1</dim>
					<dim>24</dim>
					<dim>64</dim>
					<dim>64</dim>
				</port>
				<port id="1" precision="FP32">
					<dim>144</dim>
					<dim>24</dim>
					<dim>1</dim>
					<dim>1</dim>
				</port>
			</input>
			<output>
				<port id="2" precision="FP32">
					<dim>-1</dim>
					<dim>144</dim>
					<dim>64</dim>
					<dim>64</dim>
				</port>
			</output>
		</layer>
		<layer id="106" name="Reshape_398" type="Const" version="opset1">
			<data element_type="f32" shape="1, 144, 1, 1" offset="15156" size="576" />
			<output>
				<port id="0" precision="FP32">
					<dim>1</dim>
					<dim>144</dim>
					<dim>1</dim>
					<dim>1</dim>
				</port>
			</output>
		</layer>
		<layer id="107" name="/backbone/stage2/unit2/conv1/conv/Conv" type="Add" version="opset1">
			<data auto_broadcast="numpy" />
			<input>
				<port id="0" precision="FP32">
					<dim>-1</dim>
					<dim>144</dim>
					<dim>64</dim>
					<dim>64</dim>
				</port>
				<port id="1" precision="FP32">
					<dim>1</dim>
					<dim>144</dim>
					<dim>1</dim>
					<dim>1</dim>
				</port>
			</input>
			<output>
				<port id="2" precision="FP32" names="/backbone/stage2/unit2/conv1/conv/Conv_output_0">
					<dim>-1</dim>
					<dim>144</dim>
					<dim>64</dim>
					<dim>64</dim>
				</port>
			</output>
		</layer>
		<layer id="108" name="/backbone/stage2/unit2/conv1/activ/Clip" type="Clamp" version="opset1">
			<data min="0" max="6" />
			<input>
				<port id="0" precision="FP32">
					<dim>-1</dim>
					<dim>144</dim>
					<dim>64</dim>
					<dim>64</dim>
				</port>
			</input>
			<output>
				<port id="1" precision="FP32" names="/backbone/stage2/unit2/conv1/activ/Clip_output_0">
					<dim>-1</dim>
					<dim>144</dim>
					<dim>64</dim>
					<dim>64</dim>
				</port>
			</output>
		</layer>
		<layer id="109" name="Constant_114108" type="Const" version="opset1">
			<data element_type="f32" shape="1, 144, 1, 1" offset="15732" size="576" />
			<output>
				<port id="0" precision="FP32">
					<dim>1</dim>
					<dim>144</dim>
					<dim>1</dim>
					<dim>1</dim>
				</port>
			</output>
		</layer>
		<layer id="110" name="Constant_114109" type="Const" version="opset1">
			<data element_type="f32" shape="1, 144, 1, 1" offset="16308" size="576" />
			<output>
				<port id="0" precision="FP32">
					<dim>1</dim>
					<dim>144</dim>
					<dim>1</dim>
					<dim>1</dim>
				</port>
			</output>
		</layer>
		<layer id="111" name="Constant_114110" type="Const" version="opset1">
			<data element_type="f32" shape="1, 144, 1, 1" offset="15732" size="576" />
			<output>
				<port id="0" precision="FP32">
					<dim>1</dim>
					<dim>144</dim>
					<dim>1</dim>
					<dim>1</dim>
				</port>
			</output>
		</layer>
		<layer id="112" name="Constant_114111" type="Const" version="opset1">
			<data element_type="f32" shape="1, 144, 1, 1" offset="16308" size="576" />
			<output>
				<port id="0" precision="FP32">
					<dim>1</dim>
					<dim>144</dim>
					<dim>1</dim>
					<dim>1</dim>
				</port>
			</output>
		</layer>
		<layer id="113" name="/backbone/stage2/unit2/conv1/activ/Clip/fq_output_0" type="FakeQuantize" version="opset1">
			<data levels="256" auto_broadcast="numpy" />
			<input>
				<port id="0" precision="FP32">
					<dim>-1</dim>
					<dim>144</dim>
					<dim>64</dim>
					<dim>64</dim>
				</port>
				<port id="1" precision="FP32">
					<dim>1</dim>
					<dim>144</dim>
					<dim>1</dim>
					<dim>1</dim>
				</port>
				<port id="2" precision="FP32">
					<dim>1</dim>
					<dim>144</dim>
					<dim>1</dim>
					<dim>1</dim>
				</port>
				<port id="3" precision="FP32">
					<dim>1</dim>
					<dim>144</dim>
					<dim>1</dim>
					<dim>1</dim>
				</port>
				<port id="4" precision="FP32">
					<dim>1</dim>
					<dim>144</dim>
					<dim>1</dim>
					<dim>1</dim>
				</port>
			</input>
			<output>
				<port id="5" precision="FP32">
					<dim>-1</dim>
					<dim>144</dim>
					<dim>64</dim>
					<dim>64</dim>
				</port>
			</output>
		</layer>
		<layer id="114" name="Reshape_413" type="Const" version="opset1">
			<data element_type="i8" shape="144, 1, 1, 3, 3" offset="16884" size="1296" />
			<output>
				<port id="0" precision="I8">
					<dim>144</dim>
					<dim>1</dim>
					<dim>1</dim>
					<dim>3</dim>
					<dim>3</dim>
				</port>
			</output>
		</layer>
		<layer id="115" name="Convert_512430" type="Convert" version="opset1">
			<data destination_type="f32" />
			<input>
				<port id="0" precision="I8">
					<dim>144</dim>
					<dim>1</dim>
					<dim>1</dim>
					<dim>3</dim>
					<dim>3</dim>
				</port>
			</input>
			<output>
				<port id="1" precision="FP32">
					<dim>144</dim>
					<dim>1</dim>
					<dim>1</dim>
					<dim>3</dim>
					<dim>3</dim>
				</port>
			</output>
		</layer>
		<layer id="116" name="Constant_512328" type="Const" version="opset1">
			<data element_type="f32" shape="144, 1, 1, 1, 1" offset="18180" size="576" />
			<output>
				<port id="0" precision="FP32">
					<dim>144</dim>
					<dim>1</dim>
					<dim>1</dim>
					<dim>1</dim>
					<dim>1</dim>
				</port>
			</output>
		</layer>
		<layer id="117" name="/backbone/stage2/unit2/conv2/conv/Conv/WithoutBiases/fq_weights_1" type="Multiply" version="opset1">
			<data auto_broadcast="numpy" />
			<input>
				<port id="0" precision="FP32">
					<dim>144</dim>
					<dim>1</dim>
					<dim>1</dim>
					<dim>3</dim>
					<dim>3</dim>
				</port>
				<port id="1" precision="FP32">
					<dim>144</dim>
					<dim>1</dim>
					<dim>1</dim>
					<dim>1</dim>
					<dim>1</dim>
				</port>
			</input>
			<output>
				<port id="2" precision="FP32">
					<dim>144</dim>
					<dim>1</dim>
					<dim>1</dim>
					<dim>3</dim>
					<dim>3</dim>
				</port>
			</output>
		</layer>
		<layer id="118" name="/backbone/stage2/unit2/conv2/conv/Conv/WithoutBiases" type="GroupConvolution" version="opset1">
			<data strides="1, 1" pads_begin="1, 1" pads_end="1, 1" dilations="1, 1" auto_pad="explicit" />
			<input>
				<port id="0" precision="FP32">
					<dim>-1</dim>
					<dim>144</dim>
					<dim>64</dim>
					<dim>64</dim>
				</port>
				<port id="1" precision="FP32">
					<dim>144</dim>
					<dim>1</dim>
					<dim>1</dim>
					<dim>3</dim>
					<dim>3</dim>
				</port>
			</input>
			<output>
				<port id="2" precision="FP32">
					<dim>-1</dim>
					<dim>144</dim>
					<dim>64</dim>
					<dim>64</dim>
				</port>
			</output>
		</layer>
		<layer id="119" name="Reshape_465" type="Const" version="opset1">
			<data element_type="f32" shape="1, 144, 1, 1" offset="18756" size="576" />
			<output>
				<port id="0" precision="FP32">
					<dim>1</dim>
					<dim>144</dim>
					<dim>1</dim>
					<dim>1</dim>
				</port>
			</output>
		</layer>
		<layer id="120" name="/backbone/stage2/unit2/conv2/conv/Conv" type="Add" version="opset1">
			<data auto_broadcast="numpy" />
			<input>
				<port id="0" precision="FP32">
					<dim>-1</dim>
					<dim>144</dim>
					<dim>64</dim>
					<dim>64</dim>
				</port>
				<port id="1" precision="FP32">
					<dim>1</dim>
					<dim>144</dim>
					<dim>1</dim>
					<dim>1</dim>
				</port>
			</input>
			<output>
				<port id="2" precision="FP32" names="/backbone/stage2/unit2/conv2/conv/Conv_output_0">
					<dim>-1</dim>
					<dim>144</dim>
					<dim>64</dim>
					<dim>64</dim>
				</port>
			</output>
		</layer>
		<layer id="121" name="/backbone/stage2/unit2/conv2/activ/Clip" type="Clamp" version="opset1">
			<data min="0" max="6" />
			<input>
				<port id="0" precision="FP32">
					<dim>-1</dim>
					<dim>144</dim>
					<dim>64</dim>
					<dim>64</dim>
				</port>
			</input>
			<output>
				<port id="1" precision="FP32" names="/backbone/stage2/unit2/conv2/activ/Clip_output_0">
					<dim>-1</dim>
					<dim>144</dim>
					<dim>64</dim>
					<dim>64</dim>
				</port>
			</output>
		</layer>
		<layer id="122" name="Constant_114118" type="Const" version="opset1">
			<data element_type="f32" shape="" offset="48" size="4" />
			<output>
				<port id="0" precision="FP32" />
			</output>
		</layer>
		<layer id="123" name="Constant_114119" type="Const" version="opset1">
			<data element_type="f32" shape="" offset="19332" size="4" />
			<output>
				<port id="0" precision="FP32" />
			</output>
		</layer>
		<layer id="124" name="Constant_114120" type="Const" version="opset1">
			<data element_type="f32" shape="" offset="48" size="4" />
			<output>
				<port id="0" precision="FP32" />
			</output>
		</layer>
		<layer id="125" name="Constant_114121" type="Const" version="opset1">
			<data element_type="f32" shape="" offset="19332" size="4" />
			<output>
				<port id="0" precision="FP32" />
			</output>
		</layer>
		<layer id="126" name="/backbone/stage2/unit2/conv2/activ/Clip/fq_output_0" type="FakeQuantize" version="opset1">
			<data levels="256" auto_broadcast="numpy" />
			<input>
				<port id="0" precision="FP32">
					<dim>-1</dim>
					<dim>144</dim>
					<dim>64</dim>
					<dim>64</dim>
				</port>
				<port id="1" precision="FP32" />
				<port id="2" precision="FP32" />
				<port id="3" precision="FP32" />
				<port id="4" precision="FP32" />
			</input>
			<output>
				<port id="5" precision="FP32">
					<dim>-1</dim>
					<dim>144</dim>
					<dim>64</dim>
					<dim>64</dim>
				</port>
			</output>
		</layer>
		<layer id="127" name="onnx::Conv_2317" type="Const" version="opset1">
			<data element_type="i8" shape="24, 144, 1, 1" offset="19336" size="3456" />
			<output>
				<port id="0" precision="I8">
					<dim>24</dim>
					<dim>144</dim>
					<dim>1</dim>
					<dim>1</dim>
				</port>
			</output>
		</layer>
		<layer id="128" name="Convert_512584" type="Convert" version="opset1">
			<data destination_type="f32" />
			<input>
				<port id="0" precision="I8">
					<dim>24</dim>
					<dim>144</dim>
					<dim>1</dim>
					<dim>1</dim>
				</port>
			</input>
			<output>
				<port id="1" precision="FP32">
					<dim>24</dim>
					<dim>144</dim>
					<dim>1</dim>
					<dim>1</dim>
				</port>
			</output>
		</layer>
		<layer id="129" name="Constant_512482" type="Const" version="opset1">
			<data element_type="f32" shape="24, 1, 1, 1" offset="22792" size="96" />
			<output>
				<port id="0" precision="FP32">
					<dim>24</dim>
					<dim>1</dim>
					<dim>1</dim>
					<dim>1</dim>
				</port>
			</output>
		</layer>
		<layer id="130" name="/backbone/stage2/unit2/conv3/conv/Conv/WithoutBiases/fq_weights_1" type="Multiply" version="opset1">
			<data auto_broadcast="numpy" />
			<input>
				<port id="0" precision="FP32">
					<dim>24</dim>
					<dim>144</dim>
					<dim>1</dim>
					<dim>1</dim>
				</port>
				<port id="1" precision="FP32">
					<dim>24</dim>
					<dim>1</dim>
					<dim>1</dim>
					<dim>1</dim>
				</port>
			</input>
			<output>
				<port id="2" precision="FP32">
					<dim>24</dim>
					<dim>144</dim>
					<dim>1</dim>
					<dim>1</dim>
				</port>
			</output>
		</layer>
		<layer id="131" name="/backbone/stage2/unit2/conv3/conv/Conv/WithoutBiases" type="Convolution" version="opset1">
			<data strides="1, 1" dilations="1, 1" pads_begin="0, 0" pads_end="0, 0" auto_pad="explicit" />
			<input>
				<port id="0" precision="FP32">
					<dim>-1</dim>
					<dim>144</dim>
					<dim>64</dim>
					<dim>64</dim>
				</port>
				<port id="1" precision="FP32">
					<dim>24</dim>
					<dim>144</dim>
					<dim>1</dim>
					<dim>1</dim>
				</port>
			</input>
			<output>
				<port id="2" precision="FP32">
					<dim>-1</dim>
					<dim>24</dim>
					<dim>64</dim>
					<dim>64</dim>
				</port>
			</output>
		</layer>
		<layer id="132" name="Reshape_484" type="Const" version="opset1">
			<data element_type="f32" shape="1, 24, 1, 1" offset="22888" size="96" />
			<output>
				<port id="0" precision="FP32">
					<dim>1</dim>
					<dim>24</dim>
					<dim>1</dim>
					<dim>1</dim>
				</port>
			</output>
		</layer>
		<layer id="133" name="/backbone/stage2/unit2/conv3/conv/Conv" type="Add" version="opset1">
			<data auto_broadcast="numpy" />
			<input>
				<port id="0" precision="FP32">
					<dim>-1</dim>
					<dim>24</dim>
					<dim>64</dim>
					<dim>64</dim>
				</port>
				<port id="1" precision="FP32">
					<dim>1</dim>
					<dim>24</dim>
					<dim>1</dim>
					<dim>1</dim>
				</port>
			</input>
			<output>
				<port id="2" precision="FP32" names="/backbone/stage2/unit2/conv3/conv/Conv_output_0">
					<dim>-1</dim>
					<dim>24</dim>
					<dim>64</dim>
					<dim>64</dim>
				</port>
			</output>
		</layer>
		<layer id="134" name="Constant_114128" type="Const" version="opset1">
			<data element_type="f32" shape="" offset="22984" size="4" />
			<output>
				<port id="0" precision="FP32" />
			</output>
		</layer>
		<layer id="135" name="Constant_114129" type="Const" version="opset1">
			<data element_type="f32" shape="" offset="22988" size="4" />
			<output>
				<port id="0" precision="FP32" />
			</output>
		</layer>
		<layer id="136" name="Constant_114130" type="Const" version="opset1">
			<data element_type="f32" shape="" offset="22984" size="4" />
			<output>
				<port id="0" precision="FP32" />
			</output>
		</layer>
		<layer id="137" name="Constant_114131" type="Const" version="opset1">
			<data element_type="f32" shape="" offset="22988" size="4" />
			<output>
				<port id="0" precision="FP32" />
			</output>
		</layer>
		<layer id="138" name="/backbone/stage2/unit2/conv3/conv/Conv/fq_output_0" type="FakeQuantize" version="opset1">
			<data levels="256" auto_broadcast="numpy" />
			<input>
				<port id="0" precision="FP32">
					<dim>-1</dim>
					<dim>24</dim>
					<dim>64</dim>
					<dim>64</dim>
				</port>
				<port id="1" precision="FP32" />
				<port id="2" precision="FP32" />
				<port id="3" precision="FP32" />
				<port id="4" precision="FP32" />
			</input>
			<output>
				<port id="5" precision="FP32">
					<dim>-1</dim>
					<dim>24</dim>
					<dim>64</dim>
					<dim>64</dim>
				</port>
			</output>
		</layer>
		<layer id="139" name="/backbone/stage2/unit2/Add" type="Add" version="opset1">
			<data auto_broadcast="numpy" />
			<input>
				<port id="0" precision="FP32">
					<dim>-1</dim>
					<dim>24</dim>
					<dim>64</dim>
					<dim>64</dim>
				</port>
				<port id="1" precision="FP32">
					<dim>-1</dim>
					<dim>24</dim>
					<dim>64</dim>
					<dim>64</dim>
				</port>
			</input>
			<output>
				<port id="2" precision="FP32" names="/backbone/stage2/unit2/Add_output_0">
					<dim>-1</dim>
					<dim>24</dim>
					<dim>64</dim>
					<dim>64</dim>
				</port>
			</output>
		</layer>
		<layer id="140" name="Constant_114133" type="Const" version="opset1">
			<data element_type="f32" shape="" offset="22992" size="4" />
			<output>
				<port id="0" precision="FP32" />
			</output>
		</layer>
		<layer id="141" name="Constant_114134" type="Const" version="opset1">
			<data element_type="f32" shape="" offset="22996" size="4" />
			<output>
				<port id="0" precision="FP32" />
			</output>
		</layer>
		<layer id="142" name="Constant_114135" type="Const" version="opset1">
			<data element_type="f32" shape="" offset="22992" size="4" />
			<output>
				<port id="0" precision="FP32" />
			</output>
		</layer>
		<layer id="143" name="Constant_114136" type="Const" version="opset1">
			<data element_type="f32" shape="" offset="22996" size="4" />
			<output>
				<port id="0" precision="FP32" />
			</output>
		</layer>
		<layer id="144" name="/backbone/stage2/unit2/Add/fq_output_0" type="FakeQuantize" version="opset1">
			<data levels="256" auto_broadcast="numpy" />
			<input>
				<port id="0" precision="FP32">
					<dim>-1</dim>
					<dim>24</dim>
					<dim>64</dim>
					<dim>64</dim>
				</port>
				<port id="1" precision="FP32" />
				<port id="2" precision="FP32" />
				<port id="3" precision="FP32" />
				<port id="4" precision="FP32" />
			</input>
			<output>
				<port id="5" precision="FP32">
					<dim>-1</dim>
					<dim>24</dim>
					<dim>64</dim>
					<dim>64</dim>
				</port>
			</output>
		</layer>
		<layer id="145" name="onnx::Conv_2320" type="Const" version="opset1">
			<data element_type="i8" shape="144, 24, 1, 1" offset="23000" size="3456" />
			<output>
				<port id="0" precision="I8">
					<dim>144</dim>
					<dim>24</dim>
					<dim>1</dim>
					<dim>1</dim>
				</port>
			</output>
		</layer>
		<layer id="146" name="Convert_512738" type="Convert" version="opset1">
			<data destination_type="f32" />
			<input>
				<port id="0" precision="I8">
					<dim>144</dim>
					<dim>24</dim>
					<dim>1</dim>
					<dim>1</dim>
				</port>
			</input>
			<output>
				<port id="1" precision="FP32">
					<dim>144</dim>
					<dim>24</dim>
					<dim>1</dim>
					<dim>1</dim>
				</port>
			</output>
		</layer>
		<layer id="147" name="Constant_512636" type="Const" version="opset1">
			<data element_type="f32" shape="144, 1, 1, 1" offset="26456" size="576" />
			<output>
				<port id="0" precision="FP32">
					<dim>144</dim>
					<dim>1</dim>
					<dim>1</dim>
					<dim>1</dim>
				</port>
			</output>
		</layer>
		<layer id="148" name="/backbone/stage3/unit1/conv1/conv/Conv/WithoutBiases/fq_weights_1" type="Multiply" version="opset1">
			<data auto_broadcast="numpy" />
			<input>
				<port id="0" precision="FP32">
					<dim>144</dim>
					<dim>24</dim>
					<dim>1</dim>
					<dim>1</dim>
				</port>
				<port id="1" precision="FP32">
					<dim>144</dim>
					<dim>1</dim>
					<dim>1</dim>
					<dim>1</dim>
				</port>
			</input>
			<output>
				<port id="2" precision="FP32">
					<dim>144</dim>
					<dim>24</dim>
					<dim>1</dim>
					<dim>1</dim>
				</port>
			</output>
		</layer>
		<layer id="149" name="/backbone/stage3/unit1/conv1/conv/Conv/WithoutBiases" type="Convolution" version="opset1">
			<data strides="1, 1" dilations="1, 1" pads_begin="0, 0" pads_end="0, 0" auto_pad="explicit" />
			<input>
				<port id="0" precision="FP32">
					<dim>-1</dim>
					<dim>24</dim>
					<dim>64</dim>
					<dim>64</dim>
				</port>
				<port id="1" precision="FP32">
					<dim>144</dim>
					<dim>24</dim>
					<dim>1</dim>
					<dim>1</dim>
				</port>
			</input>
			<output>
				<port id="2" precision="FP32">
					<dim>-1</dim>
					<dim>144</dim>
					<dim>64</dim>
					<dim>64</dim>
				</port>
			</output>
		</layer>
		<layer id="150" name="Reshape_500" type="Const" version="opset1">
			<data element_type="f32" shape="1, 144, 1, 1" offset="27032" size="576" />
			<output>
				<port id="0" precision="FP32">
					<dim>1</dim>
					<dim>144</dim>
					<dim>1</dim>
					<dim>1</dim>
				</port>
			</output>
		</layer>
		<layer id="151" name="/backbone/stage3/unit1/conv1/conv/Conv" type="Add" version="opset1">
			<data auto_broadcast="numpy" />
			<input>
				<port id="0" precision="FP32">
					<dim>-1</dim>
					<dim>144</dim>
					<dim>64</dim>
					<dim>64</dim>
				</port>
				<port id="1" precision="FP32">
					<dim>1</dim>
					<dim>144</dim>
					<dim>1</dim>
					<dim>1</dim>
				</port>
			</input>
			<output>
				<port id="2" precision="FP32" names="/backbone/stage3/unit1/conv1/conv/Conv_output_0">
					<dim>-1</dim>
					<dim>144</dim>
					<dim>64</dim>
					<dim>64</dim>
				</port>
			</output>
		</layer>
		<layer id="152" name="/backbone/stage3/unit1/conv1/activ/Clip" type="Clamp" version="opset1">
			<data min="0" max="6" />
			<input>
				<port id="0" precision="FP32">
					<dim>-1</dim>
					<dim>144</dim>
					<dim>64</dim>
					<dim>64</dim>
				</port>
			</input>
			<output>
				<port id="1" precision="FP32" names="/backbone/stage3/unit1/conv1/activ/Clip_output_0">
					<dim>-1</dim>
					<dim>144</dim>
					<dim>64</dim>
					<dim>64</dim>
				</port>
			</output>
		</layer>
		<layer id="153" name="Constant_114143" type="Const" version="opset1">
			<data element_type="f32" shape="1, 144, 1, 1" offset="15732" size="576" />
			<output>
				<port id="0" precision="FP32">
					<dim>1</dim>
					<dim>144</dim>
					<dim>1</dim>
					<dim>1</dim>
				</port>
			</output>
		</layer>
		<layer id="154" name="Constant_114144" type="Const" version="opset1">
			<data element_type="f32" shape="1, 144, 1, 1" offset="27608" size="576" />
			<output>
				<port id="0" precision="FP32">
					<dim>1</dim>
					<dim>144</dim>
					<dim>1</dim>
					<dim>1</dim>
				</port>
			</output>
		</layer>
		<layer id="155" name="Constant_114145" type="Const" version="opset1">
			<data element_type="f32" shape="1, 144, 1, 1" offset="15732" size="576" />
			<output>
				<port id="0" precision="FP32">
					<dim>1</dim>
					<dim>144</dim>
					<dim>1</dim>
					<dim>1</dim>
				</port>
			</output>
		</layer>
		<layer id="156" name="Constant_114146" type="Const" version="opset1">
			<data element_type="f32" shape="1, 144, 1, 1" offset="27608" size="576" />
			<output>
				<port id="0" precision="FP32">
					<dim>1</dim>
					<dim>144</dim>
					<dim>1</dim>
					<dim>1</dim>
				</port>
			</output>
		</layer>
		<layer id="157" name="/backbone/stage3/unit1/conv1/activ/Clip/fq_output_0" type="FakeQuantize" version="opset1">
			<data levels="256" auto_broadcast="numpy" />
			<input>
				<port id="0" precision="FP32">
					<dim>-1</dim>
					<dim>144</dim>
					<dim>64</dim>
					<dim>64</dim>
				</port>
				<port id="1" precision="FP32">
					<dim>1</dim>
					<dim>144</dim>
					<dim>1</dim>
					<dim>1</dim>
				</port>
				<port id="2" precision="FP32">
					<dim>1</dim>
					<dim>144</dim>
					<dim>1</dim>
					<dim>1</dim>
				</port>
				<port id="3" precision="FP32">
					<dim>1</dim>
					<dim>144</dim>
					<dim>1</dim>
					<dim>1</dim>
				</port>
				<port id="4" precision="FP32">
					<dim>1</dim>
					<dim>144</dim>
					<dim>1</dim>
					<dim>1</dim>
				</port>
			</input>
			<output>
				<port id="5" precision="FP32">
					<dim>-1</dim>
					<dim>144</dim>
					<dim>64</dim>
					<dim>64</dim>
				</port>
			</output>
		</layer>
		<layer id="158" name="Reshape_515" type="Const" version="opset1">
			<data element_type="i8" shape="144, 1, 1, 3, 3" offset="28184" size="1296" />
			<output>
				<port id="0" precision="I8">
					<dim>144</dim>
					<dim>1</dim>
					<dim>1</dim>
					<dim>3</dim>
					<dim>3</dim>
				</port>
			</output>
		</layer>
		<layer id="159" name="Convert_512892" type="Convert" version="opset1">
			<data destination_type="f32" />
			<input>
				<port id="0" precision="I8">
					<dim>144</dim>
					<dim>1</dim>
					<dim>1</dim>
					<dim>3</dim>
					<dim>3</dim>
				</port>
			</input>
			<output>
				<port id="1" precision="FP32">
					<dim>144</dim>
					<dim>1</dim>
					<dim>1</dim>
					<dim>3</dim>
					<dim>3</dim>
				</port>
			</output>
		</layer>
		<layer id="160" name="Constant_512790" type="Const" version="opset1">
			<data element_type="f32" shape="144, 1, 1, 1, 1" offset="29480" size="576" />
			<output>
				<port id="0" precision="FP32">
					<dim>144</dim>
					<dim>1</dim>
					<dim>1</dim>
					<dim>1</dim>
					<dim>1</dim>
				</port>
			</output>
		</layer>
		<layer id="161" name="/backbone/stage3/unit1/conv2/conv/Conv/WithoutBiases/fq_weights_1" type="Multiply" version="opset1">
			<data auto_broadcast="numpy" />
			<input>
				<port id="0" precision="FP32">
					<dim>144</dim>
					<dim>1</dim>
					<dim>1</dim>
					<dim>3</dim>
					<dim>3</dim>
				</port>
				<port id="1" precision="FP32">
					<dim>144</dim>
					<dim>1</dim>
					<dim>1</dim>
					<dim>1</dim>
					<dim>1</dim>
				</port>
			</input>
			<output>
				<port id="2" precision="FP32">
					<dim>144</dim>
					<dim>1</dim>
					<dim>1</dim>
					<dim>3</dim>
					<dim>3</dim>
				</port>
			</output>
		</layer>
		<layer id="162" name="/backbone/stage3/unit1/conv2/conv/Conv/WithoutBiases" type="GroupConvolution" version="opset1">
			<data strides="2, 2" pads_begin="1, 1" pads_end="1, 1" dilations="1, 1" auto_pad="explicit" />
			<input>
				<port id="0" precision="FP32">
					<dim>-1</dim>
					<dim>144</dim>
					<dim>64</dim>
					<dim>64</dim>
				</port>
				<port id="1" precision="FP32">
					<dim>144</dim>
					<dim>1</dim>
					<dim>1</dim>
					<dim>3</dim>
					<dim>3</dim>
				</port>
			</input>
			<output>
				<port id="2" precision="FP32">
					<dim>-1</dim>
					<dim>144</dim>
					<dim>32</dim>
					<dim>32</dim>
				</port>
			</output>
		</layer>
		<layer id="163" name="Reshape_567" type="Const" version="opset1">
			<data element_type="f32" shape="1, 144, 1, 1" offset="30056" size="576" />
			<output>
				<port id="0" precision="FP32">
					<dim>1</dim>
					<dim>144</dim>
					<dim>1</dim>
					<dim>1</dim>
				</port>
			</output>
		</layer>
		<layer id="164" name="/backbone/stage3/unit1/conv2/conv/Conv" type="Add" version="opset1">
			<data auto_broadcast="numpy" />
			<input>
				<port id="0" precision="FP32">
					<dim>-1</dim>
					<dim>144</dim>
					<dim>32</dim>
					<dim>32</dim>
				</port>
				<port id="1" precision="FP32">
					<dim>1</dim>
					<dim>144</dim>
					<dim>1</dim>
					<dim>1</dim>
				</port>
			</input>
			<output>
				<port id="2" precision="FP32" names="/backbone/stage3/unit1/conv2/conv/Conv_output_0">
					<dim>-1</dim>
					<dim>144</dim>
					<dim>32</dim>
					<dim>32</dim>
				</port>
			</output>
		</layer>
		<layer id="165" name="/backbone/stage3/unit1/conv2/activ/Clip" type="Clamp" version="opset1">
			<data min="0" max="6" />
			<input>
				<port id="0" precision="FP32">
					<dim>-1</dim>
					<dim>144</dim>
					<dim>32</dim>
					<dim>32</dim>
				</port>
			</input>
			<output>
				<port id="1" precision="FP32" names="/backbone/stage3/unit1/conv2/activ/Clip_output_0">
					<dim>-1</dim>
					<dim>144</dim>
					<dim>32</dim>
					<dim>32</dim>
				</port>
			</output>
		</layer>
		<layer id="166" name="Constant_114153" type="Const" version="opset1">
			<data element_type="f32" shape="" offset="48" size="4" />
			<output>
				<port id="0" precision="FP32" />
			</output>
		</layer>
		<layer id="167" name="Constant_114154" type="Const" version="opset1">
			<data element_type="f32" shape="" offset="30632" size="4" />
			<output>
				<port id="0" precision="FP32" />
			</output>
		</layer>
		<layer id="168" name="Constant_114155" type="Const" version="opset1">
			<data element_type="f32" shape="" offset="48" size="4" />
			<output>
				<port id="0" precision="FP32" />
			</output>
		</layer>
		<layer id="169" name="Constant_114156" type="Const" version="opset1">
			<data element_type="f32" shape="" offset="30632" size="4" />
			<output>
				<port id="0" precision="FP32" />
			</output>
		</layer>
		<layer id="170" name="/backbone/stage3/unit1/conv2/activ/Clip/fq_output_0" type="FakeQuantize" version="opset1">
			<data levels="256" auto_broadcast="numpy" />
			<input>
				<port id="0" precision="FP32">
					<dim>-1</dim>
					<dim>144</dim>
					<dim>32</dim>
					<dim>32</dim>
				</port>
				<port id="1" precision="FP32" />
				<port id="2" precision="FP32" />
				<port id="3" precision="FP32" />
				<port id="4" precision="FP32" />
			</input>
			<output>
				<port id="5" precision="FP32">
					<dim>-1</dim>
					<dim>144</dim>
					<dim>32</dim>
					<dim>32</dim>
				</port>
			</output>
		</layer>
		<layer id="171" name="onnx::Conv_2326" type="Const" version="opset1">
			<data element_type="i8" shape="32, 144, 1, 1" offset="30636" size="4608" />
			<output>
				<port id="0" precision="I8">
					<dim>32</dim>
					<dim>144</dim>
					<dim>1</dim>
					<dim>1</dim>
				</port>
			</output>
		</layer>
		<layer id="172" name="Convert_513046" type="Convert" version="opset1">
			<data destination_type="f32" />
			<input>
				<port id="0" precision="I8">
					<dim>32</dim>
					<dim>144</dim>
					<dim>1</dim>
					<dim>1</dim>
				</port>
			</input>
			<output>
				<port id="1" precision="FP32">
					<dim>32</dim>
					<dim>144</dim>
					<dim>1</dim>
					<dim>1</dim>
				</port>
			</output>
		</layer>
		<layer id="173" name="Constant_512944" type="Const" version="opset1">
			<data element_type="f32" shape="32, 1, 1, 1" offset="35244" size="128" />
			<output>
				<port id="0" precision="FP32">
					<dim>32</dim>
					<dim>1</dim>
					<dim>1</dim>
					<dim>1</dim>
				</port>
			</output>
		</layer>
		<layer id="174" name="/backbone/stage3/unit1/conv3/conv/Conv/WithoutBiases/fq_weights_1" type="Multiply" version="opset1">
			<data auto_broadcast="numpy" />
			<input>
				<port id="0" precision="FP32">
					<dim>32</dim>
					<dim>144</dim>
					<dim>1</dim>
					<dim>1</dim>
				</port>
				<port id="1" precision="FP32">
					<dim>32</dim>
					<dim>1</dim>
					<dim>1</dim>
					<dim>1</dim>
				</port>
			</input>
			<output>
				<port id="2" precision="FP32">
					<dim>32</dim>
					<dim>144</dim>
					<dim>1</dim>
					<dim>1</dim>
				</port>
			</output>
		</layer>
		<layer id="175" name="/backbone/stage3/unit1/conv3/conv/Conv/WithoutBiases" type="Convolution" version="opset1">
			<data strides="1, 1" dilations="1, 1" pads_begin="0, 0" pads_end="0, 0" auto_pad="explicit" />
			<input>
				<port id="0" precision="FP32">
					<dim>-1</dim>
					<dim>144</dim>
					<dim>32</dim>
					<dim>32</dim>
				</port>
				<port id="1" precision="FP32">
					<dim>32</dim>
					<dim>144</dim>
					<dim>1</dim>
					<dim>1</dim>
				</port>
			</input>
			<output>
				<port id="2" precision="FP32">
					<dim>-1</dim>
					<dim>32</dim>
					<dim>32</dim>
					<dim>32</dim>
				</port>
			</output>
		</layer>
		<layer id="176" name="Reshape_586" type="Const" version="opset1">
			<data element_type="f32" shape="1, 32, 1, 1" offset="35372" size="128" />
			<output>
				<port id="0" precision="FP32">
					<dim>1</dim>
					<dim>32</dim>
					<dim>1</dim>
					<dim>1</dim>
				</port>
			</output>
		</layer>
		<layer id="177" name="/backbone/stage3/unit1/conv3/conv/Conv" type="Add" version="opset1">
			<data auto_broadcast="numpy" />
			<input>
				<port id="0" precision="FP32">
					<dim>-1</dim>
					<dim>32</dim>
					<dim>32</dim>
					<dim>32</dim>
				</port>
				<port id="1" precision="FP32">
					<dim>1</dim>
					<dim>32</dim>
					<dim>1</dim>
					<dim>1</dim>
				</port>
			</input>
			<output>
				<port id="2" precision="FP32" names="/backbone/stage3/unit1/conv3/conv/Conv_output_0">
					<dim>-1</dim>
					<dim>32</dim>
					<dim>32</dim>
					<dim>32</dim>
				</port>
			</output>
		</layer>
		<layer id="178" name="Constant_114163" type="Const" version="opset1">
			<data element_type="f32" shape="" offset="35500" size="4" />
			<output>
				<port id="0" precision="FP32" />
			</output>
		</layer>
		<layer id="179" name="Constant_114164" type="Const" version="opset1">
			<data element_type="f32" shape="" offset="35504" size="4" />
			<output>
				<port id="0" precision="FP32" />
			</output>
		</layer>
		<layer id="180" name="Constant_114165" type="Const" version="opset1">
			<data element_type="f32" shape="" offset="35500" size="4" />
			<output>
				<port id="0" precision="FP32" />
			</output>
		</layer>
		<layer id="181" name="Constant_114166" type="Const" version="opset1">
			<data element_type="f32" shape="" offset="35504" size="4" />
			<output>
				<port id="0" precision="FP32" />
			</output>
		</layer>
		<layer id="182" name="/backbone/stage3/unit1/conv3/conv/Conv/fq_output_0" type="FakeQuantize" version="opset1">
			<data levels="256" auto_broadcast="numpy" />
			<input>
				<port id="0" precision="FP32">
					<dim>-1</dim>
					<dim>32</dim>
					<dim>32</dim>
					<dim>32</dim>
				</port>
				<port id="1" precision="FP32" />
				<port id="2" precision="FP32" />
				<port id="3" precision="FP32" />
				<port id="4" precision="FP32" />
			</input>
			<output>
				<port id="5" precision="FP32">
					<dim>-1</dim>
					<dim>32</dim>
					<dim>32</dim>
					<dim>32</dim>
				</port>
			</output>
		</layer>
		<layer id="183" name="onnx::Conv_2329" type="Const" version="opset1">
			<data element_type="i8" shape="192, 32, 1, 1" offset="35508" size="6144" />
			<output>
				<port id="0" precision="I8">
					<dim>192</dim>
					<dim>32</dim>
					<dim>1</dim>
					<dim>1</dim>
				</port>
			</output>
		</layer>
		<layer id="184" name="Convert_513200" type="Convert" version="opset1">
			<data destination_type="f32" />
			<input>
				<port id="0" precision="I8">
					<dim>192</dim>
					<dim>32</dim>
					<dim>1</dim>
					<dim>1</dim>
				</port>
			</input>
			<output>
				<port id="1" precision="FP32">
					<dim>192</dim>
					<dim>32</dim>
					<dim>1</dim>
					<dim>1</dim>
				</port>
			</output>
		</layer>
		<layer id="185" name="Constant_513098" type="Const" version="opset1">
			<data element_type="f32" shape="192, 1, 1, 1" offset="41652" size="768" />
			<output>
				<port id="0" precision="FP32">
					<dim>192</dim>
					<dim>1</dim>
					<dim>1</dim>
					<dim>1</dim>
				</port>
			</output>
		</layer>
		<layer id="186" name="/backbone/stage3/unit2/conv1/conv/Conv/WithoutBiases/fq_weights_1" type="Multiply" version="opset1">
			<data auto_broadcast="numpy" />
			<input>
				<port id="0" precision="FP32">
					<dim>192</dim>
					<dim>32</dim>
					<dim>1</dim>
					<dim>1</dim>
				</port>
				<port id="1" precision="FP32">
					<dim>192</dim>
					<dim>1</dim>
					<dim>1</dim>
					<dim>1</dim>
				</port>
			</input>
			<output>
				<port id="2" precision="FP32">
					<dim>192</dim>
					<dim>32</dim>
					<dim>1</dim>
					<dim>1</dim>
				</port>
			</output>
		</layer>
		<layer id="187" name="/backbone/stage3/unit2/conv1/conv/Conv/WithoutBiases" type="Convolution" version="opset1">
			<data strides="1, 1" dilations="1, 1" pads_begin="0, 0" pads_end="0, 0" auto_pad="explicit" />
			<input>
				<port id="0" precision="FP32">
					<dim>-1</dim>
					<dim>32</dim>
					<dim>32</dim>
					<dim>32</dim>
				</port>
				<port id="1" precision="FP32">
					<dim>192</dim>
					<dim>32</dim>
					<dim>1</dim>
					<dim>1</dim>
				</port>
			</input>
			<output>
				<port id="2" precision="FP32">
					<dim>-1</dim>
					<dim>192</dim>
					<dim>32</dim>
					<dim>32</dim>
				</port>
			</output>
		</layer>
		<layer id="188" name="Reshape_601" type="Const" version="opset1">
			<data element_type="f32" shape="1, 192, 1, 1" offset="42420" size="768" />
			<output>
				<port id="0" precision="FP32">
					<dim>1</dim>
					<dim>192</dim>
					<dim>1</dim>
					<dim>1</dim>
				</port>
			</output>
		</layer>
		<layer id="189" name="/backbone/stage3/unit2/conv1/conv/Conv" type="Add" version="opset1">
			<data auto_broadcast="numpy" />
			<input>
				<port id="0" precision="FP32">
					<dim>-1</dim>
					<dim>192</dim>
					<dim>32</dim>
					<dim>32</dim>
				</port>
				<port id="1" precision="FP32">
					<dim>1</dim>
					<dim>192</dim>
					<dim>1</dim>
					<dim>1</dim>
				</port>
			</input>
			<output>
				<port id="2" precision="FP32" names="/backbone/stage3/unit2/conv1/conv/Conv_output_0">
					<dim>-1</dim>
					<dim>192</dim>
					<dim>32</dim>
					<dim>32</dim>
				</port>
			</output>
		</layer>
		<layer id="190" name="/backbone/stage3/unit2/conv1/activ/Clip" type="Clamp" version="opset1">
			<data min="0" max="6" />
			<input>
				<port id="0" precision="FP32">
					<dim>-1</dim>
					<dim>192</dim>
					<dim>32</dim>
					<dim>32</dim>
				</port>
			</input>
			<output>
				<port id="1" precision="FP32" names="/backbone/stage3/unit2/conv1/activ/Clip_output_0">
					<dim>-1</dim>
					<dim>192</dim>
					<dim>32</dim>
					<dim>32</dim>
				</port>
			</output>
		</layer>
		<layer id="191" name="Constant_114173" type="Const" version="opset1">
			<data element_type="f32" shape="1, 192, 1, 1" offset="43188" size="768" />
			<output>
				<port id="0" precision="FP32">
					<dim>1</dim>
					<dim>192</dim>
					<dim>1</dim>
					<dim>1</dim>
				</port>
			</output>
		</layer>
		<layer id="192" name="Constant_114174" type="Const" version="opset1">
			<data element_type="f32" shape="1, 192, 1, 1" offset="43956" size="768" />
			<output>
				<port id="0" precision="FP32">
					<dim>1</dim>
					<dim>192</dim>
					<dim>1</dim>
					<dim>1</dim>
				</port>
			</output>
		</layer>
		<layer id="193" name="Constant_114175" type="Const" version="opset1">
			<data element_type="f32" shape="1, 192, 1, 1" offset="43188" size="768" />
			<output>
				<port id="0" precision="FP32">
					<dim>1</dim>
					<dim>192</dim>
					<dim>1</dim>
					<dim>1</dim>
				</port>
			</output>
		</layer>
		<layer id="194" name="Constant_114176" type="Const" version="opset1">
			<data element_type="f32" shape="1, 192, 1, 1" offset="43956" size="768" />
			<output>
				<port id="0" precision="FP32">
					<dim>1</dim>
					<dim>192</dim>
					<dim>1</dim>
					<dim>1</dim>
				</port>
			</output>
		</layer>
		<layer id="195" name="/backbone/stage3/unit2/conv1/activ/Clip/fq_output_0" type="FakeQuantize" version="opset1">
			<data levels="256" auto_broadcast="numpy" />
			<input>
				<port id="0" precision="FP32">
					<dim>-1</dim>
					<dim>192</dim>
					<dim>32</dim>
					<dim>32</dim>
				</port>
				<port id="1" precision="FP32">
					<dim>1</dim>
					<dim>192</dim>
					<dim>1</dim>
					<dim>1</dim>
				</port>
				<port id="2" precision="FP32">
					<dim>1</dim>
					<dim>192</dim>
					<dim>1</dim>
					<dim>1</dim>
				</port>
				<port id="3" precision="FP32">
					<dim>1</dim>
					<dim>192</dim>
					<dim>1</dim>
					<dim>1</dim>
				</port>
				<port id="4" precision="FP32">
					<dim>1</dim>
					<dim>192</dim>
					<dim>1</dim>
					<dim>1</dim>
				</port>
			</input>
			<output>
				<port id="5" precision="FP32">
					<dim>-1</dim>
					<dim>192</dim>
					<dim>32</dim>
					<dim>32</dim>
				</port>
			</output>
		</layer>
		<layer id="196" name="Reshape_616" type="Const" version="opset1">
			<data element_type="i8" shape="192, 1, 1, 3, 3" offset="44724" size="1728" />
			<output>
				<port id="0" precision="I8">
					<dim>192</dim>
					<dim>1</dim>
					<dim>1</dim>
					<dim>3</dim>
					<dim>3</dim>
				</port>
			</output>
		</layer>
		<layer id="197" name="Convert_513354" type="Convert" version="opset1">
			<data destination_type="f32" />
			<input>
				<port id="0" precision="I8">
					<dim>192</dim>
					<dim>1</dim>
					<dim>1</dim>
					<dim>3</dim>
					<dim>3</dim>
				</port>
			</input>
			<output>
				<port id="1" precision="FP32">
					<dim>192</dim>
					<dim>1</dim>
					<dim>1</dim>
					<dim>3</dim>
					<dim>3</dim>
				</port>
			</output>
		</layer>
		<layer id="198" name="Constant_513252" type="Const" version="opset1">
			<data element_type="f32" shape="192, 1, 1, 1, 1" offset="46452" size="768" />
			<output>
				<port id="0" precision="FP32">
					<dim>192</dim>
					<dim>1</dim>
					<dim>1</dim>
					<dim>1</dim>
					<dim>1</dim>
				</port>
			</output>
		</layer>
		<layer id="199" name="/backbone/stage3/unit2/conv2/conv/Conv/WithoutBiases/fq_weights_1" type="Multiply" version="opset1">
			<data auto_broadcast="numpy" />
			<input>
				<port id="0" precision="FP32">
					<dim>192</dim>
					<dim>1</dim>
					<dim>1</dim>
					<dim>3</dim>
					<dim>3</dim>
				</port>
				<port id="1" precision="FP32">
					<dim>192</dim>
					<dim>1</dim>
					<dim>1</dim>
					<dim>1</dim>
					<dim>1</dim>
				</port>
			</input>
			<output>
				<port id="2" precision="FP32">
					<dim>192</dim>
					<dim>1</dim>
					<dim>1</dim>
					<dim>3</dim>
					<dim>3</dim>
				</port>
			</output>
		</layer>
		<layer id="200" name="/backbone/stage3/unit2/conv2/conv/Conv/WithoutBiases" type="GroupConvolution" version="opset1">
			<data strides="1, 1" pads_begin="1, 1" pads_end="1, 1" dilations="1, 1" auto_pad="explicit" />
			<input>
				<port id="0" precision="FP32">
					<dim>-1</dim>
					<dim>192</dim>
					<dim>32</dim>
					<dim>32</dim>
				</port>
				<port id="1" precision="FP32">
					<dim>192</dim>
					<dim>1</dim>
					<dim>1</dim>
					<dim>3</dim>
					<dim>3</dim>
				</port>
			</input>
			<output>
				<port id="2" precision="FP32">
					<dim>-1</dim>
					<dim>192</dim>
					<dim>32</dim>
					<dim>32</dim>
				</port>
			</output>
		</layer>
		<layer id="201" name="Reshape_668" type="Const" version="opset1">
			<data element_type="f32" shape="1, 192, 1, 1" offset="47220" size="768" />
			<output>
				<port id="0" precision="FP32">
					<dim>1</dim>
					<dim>192</dim>
					<dim>1</dim>
					<dim>1</dim>
				</port>
			</output>
		</layer>
		<layer id="202" name="/backbone/stage3/unit2/conv2/conv/Conv" type="Add" version="opset1">
			<data auto_broadcast="numpy" />
			<input>
				<port id="0" precision="FP32">
					<dim>-1</dim>
					<dim>192</dim>
					<dim>32</dim>
					<dim>32</dim>
				</port>
				<port id="1" precision="FP32">
					<dim>1</dim>
					<dim>192</dim>
					<dim>1</dim>
					<dim>1</dim>
				</port>
			</input>
			<output>
				<port id="2" precision="FP32" names="/backbone/stage3/unit2/conv2/conv/Conv_output_0">
					<dim>-1</dim>
					<dim>192</dim>
					<dim>32</dim>
					<dim>32</dim>
				</port>
			</output>
		</layer>
		<layer id="203" name="/backbone/stage3/unit2/conv2/activ/Clip" type="Clamp" version="opset1">
			<data min="0" max="6" />
			<input>
				<port id="0" precision="FP32">
					<dim>-1</dim>
					<dim>192</dim>
					<dim>32</dim>
					<dim>32</dim>
				</port>
			</input>
			<output>
				<port id="1" precision="FP32" names="/backbone/stage3/unit2/conv2/activ/Clip_output_0">
					<dim>-1</dim>
					<dim>192</dim>
					<dim>32</dim>
					<dim>32</dim>
				</port>
			</output>
		</layer>
		<layer id="204" name="Constant_114183" type="Const" version="opset1">
			<data element_type="f32" shape="" offset="48" size="4" />
			<output>
				<port id="0" precision="FP32" />
			</output>
		</layer>
		<layer id="205" name="Constant_114184" type="Const" version="opset1">
			<data element_type="f32" shape="" offset="47988" size="4" />
			<output>
				<port id="0" precision="FP32" />
			</output>
		</layer>
		<layer id="206" name="Constant_114185" type="Const" version="opset1">
			<data element_type="f32" shape="" offset="48" size="4" />
			<output>
				<port id="0" precision="FP32" />
			</output>
		</layer>
		<layer id="207" name="Constant_114186" type="Const" version="opset1">
			<data element_type="f32" shape="" offset="47988" size="4" />
			<output>
				<port id="0" precision="FP32" />
			</output>
		</layer>
		<layer id="208" name="/backbone/stage3/unit2/conv2/activ/Clip/fq_output_0" type="FakeQuantize" version="opset1">
			<data levels="256" auto_broadcast="numpy" />
			<input>
				<port id="0" precision="FP32">
					<dim>-1</dim>
					<dim>192</dim>
					<dim>32</dim>
					<dim>32</dim>
				</port>
				<port id="1" precision="FP32" />
				<port id="2" precision="FP32" />
				<port id="3" precision="FP32" />
				<port id="4" precision="FP32" />
			</input>
			<output>
				<port id="5" precision="FP32">
					<dim>-1</dim>
					<dim>192</dim>
					<dim>32</dim>
					<dim>32</dim>
				</port>
			</output>
		</layer>
		<layer id="209" name="onnx::Conv_2335" type="Const" version="opset1">
			<data element_type="i8" shape="32, 192, 1, 1" offset="47992" size="6144" />
			<output>
				<port id="0" precision="I8">
					<dim>32</dim>
					<dim>192</dim>
					<dim>1</dim>
					<dim>1</dim>
				</port>
			</output>
		</layer>
		<layer id="210" name="Convert_513508" type="Convert" version="opset1">
			<data destination_type="f32" />
			<input>
				<port id="0" precision="I8">
					<dim>32</dim>
					<dim>192</dim>
					<dim>1</dim>
					<dim>1</dim>
				</port>
			</input>
			<output>
				<port id="1" precision="FP32">
					<dim>32</dim>
					<dim>192</dim>
					<dim>1</dim>
					<dim>1</dim>
				</port>
			</output>
		</layer>
		<layer id="211" name="Constant_513406" type="Const" version="opset1">
			<data element_type="f32" shape="32, 1, 1, 1" offset="54136" size="128" />
			<output>
				<port id="0" precision="FP32">
					<dim>32</dim>
					<dim>1</dim>
					<dim>1</dim>
					<dim>1</dim>
				</port>
			</output>
		</layer>
		<layer id="212" name="/backbone/stage3/unit2/conv3/conv/Conv/WithoutBiases/fq_weights_1" type="Multiply" version="opset1">
			<data auto_broadcast="numpy" />
			<input>
				<port id="0" precision="FP32">
					<dim>32</dim>
					<dim>192</dim>
					<dim>1</dim>
					<dim>1</dim>
				</port>
				<port id="1" precision="FP32">
					<dim>32</dim>
					<dim>1</dim>
					<dim>1</dim>
					<dim>1</dim>
				</port>
			</input>
			<output>
				<port id="2" precision="FP32">
					<dim>32</dim>
					<dim>192</dim>
					<dim>1</dim>
					<dim>1</dim>
				</port>
			</output>
		</layer>
		<layer id="213" name="/backbone/stage3/unit2/conv3/conv/Conv/WithoutBiases" type="Convolution" version="opset1">
			<data strides="1, 1" dilations="1, 1" pads_begin="0, 0" pads_end="0, 0" auto_pad="explicit" />
			<input>
				<port id="0" precision="FP32">
					<dim>-1</dim>
					<dim>192</dim>
					<dim>32</dim>
					<dim>32</dim>
				</port>
				<port id="1" precision="FP32">
					<dim>32</dim>
					<dim>192</dim>
					<dim>1</dim>
					<dim>1</dim>
				</port>
			</input>
			<output>
				<port id="2" precision="FP32">
					<dim>-1</dim>
					<dim>32</dim>
					<dim>32</dim>
					<dim>32</dim>
				</port>
			</output>
		</layer>
		<layer id="214" name="Reshape_687" type="Const" version="opset1">
			<data element_type="f32" shape="1, 32, 1, 1" offset="54264" size="128" />
			<output>
				<port id="0" precision="FP32">
					<dim>1</dim>
					<dim>32</dim>
					<dim>1</dim>
					<dim>1</dim>
				</port>
			</output>
		</layer>
		<layer id="215" name="/backbone/stage3/unit2/conv3/conv/Conv" type="Add" version="opset1">
			<data auto_broadcast="numpy" />
			<input>
				<port id="0" precision="FP32">
					<dim>-1</dim>
					<dim>32</dim>
					<dim>32</dim>
					<dim>32</dim>
				</port>
				<port id="1" precision="FP32">
					<dim>1</dim>
					<dim>32</dim>
					<dim>1</dim>
					<dim>1</dim>
				</port>
			</input>
			<output>
				<port id="2" precision="FP32" names="/backbone/stage3/unit2/conv3/conv/Conv_output_0">
					<dim>-1</dim>
					<dim>32</dim>
					<dim>32</dim>
					<dim>32</dim>
				</port>
			</output>
		</layer>
		<layer id="216" name="Constant_114193" type="Const" version="opset1">
			<data element_type="f32" shape="" offset="54392" size="4" />
			<output>
				<port id="0" precision="FP32" />
			</output>
		</layer>
		<layer id="217" name="Constant_114194" type="Const" version="opset1">
			<data element_type="f32" shape="" offset="54396" size="4" />
			<output>
				<port id="0" precision="FP32" />
			</output>
		</layer>
		<layer id="218" name="Constant_114195" type="Const" version="opset1">
			<data element_type="f32" shape="" offset="54392" size="4" />
			<output>
				<port id="0" precision="FP32" />
			</output>
		</layer>
		<layer id="219" name="Constant_114196" type="Const" version="opset1">
			<data element_type="f32" shape="" offset="54396" size="4" />
			<output>
				<port id="0" precision="FP32" />
			</output>
		</layer>
		<layer id="220" name="/backbone/stage3/unit2/conv3/conv/Conv/fq_output_0" type="FakeQuantize" version="opset1">
			<data levels="256" auto_broadcast="numpy" />
			<input>
				<port id="0" precision="FP32">
					<dim>-1</dim>
					<dim>32</dim>
					<dim>32</dim>
					<dim>32</dim>
				</port>
				<port id="1" precision="FP32" />
				<port id="2" precision="FP32" />
				<port id="3" precision="FP32" />
				<port id="4" precision="FP32" />
			</input>
			<output>
				<port id="5" precision="FP32">
					<dim>-1</dim>
					<dim>32</dim>
					<dim>32</dim>
					<dim>32</dim>
				</port>
			</output>
		</layer>
		<layer id="221" name="/backbone/stage3/unit2/Add" type="Add" version="opset1">
			<data auto_broadcast="numpy" />
			<input>
				<port id="0" precision="FP32">
					<dim>-1</dim>
					<dim>32</dim>
					<dim>32</dim>
					<dim>32</dim>
				</port>
				<port id="1" precision="FP32">
					<dim>-1</dim>
					<dim>32</dim>
					<dim>32</dim>
					<dim>32</dim>
				</port>
			</input>
			<output>
				<port id="2" precision="FP32" names="/backbone/stage3/unit2/Add_output_0">
					<dim>-1</dim>
					<dim>32</dim>
					<dim>32</dim>
					<dim>32</dim>
				</port>
			</output>
		</layer>
		<layer id="222" name="Constant_114198" type="Const" version="opset1">
			<data element_type="f32" shape="" offset="54400" size="4" />
			<output>
				<port id="0" precision="FP32" />
			</output>
		</layer>
		<layer id="223" name="Constant_114199" type="Const" version="opset1">
			<data element_type="f32" shape="" offset="54404" size="4" />
			<output>
				<port id="0" precision="FP32" />
			</output>
		</layer>
		<layer id="224" name="Constant_114200" type="Const" version="opset1">
			<data element_type="f32" shape="" offset="54400" size="4" />
			<output>
				<port id="0" precision="FP32" />
			</output>
		</layer>
		<layer id="225" name="Constant_114201" type="Const" version="opset1">
			<data element_type="f32" shape="" offset="54404" size="4" />
			<output>
				<port id="0" precision="FP32" />
			</output>
		</layer>
		<layer id="226" name="/backbone/stage3/unit2/Add/fq_output_0" type="FakeQuantize" version="opset1">
			<data levels="256" auto_broadcast="numpy" />
			<input>
				<port id="0" precision="FP32">
					<dim>-1</dim>
					<dim>32</dim>
					<dim>32</dim>
					<dim>32</dim>
				</port>
				<port id="1" precision="FP32" />
				<port id="2" precision="FP32" />
				<port id="3" precision="FP32" />
				<port id="4" precision="FP32" />
			</input>
			<output>
				<port id="5" precision="FP32">
					<dim>-1</dim>
					<dim>32</dim>
					<dim>32</dim>
					<dim>32</dim>
				</port>
			</output>
		</layer>
		<layer id="227" name="onnx::Conv_2338" type="Const" version="opset1">
			<data element_type="i8" shape="192, 32, 1, 1" offset="54408" size="6144" />
			<output>
				<port id="0" precision="I8">
					<dim>192</dim>
					<dim>32</dim>
					<dim>1</dim>
					<dim>1</dim>
				</port>
			</output>
		</layer>
		<layer id="228" name="Convert_513662" type="Convert" version="opset1">
			<data destination_type="f32" />
			<input>
				<port id="0" precision="I8">
					<dim>192</dim>
					<dim>32</dim>
					<dim>1</dim>
					<dim>1</dim>
				</port>
			</input>
			<output>
				<port id="1" precision="FP32">
					<dim>192</dim>
					<dim>32</dim>
					<dim>1</dim>
					<dim>1</dim>
				</port>
			</output>
		</layer>
		<layer id="229" name="Constant_513560" type="Const" version="opset1">
			<data element_type="f32" shape="192, 1, 1, 1" offset="60552" size="768" />
			<output>
				<port id="0" precision="FP32">
					<dim>192</dim>
					<dim>1</dim>
					<dim>1</dim>
					<dim>1</dim>
				</port>
			</output>
		</layer>
		<layer id="230" name="/backbone/stage3/unit3/conv1/conv/Conv/WithoutBiases/fq_weights_1" type="Multiply" version="opset1">
			<data auto_broadcast="numpy" />
			<input>
				<port id="0" precision="FP32">
					<dim>192</dim>
					<dim>32</dim>
					<dim>1</dim>
					<dim>1</dim>
				</port>
				<port id="1" precision="FP32">
					<dim>192</dim>
					<dim>1</dim>
					<dim>1</dim>
					<dim>1</dim>
				</port>
			</input>
			<output>
				<port id="2" precision="FP32">
					<dim>192</dim>
					<dim>32</dim>
					<dim>1</dim>
					<dim>1</dim>
				</port>
			</output>
		</layer>
		<layer id="231" name="/backbone/stage3/unit3/conv1/conv/Conv/WithoutBiases" type="Convolution" version="opset1">
			<data strides="1, 1" dilations="1, 1" pads_begin="0, 0" pads_end="0, 0" auto_pad="explicit" />
			<input>
				<port id="0" precision="FP32">
					<dim>-1</dim>
					<dim>32</dim>
					<dim>32</dim>
					<dim>32</dim>
				</port>
				<port id="1" precision="FP32">
					<dim>192</dim>
					<dim>32</dim>
					<dim>1</dim>
					<dim>1</dim>
				</port>
			</input>
			<output>
				<port id="2" precision="FP32">
					<dim>-1</dim>
					<dim>192</dim>
					<dim>32</dim>
					<dim>32</dim>
				</port>
			</output>
		</layer>
		<layer id="232" name="Reshape_703" type="Const" version="opset1">
			<data element_type="f32" shape="1, 192, 1, 1" offset="61320" size="768" />
			<output>
				<port id="0" precision="FP32">
					<dim>1</dim>
					<dim>192</dim>
					<dim>1</dim>
					<dim>1</dim>
				</port>
			</output>
		</layer>
		<layer id="233" name="/backbone/stage3/unit3/conv1/conv/Conv" type="Add" version="opset1">
			<data auto_broadcast="numpy" />
			<input>
				<port id="0" precision="FP32">
					<dim>-1</dim>
					<dim>192</dim>
					<dim>32</dim>
					<dim>32</dim>
				</port>
				<port id="1" precision="FP32">
					<dim>1</dim>
					<dim>192</dim>
					<dim>1</dim>
					<dim>1</dim>
				</port>
			</input>
			<output>
				<port id="2" precision="FP32" names="/backbone/stage3/unit3/conv1/conv/Conv_output_0">
					<dim>-1</dim>
					<dim>192</dim>
					<dim>32</dim>
					<dim>32</dim>
				</port>
			</output>
		</layer>
		<layer id="234" name="/backbone/stage3/unit3/conv1/activ/Clip" type="Clamp" version="opset1">
			<data min="0" max="6" />
			<input>
				<port id="0" precision="FP32">
					<dim>-1</dim>
					<dim>192</dim>
					<dim>32</dim>
					<dim>32</dim>
				</port>
			</input>
			<output>
				<port id="1" precision="FP32" names="/backbone/stage3/unit3/conv1/activ/Clip_output_0">
					<dim>-1</dim>
					<dim>192</dim>
					<dim>32</dim>
					<dim>32</dim>
				</port>
			</output>
		</layer>
		<layer id="235" name="Constant_114208" type="Const" version="opset1">
			<data element_type="f32" shape="1, 192, 1, 1" offset="43188" size="768" />
			<output>
				<port id="0" precision="FP32">
					<dim>1</dim>
					<dim>192</dim>
					<dim>1</dim>
					<dim>1</dim>
				</port>
			</output>
		</layer>
		<layer id="236" name="Constant_114209" type="Const" version="opset1">
			<data element_type="f32" shape="1, 192, 1, 1" offset="62088" size="768" />
			<output>
				<port id="0" precision="FP32">
					<dim>1</dim>
					<dim>192</dim>
					<dim>1</dim>
					<dim>1</dim>
				</port>
			</output>
		</layer>
		<layer id="237" name="Constant_114210" type="Const" version="opset1">
			<data element_type="f32" shape="1, 192, 1, 1" offset="43188" size="768" />
			<output>
				<port id="0" precision="FP32">
					<dim>1</dim>
					<dim>192</dim>
					<dim>1</dim>
					<dim>1</dim>
				</port>
			</output>
		</layer>
		<layer id="238" name="Constant_114211" type="Const" version="opset1">
			<data element_type="f32" shape="1, 192, 1, 1" offset="62088" size="768" />
			<output>
				<port id="0" precision="FP32">
					<dim>1</dim>
					<dim>192</dim>
					<dim>1</dim>
					<dim>1</dim>
				</port>
			</output>
		</layer>
		<layer id="239" name="/backbone/stage3/unit3/conv1/activ/Clip/fq_output_0" type="FakeQuantize" version="opset1">
			<data levels="256" auto_broadcast="numpy" />
			<input>
				<port id="0" precision="FP32">
					<dim>-1</dim>
					<dim>192</dim>
					<dim>32</dim>
					<dim>32</dim>
				</port>
				<port id="1" precision="FP32">
					<dim>1</dim>
					<dim>192</dim>
					<dim>1</dim>
					<dim>1</dim>
				</port>
				<port id="2" precision="FP32">
					<dim>1</dim>
					<dim>192</dim>
					<dim>1</dim>
					<dim>1</dim>
				</port>
				<port id="3" precision="FP32">
					<dim>1</dim>
					<dim>192</dim>
					<dim>1</dim>
					<dim>1</dim>
				</port>
				<port id="4" precision="FP32">
					<dim>1</dim>
					<dim>192</dim>
					<dim>1</dim>
					<dim>1</dim>
				</port>
			</input>
			<output>
				<port id="5" precision="FP32">
					<dim>-1</dim>
					<dim>192</dim>
					<dim>32</dim>
					<dim>32</dim>
				</port>
			</output>
		</layer>
		<layer id="240" name="Reshape_718" type="Const" version="opset1">
			<data element_type="i8" shape="192, 1, 1, 3, 3" offset="62856" size="1728" />
			<output>
				<port id="0" precision="I8">
					<dim>192</dim>
					<dim>1</dim>
					<dim>1</dim>
					<dim>3</dim>
					<dim>3</dim>
				</port>
			</output>
		</layer>
		<layer id="241" name="Convert_513816" type="Convert" version="opset1">
			<data destination_type="f32" />
			<input>
				<port id="0" precision="I8">
					<dim>192</dim>
					<dim>1</dim>
					<dim>1</dim>
					<dim>3</dim>
					<dim>3</dim>
				</port>
			</input>
			<output>
				<port id="1" precision="FP32">
					<dim>192</dim>
					<dim>1</dim>
					<dim>1</dim>
					<dim>3</dim>
					<dim>3</dim>
				</port>
			</output>
		</layer>
		<layer id="242" name="Constant_513714" type="Const" version="opset1">
			<data element_type="f32" shape="192, 1, 1, 1, 1" offset="64584" size="768" />
			<output>
				<port id="0" precision="FP32">
					<dim>192</dim>
					<dim>1</dim>
					<dim>1</dim>
					<dim>1</dim>
					<dim>1</dim>
				</port>
			</output>
		</layer>
		<layer id="243" name="/backbone/stage3/unit3/conv2/conv/Conv/WithoutBiases/fq_weights_1" type="Multiply" version="opset1">
			<data auto_broadcast="numpy" />
			<input>
				<port id="0" precision="FP32">
					<dim>192</dim>
					<dim>1</dim>
					<dim>1</dim>
					<dim>3</dim>
					<dim>3</dim>
				</port>
				<port id="1" precision="FP32">
					<dim>192</dim>
					<dim>1</dim>
					<dim>1</dim>
					<dim>1</dim>
					<dim>1</dim>
				</port>
			</input>
			<output>
				<port id="2" precision="FP32">
					<dim>192</dim>
					<dim>1</dim>
					<dim>1</dim>
					<dim>3</dim>
					<dim>3</dim>
				</port>
			</output>
		</layer>
		<layer id="244" name="/backbone/stage3/unit3/conv2/conv/Conv/WithoutBiases" type="GroupConvolution" version="opset1">
			<data strides="1, 1" pads_begin="1, 1" pads_end="1, 1" dilations="1, 1" auto_pad="explicit" />
			<input>
				<port id="0" precision="FP32">
					<dim>-1</dim>
					<dim>192</dim>
					<dim>32</dim>
					<dim>32</dim>
				</port>
				<port id="1" precision="FP32">
					<dim>192</dim>
					<dim>1</dim>
					<dim>1</dim>
					<dim>3</dim>
					<dim>3</dim>
				</port>
			</input>
			<output>
				<port id="2" precision="FP32">
					<dim>-1</dim>
					<dim>192</dim>
					<dim>32</dim>
					<dim>32</dim>
				</port>
			</output>
		</layer>
		<layer id="245" name="Reshape_770" type="Const" version="opset1">
			<data element_type="f32" shape="1, 192, 1, 1" offset="65352" size="768" />
			<output>
				<port id="0" precision="FP32">
					<dim>1</dim>
					<dim>192</dim>
					<dim>1</dim>
					<dim>1</dim>
				</port>
			</output>
		</layer>
		<layer id="246" name="/backbone/stage3/unit3/conv2/conv/Conv" type="Add" version="opset1">
			<data auto_broadcast="numpy" />
			<input>
				<port id="0" precision="FP32">
					<dim>-1</dim>
					<dim>192</dim>
					<dim>32</dim>
					<dim>32</dim>
				</port>
				<port id="1" precision="FP32">
					<dim>1</dim>
					<dim>192</dim>
					<dim>1</dim>
					<dim>1</dim>
				</port>
			</input>
			<output>
				<port id="2" precision="FP32" names="/backbone/stage3/unit3/conv2/conv/Conv_output_0">
					<dim>-1</dim>
					<dim>192</dim>
					<dim>32</dim>
					<dim>32</dim>
				</port>
			</output>
		</layer>
		<layer id="247" name="/backbone/stage3/unit3/conv2/activ/Clip" type="Clamp" version="opset1">
			<data min="0" max="6" />
			<input>
				<port id="0" precision="FP32">
					<dim>-1</dim>
					<dim>192</dim>
					<dim>32</dim>
					<dim>32</dim>
				</port>
			</input>
			<output>
				<port id="1" precision="FP32" names="/backbone/stage3/unit3/conv2/activ/Clip_output_0">
					<dim>-1</dim>
					<dim>192</dim>
					<dim>32</dim>
					<dim>32</dim>
				</port>
			</output>
		</layer>
		<layer id="248" name="Constant_114218" type="Const" version="opset1">
			<data element_type="f32" shape="" offset="48" size="4" />
			<output>
				<port id="0" precision="FP32" />
			</output>
		</layer>
		<layer id="249" name="Constant_114219" type="Const" version="opset1">
			<data element_type="f32" shape="" offset="66120" size="4" />
			<output>
				<port id="0" precision="FP32" />
			</output>
		</layer>
		<layer id="250" name="Constant_114220" type="Const" version="opset1">
			<data element_type="f32" shape="" offset="48" size="4" />
			<output>
				<port id="0" precision="FP32" />
			</output>
		</layer>
		<layer id="251" name="Constant_114221" type="Const" version="opset1">
			<data element_type="f32" shape="" offset="66120" size="4" />
			<output>
				<port id="0" precision="FP32" />
			</output>
		</layer>
		<layer id="252" name="/backbone/stage3/unit3/conv2/activ/Clip/fq_output_0" type="FakeQuantize" version="opset1">
			<data levels="256" auto_broadcast="numpy" />
			<input>
				<port id="0" precision="FP32">
					<dim>-1</dim>
					<dim>192</dim>
					<dim>32</dim>
					<dim>32</dim>
				</port>
				<port id="1" precision="FP32" />
				<port id="2" precision="FP32" />
				<port id="3" precision="FP32" />
				<port id="4" precision="FP32" />
			</input>
			<output>
				<port id="5" precision="FP32">
					<dim>-1</dim>
					<dim>192</dim>
					<dim>32</dim>
					<dim>32</dim>
				</port>
			</output>
		</layer>
		<layer id="253" name="onnx::Conv_2344" type="Const" version="opset1">
			<data element_type="i8" shape="32, 192, 1, 1" offset="66124" size="6144" />
			<output>
				<port id="0" precision="I8">
					<dim>32</dim>
					<dim>192</dim>
					<dim>1</dim>
					<dim>1</dim>
				</port>
			</output>
		</layer>
		<layer id="254" name="Convert_513970" type="Convert" version="opset1">
			<data destination_type="f32" />
			<input>
				<port id="0" precision="I8">
					<dim>32</dim>
					<dim>192</dim>
					<dim>1</dim>
					<dim>1</dim>
				</port>
			</input>
			<output>
				<port id="1" precision="FP32">
					<dim>32</dim>
					<dim>192</dim>
					<dim>1</dim>
					<dim>1</dim>
				</port>
			</output>
		</layer>
		<layer id="255" name="Constant_513868" type="Const" version="opset1">
			<data element_type="f32" shape="32, 1, 1, 1" offset="72268" size="128" />
			<output>
				<port id="0" precision="FP32">
					<dim>32</dim>
					<dim>1</dim>
					<dim>1</dim>
					<dim>1</dim>
				</port>
			</output>
		</layer>
		<layer id="256" name="/backbone/stage3/unit3/conv3/conv/Conv/WithoutBiases/fq_weights_1" type="Multiply" version="opset1">
			<data auto_broadcast="numpy" />
			<input>
				<port id="0" precision="FP32">
					<dim>32</dim>
					<dim>192</dim>
					<dim>1</dim>
					<dim>1</dim>
				</port>
				<port id="1" precision="FP32">
					<dim>32</dim>
					<dim>1</dim>
					<dim>1</dim>
					<dim>1</dim>
				</port>
			</input>
			<output>
				<port id="2" precision="FP32">
					<dim>32</dim>
					<dim>192</dim>
					<dim>1</dim>
					<dim>1</dim>
				</port>
			</output>
		</layer>
		<layer id="257" name="/backbone/stage3/unit3/conv3/conv/Conv/WithoutBiases" type="Convolution" version="opset1">
			<data strides="1, 1" dilations="1, 1" pads_begin="0, 0" pads_end="0, 0" auto_pad="explicit" />
			<input>
				<port id="0" precision="FP32">
					<dim>-1</dim>
					<dim>192</dim>
					<dim>32</dim>
					<dim>32</dim>
				</port>
				<port id="1" precision="FP32">
					<dim>32</dim>
					<dim>192</dim>
					<dim>1</dim>
					<dim>1</dim>
				</port>
			</input>
			<output>
				<port id="2" precision="FP32">
					<dim>-1</dim>
					<dim>32</dim>
					<dim>32</dim>
					<dim>32</dim>
				</port>
			</output>
		</layer>
		<layer id="258" name="Reshape_789" type="Const" version="opset1">
			<data element_type="f32" shape="1, 32, 1, 1" offset="72396" size="128" />
			<output>
				<port id="0" precision="FP32">
					<dim>1</dim>
					<dim>32</dim>
					<dim>1</dim>
					<dim>1</dim>
				</port>
			</output>
		</layer>
		<layer id="259" name="/backbone/stage3/unit3/conv3/conv/Conv" type="Add" version="opset1">
			<data auto_broadcast="numpy" />
			<input>
				<port id="0" precision="FP32">
					<dim>-1</dim>
					<dim>32</dim>
					<dim>32</dim>
					<dim>32</dim>
				</port>
				<port id="1" precision="FP32">
					<dim>1</dim>
					<dim>32</dim>
					<dim>1</dim>
					<dim>1</dim>
				</port>
			</input>
			<output>
				<port id="2" precision="FP32" names="/backbone/stage3/unit3/conv3/conv/Conv_output_0">
					<dim>-1</dim>
					<dim>32</dim>
					<dim>32</dim>
					<dim>32</dim>
				</port>
			</output>
		</layer>
		<layer id="260" name="Constant_114228" type="Const" version="opset1">
			<data element_type="f32" shape="" offset="72524" size="4" />
			<output>
				<port id="0" precision="FP32" />
			</output>
		</layer>
		<layer id="261" name="Constant_114229" type="Const" version="opset1">
			<data element_type="f32" shape="" offset="72528" size="4" />
			<output>
				<port id="0" precision="FP32" />
			</output>
		</layer>
		<layer id="262" name="Constant_114230" type="Const" version="opset1">
			<data element_type="f32" shape="" offset="72524" size="4" />
			<output>
				<port id="0" precision="FP32" />
			</output>
		</layer>
		<layer id="263" name="Constant_114231" type="Const" version="opset1">
			<data element_type="f32" shape="" offset="72528" size="4" />
			<output>
				<port id="0" precision="FP32" />
			</output>
		</layer>
		<layer id="264" name="/backbone/stage3/unit3/conv3/conv/Conv/fq_output_0" type="FakeQuantize" version="opset1">
			<data levels="256" auto_broadcast="numpy" />
			<input>
				<port id="0" precision="FP32">
					<dim>-1</dim>
					<dim>32</dim>
					<dim>32</dim>
					<dim>32</dim>
				</port>
				<port id="1" precision="FP32" />
				<port id="2" precision="FP32" />
				<port id="3" precision="FP32" />
				<port id="4" precision="FP32" />
			</input>
			<output>
				<port id="5" precision="FP32">
					<dim>-1</dim>
					<dim>32</dim>
					<dim>32</dim>
					<dim>32</dim>
				</port>
			</output>
		</layer>
		<layer id="265" name="/backbone/stage3/unit3/Add" type="Add" version="opset1">
			<data auto_broadcast="numpy" />
			<input>
				<port id="0" precision="FP32">
					<dim>-1</dim>
					<dim>32</dim>
					<dim>32</dim>
					<dim>32</dim>
				</port>
				<port id="1" precision="FP32">
					<dim>-1</dim>
					<dim>32</dim>
					<dim>32</dim>
					<dim>32</dim>
				</port>
			</input>
			<output>
				<port id="2" precision="FP32" names="/backbone/stage3/unit3/Add_output_0">
					<dim>-1</dim>
					<dim>32</dim>
					<dim>32</dim>
					<dim>32</dim>
				</port>
			</output>
		</layer>
		<layer id="266" name="Constant_114233" type="Const" version="opset1">
			<data element_type="f32" shape="" offset="72532" size="4" />
			<output>
				<port id="0" precision="FP32" />
			</output>
		</layer>
		<layer id="267" name="Constant_114234" type="Const" version="opset1">
			<data element_type="f32" shape="" offset="72536" size="4" />
			<output>
				<port id="0" precision="FP32" />
			</output>
		</layer>
		<layer id="268" name="Constant_114235" type="Const" version="opset1">
			<data element_type="f32" shape="" offset="72532" size="4" />
			<output>
				<port id="0" precision="FP32" />
			</output>
		</layer>
		<layer id="269" name="Constant_114236" type="Const" version="opset1">
			<data element_type="f32" shape="" offset="72536" size="4" />
			<output>
				<port id="0" precision="FP32" />
			</output>
		</layer>
		<layer id="270" name="/backbone/stage3/unit3/Add/fq_output_0" type="FakeQuantize" version="opset1">
			<data levels="256" auto_broadcast="numpy" />
			<input>
				<port id="0" precision="FP32">
					<dim>-1</dim>
					<dim>32</dim>
					<dim>32</dim>
					<dim>32</dim>
				</port>
				<port id="1" precision="FP32" />
				<port id="2" precision="FP32" />
				<port id="3" precision="FP32" />
				<port id="4" precision="FP32" />
			</input>
			<output>
				<port id="5" precision="FP32">
					<dim>-1</dim>
					<dim>32</dim>
					<dim>32</dim>
					<dim>32</dim>
				</port>
			</output>
		</layer>
		<layer id="271" name="neck.lateral_convs.0.conv.weight" type="Const" version="opset1">
			<data element_type="i8" shape="64, 32, 1, 1" offset="72540" size="2048" />
			<output>
				<port id="0" precision="I8">
					<dim>64</dim>
					<dim>32</dim>
					<dim>1</dim>
					<dim>1</dim>
				</port>
			</output>
		</layer>
		<layer id="272" name="Convert_514124" type="Convert" version="opset1">
			<data destination_type="f32" />
			<input>
				<port id="0" precision="I8">
					<dim>64</dim>
					<dim>32</dim>
					<dim>1</dim>
					<dim>1</dim>
				</port>
			</input>
			<output>
				<port id="1" precision="FP32">
					<dim>64</dim>
					<dim>32</dim>
					<dim>1</dim>
					<dim>1</dim>
				</port>
			</output>
		</layer>
		<layer id="273" name="Constant_514022" type="Const" version="opset1">
			<data element_type="f32" shape="64, 1, 1, 1" offset="74588" size="256" />
			<output>
				<port id="0" precision="FP32">
					<dim>64</dim>
					<dim>1</dim>
					<dim>1</dim>
					<dim>1</dim>
				</port>
			</output>
		</layer>
		<layer id="274" name="/neck/lateral_convs.0/conv/Conv/WithoutBiases/fq_weights_1" type="Multiply" version="opset1">
			<data auto_broadcast="numpy" />
			<input>
				<port id="0" precision="FP32">
					<dim>64</dim>
					<dim>32</dim>
					<dim>1</dim>
					<dim>1</dim>
				</port>
				<port id="1" precision="FP32">
					<dim>64</dim>
					<dim>1</dim>
					<dim>1</dim>
					<dim>1</dim>
				</port>
			</input>
			<output>
				<port id="2" precision="FP32">
					<dim>64</dim>
					<dim>32</dim>
					<dim>1</dim>
					<dim>1</dim>
				</port>
			</output>
		</layer>
		<layer id="275" name="/neck/lateral_convs.0/conv/Conv/WithoutBiases" type="Convolution" version="opset1">
			<data strides="1, 1" dilations="1, 1" pads_begin="0, 0" pads_end="0, 0" auto_pad="explicit" />
			<input>
				<port id="0" precision="FP32">
					<dim>-1</dim>
					<dim>32</dim>
					<dim>32</dim>
					<dim>32</dim>
				</port>
				<port id="1" precision="FP32">
					<dim>64</dim>
					<dim>32</dim>
					<dim>1</dim>
					<dim>1</dim>
				</port>
			</input>
			<output>
				<port id="2" precision="FP32">
					<dim>-1</dim>
					<dim>64</dim>
					<dim>32</dim>
					<dim>32</dim>
				</port>
			</output>
		</layer>
		<layer id="276" name="Reshape_1923" type="Const" version="opset1">
			<data element_type="f32" shape="1, 64, 1, 1" offset="74844" size="256" />
			<output>
				<port id="0" precision="FP32">
					<dim>1</dim>
					<dim>64</dim>
					<dim>1</dim>
					<dim>1</dim>
				</port>
			</output>
		</layer>
		<layer id="277" name="/neck/lateral_convs.0/conv/Conv" type="Add" version="opset1">
			<data auto_broadcast="numpy" />
			<input>
				<port id="0" precision="FP32">
					<dim>-1</dim>
					<dim>64</dim>
					<dim>32</dim>
					<dim>32</dim>
				</port>
				<port id="1" precision="FP32">
					<dim>1</dim>
					<dim>64</dim>
					<dim>1</dim>
					<dim>1</dim>
				</port>
			</input>
			<output>
				<port id="2" precision="FP32" names="/neck/lateral_convs.0/conv/Conv_output_0">
					<dim>-1</dim>
					<dim>64</dim>
					<dim>32</dim>
					<dim>32</dim>
				</port>
			</output>
		</layer>
		<layer id="278" name="Constant_114243" type="Const" version="opset1">
			<data element_type="f32" shape="" offset="75100" size="4" />
			<output>
				<port id="0" precision="FP32" />
			</output>
		</layer>
		<layer id="279" name="Constant_114244" type="Const" version="opset1">
			<data element_type="f32" shape="" offset="75104" size="4" />
			<output>
				<port id="0" precision="FP32" />
			</output>
		</layer>
		<layer id="280" name="Constant_114245" type="Const" version="opset1">
			<data element_type="f32" shape="" offset="75100" size="4" />
			<output>
				<port id="0" precision="FP32" />
			</output>
		</layer>
		<layer id="281" name="Constant_114246" type="Const" version="opset1">
			<data element_type="f32" shape="" offset="75104" size="4" />
			<output>
				<port id="0" precision="FP32" />
			</output>
		</layer>
		<layer id="282" name="/neck/lateral_convs.0/conv/Conv/fq_output_0" type="FakeQuantize" version="opset1">
			<data levels="256" auto_broadcast="numpy" />
			<input>
				<port id="0" precision="FP32">
					<dim>-1</dim>
					<dim>64</dim>
					<dim>32</dim>
					<dim>32</dim>
				</port>
				<port id="1" precision="FP32" />
				<port id="2" precision="FP32" />
				<port id="3" precision="FP32" />
				<port id="4" precision="FP32" />
			</input>
			<output>
				<port id="5" precision="FP32">
					<dim>-1</dim>
					<dim>64</dim>
					<dim>32</dim>
					<dim>32</dim>
				</port>
			</output>
		</layer>
		<layer id="283" name="onnx::Conv_2347" type="Const" version="opset1">
			<data element_type="i8" shape="192, 32, 1, 1" offset="75108" size="6144" />
			<output>
				<port id="0" precision="I8">
					<dim>192</dim>
					<dim>32</dim>
					<dim>1</dim>
					<dim>1</dim>
				</port>
			</output>
		</layer>
		<layer id="284" name="Convert_514278" type="Convert" version="opset1">
			<data destination_type="f32" />
			<input>
				<port id="0" precision="I8">
					<dim>192</dim>
					<dim>32</dim>
					<dim>1</dim>
					<dim>1</dim>
				</port>
			</input>
			<output>
				<port id="1" precision="FP32">
					<dim>192</dim>
					<dim>32</dim>
					<dim>1</dim>
					<dim>1</dim>
				</port>
			</output>
		</layer>
		<layer id="285" name="Constant_514176" type="Const" version="opset1">
			<data element_type="f32" shape="192, 1, 1, 1" offset="81252" size="768" />
			<output>
				<port id="0" precision="FP32">
					<dim>192</dim>
					<dim>1</dim>
					<dim>1</dim>
					<dim>1</dim>
				</port>
			</output>
		</layer>
		<layer id="286" name="/backbone/stage4/unit1/conv1/conv/Conv/WithoutBiases/fq_weights_1" type="Multiply" version="opset1">
			<data auto_broadcast="numpy" />
			<input>
				<port id="0" precision="FP32">
					<dim>192</dim>
					<dim>32</dim>
					<dim>1</dim>
					<dim>1</dim>
				</port>
				<port id="1" precision="FP32">
					<dim>192</dim>
					<dim>1</dim>
					<dim>1</dim>
					<dim>1</dim>
				</port>
			</input>
			<output>
				<port id="2" precision="FP32">
					<dim>192</dim>
					<dim>32</dim>
					<dim>1</dim>
					<dim>1</dim>
				</port>
			</output>
		</layer>
		<layer id="287" name="/backbone/stage4/unit1/conv1/conv/Conv/WithoutBiases" type="Convolution" version="opset1">
			<data strides="1, 1" dilations="1, 1" pads_begin="0, 0" pads_end="0, 0" auto_pad="explicit" />
			<input>
				<port id="0" precision="FP32">
					<dim>-1</dim>
					<dim>32</dim>
					<dim>32</dim>
					<dim>32</dim>
				</port>
				<port id="1" precision="FP32">
					<dim>192</dim>
					<dim>32</dim>
					<dim>1</dim>
					<dim>1</dim>
				</port>
			</input>
			<output>
				<port id="2" precision="FP32">
					<dim>-1</dim>
					<dim>192</dim>
					<dim>32</dim>
					<dim>32</dim>
				</port>
			</output>
		</layer>
		<layer id="288" name="Reshape_805" type="Const" version="opset1">
			<data element_type="f32" shape="1, 192, 1, 1" offset="82020" size="768" />
			<output>
				<port id="0" precision="FP32">
					<dim>1</dim>
					<dim>192</dim>
					<dim>1</dim>
					<dim>1</dim>
				</port>
			</output>
		</layer>
		<layer id="289" name="/backbone/stage4/unit1/conv1/conv/Conv" type="Add" version="opset1">
			<data auto_broadcast="numpy" />
			<input>
				<port id="0" precision="FP32">
					<dim>-1</dim>
					<dim>192</dim>
					<dim>32</dim>
					<dim>32</dim>
				</port>
				<port id="1" precision="FP32">
					<dim>1</dim>
					<dim>192</dim>
					<dim>1</dim>
					<dim>1</dim>
				</port>
			</input>
			<output>
				<port id="2" precision="FP32" names="/backbone/stage4/unit1/conv1/conv/Conv_output_0">
					<dim>-1</dim>
					<dim>192</dim>
					<dim>32</dim>
					<dim>32</dim>
				</port>
			</output>
		</layer>
		<layer id="290" name="/backbone/stage4/unit1/conv1/activ/Clip" type="Clamp" version="opset1">
			<data min="0" max="6" />
			<input>
				<port id="0" precision="FP32">
					<dim>-1</dim>
					<dim>192</dim>
					<dim>32</dim>
					<dim>32</dim>
				</port>
			</input>
			<output>
				<port id="1" precision="FP32" names="/backbone/stage4/unit1/conv1/activ/Clip_output_0">
					<dim>-1</dim>
					<dim>192</dim>
					<dim>32</dim>
					<dim>32</dim>
				</port>
			</output>
		</layer>
		<layer id="291" name="Constant_114253" type="Const" version="opset1">
			<data element_type="f32" shape="1, 192, 1, 1" offset="43188" size="768" />
			<output>
				<port id="0" precision="FP32">
					<dim>1</dim>
					<dim>192</dim>
					<dim>1</dim>
					<dim>1</dim>
				</port>
			</output>
		</layer>
		<layer id="292" name="Constant_114254" type="Const" version="opset1">
			<data element_type="f32" shape="1, 192, 1, 1" offset="82788" size="768" />
			<output>
				<port id="0" precision="FP32">
					<dim>1</dim>
					<dim>192</dim>
					<dim>1</dim>
					<dim>1</dim>
				</port>
			</output>
		</layer>
		<layer id="293" name="Constant_114255" type="Const" version="opset1">
			<data element_type="f32" shape="1, 192, 1, 1" offset="43188" size="768" />
			<output>
				<port id="0" precision="FP32">
					<dim>1</dim>
					<dim>192</dim>
					<dim>1</dim>
					<dim>1</dim>
				</port>
			</output>
		</layer>
		<layer id="294" name="Constant_114256" type="Const" version="opset1">
			<data element_type="f32" shape="1, 192, 1, 1" offset="82788" size="768" />
			<output>
				<port id="0" precision="FP32">
					<dim>1</dim>
					<dim>192</dim>
					<dim>1</dim>
					<dim>1</dim>
				</port>
			</output>
		</layer>
		<layer id="295" name="/backbone/stage4/unit1/conv1/activ/Clip/fq_output_0" type="FakeQuantize" version="opset1">
			<data levels="256" auto_broadcast="numpy" />
			<input>
				<port id="0" precision="FP32">
					<dim>-1</dim>
					<dim>192</dim>
					<dim>32</dim>
					<dim>32</dim>
				</port>
				<port id="1" precision="FP32">
					<dim>1</dim>
					<dim>192</dim>
					<dim>1</dim>
					<dim>1</dim>
				</port>
				<port id="2" precision="FP32">
					<dim>1</dim>
					<dim>192</dim>
					<dim>1</dim>
					<dim>1</dim>
				</port>
				<port id="3" precision="FP32">
					<dim>1</dim>
					<dim>192</dim>
					<dim>1</dim>
					<dim>1</dim>
				</port>
				<port id="4" precision="FP32">
					<dim>1</dim>
					<dim>192</dim>
					<dim>1</dim>
					<dim>1</dim>
				</port>
			</input>
			<output>
				<port id="5" precision="FP32">
					<dim>-1</dim>
					<dim>192</dim>
					<dim>32</dim>
					<dim>32</dim>
				</port>
			</output>
		</layer>
		<layer id="296" name="Reshape_820" type="Const" version="opset1">
			<data element_type="i8" shape="192, 1, 1, 3, 3" offset="83556" size="1728" />
			<output>
				<port id="0" precision="I8">
					<dim>192</dim>
					<dim>1</dim>
					<dim>1</dim>
					<dim>3</dim>
					<dim>3</dim>
				</port>
			</output>
		</layer>
		<layer id="297" name="Convert_514432" type="Convert" version="opset1">
			<data destination_type="f32" />
			<input>
				<port id="0" precision="I8">
					<dim>192</dim>
					<dim>1</dim>
					<dim>1</dim>
					<dim>3</dim>
					<dim>3</dim>
				</port>
			</input>
			<output>
				<port id="1" precision="FP32">
					<dim>192</dim>
					<dim>1</dim>
					<dim>1</dim>
					<dim>3</dim>
					<dim>3</dim>
				</port>
			</output>
		</layer>
		<layer id="298" name="Constant_514330" type="Const" version="opset1">
			<data element_type="f32" shape="192, 1, 1, 1, 1" offset="85284" size="768" />
			<output>
				<port id="0" precision="FP32">
					<dim>192</dim>
					<dim>1</dim>
					<dim>1</dim>
					<dim>1</dim>
					<dim>1</dim>
				</port>
			</output>
		</layer>
		<layer id="299" name="/backbone/stage4/unit1/conv2/conv/Conv/WithoutBiases/fq_weights_1" type="Multiply" version="opset1">
			<data auto_broadcast="numpy" />
			<input>
				<port id="0" precision="FP32">
					<dim>192</dim>
					<dim>1</dim>
					<dim>1</dim>
					<dim>3</dim>
					<dim>3</dim>
				</port>
				<port id="1" precision="FP32">
					<dim>192</dim>
					<dim>1</dim>
					<dim>1</dim>
					<dim>1</dim>
					<dim>1</dim>
				</port>
			</input>
			<output>
				<port id="2" precision="FP32">
					<dim>192</dim>
					<dim>1</dim>
					<dim>1</dim>
					<dim>3</dim>
					<dim>3</dim>
				</port>
			</output>
		</layer>
		<layer id="300" name="/backbone/stage4/unit1/conv2/conv/Conv/WithoutBiases" type="GroupConvolution" version="opset1">
			<data strides="2, 2" pads_begin="1, 1" pads_end="1, 1" dilations="1, 1" auto_pad="explicit" />
			<input>
				<port id="0" precision="FP32">
					<dim>-1</dim>
					<dim>192</dim>
					<dim>32</dim>
					<dim>32</dim>
				</port>
				<port id="1" precision="FP32">
					<dim>192</dim>
					<dim>1</dim>
					<dim>1</dim>
					<dim>3</dim>
					<dim>3</dim>
				</port>
			</input>
			<output>
				<port id="2" precision="FP32">
					<dim>-1</dim>
					<dim>192</dim>
					<dim>16</dim>
					<dim>16</dim>
				</port>
			</output>
		</layer>
		<layer id="301" name="Reshape_872" type="Const" version="opset1">
			<data element_type="f32" shape="1, 192, 1, 1" offset="86052" size="768" />
			<output>
				<port id="0" precision="FP32">
					<dim>1</dim>
					<dim>192</dim>
					<dim>1</dim>
					<dim>1</dim>
				</port>
			</output>
		</layer>
		<layer id="302" name="/backbone/stage4/unit1/conv2/conv/Conv" type="Add" version="opset1">
			<data auto_broadcast="numpy" />
			<input>
				<port id="0" precision="FP32">
					<dim>-1</dim>
					<dim>192</dim>
					<dim>16</dim>
					<dim>16</dim>
				</port>
				<port id="1" precision="FP32">
					<dim>1</dim>
					<dim>192</dim>
					<dim>1</dim>
					<dim>1</dim>
				</port>
			</input>
			<output>
				<port id="2" precision="FP32" names="/backbone/stage4/unit1/conv2/conv/Conv_output_0">
					<dim>-1</dim>
					<dim>192</dim>
					<dim>16</dim>
					<dim>16</dim>
				</port>
			</output>
		</layer>
		<layer id="303" name="/backbone/stage4/unit1/conv2/activ/Clip" type="Clamp" version="opset1">
			<data min="0" max="6" />
			<input>
				<port id="0" precision="FP32">
					<dim>-1</dim>
					<dim>192</dim>
					<dim>16</dim>
					<dim>16</dim>
				</port>
			</input>
			<output>
				<port id="1" precision="FP32" names="/backbone/stage4/unit1/conv2/activ/Clip_output_0">
					<dim>-1</dim>
					<dim>192</dim>
					<dim>16</dim>
					<dim>16</dim>
				</port>
			</output>
		</layer>
		<layer id="304" name="Constant_114263" type="Const" version="opset1">
			<data element_type="f32" shape="" offset="48" size="4" />
			<output>
				<port id="0" precision="FP32" />
			</output>
		</layer>
		<layer id="305" name="Constant_114264" type="Const" version="opset1">
			<data element_type="f32" shape="" offset="86820" size="4" />
			<output>
				<port id="0" precision="FP32" />
			</output>
		</layer>
		<layer id="306" name="Constant_114265" type="Const" version="opset1">
			<data element_type="f32" shape="" offset="48" size="4" />
			<output>
				<port id="0" precision="FP32" />
			</output>
		</layer>
		<layer id="307" name="Constant_114266" type="Const" version="opset1">
			<data element_type="f32" shape="" offset="86820" size="4" />
			<output>
				<port id="0" precision="FP32" />
			</output>
		</layer>
		<layer id="308" name="/backbone/stage4/unit1/conv2/activ/Clip/fq_output_0" type="FakeQuantize" version="opset1">
			<data levels="256" auto_broadcast="numpy" />
			<input>
				<port id="0" precision="FP32">
					<dim>-1</dim>
					<dim>192</dim>
					<dim>16</dim>
					<dim>16</dim>
				</port>
				<port id="1" precision="FP32" />
				<port id="2" precision="FP32" />
				<port id="3" precision="FP32" />
				<port id="4" precision="FP32" />
			</input>
			<output>
				<port id="5" precision="FP32">
					<dim>-1</dim>
					<dim>192</dim>
					<dim>16</dim>
					<dim>16</dim>
				</port>
			</output>
		</layer>
		<layer id="309" name="onnx::Conv_2353" type="Const" version="opset1">
			<data element_type="i8" shape="64, 192, 1, 1" offset="86824" size="12288" />
			<output>
				<port id="0" precision="I8">
					<dim>64</dim>
					<dim>192</dim>
					<dim>1</dim>
					<dim>1</dim>
				</port>
			</output>
		</layer>
		<layer id="310" name="Convert_514586" type="Convert" version="opset1">
			<data destination_type="f32" />
			<input>
				<port id="0" precision="I8">
					<dim>64</dim>
					<dim>192</dim>
					<dim>1</dim>
					<dim>1</dim>
				</port>
			</input>
			<output>
				<port id="1" precision="FP32">
					<dim>64</dim>
					<dim>192</dim>
					<dim>1</dim>
					<dim>1</dim>
				</port>
			</output>
		</layer>
		<layer id="311" name="Constant_514484" type="Const" version="opset1">
			<data element_type="f32" shape="64, 1, 1, 1" offset="99112" size="256" />
			<output>
				<port id="0" precision="FP32">
					<dim>64</dim>
					<dim>1</dim>
					<dim>1</dim>
					<dim>1</dim>
				</port>
			</output>
		</layer>
		<layer id="312" name="/backbone/stage4/unit1/conv3/conv/Conv/WithoutBiases/fq_weights_1" type="Multiply" version="opset1">
			<data auto_broadcast="numpy" />
			<input>
				<port id="0" precision="FP32">
					<dim>64</dim>
					<dim>192</dim>
					<dim>1</dim>
					<dim>1</dim>
				</port>
				<port id="1" precision="FP32">
					<dim>64</dim>
					<dim>1</dim>
					<dim>1</dim>
					<dim>1</dim>
				</port>
			</input>
			<output>
				<port id="2" precision="FP32">
					<dim>64</dim>
					<dim>192</dim>
					<dim>1</dim>
					<dim>1</dim>
				</port>
			</output>
		</layer>
		<layer id="313" name="/backbone/stage4/unit1/conv3/conv/Conv/WithoutBiases" type="Convolution" version="opset1">
			<data strides="1, 1" dilations="1, 1" pads_begin="0, 0" pads_end="0, 0" auto_pad="explicit" />
			<input>
				<port id="0" precision="FP32">
					<dim>-1</dim>
					<dim>192</dim>
					<dim>16</dim>
					<dim>16</dim>
				</port>
				<port id="1" precision="FP32">
					<dim>64</dim>
					<dim>192</dim>
					<dim>1</dim>
					<dim>1</dim>
				</port>
			</input>
			<output>
				<port id="2" precision="FP32">
					<dim>-1</dim>
					<dim>64</dim>
					<dim>16</dim>
					<dim>16</dim>
				</port>
			</output>
		</layer>
		<layer id="314" name="Reshape_891" type="Const" version="opset1">
			<data element_type="f32" shape="1, 64, 1, 1" offset="99368" size="256" />
			<output>
				<port id="0" precision="FP32">
					<dim>1</dim>
					<dim>64</dim>
					<dim>1</dim>
					<dim>1</dim>
				</port>
			</output>
		</layer>
		<layer id="315" name="/backbone/stage4/unit1/conv3/conv/Conv" type="Add" version="opset1">
			<data auto_broadcast="numpy" />
			<input>
				<port id="0" precision="FP32">
					<dim>-1</dim>
					<dim>64</dim>
					<dim>16</dim>
					<dim>16</dim>
				</port>
				<port id="1" precision="FP32">
					<dim>1</dim>
					<dim>64</dim>
					<dim>1</dim>
					<dim>1</dim>
				</port>
			</input>
			<output>
				<port id="2" precision="FP32" names="/backbone/stage4/unit1/conv3/conv/Conv_output_0">
					<dim>-1</dim>
					<dim>64</dim>
					<dim>16</dim>
					<dim>16</dim>
				</port>
			</output>
		</layer>
		<layer id="316" name="Constant_114273" type="Const" version="opset1">
			<data element_type="f32" shape="" offset="99624" size="4" />
			<output>
				<port id="0" precision="FP32" />
			</output>
		</layer>
		<layer id="317" name="Constant_114274" type="Const" version="opset1">
			<data element_type="f32" shape="" offset="99628" size="4" />
			<output>
				<port id="0" precision="FP32" />
			</output>
		</layer>
		<layer id="318" name="Constant_114275" type="Const" version="opset1">
			<data element_type="f32" shape="" offset="99624" size="4" />
			<output>
				<port id="0" precision="FP32" />
			</output>
		</layer>
		<layer id="319" name="Constant_114276" type="Const" version="opset1">
			<data element_type="f32" shape="" offset="99628" size="4" />
			<output>
				<port id="0" precision="FP32" />
			</output>
		</layer>
		<layer id="320" name="/backbone/stage4/unit1/conv3/conv/Conv/fq_output_0" type="FakeQuantize" version="opset1">
			<data levels="256" auto_broadcast="numpy" />
			<input>
				<port id="0" precision="FP32">
					<dim>-1</dim>
					<dim>64</dim>
					<dim>16</dim>
					<dim>16</dim>
				</port>
				<port id="1" precision="FP32" />
				<port id="2" precision="FP32" />
				<port id="3" precision="FP32" />
				<port id="4" precision="FP32" />
			</input>
			<output>
				<port id="5" precision="FP32">
					<dim>-1</dim>
					<dim>64</dim>
					<dim>16</dim>
					<dim>16</dim>
				</port>
			</output>
		</layer>
		<layer id="321" name="onnx::Conv_2356" type="Const" version="opset1">
			<data element_type="i8" shape="384, 64, 1, 1" offset="99632" size="24576" />
			<output>
				<port id="0" precision="I8">
					<dim>384</dim>
					<dim>64</dim>
					<dim>1</dim>
					<dim>1</dim>
				</port>
			</output>
		</layer>
		<layer id="322" name="Convert_514740" type="Convert" version="opset1">
			<data destination_type="f32" />
			<input>
				<port id="0" precision="I8">
					<dim>384</dim>
					<dim>64</dim>
					<dim>1</dim>
					<dim>1</dim>
				</port>
			</input>
			<output>
				<port id="1" precision="FP32">
					<dim>384</dim>
					<dim>64</dim>
					<dim>1</dim>
					<dim>1</dim>
				</port>
			</output>
		</layer>
		<layer id="323" name="Constant_514638" type="Const" version="opset1">
			<data element_type="f32" shape="384, 1, 1, 1" offset="124208" size="1536" />
			<output>
				<port id="0" precision="FP32">
					<dim>384</dim>
					<dim>1</dim>
					<dim>1</dim>
					<dim>1</dim>
				</port>
			</output>
		</layer>
		<layer id="324" name="/backbone/stage4/unit2/conv1/conv/Conv/WithoutBiases/fq_weights_1" type="Multiply" version="opset1">
			<data auto_broadcast="numpy" />
			<input>
				<port id="0" precision="FP32">
					<dim>384</dim>
					<dim>64</dim>
					<dim>1</dim>
					<dim>1</dim>
				</port>
				<port id="1" precision="FP32">
					<dim>384</dim>
					<dim>1</dim>
					<dim>1</dim>
					<dim>1</dim>
				</port>
			</input>
			<output>
				<port id="2" precision="FP32">
					<dim>384</dim>
					<dim>64</dim>
					<dim>1</dim>
					<dim>1</dim>
				</port>
			</output>
		</layer>
		<layer id="325" name="/backbone/stage4/unit2/conv1/conv/Conv/WithoutBiases" type="Convolution" version="opset1">
			<data strides="1, 1" dilations="1, 1" pads_begin="0, 0" pads_end="0, 0" auto_pad="explicit" />
			<input>
				<port id="0" precision="FP32">
					<dim>-1</dim>
					<dim>64</dim>
					<dim>16</dim>
					<dim>16</dim>
				</port>
				<port id="1" precision="FP32">
					<dim>384</dim>
					<dim>64</dim>
					<dim>1</dim>
					<dim>1</dim>
				</port>
			</input>
			<output>
				<port id="2" precision="FP32">
					<dim>-1</dim>
					<dim>384</dim>
					<dim>16</dim>
					<dim>16</dim>
				</port>
			</output>
		</layer>
		<layer id="326" name="Reshape_906" type="Const" version="opset1">
			<data element_type="f32" shape="1, 384, 1, 1" offset="125744" size="1536" />
			<output>
				<port id="0" precision="FP32">
					<dim>1</dim>
					<dim>384</dim>
					<dim>1</dim>
					<dim>1</dim>
				</port>
			</output>
		</layer>
		<layer id="327" name="/backbone/stage4/unit2/conv1/conv/Conv" type="Add" version="opset1">
			<data auto_broadcast="numpy" />
			<input>
				<port id="0" precision="FP32">
					<dim>-1</dim>
					<dim>384</dim>
					<dim>16</dim>
					<dim>16</dim>
				</port>
				<port id="1" precision="FP32">
					<dim>1</dim>
					<dim>384</dim>
					<dim>1</dim>
					<dim>1</dim>
				</port>
			</input>
			<output>
				<port id="2" precision="FP32" names="/backbone/stage4/unit2/conv1/conv/Conv_output_0">
					<dim>-1</dim>
					<dim>384</dim>
					<dim>16</dim>
					<dim>16</dim>
				</port>
			</output>
		</layer>
		<layer id="328" name="/backbone/stage4/unit2/conv1/activ/Clip" type="Clamp" version="opset1">
			<data min="0" max="6" />
			<input>
				<port id="0" precision="FP32">
					<dim>-1</dim>
					<dim>384</dim>
					<dim>16</dim>
					<dim>16</dim>
				</port>
			</input>
			<output>
				<port id="1" precision="FP32" names="/backbone/stage4/unit2/conv1/activ/Clip_output_0">
					<dim>-1</dim>
					<dim>384</dim>
					<dim>16</dim>
					<dim>16</dim>
				</port>
			</output>
		</layer>
		<layer id="329" name="Constant_114283" type="Const" version="opset1">
			<data element_type="f32" shape="1, 384, 1, 1" offset="127280" size="1536" />
			<output>
				<port id="0" precision="FP32">
					<dim>1</dim>
					<dim>384</dim>
					<dim>1</dim>
					<dim>1</dim>
				</port>
			</output>
		</layer>
		<layer id="330" name="Constant_114284" type="Const" version="opset1">
			<data element_type="f32" shape="1, 384, 1, 1" offset="128816" size="1536" />
			<output>
				<port id="0" precision="FP32">
					<dim>1</dim>
					<dim>384</dim>
					<dim>1</dim>
					<dim>1</dim>
				</port>
			</output>
		</layer>
		<layer id="331" name="Constant_114285" type="Const" version="opset1">
			<data element_type="f32" shape="1, 384, 1, 1" offset="127280" size="1536" />
			<output>
				<port id="0" precision="FP32">
					<dim>1</dim>
					<dim>384</dim>
					<dim>1</dim>
					<dim>1</dim>
				</port>
			</output>
		</layer>
		<layer id="332" name="Constant_114286" type="Const" version="opset1">
			<data element_type="f32" shape="1, 384, 1, 1" offset="128816" size="1536" />
			<output>
				<port id="0" precision="FP32">
					<dim>1</dim>
					<dim>384</dim>
					<dim>1</dim>
					<dim>1</dim>
				</port>
			</output>
		</layer>
		<layer id="333" name="/backbone/stage4/unit2/conv1/activ/Clip/fq_output_0" type="FakeQuantize" version="opset1">
			<data levels="256" auto_broadcast="numpy" />
			<input>
				<port id="0" precision="FP32">
					<dim>-1</dim>
					<dim>384</dim>
					<dim>16</dim>
					<dim>16</dim>
				</port>
				<port id="1" precision="FP32">
					<dim>1</dim>
					<dim>384</dim>
					<dim>1</dim>
					<dim>1</dim>
				</port>
				<port id="2" precision="FP32">
					<dim>1</dim>
					<dim>384</dim>
					<dim>1</dim>
					<dim>1</dim>
				</port>
				<port id="3" precision="FP32">
					<dim>1</dim>
					<dim>384</dim>
					<dim>1</dim>
					<dim>1</dim>
				</port>
				<port id="4" precision="FP32">
					<dim>1</dim>
					<dim>384</dim>
					<dim>1</dim>
					<dim>1</dim>
				</port>
			</input>
			<output>
				<port id="5" precision="FP32">
					<dim>-1</dim>
					<dim>384</dim>
					<dim>16</dim>
					<dim>16</dim>
				</port>
			</output>
		</layer>
		<layer id="334" name="Reshape_921" type="Const" version="opset1">
			<data element_type="i8" shape="384, 1, 1, 3, 3" offset="130352" size="3456" />
			<output>
				<port id="0" precision="I8">
					<dim>384</dim>
					<dim>1</dim>
					<dim>1</dim>
					<dim>3</dim>
					<dim>3</dim>
				</port>
			</output>
		</layer>
		<layer id="335" name="Convert_514894" type="Convert" version="opset1">
			<data destination_type="f32" />
			<input>
				<port id="0" precision="I8">
					<dim>384</dim>
					<dim>1</dim>
					<dim>1</dim>
					<dim>3</dim>
					<dim>3</dim>
				</port>
			</input>
			<output>
				<port id="1" precision="FP32">
					<dim>384</dim>
					<dim>1</dim>
					<dim>1</dim>
					<dim>3</dim>
					<dim>3</dim>
				</port>
			</output>
		</layer>
		<layer id="336" name="Constant_514792" type="Const" version="opset1">
			<data element_type="f32" shape="384, 1, 1, 1, 1" offset="133808" size="1536" />
			<output>
				<port id="0" precision="FP32">
					<dim>384</dim>
					<dim>1</dim>
					<dim>1</dim>
					<dim>1</dim>
					<dim>1</dim>
				</port>
			</output>
		</layer>
		<layer id="337" name="/backbone/stage4/unit2/conv2/conv/Conv/WithoutBiases/fq_weights_1" type="Multiply" version="opset1">
			<data auto_broadcast="numpy" />
			<input>
				<port id="0" precision="FP32">
					<dim>384</dim>
					<dim>1</dim>
					<dim>1</dim>
					<dim>3</dim>
					<dim>3</dim>
				</port>
				<port id="1" precision="FP32">
					<dim>384</dim>
					<dim>1</dim>
					<dim>1</dim>
					<dim>1</dim>
					<dim>1</dim>
				</port>
			</input>
			<output>
				<port id="2" precision="FP32">
					<dim>384</dim>
					<dim>1</dim>
					<dim>1</dim>
					<dim>3</dim>
					<dim>3</dim>
				</port>
			</output>
		</layer>
		<layer id="338" name="/backbone/stage4/unit2/conv2/conv/Conv/WithoutBiases" type="GroupConvolution" version="opset1">
			<data strides="1, 1" pads_begin="1, 1" pads_end="1, 1" dilations="1, 1" auto_pad="explicit" />
			<input>
				<port id="0" precision="FP32">
					<dim>-1</dim>
					<dim>384</dim>
					<dim>16</dim>
					<dim>16</dim>
				</port>
				<port id="1" precision="FP32">
					<dim>384</dim>
					<dim>1</dim>
					<dim>1</dim>
					<dim>3</dim>
					<dim>3</dim>
				</port>
			</input>
			<output>
				<port id="2" precision="FP32">
					<dim>-1</dim>
					<dim>384</dim>
					<dim>16</dim>
					<dim>16</dim>
				</port>
			</output>
		</layer>
		<layer id="339" name="Reshape_973" type="Const" version="opset1">
			<data element_type="f32" shape="1, 384, 1, 1" offset="135344" size="1536" />
			<output>
				<port id="0" precision="FP32">
					<dim>1</dim>
					<dim>384</dim>
					<dim>1</dim>
					<dim>1</dim>
				</port>
			</output>
		</layer>
		<layer id="340" name="/backbone/stage4/unit2/conv2/conv/Conv" type="Add" version="opset1">
			<data auto_broadcast="numpy" />
			<input>
				<port id="0" precision="FP32">
					<dim>-1</dim>
					<dim>384</dim>
					<dim>16</dim>
					<dim>16</dim>
				</port>
				<port id="1" precision="FP32">
					<dim>1</dim>
					<dim>384</dim>
					<dim>1</dim>
					<dim>1</dim>
				</port>
			</input>
			<output>
				<port id="2" precision="FP32" names="/backbone/stage4/unit2/conv2/conv/Conv_output_0">
					<dim>-1</dim>
					<dim>384</dim>
					<dim>16</dim>
					<dim>16</dim>
				</port>
			</output>
		</layer>
		<layer id="341" name="/backbone/stage4/unit2/conv2/activ/Clip" type="Clamp" version="opset1">
			<data min="0" max="6" />
			<input>
				<port id="0" precision="FP32">
					<dim>-1</dim>
					<dim>384</dim>
					<dim>16</dim>
					<dim>16</dim>
				</port>
			</input>
			<output>
				<port id="1" precision="FP32" names="/backbone/stage4/unit2/conv2/activ/Clip_output_0">
					<dim>-1</dim>
					<dim>384</dim>
					<dim>16</dim>
					<dim>16</dim>
				</port>
			</output>
		</layer>
		<layer id="342" name="Constant_114293" type="Const" version="opset1">
			<data element_type="f32" shape="" offset="48" size="4" />
			<output>
				<port id="0" precision="FP32" />
			</output>
		</layer>
		<layer id="343" name="Constant_114294" type="Const" version="opset1">
			<data element_type="f32" shape="" offset="136880" size="4" />
			<output>
				<port id="0" precision="FP32" />
			</output>
		</layer>
		<layer id="344" name="Constant_114295" type="Const" version="opset1">
			<data element_type="f32" shape="" offset="48" size="4" />
			<output>
				<port id="0" precision="FP32" />
			</output>
		</layer>
		<layer id="345" name="Constant_114296" type="Const" version="opset1">
			<data element_type="f32" shape="" offset="136880" size="4" />
			<output>
				<port id="0" precision="FP32" />
			</output>
		</layer>
		<layer id="346" name="/backbone/stage4/unit2/conv2/activ/Clip/fq_output_0" type="FakeQuantize" version="opset1">
			<data levels="256" auto_broadcast="numpy" />
			<input>
				<port id="0" precision="FP32">
					<dim>-1</dim>
					<dim>384</dim>
					<dim>16</dim>
					<dim>16</dim>
				</port>
				<port id="1" precision="FP32" />
				<port id="2" precision="FP32" />
				<port id="3" precision="FP32" />
				<port id="4" precision="FP32" />
			</input>
			<output>
				<port id="5" precision="FP32">
					<dim>-1</dim>
					<dim>384</dim>
					<dim>16</dim>
					<dim>16</dim>
				</port>
			</output>
		</layer>
		<layer id="347" name="onnx::Conv_2362" type="Const" version="opset1">
			<data element_type="i8" shape="64, 384, 1, 1" offset="136884" size="24576" />
			<output>
				<port id="0" precision="I8">
					<dim>64</dim>
					<dim>384</dim>
					<dim>1</dim>
					<dim>1</dim>
				</port>
			</output>
		</layer>
		<layer id="348" name="Convert_515048" type="Convert" version="opset1">
			<data destination_type="f32" />
			<input>
				<port id="0" precision="I8">
					<dim>64</dim>
					<dim>384</dim>
					<dim>1</dim>
					<dim>1</dim>
				</port>
			</input>
			<output>
				<port id="1" precision="FP32">
					<dim>64</dim>
					<dim>384</dim>
					<dim>1</dim>
					<dim>1</dim>
				</port>
			</output>
		</layer>
		<layer id="349" name="Constant_514946" type="Const" version="opset1">
			<data element_type="f32" shape="64, 1, 1, 1" offset="161460" size="256" />
			<output>
				<port id="0" precision="FP32">
					<dim>64</dim>
					<dim>1</dim>
					<dim>1</dim>
					<dim>1</dim>
				</port>
			</output>
		</layer>
		<layer id="350" name="/backbone/stage4/unit2/conv3/conv/Conv/WithoutBiases/fq_weights_1" type="Multiply" version="opset1">
			<data auto_broadcast="numpy" />
			<input>
				<port id="0" precision="FP32">
					<dim>64</dim>
					<dim>384</dim>
					<dim>1</dim>
					<dim>1</dim>
				</port>
				<port id="1" precision="FP32">
					<dim>64</dim>
					<dim>1</dim>
					<dim>1</dim>
					<dim>1</dim>
				</port>
			</input>
			<output>
				<port id="2" precision="FP32">
					<dim>64</dim>
					<dim>384</dim>
					<dim>1</dim>
					<dim>1</dim>
				</port>
			</output>
		</layer>
		<layer id="351" name="/backbone/stage4/unit2/conv3/conv/Conv/WithoutBiases" type="Convolution" version="opset1">
			<data strides="1, 1" dilations="1, 1" pads_begin="0, 0" pads_end="0, 0" auto_pad="explicit" />
			<input>
				<port id="0" precision="FP32">
					<dim>-1</dim>
					<dim>384</dim>
					<dim>16</dim>
					<dim>16</dim>
				</port>
				<port id="1" precision="FP32">
					<dim>64</dim>
					<dim>384</dim>
					<dim>1</dim>
					<dim>1</dim>
				</port>
			</input>
			<output>
				<port id="2" precision="FP32">
					<dim>-1</dim>
					<dim>64</dim>
					<dim>16</dim>
					<dim>16</dim>
				</port>
			</output>
		</layer>
		<layer id="352" name="Reshape_992" type="Const" version="opset1">
			<data element_type="f32" shape="1, 64, 1, 1" offset="161716" size="256" />
			<output>
				<port id="0" precision="FP32">
					<dim>1</dim>
					<dim>64</dim>
					<dim>1</dim>
					<dim>1</dim>
				</port>
			</output>
		</layer>
		<layer id="353" name="/backbone/stage4/unit2/conv3/conv/Conv" type="Add" version="opset1">
			<data auto_broadcast="numpy" />
			<input>
				<port id="0" precision="FP32">
					<dim>-1</dim>
					<dim>64</dim>
					<dim>16</dim>
					<dim>16</dim>
				</port>
				<port id="1" precision="FP32">
					<dim>1</dim>
					<dim>64</dim>
					<dim>1</dim>
					<dim>1</dim>
				</port>
			</input>
			<output>
				<port id="2" precision="FP32" names="/backbone/stage4/unit2/conv3/conv/Conv_output_0">
					<dim>-1</dim>
					<dim>64</dim>
					<dim>16</dim>
					<dim>16</dim>
				</port>
			</output>
		</layer>
		<layer id="354" name="Constant_114303" type="Const" version="opset1">
			<data element_type="f32" shape="" offset="161972" size="4" />
			<output>
				<port id="0" precision="FP32" />
			</output>
		</layer>
		<layer id="355" name="Constant_114304" type="Const" version="opset1">
			<data element_type="f32" shape="" offset="161976" size="4" />
			<output>
				<port id="0" precision="FP32" />
			</output>
		</layer>
		<layer id="356" name="Constant_114305" type="Const" version="opset1">
			<data element_type="f32" shape="" offset="161972" size="4" />
			<output>
				<port id="0" precision="FP32" />
			</output>
		</layer>
		<layer id="357" name="Constant_114306" type="Const" version="opset1">
			<data element_type="f32" shape="" offset="161976" size="4" />
			<output>
				<port id="0" precision="FP32" />
			</output>
		</layer>
		<layer id="358" name="/backbone/stage4/unit2/conv3/conv/Conv/fq_output_0" type="FakeQuantize" version="opset1">
			<data levels="256" auto_broadcast="numpy" />
			<input>
				<port id="0" precision="FP32">
					<dim>-1</dim>
					<dim>64</dim>
					<dim>16</dim>
					<dim>16</dim>
				</port>
				<port id="1" precision="FP32" />
				<port id="2" precision="FP32" />
				<port id="3" precision="FP32" />
				<port id="4" precision="FP32" />
			</input>
			<output>
				<port id="5" precision="FP32">
					<dim>-1</dim>
					<dim>64</dim>
					<dim>16</dim>
					<dim>16</dim>
				</port>
			</output>
		</layer>
		<layer id="359" name="/backbone/stage4/unit2/Add" type="Add" version="opset1">
			<data auto_broadcast="numpy" />
			<input>
				<port id="0" precision="FP32">
					<dim>-1</dim>
					<dim>64</dim>
					<dim>16</dim>
					<dim>16</dim>
				</port>
				<port id="1" precision="FP32">
					<dim>-1</dim>
					<dim>64</dim>
					<dim>16</dim>
					<dim>16</dim>
				</port>
			</input>
			<output>
				<port id="2" precision="FP32" names="/backbone/stage4/unit2/Add_output_0">
					<dim>-1</dim>
					<dim>64</dim>
					<dim>16</dim>
					<dim>16</dim>
				</port>
			</output>
		</layer>
		<layer id="360" name="Constant_114308" type="Const" version="opset1">
			<data element_type="f32" shape="" offset="161980" size="4" />
			<output>
				<port id="0" precision="FP32" />
			</output>
		</layer>
		<layer id="361" name="Constant_114309" type="Const" version="opset1">
			<data element_type="f32" shape="" offset="161984" size="4" />
			<output>
				<port id="0" precision="FP32" />
			</output>
		</layer>
		<layer id="362" name="Constant_114310" type="Const" version="opset1">
			<data element_type="f32" shape="" offset="161980" size="4" />
			<output>
				<port id="0" precision="FP32" />
			</output>
		</layer>
		<layer id="363" name="Constant_114311" type="Const" version="opset1">
			<data element_type="f32" shape="" offset="161984" size="4" />
			<output>
				<port id="0" precision="FP32" />
			</output>
		</layer>
		<layer id="364" name="/backbone/stage4/unit2/Add/fq_output_0" type="FakeQuantize" version="opset1">
			<data levels="256" auto_broadcast="numpy" />
			<input>
				<port id="0" precision="FP32">
					<dim>-1</dim>
					<dim>64</dim>
					<dim>16</dim>
					<dim>16</dim>
				</port>
				<port id="1" precision="FP32" />
				<port id="2" precision="FP32" />
				<port id="3" precision="FP32" />
				<port id="4" precision="FP32" />
			</input>
			<output>
				<port id="5" precision="FP32">
					<dim>-1</dim>
					<dim>64</dim>
					<dim>16</dim>
					<dim>16</dim>
				</port>
			</output>
		</layer>
		<layer id="365" name="onnx::Conv_2365" type="Const" version="opset1">
			<data element_type="i8" shape="384, 64, 1, 1" offset="161988" size="24576" />
			<output>
				<port id="0" precision="I8">
					<dim>384</dim>
					<dim>64</dim>
					<dim>1</dim>
					<dim>1</dim>
				</port>
			</output>
		</layer>
		<layer id="366" name="Convert_515202" type="Convert" version="opset1">
			<data destination_type="f32" />
			<input>
				<port id="0" precision="I8">
					<dim>384</dim>
					<dim>64</dim>
					<dim>1</dim>
					<dim>1</dim>
				</port>
			</input>
			<output>
				<port id="1" precision="FP32">
					<dim>384</dim>
					<dim>64</dim>
					<dim>1</dim>
					<dim>1</dim>
				</port>
			</output>
		</layer>
		<layer id="367" name="Constant_515100" type="Const" version="opset1">
			<data element_type="f32" shape="384, 1, 1, 1" offset="186564" size="1536" />
			<output>
				<port id="0" precision="FP32">
					<dim>384</dim>
					<dim>1</dim>
					<dim>1</dim>
					<dim>1</dim>
				</port>
			</output>
		</layer>
		<layer id="368" name="/backbone/stage4/unit3/conv1/conv/Conv/WithoutBiases/fq_weights_1" type="Multiply" version="opset1">
			<data auto_broadcast="numpy" />
			<input>
				<port id="0" precision="FP32">
					<dim>384</dim>
					<dim>64</dim>
					<dim>1</dim>
					<dim>1</dim>
				</port>
				<port id="1" precision="FP32">
					<dim>384</dim>
					<dim>1</dim>
					<dim>1</dim>
					<dim>1</dim>
				</port>
			</input>
			<output>
				<port id="2" precision="FP32">
					<dim>384</dim>
					<dim>64</dim>
					<dim>1</dim>
					<dim>1</dim>
				</port>
			</output>
		</layer>
		<layer id="369" name="/backbone/stage4/unit3/conv1/conv/Conv/WithoutBiases" type="Convolution" version="opset1">
			<data strides="1, 1" dilations="1, 1" pads_begin="0, 0" pads_end="0, 0" auto_pad="explicit" />
			<input>
				<port id="0" precision="FP32">
					<dim>-1</dim>
					<dim>64</dim>
					<dim>16</dim>
					<dim>16</dim>
				</port>
				<port id="1" precision="FP32">
					<dim>384</dim>
					<dim>64</dim>
					<dim>1</dim>
					<dim>1</dim>
				</port>
			</input>
			<output>
				<port id="2" precision="FP32">
					<dim>-1</dim>
					<dim>384</dim>
					<dim>16</dim>
					<dim>16</dim>
				</port>
			</output>
		</layer>
		<layer id="370" name="Reshape_1008" type="Const" version="opset1">
			<data element_type="f32" shape="1, 384, 1, 1" offset="188100" size="1536" />
			<output>
				<port id="0" precision="FP32">
					<dim>1</dim>
					<dim>384</dim>
					<dim>1</dim>
					<dim>1</dim>
				</port>
			</output>
		</layer>
		<layer id="371" name="/backbone/stage4/unit3/conv1/conv/Conv" type="Add" version="opset1">
			<data auto_broadcast="numpy" />
			<input>
				<port id="0" precision="FP32">
					<dim>-1</dim>
					<dim>384</dim>
					<dim>16</dim>
					<dim>16</dim>
				</port>
				<port id="1" precision="FP32">
					<dim>1</dim>
					<dim>384</dim>
					<dim>1</dim>
					<dim>1</dim>
				</port>
			</input>
…
		<edge from-layer="2884" from-port="2" to-layer="2887" to-port="0" />
		<edge from-layer="2885" from-port="0" to-layer="3281" to-port="1" />
		<edge from-layer="2885" from-port="0" to-layer="2906" to-port="1" />
		<edge from-layer="2885" from-port="0" to-layer="2887" to-port="1" />
		<edge from-layer="2885" from-port="0" to-layer="2916" to-port="1" />
		<edge from-layer="2886" from-port="0" to-layer="2887" to-port="2" />
		<edge from-layer="2887" from-port="3" to-layer="2897" to-port="0" />
		<edge from-layer="2888" from-port="1" to-layer="2892" to-port="0" />
		<edge from-layer="2889" from-port="0" to-layer="2892" to-port="1" />
		<edge from-layer="2890" from-port="0" to-layer="2892" to-port="2" />
		<edge from-layer="2891" from-port="0" to-layer="2892" to-port="3" />
		<edge from-layer="2892" from-port="4" to-layer="2906" to-port="0" />
		<edge from-layer="2892" from-port="4" to-layer="2895" to-port="0" />
		<edge from-layer="2893" from-port="0" to-layer="2925" to-port="1" />
		<edge from-layer="2893" from-port="0" to-layer="2895" to-port="1" />
		<edge from-layer="2893" from-port="0" to-layer="3289" to-port="1" />
		<edge from-layer="2893" from-port="0" to-layer="2904" to-port="1" />
		<edge from-layer="2894" from-port="0" to-layer="2895" to-port="2" />
		<edge from-layer="2895" from-port="3" to-layer="2917" to-port="0" />
		<edge from-layer="2895" from-port="3" to-layer="2896" to-port="0" />
		<edge from-layer="2895" from-port="3" to-layer="2920" to-port="0" />
		<edge from-layer="2895" from-port="3" to-layer="2899" to-port="0" />
		<edge from-layer="2896" from-port="1" to-layer="2897" to-port="1" />
		<edge from-layer="2897" from-port="2" to-layer="2898" to-port="0" />
		<edge from-layer="2898" from-port="1" to-layer="2900" to-port="0" />
		<edge from-layer="2899" from-port="1" to-layer="2900" to-port="1" />
		<edge from-layer="2900" from-port="2" to-layer="2902" to-port="0" />
		<edge from-layer="2901" from-port="0" to-layer="2902" to-port="1" />
		<edge from-layer="2902" from-port="2" to-layer="2933" to-port="0" />
		<edge from-layer="2903" from-port="0" to-layer="2904" to-port="2" />
		<edge from-layer="2904" from-port="3" to-layer="2908" to-port="0" />
		<edge from-layer="2905" from-port="0" to-layer="2906" to-port="2" />
		<edge from-layer="2906" from-port="3" to-layer="2929" to-port="0" />
		<edge from-layer="2906" from-port="3" to-layer="2926" to-port="0" />
		<edge from-layer="2906" from-port="3" to-layer="2907" to-port="0" />
		<edge from-layer="2906" from-port="3" to-layer="2910" to-port="0" />
		<edge from-layer="2907" from-port="1" to-layer="2908" to-port="1" />
		<edge from-layer="2908" from-port="2" to-layer="2909" to-port="0" />
		<edge from-layer="2909" from-port="1" to-layer="2911" to-port="0" />
		<edge from-layer="2910" from-port="1" to-layer="2911" to-port="1" />
		<edge from-layer="2911" from-port="2" to-layer="2913" to-port="0" />
		<edge from-layer="2912" from-port="0" to-layer="2913" to-port="1" />
		<edge from-layer="2913" from-port="2" to-layer="2933" to-port="1" />
		<edge from-layer="2914" from-port="2" to-layer="2925" to-port="0" />
		<edge from-layer="2914" from-port="2" to-layer="2916" to-port="0" />
		<edge from-layer="2915" from-port="0" to-layer="2916" to-port="2" />
		<edge from-layer="2916" from-port="3" to-layer="2918" to-port="0" />
		<edge from-layer="2917" from-port="1" to-layer="2918" to-port="1" />
		<edge from-layer="2918" from-port="2" to-layer="2919" to-port="0" />
		<edge from-layer="2919" from-port="1" to-layer="2921" to-port="0" />
		<edge from-layer="2920" from-port="1" to-layer="2921" to-port="1" />
		<edge from-layer="2921" from-port="2" to-layer="2923" to-port="0" />
		<edge from-layer="2922" from-port="0" to-layer="2923" to-port="1" />
		<edge from-layer="2923" from-port="2" to-layer="2933" to-port="2" />
		<edge from-layer="2924" from-port="0" to-layer="2925" to-port="2" />
		<edge from-layer="2925" from-port="3" to-layer="2927" to-port="0" />
		<edge from-layer="2926" from-port="1" to-layer="2927" to-port="1" />
		<edge from-layer="2927" from-port="2" to-layer="2928" to-port="0" />
		<edge from-layer="2928" from-port="1" to-layer="2930" to-port="0" />
		<edge from-layer="2929" from-port="1" to-layer="2930" to-port="1" />
		<edge from-layer="2930" from-port="2" to-layer="2932" to-port="0" />
		<edge from-layer="2931" from-port="0" to-layer="2932" to-port="1" />
		<edge from-layer="2932" from-port="2" to-layer="2933" to-port="3" />
		<edge from-layer="2933" from-port="4" to-layer="2935" to-port="0" />
		<edge from-layer="2934" from-port="1" to-layer="2935" to-port="1" />
		<edge from-layer="2935" from-port="2" to-layer="2936" to-port="0" />
		<edge from-layer="2935" from-port="2" to-layer="2945" to-port="0" />
		<edge from-layer="2936" from-port="1" to-layer="3235" to-port="0" />
		<edge from-layer="2936" from-port="1" to-layer="3243" to-port="0" />
		<edge from-layer="2936" from-port="1" to-layer="2940" to-port="0" />
		<edge from-layer="2937" from-port="0" to-layer="2940" to-port="1" />
		<edge from-layer="2938" from-port="0" to-layer="2940" to-port="2" />
		<edge from-layer="2939" from-port="0" to-layer="2940" to-port="3" />
		<edge from-layer="2940" from-port="4" to-layer="2942" to-port="0" />
		<edge from-layer="2941" from-port="0" to-layer="2942" to-port="1" />
		<edge from-layer="2942" from-port="2" to-layer="2944" to-port="0" />
		<edge from-layer="2943" from-port="0" to-layer="2944" to-port="1" />
		<edge from-layer="2944" from-port="2" to-layer="2945" to-port="1" />
		<edge from-layer="2945" from-port="2" to-layer="3239" to-port="0" />
		<edge from-layer="2946" from-port="1" to-layer="2950" to-port="0" />
		<edge from-layer="2946" from-port="1" to-layer="2958" to-port="0" />
		<edge from-layer="2946" from-port="1" to-layer="2966" to-port="0" />
		<edge from-layer="2947" from-port="0" to-layer="2950" to-port="1" />
		<edge from-layer="2948" from-port="0" to-layer="2950" to-port="2" />
		<edge from-layer="2949" from-port="0" to-layer="2950" to-port="3" />
		<edge from-layer="2950" from-port="4" to-layer="2952" to-port="0" />
		<edge from-layer="2951" from-port="0" to-layer="2952" to-port="1" />
		<edge from-layer="2952" from-port="2" to-layer="2954" to-port="0" />
		<edge from-layer="2953" from-port="0" to-layer="2954" to-port="1" />
		<edge from-layer="2954" from-port="2" to-layer="2955" to-port="1" />
		<edge from-layer="2955" from-port="2" to-layer="2962" to-port="0" />
		<edge from-layer="2956" from-port="0" to-layer="2958" to-port="1" />
		<edge from-layer="2957" from-port="0" to-layer="2958" to-port="2" />
		<edge from-layer="2958" from-port="3" to-layer="2959" to-port="1" />
		<edge from-layer="2959" from-port="2" to-layer="2960" to-port="1" />
		<edge from-layer="2960" from-port="2" to-layer="2962" to-port="1" />
		<edge from-layer="2960" from-port="2" to-layer="2969" to-port="0" />
		<edge from-layer="2961" from-port="0" to-layer="2962" to-port="2" />
		<edge from-layer="2962" from-port="3" to-layer="2968" to-port="0" />
		<edge from-layer="2963" from-port="0" to-layer="2967" to-port="0" />
		<edge from-layer="2964" from-port="0" to-layer="2966" to-port="1" />
		<edge from-layer="2965" from-port="0" to-layer="2966" to-port="2" />
		<edge from-layer="2966" from-port="3" to-layer="2970" to-port="1" />
		<edge from-layer="2966" from-port="3" to-layer="2967" to-port="1" />
		<edge from-layer="2967" from-port="2" to-layer="2968" to-port="1" />
		<edge from-layer="2968" from-port="2" to-layer="2971" to-port="0" />
		<edge from-layer="2969" from-port="1" to-layer="2970" to-port="0" />
		<edge from-layer="2970" from-port="2" to-layer="2971" to-port="1" />
		<edge from-layer="2971" from-port="2" to-layer="3076" to-port="0" />
		<edge from-layer="2972" from-port="1" to-layer="2976" to-port="0" />
		<edge from-layer="2972" from-port="1" to-layer="2984" to-port="0" />
		<edge from-layer="2972" from-port="1" to-layer="2992" to-port="0" />
		<edge from-layer="2973" from-port="0" to-layer="2976" to-port="1" />
		<edge from-layer="2974" from-port="0" to-layer="2976" to-port="2" />
		<edge from-layer="2975" from-port="0" to-layer="2976" to-port="3" />
		<edge from-layer="2976" from-port="4" to-layer="2978" to-port="0" />
		<edge from-layer="2977" from-port="0" to-layer="2978" to-port="1" />
		<edge from-layer="2978" from-port="2" to-layer="2980" to-port="0" />
		<edge from-layer="2979" from-port="0" to-layer="2980" to-port="1" />
		<edge from-layer="2980" from-port="2" to-layer="2981" to-port="1" />
		<edge from-layer="2981" from-port="2" to-layer="2988" to-port="0" />
		<edge from-layer="2982" from-port="0" to-layer="2984" to-port="1" />
		<edge from-layer="2983" from-port="0" to-layer="2984" to-port="2" />
		<edge from-layer="2984" from-port="3" to-layer="2985" to-port="1" />
		<edge from-layer="2985" from-port="2" to-layer="2986" to-port="1" />
		<edge from-layer="2986" from-port="2" to-layer="2995" to-port="0" />
		<edge from-layer="2986" from-port="2" to-layer="2988" to-port="1" />
		<edge from-layer="2987" from-port="0" to-layer="2988" to-port="2" />
		<edge from-layer="2988" from-port="3" to-layer="2994" to-port="0" />
		<edge from-layer="2989" from-port="0" to-layer="2993" to-port="0" />
		<edge from-layer="2990" from-port="0" to-layer="2992" to-port="1" />
		<edge from-layer="2991" from-port="0" to-layer="2992" to-port="2" />
		<edge from-layer="2992" from-port="3" to-layer="2993" to-port="1" />
		<edge from-layer="2992" from-port="3" to-layer="2996" to-port="1" />
		<edge from-layer="2993" from-port="2" to-layer="2994" to-port="1" />
		<edge from-layer="2994" from-port="2" to-layer="2997" to-port="0" />
		<edge from-layer="2995" from-port="1" to-layer="2996" to-port="0" />
		<edge from-layer="2996" from-port="2" to-layer="2997" to-port="1" />
		<edge from-layer="2997" from-port="2" to-layer="3076" to-port="1" />
		<edge from-layer="2998" from-port="1" to-layer="3018" to-port="0" />
		<edge from-layer="2998" from-port="1" to-layer="3002" to-port="0" />
		<edge from-layer="2998" from-port="1" to-layer="3010" to-port="0" />
		<edge from-layer="2999" from-port="0" to-layer="3002" to-port="1" />
		<edge from-layer="3000" from-port="0" to-layer="3002" to-port="2" />
		<edge from-layer="3001" from-port="0" to-layer="3002" to-port="3" />
		<edge from-layer="3002" from-port="4" to-layer="3004" to-port="0" />
		<edge from-layer="3003" from-port="0" to-layer="3004" to-port="1" />
		<edge from-layer="3004" from-port="2" to-layer="3006" to-port="0" />
		<edge from-layer="3005" from-port="0" to-layer="3006" to-port="1" />
		<edge from-layer="3006" from-port="2" to-layer="3007" to-port="1" />
		<edge from-layer="3007" from-port="2" to-layer="3014" to-port="0" />
		<edge from-layer="3008" from-port="0" to-layer="3010" to-port="1" />
		<edge from-layer="3009" from-port="0" to-layer="3010" to-port="2" />
		<edge from-layer="3010" from-port="3" to-layer="3011" to-port="1" />
		<edge from-layer="3011" from-port="2" to-layer="3012" to-port="1" />
		<edge from-layer="3012" from-port="2" to-layer="3014" to-port="1" />
		<edge from-layer="3012" from-port="2" to-layer="3021" to-port="0" />
		<edge from-layer="3013" from-port="0" to-layer="3014" to-port="2" />
		<edge from-layer="3014" from-port="3" to-layer="3020" to-port="0" />
		<edge from-layer="3015" from-port="0" to-layer="3019" to-port="0" />
		<edge from-layer="3016" from-port="0" to-layer="3018" to-port="1" />
		<edge from-layer="3017" from-port="0" to-layer="3018" to-port="2" />
		<edge from-layer="3018" from-port="3" to-layer="3019" to-port="1" />
		<edge from-layer="3018" from-port="3" to-layer="3022" to-port="1" />
		<edge from-layer="3019" from-port="2" to-layer="3020" to-port="1" />
		<edge from-layer="3020" from-port="2" to-layer="3023" to-port="0" />
		<edge from-layer="3021" from-port="1" to-layer="3022" to-port="0" />
		<edge from-layer="3022" from-port="2" to-layer="3023" to-port="1" />
		<edge from-layer="3023" from-port="2" to-layer="3076" to-port="2" />
		<edge from-layer="3024" from-port="1" to-layer="3036" to-port="0" />
		<edge from-layer="3024" from-port="1" to-layer="3044" to-port="0" />
		<edge from-layer="3024" from-port="1" to-layer="3028" to-port="0" />
		<edge from-layer="3025" from-port="0" to-layer="3028" to-port="1" />
		<edge from-layer="3026" from-port="0" to-layer="3028" to-port="2" />
		<edge from-layer="3027" from-port="0" to-layer="3028" to-port="3" />
		<edge from-layer="3028" from-port="4" to-layer="3030" to-port="0" />
		<edge from-layer="3029" from-port="0" to-layer="3030" to-port="1" />
		<edge from-layer="3030" from-port="2" to-layer="3032" to-port="0" />
		<edge from-layer="3031" from-port="0" to-layer="3032" to-port="1" />
		<edge from-layer="3032" from-port="2" to-layer="3033" to-port="1" />
		<edge from-layer="3033" from-port="2" to-layer="3040" to-port="0" />
		<edge from-layer="3034" from-port="0" to-layer="3036" to-port="1" />
		<edge from-layer="3035" from-port="0" to-layer="3036" to-port="2" />
		<edge from-layer="3036" from-port="3" to-layer="3037" to-port="1" />
		<edge from-layer="3037" from-port="2" to-layer="3038" to-port="1" />
		<edge from-layer="3038" from-port="2" to-layer="3047" to-port="0" />
		<edge from-layer="3038" from-port="2" to-layer="3040" to-port="1" />
		<edge from-layer="3039" from-port="0" to-layer="3040" to-port="2" />
		<edge from-layer="3040" from-port="3" to-layer="3046" to-port="0" />
		<edge from-layer="3041" from-port="0" to-layer="3045" to-port="0" />
		<edge from-layer="3042" from-port="0" to-layer="3044" to-port="1" />
		<edge from-layer="3043" from-port="0" to-layer="3044" to-port="2" />
		<edge from-layer="3044" from-port="3" to-layer="3048" to-port="1" />
		<edge from-layer="3044" from-port="3" to-layer="3045" to-port="1" />
		<edge from-layer="3045" from-port="2" to-layer="3046" to-port="1" />
		<edge from-layer="3046" from-port="2" to-layer="3049" to-port="0" />
		<edge from-layer="3047" from-port="1" to-layer="3048" to-port="0" />
		<edge from-layer="3048" from-port="2" to-layer="3049" to-port="1" />
		<edge from-layer="3049" from-port="2" to-layer="3076" to-port="3" />
		<edge from-layer="3050" from-port="1" to-layer="3070" to-port="0" />
		<edge from-layer="3050" from-port="1" to-layer="3062" to-port="0" />
		<edge from-layer="3050" from-port="1" to-layer="3054" to-port="0" />
		<edge from-layer="3051" from-port="0" to-layer="3054" to-port="1" />
		<edge from-layer="3052" from-port="0" to-layer="3054" to-port="2" />
		<edge from-layer="3053" from-port="0" to-layer="3054" to-port="3" />
		<edge from-layer="3054" from-port="4" to-layer="3056" to-port="0" />
		<edge from-layer="3055" from-port="0" to-layer="3056" to-port="1" />
		<edge from-layer="3056" from-port="2" to-layer="3058" to-port="0" />
		<edge from-layer="3057" from-port="0" to-layer="3058" to-port="1" />
		<edge from-layer="3058" from-port="2" to-layer="3059" to-port="1" />
		<edge from-layer="3059" from-port="2" to-layer="3066" to-port="0" />
		<edge from-layer="3060" from-port="0" to-layer="3062" to-port="1" />
		<edge from-layer="3061" from-port="0" to-layer="3062" to-port="2" />
		<edge from-layer="3062" from-port="3" to-layer="3063" to-port="1" />
		<edge from-layer="3063" from-port="2" to-layer="3064" to-port="1" />
		<edge from-layer="3064" from-port="2" to-layer="3073" to-port="0" />
		<edge from-layer="3064" from-port="2" to-layer="3066" to-port="1" />
		<edge from-layer="3065" from-port="0" to-layer="3066" to-port="2" />
		<edge from-layer="3066" from-port="3" to-layer="3072" to-port="0" />
		<edge from-layer="3067" from-port="0" to-layer="3071" to-port="0" />
		<edge from-layer="3068" from-port="0" to-layer="3070" to-port="1" />
		<edge from-layer="3069" from-port="0" to-layer="3070" to-port="2" />
		<edge from-layer="3070" from-port="3" to-layer="3071" to-port="1" />
		<edge from-layer="3070" from-port="3" to-layer="3074" to-port="1" />
		<edge from-layer="3071" from-port="2" to-layer="3072" to-port="1" />
		<edge from-layer="3072" from-port="2" to-layer="3075" to-port="0" />
		<edge from-layer="3073" from-port="1" to-layer="3074" to-port="0" />
		<edge from-layer="3074" from-port="2" to-layer="3075" to-port="1" />
		<edge from-layer="3075" from-port="2" to-layer="3076" to-port="4" />
		<edge from-layer="3076" from-port="5" to-layer="3208" to-port="0" />
		<edge from-layer="3077" from-port="1" to-layer="3097" to-port="0" />
		<edge from-layer="3077" from-port="1" to-layer="3089" to-port="0" />
		<edge from-layer="3077" from-port="1" to-layer="3081" to-port="0" />
		<edge from-layer="3078" from-port="0" to-layer="3081" to-port="1" />
		<edge from-layer="3079" from-port="0" to-layer="3081" to-port="2" />
		<edge from-layer="3080" from-port="0" to-layer="3081" to-port="3" />
		<edge from-layer="3081" from-port="4" to-layer="3083" to-port="0" />
		<edge from-layer="3082" from-port="0" to-layer="3083" to-port="1" />
		<edge from-layer="3083" from-port="2" to-layer="3085" to-port="0" />
		<edge from-layer="3084" from-port="0" to-layer="3085" to-port="1" />
		<edge from-layer="3085" from-port="2" to-layer="3086" to-port="1" />
		<edge from-layer="3086" from-port="2" to-layer="3093" to-port="0" />
		<edge from-layer="3087" from-port="0" to-layer="3089" to-port="1" />
		<edge from-layer="3088" from-port="0" to-layer="3089" to-port="2" />
		<edge from-layer="3089" from-port="3" to-layer="3090" to-port="1" />
		<edge from-layer="3090" from-port="2" to-layer="3091" to-port="1" />
		<edge from-layer="3091" from-port="2" to-layer="3100" to-port="0" />
		<edge from-layer="3091" from-port="2" to-layer="3093" to-port="1" />
		<edge from-layer="3092" from-port="0" to-layer="3093" to-port="2" />
		<edge from-layer="3093" from-port="3" to-layer="3099" to-port="0" />
		<edge from-layer="3094" from-port="0" to-layer="3098" to-port="0" />
		<edge from-layer="3095" from-port="0" to-layer="3097" to-port="1" />
		<edge from-layer="3096" from-port="0" to-layer="3097" to-port="2" />
		<edge from-layer="3097" from-port="3" to-layer="3098" to-port="1" />
		<edge from-layer="3097" from-port="3" to-layer="3101" to-port="1" />
		<edge from-layer="3098" from-port="2" to-layer="3099" to-port="1" />
		<edge from-layer="3099" from-port="2" to-layer="3102" to-port="0" />
		<edge from-layer="3100" from-port="1" to-layer="3101" to-port="0" />
		<edge from-layer="3101" from-port="2" to-layer="3102" to-port="1" />
		<edge from-layer="3102" from-port="2" to-layer="3207" to-port="0" />
		<edge from-layer="3103" from-port="1" to-layer="3123" to-port="0" />
		<edge from-layer="3103" from-port="1" to-layer="3107" to-port="0" />
		<edge from-layer="3103" from-port="1" to-layer="3115" to-port="0" />
		<edge from-layer="3104" from-port="0" to-layer="3107" to-port="1" />
		<edge from-layer="3105" from-port="0" to-layer="3107" to-port="2" />
		<edge from-layer="3106" from-port="0" to-layer="3107" to-port="3" />
		<edge from-layer="3107" from-port="4" to-layer="3109" to-port="0" />
		<edge from-layer="3108" from-port="0" to-layer="3109" to-port="1" />
		<edge from-layer="3109" from-port="2" to-layer="3111" to-port="0" />
		<edge from-layer="3110" from-port="0" to-layer="3111" to-port="1" />
		<edge from-layer="3111" from-port="2" to-layer="3112" to-port="1" />
		<edge from-layer="3112" from-port="2" to-layer="3119" to-port="0" />
		<edge from-layer="3113" from-port="0" to-layer="3115" to-port="1" />
		<edge from-layer="3114" from-port="0" to-layer="3115" to-port="2" />
		<edge from-layer="3115" from-port="3" to-layer="3116" to-port="1" />
		<edge from-layer="3116" from-port="2" to-layer="3117" to-port="1" />
		<edge from-layer="3117" from-port="2" to-layer="3126" to-port="0" />
		<edge from-layer="3117" from-port="2" to-layer="3119" to-port="1" />
		<edge from-layer="3118" from-port="0" to-layer="3119" to-port="2" />
		<edge from-layer="3119" from-port="3" to-layer="3125" to-port="0" />
		<edge from-layer="3120" from-port="0" to-layer="3124" to-port="0" />
		<edge from-layer="3121" from-port="0" to-layer="3123" to-port="1" />
		<edge from-layer="3122" from-port="0" to-layer="3123" to-port="2" />
		<edge from-layer="3123" from-port="3" to-layer="3124" to-port="1" />
		<edge from-layer="3123" from-port="3" to-layer="3127" to-port="1" />
		<edge from-layer="3124" from-port="2" to-layer="3125" to-port="1" />
		<edge from-layer="3125" from-port="2" to-layer="3128" to-port="0" />
		<edge from-layer="3126" from-port="1" to-layer="3127" to-port="0" />
		<edge from-layer="3127" from-port="2" to-layer="3128" to-port="1" />
		<edge from-layer="3128" from-port="2" to-layer="3207" to-port="1" />
		<edge from-layer="3129" from-port="1" to-layer="3133" to-port="0" />
		<edge from-layer="3129" from-port="1" to-layer="3141" to-port="0" />
		<edge from-layer="3129" from-port="1" to-layer="3149" to-port="0" />
		<edge from-layer="3130" from-port="0" to-layer="3133" to-port="1" />
		<edge from-layer="3131" from-port="0" to-layer="3133" to-port="2" />
		<edge from-layer="3132" from-port="0" to-layer="3133" to-port="3" />
		<edge from-layer="3133" from-port="4" to-layer="3135" to-port="0" />
		<edge from-layer="3134" from-port="0" to-layer="3135" to-port="1" />
		<edge from-layer="3135" from-port="2" to-layer="3137" to-port="0" />
		<edge from-layer="3136" from-port="0" to-layer="3137" to-port="1" />
		<edge from-layer="3137" from-port="2" to-layer="3138" to-port="1" />
		<edge from-layer="3138" from-port="2" to-layer="3145" to-port="0" />
		<edge from-layer="3139" from-port="0" to-layer="3141" to-port="1" />
		<edge from-layer="3140" from-port="0" to-layer="3141" to-port="2" />
		<edge from-layer="3141" from-port="3" to-layer="3142" to-port="1" />
		<edge from-layer="3142" from-port="2" to-layer="3143" to-port="1" />
		<edge from-layer="3143" from-port="2" to-layer="3145" to-port="1" />
		<edge from-layer="3143" from-port="2" to-layer="3152" to-port="0" />
		<edge from-layer="3144" from-port="0" to-layer="3145" to-port="2" />
		<edge from-layer="3145" from-port="3" to-layer="3151" to-port="0" />
		<edge from-layer="3146" from-port="0" to-layer="3150" to-port="0" />
		<edge from-layer="3147" from-port="0" to-layer="3149" to-port="1" />
		<edge from-layer="3148" from-port="0" to-layer="3149" to-port="2" />
		<edge from-layer="3149" from-port="3" to-layer="3153" to-port="1" />
		<edge from-layer="3149" from-port="3" to-layer="3150" to-port="1" />
		<edge from-layer="3150" from-port="2" to-layer="3151" to-port="1" />
		<edge from-layer="3151" from-port="2" to-layer="3154" to-port="0" />
		<edge from-layer="3152" from-port="1" to-layer="3153" to-port="0" />
		<edge from-layer="3153" from-port="2" to-layer="3154" to-port="1" />
		<edge from-layer="3154" from-port="2" to-layer="3207" to-port="2" />
		<edge from-layer="3155" from-port="1" to-layer="3175" to-port="0" />
		<edge from-layer="3155" from-port="1" to-layer="3167" to-port="0" />
		<edge from-layer="3155" from-port="1" to-layer="3159" to-port="0" />
		<edge from-layer="3156" from-port="0" to-layer="3159" to-port="1" />
		<edge from-layer="3157" from-port="0" to-layer="3159" to-port="2" />
		<edge from-layer="3158" from-port="0" to-layer="3159" to-port="3" />
		<edge from-layer="3159" from-port="4" to-layer="3161" to-port="0" />
		<edge from-layer="3160" from-port="0" to-layer="3161" to-port="1" />
		<edge from-layer="3161" from-port="2" to-layer="3163" to-port="0" />
		<edge from-layer="3162" from-port="0" to-layer="3163" to-port="1" />
		<edge from-layer="3163" from-port="2" to-layer="3164" to-port="1" />
		<edge from-layer="3164" from-port="2" to-layer="3171" to-port="0" />
		<edge from-layer="3165" from-port="0" to-layer="3167" to-port="1" />
		<edge from-layer="3166" from-port="0" to-layer="3167" to-port="2" />
		<edge from-layer="3167" from-port="3" to-layer="3168" to-port="1" />
		<edge from-layer="3168" from-port="2" to-layer="3169" to-port="1" />
		<edge from-layer="3169" from-port="2" to-layer="3171" to-port="1" />
		<edge from-layer="3169" from-port="2" to-layer="3178" to-port="0" />
		<edge from-layer="3170" from-port="0" to-layer="3171" to-port="2" />
		<edge from-layer="3171" from-port="3" to-layer="3177" to-port="0" />
		<edge from-layer="3172" from-port="0" to-layer="3176" to-port="0" />
		<edge from-layer="3173" from-port="0" to-layer="3175" to-port="1" />
		<edge from-layer="3174" from-port="0" to-layer="3175" to-port="2" />
		<edge from-layer="3175" from-port="3" to-layer="3176" to-port="1" />
		<edge from-layer="3175" from-port="3" to-layer="3179" to-port="1" />
		<edge from-layer="3176" from-port="2" to-layer="3177" to-port="1" />
		<edge from-layer="3177" from-port="2" to-layer="3180" to-port="0" />
		<edge from-layer="3178" from-port="1" to-layer="3179" to-port="0" />
		<edge from-layer="3179" from-port="2" to-layer="3180" to-port="1" />
		<edge from-layer="3180" from-port="2" to-layer="3207" to-port="3" />
		<edge from-layer="3181" from-port="1" to-layer="3193" to-port="0" />
		<edge from-layer="3181" from-port="1" to-layer="3185" to-port="0" />
		<edge from-layer="3181" from-port="1" to-layer="3201" to-port="0" />
		<edge from-layer="3182" from-port="0" to-layer="3185" to-port="1" />
		<edge from-layer="3183" from-port="0" to-layer="3185" to-port="2" />
		<edge from-layer="3184" from-port="0" to-layer="3185" to-port="3" />
		<edge from-layer="3185" from-port="4" to-layer="3187" to-port="0" />
		<edge from-layer="3186" from-port="0" to-layer="3187" to-port="1" />
		<edge from-layer="3187" from-port="2" to-layer="3189" to-port="0" />
		<edge from-layer="3188" from-port="0" to-layer="3189" to-port="1" />
		<edge from-layer="3189" from-port="2" to-layer="3190" to-port="1" />
		<edge from-layer="3190" from-port="2" to-layer="3197" to-port="0" />
		<edge from-layer="3191" from-port="0" to-layer="3193" to-port="1" />
		<edge from-layer="3192" from-port="0" to-layer="3193" to-port="2" />
		<edge from-layer="3193" from-port="3" to-layer="3194" to-port="1" />
		<edge from-layer="3194" from-port="2" to-layer="3195" to-port="1" />
		<edge from-layer="3195" from-port="2" to-layer="3197" to-port="1" />
		<edge from-layer="3195" from-port="2" to-layer="3204" to-port="0" />
		<edge from-layer="3196" from-port="0" to-layer="3197" to-port="2" />
		<edge from-layer="3197" from-port="3" to-layer="3203" to-port="0" />
		<edge from-layer="3198" from-port="0" to-layer="3202" to-port="0" />
		<edge from-layer="3199" from-port="0" to-layer="3201" to-port="1" />
		<edge from-layer="3200" from-port="0" to-layer="3201" to-port="2" />
		<edge from-layer="3201" from-port="3" to-layer="3202" to-port="1" />
		<edge from-layer="3201" from-port="3" to-layer="3205" to-port="1" />
		<edge from-layer="3202" from-port="2" to-layer="3203" to-port="1" />
		<edge from-layer="3203" from-port="2" to-layer="3206" to-port="0" />
		<edge from-layer="3204" from-port="1" to-layer="3205" to-port="0" />
		<edge from-layer="3205" from-port="2" to-layer="3206" to-port="1" />
		<edge from-layer="3206" from-port="2" to-layer="3207" to-port="4" />
		<edge from-layer="3207" from-port="5" to-layer="3208" to-port="1" />
		<edge from-layer="3208" from-port="2" to-layer="3225" to-port="0" />
		<edge from-layer="3208" from-port="2" to-layer="3210" to-port="0" />
		<edge from-layer="3208" from-port="2" to-layer="3257" to-port="0" />
		<edge from-layer="3209" from-port="0" to-layer="3210" to-port="1" />
		<edge from-layer="3210" from-port="2" to-layer="3212" to-port="0" />
		<edge from-layer="3210" from-port="2" to-layer="3223" to-port="0" />
		<edge from-layer="3211" from-port="0" to-layer="3216" to-port="0" />
		<edge from-layer="3212" from-port="1" to-layer="3215" to-port="0" />
		<edge from-layer="3213" from-port="0" to-layer="3215" to-port="1" />
		<edge from-layer="3214" from-port="0" to-layer="3215" to-port="2" />
		<edge from-layer="3215" from-port="3" to-layer="3218" to-port="2" />
		<edge from-layer="3215" from-port="3" to-layer="3216" to-port="1" />
		<edge from-layer="3216" from-port="2" to-layer="3218" to-port="0" />
		<edge from-layer="3217" from-port="0" to-layer="3218" to-port="1" />
		<edge from-layer="3218" from-port="3" to-layer="3220" to-port="0" />
		<edge from-layer="3219" from-port="0" to-layer="3220" to-port="1" />
		<edge from-layer="3220" from-port="2" to-layer="3222" to-port="0" />
		<edge from-layer="3221" from-port="0" to-layer="3222" to-port="1" />
		<edge from-layer="3222" from-port="2" to-layer="3223" to-port="1" />
		<edge from-layer="3223" from-port="3" to-layer="3262" to-port="0" />
		<edge from-layer="3223" from-port="3" to-layer="3237" to-port="0" />
		<edge from-layer="3224" from-port="0" to-layer="3230" to-port="0" />
		<edge from-layer="3225" from-port="1" to-layer="3268" to-port="0" />
		<edge from-layer="3225" from-port="1" to-layer="3252" to-port="0" />
		<edge from-layer="3225" from-port="1" to-layer="3371" to-port="0" />
		<edge from-layer="3225" from-port="1" to-layer="3295" to-port="0" />
		<edge from-layer="3225" from-port="1" to-layer="3228" to-port="0" />
		<edge from-layer="3225" from-port="1" to-layer="3260" to-port="0" />
		<edge from-layer="3226" from-port="0" to-layer="3228" to-port="1" />
		<edge from-layer="3227" from-port="0" to-layer="3228" to-port="2" />
		<edge from-layer="3227" from-port="0" to-layer="3295" to-port="2" />
		<edge from-layer="3227" from-port="0" to-layer="3371" to-port="2" />
		<edge from-layer="3228" from-port="3" to-layer="3230" to-port="1" />
		<edge from-layer="3228" from-port="3" to-layer="3284" to-port="1" />
		<edge from-layer="3228" from-port="3" to-layer="3422" to-port="1" />
		<edge from-layer="3229" from-port="0" to-layer="3230" to-port="2" />
		<edge from-layer="3230" from-port="3" to-layer="3232" to-port="0" />
		<edge from-layer="3231" from-port="0" to-layer="3232" to-port="1" />
		<edge from-layer="3232" from-port="2" to-layer="3236" to-port="0" />
		<edge from-layer="3232" from-port="2" to-layer="3261" to-port="0" />
		<edge from-layer="3233" from-port="0" to-layer="3235" to-port="1" />
		<edge from-layer="3234" from-port="0" to-layer="3235" to-port="2" />
		<edge from-layer="3235" from-port="3" to-layer="3236" to-port="1" />
		<edge from-layer="3236" from-port="2" to-layer="3237" to-port="1" />
		<edge from-layer="3237" from-port="2" to-layer="3246" to-port="0" />
		<edge from-layer="3237" from-port="2" to-layer="3239" to-port="1" />
		<edge from-layer="3238" from-port="0" to-layer="3239" to-port="2" />
		<edge from-layer="3239" from-port="3" to-layer="3245" to-port="0" />
		<edge from-layer="3240" from-port="0" to-layer="3244" to-port="0" />
		<edge from-layer="3241" from-port="0" to-layer="3243" to-port="1" />
		<edge from-layer="3242" from-port="0" to-layer="3243" to-port="2" />
		<edge from-layer="3243" from-port="3" to-layer="3244" to-port="1" />
		<edge from-layer="3243" from-port="3" to-layer="3247" to-port="1" />
		<edge from-layer="3244" from-port="2" to-layer="3245" to-port="1" />
		<edge from-layer="3245" from-port="2" to-layer="3248" to-port="0" />
		<edge from-layer="3246" from-port="1" to-layer="3247" to-port="0" />
		<edge from-layer="3247" from-port="2" to-layer="3248" to-port="1" />
		<edge from-layer="3248" from-port="2" to-layer="3304" to-port="0" />
		<edge from-layer="3248" from-port="2" to-layer="3279" to-port="0" />
		<edge from-layer="3248" from-port="2" to-layer="3313" to-port="0" />
		<edge from-layer="3249" from-port="0" to-layer="3252" to-port="1" />
		<edge from-layer="3250" from-port="0" to-layer="3252" to-port="2" />
		<edge from-layer="3251" from-port="0" to-layer="3252" to-port="3" />
		<edge from-layer="3252" from-port="4" to-layer="3254" to-port="0" />
		<edge from-layer="3253" from-port="0" to-layer="3254" to-port="1" />
		<edge from-layer="3254" from-port="2" to-layer="3256" to-port="0" />
		<edge from-layer="3255" from-port="0" to-layer="3256" to-port="1" />
		<edge from-layer="3256" from-port="2" to-layer="3257" to-port="1" />
		<edge from-layer="3257" from-port="2" to-layer="3264" to-port="0" />
		<edge from-layer="3258" from-port="0" to-layer="3260" to-port="1" />
		<edge from-layer="3259" from-port="0" to-layer="3260" to-port="2" />
		<edge from-layer="3260" from-port="3" to-layer="3261" to-port="1" />
		<edge from-layer="3261" from-port="2" to-layer="3262" to-port="1" />
		<edge from-layer="3262" from-port="2" to-layer="3264" to-port="1" />
		<edge from-layer="3262" from-port="2" to-layer="3271" to-port="0" />
		<edge from-layer="3263" from-port="0" to-layer="3264" to-port="2" />
		<edge from-layer="3264" from-port="3" to-layer="3270" to-port="0" />
		<edge from-layer="3265" from-port="0" to-layer="3269" to-port="0" />
		<edge from-layer="3266" from-port="0" to-layer="3268" to-port="1" />
		<edge from-layer="3267" from-port="0" to-layer="3268" to-port="2" />
		<edge from-layer="3268" from-port="3" to-layer="3269" to-port="1" />
		<edge from-layer="3268" from-port="3" to-layer="3272" to-port="1" />
		<edge from-layer="3269" from-port="2" to-layer="3270" to-port="1" />
		<edge from-layer="3270" from-port="2" to-layer="3273" to-port="0" />
		<edge from-layer="3271" from-port="1" to-layer="3272" to-port="0" />
		<edge from-layer="3272" from-port="2" to-layer="3273" to-port="1" />
		<edge from-layer="3273" from-port="2" to-layer="3275" to-port="0" />
		<edge from-layer="3273" from-port="2" to-layer="3334" to-port="0" />
		<edge from-layer="3274" from-port="0" to-layer="3275" to-port="1" />
		<edge from-layer="3275" from-port="2" to-layer="3345" to-port="0" />
		<edge from-layer="3275" from-port="2" to-layer="3279" to-port="1" />
		<edge from-layer="3276" from-port="0" to-layer="3279" to-port="2" />
		<edge from-layer="3277" from-port="0" to-layer="3279" to-port="3" />
		<edge from-layer="3278" from-port="0" to-layer="3279" to-port="4" />
		<edge from-layer="3279" from-port="5" to-layer="3281" to-port="0" />
		<edge from-layer="3279" from-port="5" to-layer="3316" to-port="0" />
		<edge from-layer="3279" from-port="5" to-layer="3289" to-port="0" />
		<edge from-layer="3280" from-port="0" to-layer="3281" to-port="2" />
		<edge from-layer="3281" from-port="3" to-layer="3320" to-port="0" />
		<edge from-layer="3281" from-port="3" to-layer="3355" to-port="0" />
		<edge from-layer="3281" from-port="3" to-layer="3287" to-port="0" />
		<edge from-layer="3282" from-port="0" to-layer="3284" to-port="0" />
		<edge from-layer="3283" from-port="0" to-layer="3284" to-port="2" />
		<edge from-layer="3284" from-port="3" to-layer="3286" to-port="0" />
		<edge from-layer="3285" from-port="0" to-layer="3286" to-port="1" />
		<edge from-layer="3286" from-port="2" to-layer="3287" to-port="1" />
		<edge from-layer="3287" from-port="2" to-layer="3300" to-port="0" />
		<edge from-layer="3287" from-port="2" to-layer="3303" to-port="0" />
		<edge from-layer="3288" from-port="0" to-layer="3289" to-port="2" />
		<edge from-layer="3289" from-port="3" to-layer="3349" to-port="0" />
		<edge from-layer="3289" from-port="3" to-layer="3291" to-port="0" />
		<edge from-layer="3290" from-port="0" to-layer="3291" to-port="1" />
		<edge from-layer="3291" from-port="2" to-layer="3293" to-port="0" />
		<edge from-layer="3292" from-port="0" to-layer="3293" to-port="1" />
		<edge from-layer="3293" from-port="2" to-layer="3298" to-port="0" />
		<edge from-layer="3294" from-port="0" to-layer="3295" to-port="1" />
		<edge from-layer="3295" from-port="3" to-layer="3297" to-port="0" />
		<edge from-layer="3296" from-port="0" to-layer="3297" to-port="1" />
		<edge from-layer="3297" from-port="2" to-layer="3298" to-port="1" />
		<edge from-layer="3298" from-port="2" to-layer="3300" to-port="1" />
		<edge from-layer="3299" from-port="0" to-layer="3300" to-port="2" />
		<edge from-layer="3300" from-port="3" to-layer="3385" to-port="0" />
		<edge from-layer="3301" from-port="0" to-layer="3384" to-port="0" />
		<edge from-layer="3302" from-port="0" to-layer="3303" to-port="1" />
		<edge from-layer="3303" from-port="2" to-layer="3377" to-port="0" />
		<edge from-layer="3304" from-port="1" to-layer="3308" to-port="0" />
		<edge from-layer="3304" from-port="1" to-layer="3319" to-port="0" />
		<edge from-layer="3304" from-port="1" to-layer="3327" to-port="0" />
		<edge from-layer="3305" from-port="0" to-layer="3308" to-port="1" />
		<edge from-layer="3306" from-port="0" to-layer="3308" to-port="2" />
		<edge from-layer="3307" from-port="0" to-layer="3308" to-port="3" />
		<edge from-layer="3308" from-port="4" to-layer="3310" to-port="0" />
		<edge from-layer="3309" from-port="0" to-layer="3310" to-port="1" />
		<edge from-layer="3310" from-port="2" to-layer="3312" to-port="0" />
		<edge from-layer="3311" from-port="0" to-layer="3312" to-port="1" />
		<edge from-layer="3312" from-port="2" to-layer="3313" to-port="1" />
		<edge from-layer="3313" from-port="2" to-layer="3323" to-port="0" />
		<edge from-layer="3314" from-port="0" to-layer="3316" to-port="1" />
		<edge from-layer="3315" from-port="0" to-layer="3316" to-port="2" />
		<edge from-layer="3316" from-port="3" to-layer="3321" to-port="0" />
		<edge from-layer="3316" from-port="3" to-layer="3350" to-port="0" />
		<edge from-layer="3317" from-port="0" to-layer="3319" to-port="1" />
		<edge from-layer="3318" from-port="0" to-layer="3319" to-port="2" />
		<edge from-layer="3319" from-port="3" to-layer="3320" to-port="1" />
		<edge from-layer="3320" from-port="2" to-layer="3321" to-port="1" />
		<edge from-layer="3321" from-port="2" to-layer="3323" to-port="1" />
		<edge from-layer="3321" from-port="2" to-layer="3330" to-port="0" />
		<edge from-layer="3322" from-port="0" to-layer="3323" to-port="2" />
		<edge from-layer="3323" from-port="3" to-layer="3329" to-port="0" />
		<edge from-layer="3324" from-port="0" to-layer="3328" to-port="0" />
		<edge from-layer="3325" from-port="0" to-layer="3327" to-port="1" />
		<edge from-layer="3326" from-port="0" to-layer="3327" to-port="2" />
		<edge from-layer="3327" from-port="3" to-layer="3328" to-port="1" />
		<edge from-layer="3327" from-port="3" to-layer="3331" to-port="1" />
		<edge from-layer="3328" from-port="2" to-layer="3329" to-port="1" />
		<edge from-layer="3329" from-port="2" to-layer="3332" to-port="0" />
		<edge from-layer="3330" from-port="1" to-layer="3331" to-port="0" />
		<edge from-layer="3331" from-port="2" to-layer="3332" to-port="1" />
		<edge from-layer="3332" from-port="2" to-layer="3365" to-port="0" />
		<edge from-layer="3333" from-port="0" to-layer="3334" to-port="1" />
		<edge from-layer="3334" from-port="2" to-layer="3344" to-port="0" />
		<edge from-layer="3334" from-port="2" to-layer="3335" to-port="0" />
		<edge from-layer="3335" from-port="1" to-layer="3339" to-port="0" />
		<edge from-layer="3336" from-port="0" to-layer="3339" to-port="1" />
		<edge from-layer="3337" from-port="0" to-layer="3339" to-port="2" />
		<edge from-layer="3338" from-port="0" to-layer="3339" to-port="3" />
		<edge from-layer="3339" from-port="4" to-layer="3341" to-port="0" />
		<edge from-layer="3340" from-port="0" to-layer="3341" to-port="1" />
		<edge from-layer="3341" from-port="2" to-layer="3343" to-port="0" />
		<edge from-layer="3342" from-port="0" to-layer="3343" to-port="1" />
		<edge from-layer="3343" from-port="2" to-layer="3344" to-port="1" />
		<edge from-layer="3344" from-port="2" to-layer="3358" to-port="0" />
		<edge from-layer="3345" from-port="1" to-layer="3353" to-port="0" />
		<edge from-layer="3345" from-port="1" to-layer="3348" to-port="0" />
		<edge from-layer="3346" from-port="0" to-layer="3348" to-port="1" />
		<edge from-layer="3347" from-port="0" to-layer="3348" to-port="2" />
		<edge from-layer="3348" from-port="3" to-layer="3349" to-port="1" />
		<edge from-layer="3348" from-port="3" to-layer="3354" to-port="0" />
		<edge from-layer="3349" from-port="2" to-layer="3350" to-port="1" />
		<edge from-layer="3350" from-port="2" to-layer="3356" to-port="0" />
		<edge from-layer="3351" from-port="0" to-layer="3353" to-port="1" />
		<edge from-layer="3352" from-port="0" to-layer="3353" to-port="2" />
		<edge from-layer="3353" from-port="3" to-layer="3354" to-port="1" />
		<edge from-layer="3354" from-port="2" to-layer="3355" to-port="1" />
		<edge from-layer="3355" from-port="2" to-layer="3356" to-port="1" />
		<edge from-layer="3356" from-port="2" to-layer="3358" to-port="1" />
		<edge from-layer="3356" from-port="2" to-layer="3361" to-port="0" />
		<edge from-layer="3357" from-port="0" to-layer="3358" to-port="2" />
		<edge from-layer="3358" from-port="3" to-layer="3360" to-port="0" />
		<edge from-layer="3359" from-port="0" to-layer="3360" to-port="1" />
		<edge from-layer="3360" from-port="2" to-layer="3362" to-port="0" />
		<edge from-layer="3361" from-port="1" to-layer="3362" to-port="1" />
		<edge from-layer="3362" from-port="2" to-layer="3364" to-port="0" />
		<edge from-layer="3363" from-port="0" to-layer="3364" to-port="1" />
		<edge from-layer="3364" from-port="2" to-layer="3365" to-port="1" />
		<edge from-layer="3365" from-port="2" to-layer="3367" to-port="0" />
		<edge from-layer="3366" from-port="0" to-layer="3367" to-port="1" />
		<edge from-layer="3367" from-port="2" to-layer="3369" to-port="0" />
		<edge from-layer="3368" from-port="0" to-layer="3369" to-port="1" />
		<edge from-layer="3369" from-port="2" to-layer="3375" to-port="0" />
		<edge from-layer="3370" from-port="0" to-layer="3371" to-port="1" />
		<edge from-layer="3371" from-port="3" to-layer="3374" to-port="0" />
		<edge from-layer="3372" from-port="0" to-layer="3374" to-port="1" />
		<edge from-layer="3373" from-port="0" to-layer="3374" to-port="2" />
		<edge from-layer="3374" from-port="3" to-layer="3375" to-port="1" />
		<edge from-layer="3375" from-port="2" to-layer="3377" to-port="1" />
		<edge from-layer="3376" from-port="0" to-layer="3377" to-port="2" />
		<edge from-layer="3377" from-port="3" to-layer="3378" to-port="0" />
		<edge from-layer="3377" from-port="3" to-layer="3403" to-port="0" />
		<edge from-layer="3378" from-port="1" to-layer="3398" to-port="0" />
		<edge from-layer="3378" from-port="1" to-layer="3381" to-port="0" />
		<edge from-layer="3379" from-port="0" to-layer="3381" to-port="1" />
		<edge from-layer="3380" from-port="0" to-layer="3381" to-port="2" />
		<edge from-layer="3380" from-port="0" to-layer="3398" to-port="2" />
		<edge from-layer="3381" from-port="3" to-layer="3383" to-port="0" />
		<edge from-layer="3382" from-port="0" to-layer="3383" to-port="1" />
		<edge from-layer="3383" from-port="2" to-layer="3384" to-port="1" />
		<edge from-layer="3384" from-port="2" to-layer="3385" to-port="1" />
		<edge from-layer="3385" from-port="2" to-layer="3386" to-port="0" />
		<edge from-layer="3385" from-port="2" to-layer="3395" to-port="0" />
		<edge from-layer="3386" from-port="1" to-layer="3427" to-port="0" />
		<edge from-layer="3386" from-port="1" to-layer="3390" to-port="0" />
		<edge from-layer="3387" from-port="0" to-layer="3390" to-port="1" />
		<edge from-layer="3388" from-port="0" to-layer="3390" to-port="2" />
		<edge from-layer="3389" from-port="0" to-layer="3390" to-port="3" />
		<edge from-layer="3390" from-port="4" to-layer="3392" to-port="0" />
		<edge from-layer="3391" from-port="0" to-layer="3392" to-port="1" />
		<edge from-layer="3392" from-port="2" to-layer="3394" to-port="0" />
		<edge from-layer="3393" from-port="0" to-layer="3394" to-port="1" />
		<edge from-layer="3394" from-port="2" to-layer="3395" to-port="1" />
		<edge from-layer="3395" from-port="2" to-layer="3431" to-port="0" />
		<edge from-layer="3396" from-port="0" to-layer="3402" to-port="0" />
		<edge from-layer="3397" from-port="0" to-layer="3398" to-port="1" />
		<edge from-layer="3398" from-port="3" to-layer="3401" to-port="0" />
		<edge from-layer="3399" from-port="0" to-layer="3401" to-port="1" />
		<edge from-layer="3400" from-port="0" to-layer="3401" to-port="2" />
		<edge from-layer="3401" from-port="3" to-layer="3402" to-port="1" />
		<edge from-layer="3402" from-port="2" to-layer="3403" to-port="1" />
		<edge from-layer="3403" from-port="2" to-layer="3406" to-port="0" />
		<edge from-layer="3403" from-port="2" to-layer="3446" to-port="0" />
		<edge from-layer="3403" from-port="2" to-layer="3437" to-port="0" />
		<edge from-layer="3404" from-port="0" to-layer="3406" to-port="1" />
		<edge from-layer="3405" from-port="0" to-layer="3406" to-port="2" />
		<edge from-layer="3406" from-port="3" to-layer="3419" to-port="0" />
		<edge from-layer="3406" from-port="3" to-layer="3408" to-port="0" />
		<edge from-layer="3407" from-port="0" to-layer="3412" to-port="0" />
		<edge from-layer="3408" from-port="1" to-layer="3411" to-port="0" />
		<edge from-layer="3409" from-port="0" to-layer="3411" to-port="1" />
		<edge from-layer="3410" from-port="0" to-layer="3411" to-port="2" />
		<edge from-layer="3411" from-port="3" to-layer="3412" to-port="1" />
		<edge from-layer="3411" from-port="3" to-layer="3414" to-port="2" />
		<edge from-layer="3412" from-port="2" to-layer="3414" to-port="0" />
		<edge from-layer="3413" from-port="0" to-layer="3414" to-port="1" />
		<edge from-layer="3414" from-port="3" to-layer="3416" to-port="0" />
		<edge from-layer="3415" from-port="0" to-layer="3416" to-port="1" />
		<edge from-layer="3416" from-port="2" to-layer="3418" to-port="0" />
		<edge from-layer="3417" from-port="0" to-layer="3418" to-port="1" />
		<edge from-layer="3418" from-port="2" to-layer="3419" to-port="1" />
		<edge from-layer="3419" from-port="3" to-layer="3451" to-port="0" />
		<edge from-layer="3419" from-port="3" to-layer="3429" to-port="0" />
		<edge from-layer="3420" from-port="0" to-layer="3422" to-port="0" />
		<edge from-layer="3421" from-port="0" to-layer="3422" to-port="2" />
		<edge from-layer="3422" from-port="3" to-layer="3424" to-port="0" />
		<edge from-layer="3423" from-port="0" to-layer="3424" to-port="1" />
		<edge from-layer="3424" from-port="2" to-layer="3450" to-port="0" />
		<edge from-layer="3424" from-port="2" to-layer="3428" to-port="0" />
		<edge from-layer="3425" from-port="0" to-layer="3427" to-port="1" />
		<edge from-layer="3426" from-port="0" to-layer="3427" to-port="2" />
		<edge from-layer="3427" from-port="3" to-layer="3428" to-port="1" />
		<edge from-layer="3428" from-port="2" to-layer="3429" to-port="1" />
		<edge from-layer="3429" from-port="2" to-layer="3434" to-port="0" />
		<edge from-layer="3429" from-port="2" to-layer="3431" to-port="1" />
		<edge from-layer="3430" from-port="0" to-layer="3431" to-port="2" />
		<edge from-layer="3431" from-port="3" to-layer="3433" to-port="0" />
		<edge from-layer="3432" from-port="0" to-layer="3433" to-port="1" />
		<edge from-layer="3433" from-port="2" to-layer="3435" to-port="0" />
		<edge from-layer="3434" from-port="1" to-layer="3435" to-port="1" />
		<edge from-layer="3435" from-port="2" to-layer="3436" to-port="0" />
		<edge from-layer="3437" from-port="1" to-layer="3441" to-port="0" />
		<edge from-layer="3437" from-port="1" to-layer="3457" to-port="0" />
		<edge from-layer="3437" from-port="1" to-layer="3449" to-port="0" />
		<edge from-layer="3438" from-port="0" to-layer="3441" to-port="1" />
		<edge from-layer="3439" from-port="0" to-layer="3441" to-port="2" />
		<edge from-layer="3440" from-port="0" to-layer="3441" to-port="3" />
		<edge from-layer="3441" from-port="4" to-layer="3443" to-port="0" />
		<edge from-layer="3442" from-port="0" to-layer="3443" to-port="1" />
		<edge from-layer="3443" from-port="2" to-layer="3445" to-port="0" />
		<edge from-layer="3444" from-port="0" to-layer="3445" to-port="1" />
		<edge from-layer="3445" from-port="2" to-layer="3446" to-port="1" />
		<edge from-layer="3446" from-port="2" to-layer="3453" to-port="0" />
		<edge from-layer="3447" from-port="0" to-layer="3449" to-port="1" />
		<edge from-layer="3448" from-port="0" to-layer="3449" to-port="2" />
		<edge from-layer="3449" from-port="3" to-layer="3450" to-port="1" />
		<edge from-layer="3450" from-port="2" to-layer="3451" to-port="1" />
		<edge from-layer="3451" from-port="2" to-layer="3453" to-port="1" />
		<edge from-layer="3451" from-port="2" to-layer="3460" to-port="0" />
		<edge from-layer="3452" from-port="0" to-layer="3453" to-port="2" />
		<edge from-layer="3453" from-port="3" to-layer="3459" to-port="0" />
		<edge from-layer="3454" from-port="0" to-layer="3458" to-port="0" />
		<edge from-layer="3455" from-port="0" to-layer="3457" to-port="1" />
		<edge from-layer="3456" from-port="0" to-layer="3457" to-port="2" />
		<edge from-layer="3457" from-port="3" to-layer="3458" to-port="1" />
		<edge from-layer="3457" from-port="3" to-layer="3461" to-port="1" />
		<edge from-layer="3458" from-port="2" to-layer="3459" to-port="1" />
		<edge from-layer="3459" from-port="2" to-layer="3462" to-port="0" />
		<edge from-layer="3460" from-port="1" to-layer="3461" to-port="0" />
		<edge from-layer="3461" from-port="2" to-layer="3462" to-port="1" />
		<edge from-layer="3462" from-port="2" to-layer="3463" to-port="0" />
	</edges>
	<rt_info>
		<MO_version value="2023.0.0-10926-b4452d56304-releases/2023/0" />
		<Runtime_version value="2023.0.0-10926-b4452d56304-releases/2023/0" />
		<conversion_parameters>
			<input value="image" />
			<input_model value="DIR/model_ready.onnx" />
			<input_shape value="[-1, 3, 256, 256]" />
			<is_python_api_used value="False" />
			<mean_values value="[0, 0, 0]" />
			<model_name value="model" />
			<output value="boxes,labels" />
			<output_dir value="DIR" />
			<scale_values value="[255, 255, 255]" />
		</conversion_parameters>
		<legacy_frontend value="False" />
		<model_info>
			<confidence_threshold value="0.32500000000000007" />
			<iou_threshold value="0.5" />
			<labels value="drone" />
			<model_type value="ssd" />
		</model_info>
		<nncf>
			<quantization>
				<advanced_parameters value="{}" />
				<fast_bias_correction value="True" />
				<ignored_scope value="None" />
				<model_type value="None" />
				<preset value="performance" />
				<subset_size value="300" />
				<target_device value="ANY" />
			</quantization>
		</nncf>
	</rt_info>
</net>
